trainingOnSyntheticData/results/20230802_174628_debug/model_training_set_size_100_hidden_neurons_50_n_batches_5.pt (torch, 56551 bytes, 6 tensors)

weight f4 [50, 200]
0	0x3d1aa2ca	0.037752904
1	0x3d0acd18	0.033887
2	0x3d56076a	0.052253164
3	0x3d8e07c1	0.06935073
4	0xbd09c2e2	-0.03363312
5	0xbcc1f59e	-0.02367669
6	0x3d767337	0.06016847
7	0x3da30372	0.079596415
8	0xbc87eb62	-0.016591731
9	0x3db93131	0.09042586
10	0x3c4e5aea	0.012594918
11	0xbb0aa239	-0.002115382
12	0xbc1a5879	-0.009420508
13	0x3cfcf89f	0.03088027
14	0xbcd72d7e	-0.02626681
15	0x3dc1b9ab	0.094592415
16	0x3d89bcfd	0.067255
17	0xbc296abc	-0.010340389
18	0xbcb4f8de	-0.022091325
19	0xbcf89dc5	-0.030348668
20	0xbc9f1370	-0.019418448
21	0xbcb1f45b	-0.021722963
22	0x3c54686a	0.012964347
23	0xbc88bd37	-0.016691787
24	0xbd6baac9	-0.05753592
25	0x3bdb03b4	0.006683791
26	0xbc788aa5	-0.015169774
27	0x3b5b47d2	0.0033459556
28	0x3d5e041e	0.054203145
29	0x3cfe28a7	0.031025244
30	0xbd1ac135	-0.037781913
31	0xbd53f2af	-0.051745113
32	0x3d8087bd	0.0627589
33	0xbd760013	-0.060058665
34	0x3c99a9de	0.018757757
35	0x3db1fa25	0.086902894
36	0x3cbccacf	0.023045925
37	0x3d7d1f0f	0.061797198
38	0x3d8342c7	0.06409221
39	0xbd2e9b3e	-0.04262852
40	0x3d90390d	0.070421316
41	0x3db9598d	0.090502836
42	0x3d195fa6	0.037444733
43	0xbd0087ff	-0.031379696
44	0x3d69dd3a	0.057095744
45	0x3dc7ff10	0.09765446
46	0x3cf81713	0.03028444
47	0x3c2caf2b	0.01053981
48	0x3d583203	0.05278207
49	0xbaf546cc	-0.0018713116
50	0x3d86071d	0.065443255
51	0xbcacfe4f	-0.021117358
52	0x3ddfdaa8	0.10930377
53	0xba506591	-0.0007949705
54	0x3df83716	0.12119882
55	0x3d3abf71	0.04559273
56	0x3d147762	0.036246665
57	0x3d3a4d85	0.045484085
58	0xbc30c2fa	-0.010788674
59	0x3cb95ed5	0.022628227
60	0x3c95f8a7	0.018307043
61	0x3d393a36	0.04522153
62	0xbc53a037	-0.012916616
63	0x3beca309	0.0072215837
64	0xbd0e3a01	-0.034723286
65	0xbd10b7c2	-0.035331495
66	0x3d40ed0c	0.047101066
67	0xbd311f95	-0.04324301
68	0x3d3055e5	0.043050665
69	0x3d3095e0	0.043111682
70	0xbd3db634	-0.04631634
71	0xbca4cf79	-0.020118462
72	0xbcd881f6	-0.026429158
73	0x3cad773e	0.021175023
74	0xbc034363	-0.008011672
75	0x3c4af690	0.012387887
76	0x3d8edab5	0.06975309
77	0x3d85787d	0.06517122
78	0x3e2ecdff	0.17070769
79	0x3d9f82d5	0.07788626
80	0x3daf4557	0.085581474
81	0x3dfc50e7	0.123201184
82	0x3d97c0d7	0.07409828
83	0x3e0f57d4	0.13998348
84	0x3e2303ce	0.1591942
85	0x3d5d83a5	0.054080624
86	0x3b91daaa	0.0044511156
87	0x3d896ae9	0.067098446
88	0x3cec9071	0.028877469
89	0x3c036c64	0.008021448
90	0x3dc66780	0.0968771
91	0xbbc47155	-0.0059949555
92	0xbd2f6da6	-0.04282918
93	0x3d381bda	0.044948436
94	0x3d9fcd95	0.078028835
95	0x3ddbae79	0.107266374
96	0x3e0bb506	0.13643274
97	0x3e7119cc	0.23544997
98	0x3e0e9bbf	0.139266
99	0x3e5e7cff	0.2172737
100	0x3e351244	0.17682749
101	0x3df8871c	0.12135145
102	0x3e4621a5	0.19348772
103	0x3de8b5a4	0.1136277
104	0x3dc2eb7b	0.095175706
105	0x3dfaefba	0.122527555
106	0xbb99a85c	-0.0046892595
107	0x3dd5a8b1	0.10432566
108	0x3d00d7f6	0.031455956
109	0x3df16e02	0.117885605
110	0x3e0cac76	0.13737664
111	0x3da155b0	0.07877672
112	0x3d9e6df0	0.07735813
113	0x3e25baf8	0.16184604
114	0x3d97027b	0.0737352
115	0x3daa9237	0.083286695
116	0x3e18a940	0.14908314
117	0x3d9eba16	0.07750337
118	0x3dd1d01c	0.10244772
119	0x3e175b57	0.14780937
120	0x3e08e88e	0.13369963
121	0x3dd39a13	0.10332122
122	0x3e4bbb5c	0.1989569
123	0x3e428cac	0.18998975
124	0x3deb7ebc	0.11498782
125	0x3e0e2185	0.13879974
126	0x3dd46122	0.10370089
127	0x3d184ff9	0.037185643
128	0xbc92dafa	-0.017926682
129	0xbca293cf	-0.019845871
130	0xbcbf03e6	-0.023317289
131	0x3d5c96ec	0.053854868
132	0xbd072174	-0.032990888
133	0x3d0ad109	0.033890758
134	0xbd1fab86	-0.038981937
135	0x3c4e1483	0.012578133
136	0x3d06696c	0.032815382
137	0xbd858700	-0.0651989
138	0xbcbaca85	-0.022801647
139	0xbc9c887b	-0.019108048
140	0xbd76f437	-0.060291495
141	0xbd533b65	-0.051570315
142	0x3d4fd073	0.050735902
143	0xbc6a8799	-0.014314556
144	0xbbcce7ca	-0.0062532173
145	0xbc45f95b	-0.012083377
146	0x3de24145	0.110476054
147	0x3b3f7fe7	0.0029220523
148	0x3dacf946	0.08445983
149	0x3cf9053d	0.030398006
150	0x3dbaf36e	0.09128462
151	0x3b2a5e3b	0.0025996107
152	0x3c3dfd3b	0.011596019
153	0x3d884d3c	0.06655356
154	0xbd5065b9	-0.05087826
155	0x3c38529e	0.011250166
156	0x3d8827f2	0.06648244
157	0x3c2b93d1	0.010472254
158	0x3c4c6bd0	0.012476876
159	0xbc96028e	-0.018311765
160	0xbcbcc011	-0.023040803
161	0x3d51779e	0.051139466
162	0x3db05c2d	0.08611331
163	0x3b41fccf	0.0029600149
164	0x3d9c9159	0.0764491
165	0x3d9e7c9c	0.07738611
166	0x3cf79894	0.030224122
167	0x3d243a8d	0.0400949
168	0xbd2b08c3	-0.041756403
169	0x3d46cf44	0.048537508
170	0x3d381962	0.044946082
171	0xbc0dbe37	-0.008651308
172	0xbd02849a	-0.03186474
173	0x3b071f24	0.0020617926
174	0x3cdd1a66	0.026990127
175	0x3d63bd32	0.055600353
176	0x3d2fd019	0.042923067
177	0xbd62dc9f	-0.055386182
178	0xbceebb9f	-0.0291422
179	0x3d5986ae	0.053106956
180	0xbd515f86	-0.05111649
181	0x3d0ac058	0.03387484
182	0x3d1a7a9b	0.037714582
183	0x3d94c24a	0.0726362
184	0x3dbcbccf	0.092157
185	0x3cde26d3	0.027118122
186	0x3cf0bda1	0.029387297
187	0xbba98e50	-0.0051744357
188	0x3cb3d296	0.021951001
189	0x3dac5b53	0.08415856
190	0x3d2a8114	0.041627005
191	0x3b8dfacc	0.004332876
192	0x3dae0a3c	0.08498046
193	0x3da354b4	0.0797514
194	0xbb2a17f2	-0.0025954214
195	0x3d16a809	0.036781345
196	0xbbfa27e9	-0.007634152
197	0x3d1d5840	0.03841424
198	0x3d6d368c	0.057913348
199	0x3dbb43a0	0.09143758
200	0x3cb0bcc4	0.021574385
201	0xbd865549	-0.065592356
202	0xbd91e6ec	-0.07124123
203	0xbd6f8263	-0.058473956
204	0xbda5db54	-0.08098474
205	0xbd5b039e	-0.053470246
206	0xbd757a52	-0.059931107
207	0xbb7ac92f	-0.0038266887
208	0xbd9dbd13	-0.07702079
209	0x3c26c5d6	0.010179004
210	0xbbb613a8	-0.0055565424
211	0xbdb15784	-0.086592704
212	0xbda620d0	-0.08111727
213	0xbcbb8a38	-0.022893056
214	0xbdb6e1e4	-0.08929804
215	0x3c6df080	0.014522672
216	0x3c1f1323	0.009709152
217	0x3b91a85e	0.0044451198
218	0xbd85c8ca	-0.06532438
219	0xbcd9eda1	-0.026602568
220	0xbd99b737	-0.075056486
221	0xbb859f41	-0.0040778224
222	0xbdab5d29	-0.08367378
223	0xbd8a90a3	-0.067658685
224	0xbccaf30d	-0.024774099
225	0xbda1207e	-0.078675255
226	0xbdaa6fb9	-0.08322091
227	0xbbbbf45a	-0.005735916
228	0x3c346b9a	0.011011982
229	0xbd17fe7a	-0.037107922
230	0xbdc48ce2	-0.09597184
231	0xbd98871a	-0.074476436
232	0xbda2c3c3	-0.07947495
233	0xbdc20a65	-0.09474639
234	0xbc51385a	-0.012769783
235	0xbca39efa	-0.019973267
236	0xbdc42873	-0.095780276
237	0xbd3a078e	-0.04541736
238	0x3b6bd277	0.00359836
239	0xbd95cc38	-0.07314342
240	0xbd881912	-0.06645407
241	0xbd25700d	-0.040390063
242	0xbdaa2513	-0.083078526
243	0xbd32ee80	-0.043684483
244	0xbdaa095f	-0.08302569
245	0xbd3b870d	-0.04578309
246	0xbbb00322	-0.005371467
247	0xbbe94ff7	-0.0071201283
248	0xbd8629c0	-0.06550932
249	0xbc68a9bc	-0.014200624
250	0xbd84a346	-0.064764544
251	0xbdf0e99b	-0.11763307
252	0xbdbc8e1f	-0.09206795
253	0xbd9e3e1c	-0.0772669
254	0xbcdc3465	-0.026880452
255	0x3c267500	0.010159731

bias f4 [50]
0	0x3d99153f	0.074747555
1	0xbe6c88b8	-0.23099029
2	0xbe0c33e8	-0.13691676
3	0xbdb8a542	-0.090158954
4	0xbcdab05b	-0.026695421
5	0x3c97d689	0.018534916
6	0x3ee812a0	0.4532671
7	0xbd68fa79	-0.056879494
8	0x3ed63df9	0.41844156
9	0x3ed734b0	0.42032385
10	0x3eb41698	0.35173488
11	0x3cff0a0b	0.031132719
12	0x3d508f67	0.05091801
13	0xbd65f67a	-0.05614326
14	0x3c11fcd3	0.008910376
15	0xbe0c034a	-0.1367313
16	0xbe5299d9	-0.205665
17	0x3d1817a3	0.037131917
18	0x3eeabbfa	0.4584654
19	0x3e93ee68	0.28892827
20	0x3e971bf1	0.29513505
21	0x3e159452	0.14607361
22	0x3ec0c7cd	0.37652436
23	0x3eaf983d	0.34295836
24	0x3e2e12de	0.16999385
25	0xbd8ce023	-0.06878688
26	0x3edcabac	0.43099725
27	0xbe3087f6	-0.17239365
28	0x3e791571	0.24324585
29	0xbd5663f1	-0.052341405
30	0xbdaec244	-0.08533147
31	0xbd49b0d5	-0.049240906
32	0x3e606caa	0.21916452
33	0x3ecbd335	0.39809576
34	0xbdd206fb	-0.10255238
35	0x3e3b3ee7	0.18285714
36	0xbc9a0ef2	-0.018805955
37	0x3e8c60c2	0.2741757
38	0x3e39ac32	0.18132094
39	0x3ec79ee1	0.38988402
40	0x3ec7ac04	0.38998425
41	0x3eceae17	0.40367195
42	0x3eb20a76	0.34773606
43	0x3eaf5666	0.34245604
44	0xbdb194ce	-0.0867096
45	0x3ebae10c	0.36499822
46	0x3d9bd3e0	0.07608771
47	0x3dbebaf2	0.09313001
48	0x3e64e054	0.223512
49	0xbdbe5da9	-0.09295208

weight f4 [50, 50]
0	0x3e15847c	0.1460132
1	0xbda685f1	-0.08131016
2	0xbe217177	-0.1576594
3	0x3d8456a1	0.06461836
4	0x3d8ef47d	0.06980226
5	0xbe35352b	-0.17696063
6	0x3e07012c	0.13184041
7	0xbe059c81	-0.13047983
8	0x3e2d95f8	0.1695174
9	0x3e1cd30d	0.15314884
10	0x3e83e334	0.2575928
11	0xbcc9575f	-0.024577795
12	0xbdd2f20d	-0.10300074
13	0x3c899e99	0.016799258
14	0xbc16ee2e	-0.00921206
15	0xbe5cffab	-0.21581905
16	0xbe8fbe54	-0.28074896
17	0xbe29a6f2	-0.16567591
18	0x3e0d8701	0.13821031
19	0x3e4369f0	0.1908338
20	0xbdad1fcc	-0.084533304
21	0xbd03e67b	-0.032202225
22	0x3dc98ece	0.09841691
23	0x3bde0812	0.0067758644
24	0x3e672eda	0.22576466
25	0xbd181071	-0.037125055
26	0x3e216607	0.15761577
27	0xbda70081	-0.08154393
28	0xbea2da48	-0.3180716
29	0x3dcf6b19	0.10127849
30	0xbddd0634	-0.10792199
31	0x3dc48d44	0.09597257
32	0x3d2c5d08	0.04208091
33	0x3d057e26	0.032591008
34	0xbad7c195	-0.001646089
35	0xbde30c1d	-0.11086295
36	0xbcfff384	-0.031244047
37	0xbd434896	-0.047676645
38	0x3e862e00	0.2620697
39	0x3dc26769	0.0949238
40	0x3e52394d	0.20529671
41	0xbe255dcb	-0.1614906
42	0x3e9f2a02	0.31086737
43	0x3e843bd1	0.25826886
44	0xbdca0b55	-0.09865443
45	0x3e8ae2ac	0.27126062
46	0xbe055ba6	-0.13023242
47	0xbd9c3960	-0.07628131
48	0xbd960adc	-0.0732629
49	0xbe86f397	-0.2635772
50	0xbe04a412	-0.12953213
51	0x3ccb7945	0.0248381
52	0xbd7c68b5	-0.061623294
53	0xbeaac019	-0.33349684
54	0xbcdd88bb	-0.027042737
55	0xbe5109a7	-0.20413838
56	0x3d5b72b6	0.053576194
57	0xbe81884f	-0.25299308
58	0x3e89f113	0.26941738
59	0x3e58dcf2	0.21178034
60	0x3e828fbd	0.2550029
61	0xbe161df3	-0.14659862
62	0x3c38486d	0.011247736
63	0xbd5c9204	-0.05385019
64	0xbe256cfb	-0.16154854
65	0xbe41dff8	-0.18933094
66	0xbe85cf8e	-0.26134914
67	0xbe1ee145	-0.15515621
68	0xbe47a460	-0.19496298
69	0x3eb5fe58	0.3554561
70	0x3e362d42	0.17790702
71	0x3d74b321	0.059741143
72	0x3e1714a1	0.14753963
73	0x3d87e491	0.066353925
74	0x3e15ca7e	0.14628026
75	0x3ddc2340	0.10748911
76	0x3e5616f3	0.20907192
77	0xbe225bb1	-0.1585529
78	0x3e152f68	0.14568865
79	0xbd862b49	-0.06551225
80	0xbe4aea22	-0.19815877
81	0xbe665a1f	-0.22495316
82	0x3dda3025	0.10653714
83	0x3e8d0f17	0.27550575
84	0x3d8c3854	0.06846681
85	0xbd735472	-0.059406705
86	0xbe0c29d4	-0.13687831
87	0x3e15a08d	0.14612027
88	0x3dee995a	0.11650343
89	0x3ea2c787	0.31792852
90	0xbdefa619	-0.117016025
91	0xbe0c26d6	-0.1368669
92	0x3defeb09	0.11714751
93	0x3e779689	0.24178518
94	0x3dbd7855	0.09251467
95	0x3eb448f7	0.35211918
96	0xbe0ad6f6	-0.13558564
97	0xbdddf410	-0.10837567
98	0x3dd480a0	0.10376096
99	0xbeb1a863	-0.3469878
100	0x3becf992	0.0072318995
101	0x3dd1ed49	0.10250337
102	0x3da32d50	0.07967627
103	0xbea36239	-0.31910875
104	0xbd12cce3	-0.035839926
105	0xbcd5a16e	-0.026077952
106	0xbe4af955	-0.19821675
107	0x3c421ea2	0.011848124
108	0xbe5af6c6	-0.21383199
109	0x3c98a704	0.018634327
110	0x3de6e1f0	0.11273563
111	0xbe100775	-0.14065345
112	0xbd238f4a	-0.039931573
113	0x3e11969d	0.1421761
114	0x3cf83991	0.030300887
115	0xbc16dec5	-0.009208386
116	0xbd14d25c	-0.036333427
117	0xbe13967d	-0.14412875
118	0x3e0b9736	0.13631901
119	0xbd33c7cb	-0.04389171
120	0x3e465672	0.19368914
121	0xbde7d28a	-0.11319454
122	0xbe932416	-0.2873847
123	0x3e802a9c	0.25032508
124	0xbdb14803	-0.08656313
125	0x3d82b95a	0.06383009
126	0x3c601b20	0.013678342
127	0xbdaf470a	-0.085584715
128	0x3e91ae8a	0.28453475
129	0x3e212a0e	0.15738699
130	0xbe172cbf	-0.14763163
131	0xbe017483	-0.12642102
132	0x3ddde081	0.10833836
133	0x3dee9ccb	0.11651
134	0x3d099f31	0.033599082
135	0x3c29f5cb	0.010373543
136	0xbd0d1457	-0.034443226
137	0x3d6577f2	0.056022592
138	0x3dea61b7	0.11444419
139	0x3e0fcbc3	0.14042573
140	0xbc0087de	-0.007844893
141	0x3d9a8d96	0.075465366
142	0x3debc095	0.115113415
143	0x3cdbcfd5	0.0268325
144	0x3d205b58	0.039149612
145	0x3d0d03e1	0.034427527
146	0x3e20ca6b	0.15702216
147	0xbce32206	-0.027726185
148	0xbe2f46d1	-0.17116858
149	0x3c600d81	0.013675095
150	0xbd52a90a	-0.05143074
151	0xbd028543	-0.03186537
152	0x3dfe0ba5	0.12404565
153	0x3e04ba96	0.12961802
154	0x3d59d788	0.053184062
155	0x3d0419d5	0.032251198
156	0x3e09a1e1	0.13440658
157	0xbdb793fb	-0.08963772
158	0x3e2551f3	0.16144542
159	0x3e00d438	0.12580955
160	0x3e21d883	0.15805249
161	0x3dbe3e6e	0.09289251
162	0x3cd4fd1b	0.025999596
163	0xbd9e7938	-0.077379644
164	0x3da8616d	0.082217075
165	0x3d683bfb	0.056697827
166	0x3df19168	0.11795312
167	0xbdc4bfe5	-0.096069135
168	0x3e73877c	0.23782152
169	0xbd0c37df	-0.03423297
170	0xbdf091e9	-0.1174658
171	0x3dcc1fed	0.09967027
172	0xbdda3fe9	-0.10656721
173	0x3d56cdae	0.052442245
174	0x3d748ca6	0.059704445
175	0x3db3b67f	0.08775043
176	0xbb72b77c	-0.0037035635
177	0xbdd8440d	-0.10559855
178	0xbe020b96	-0.12699732
179	0xbda8c236	-0.08240168
180	0xbe1d8421	-0.15382434
181	0xbdb15cb6	-0.08660261
182	0x3d2b94a7	0.041889813
183	0xbbcb6324	-0.006206887
184	0xbd716a6f	-0.058939394
185	0x3e0cfc68	0.1376816
186	0xbd314946	-0.04328277
187	0x3d3e3768	0.04643956
188	0xbdb8e900	-0.09028816
189	0x3d6c0b80	0.057628155
190	0xbd0427e1	-0.032264594
191	0x3e7ca4e1	0.24672271
192	0x3d3a10f3	0.04542632
193	0x3d31faab	0.043451946
194	0x3dbcee38	0.09225124
195	0x3d0ce9cb	0.03440265
196	0x3b0303f7	0.0019991377
197	0xbdc8add4	-0.0979878
198	0xbd39c45f	-0.04535329
199	0xbe1a9a59	-0.15097941
200	0x3c3979b7	0.011320523
201	0xbd980065	-0.0742195
202	0x3d9df038	0.07711834
203	0xbda3fde5	-0.08007411
204	0x3e29d2bf	0.165843
205	0xbda67f3e	-0.08129738
206	0xbd588709	-0.052863155
207	0x3c02d6cc	0.007985782
208	0xbcd6a619	-0.026202248
209	0xbd1bd5db	-0.038045745
210	0xbe45bca8	-0.19310248
211	0x3dbf0dce	0.09328805
212	0x3dab80a5	0.08374146
213	0x3dbb04a1	0.09131742
214	0x3da54d6f	0.0807141
215	0x3da45082	0.08023168
216	0x3e044719	0.12917747
217	0x3c415f2d	0.011802477
218	0xbd5f8f30	-0.054579914
219	0xbd107e1f	-0.03527653
220	0xbcc8384b	-0.024440905
221	0xbdf04dba	-0.11733575
222	0x3e8cb951	0.27485135
223	0xbe1fe9c7	-0.15616523
224	0x3e8cb50d	0.2748188
225	0xbbf2b609	-0.007406954
226	0x3c46e4c2	0.012139501
227	0xbe13d212	-0.14435604
228	0xbe26d607	-0.16292582
229	0xbd9ed26a	-0.07754977
230	0x3eabd38d	0.33559838
231	0xbe5da5fb	-0.21645348
232	0xbc91662a	-0.017748911
233	0x3d900cfd	0.07033727
234	0xbe055e18	-0.13024175
235	0x3d16b3ec	0.03679268
236	0x3df5aea0	0.11996198
237	0x3e0303a1	0.12794353
238	0x3e0b4e7e	0.13604161
239	0xbe43bf6a	-0.19115987
240	0x3d369063	0.04457129
241	0xbd386442	-0.04501749
242	0xbd911cd0	-0.07085574
243	0x3d3064c5	0.04306485
244	0x3dd73ce5	0.105096616
245	0x3e5d5d43	0.21617608
246	0xbddedfc9	-0.108825274
247	0xbcb47ee9	-0.022033172
248	0xbe064069	-0.13110508
249	0x3d2a5f41	0.041594747
250	0x3b8d92ae	0.004320464
251	0xbe03ddc0	-0.1287756
252	0xbdadb383	-0.08481505
253	0xbcf74215	-0.030182878
254	0x3c250d2c	0.010073941
255	0x3dfc5bb5	0.12322179

bias f4 [50]
0	0x3ea594a3	0.32339963
1	0x3ee41276	0.44545335
2	0xbde35b94	-0.111014515
3	0x3e8d3b6d	0.275844
4	0xbd9174b5	-0.07102338
5	0xbcbd1c61	-0.023084821
6	0x3e902ada	0.28157693
7	0x3e9ad87d	0.30243292
8	0x3dfec48a	0.124398306
9	0x3c421af4	0.011847246
10	0x3ec0101a	0.37512285
11	0x3d0d08fa	0.03443239
12	0xbe25fb25	-0.16209085
13	0x3d960820	0.073257685
14	0x3e0af6c0	0.1357069
15	0xbd8f79a6	-0.070056245
16	0xbdf3581b	-0.11882039
17	0x3e4474d0	0.19185185
18	0x3dabf90e	0.08397113
19	0xbe3d90b1	-0.18512227
20	0x3ed40202	0.41407782
21	0x3e578097	0.21045147
22	0x3d4e2f32	0.050337978
23	0xbe5641f4	-0.20923597
24	0xbd82cdca	-0.063869074
25	0x3e29941a	0.16560403
26	0x3d72b722	0.05925668
27	0x3ed9789c	0.4247483
28	0xbc9f2336	-0.01942597
29	0x3d4a9349	0.04945687
30	0x3cb5d3de	0.022195753
31	0x3dafb1e9	0.085788555
32	0x3e33b54d	0.1754963
33	0x3e95fd08	0.2929461
34	0x3e89bc1b	0.26901326
35	0x3e5b4f9a	0.21417084
36	0x3ee83c92	0.4535871
37	0x3e0058d9	0.12533893
38	0xbe2717ce	-0.16317675
39	0xbdcb85d8	-0.09937638
40	0x3e94c985	0.29059997
41	0x3ecbb458	0.3978603
42	0x3e000d79	0.1250514
43	0x3d876328	0.066107094
44	0x3b6d7f94	0.0036239373
45	0xbe6daf5b	-0.23211424
46	0xbd95ba4d	-0.07310925
47	0x3e5e7c95	0.21727212
48	0x3ecddfd3	0.40209827
49	0xbd043868	-0.032280356

weight f4 [13, 50]
0	0xbe3e4c22	-0.1858373
1	0xbcb9ac4b	-0.022665164
2	0x3e9dc839	0.3081682
3	0x3d2ab507	0.041676547
4	0x3c5a0af9	0.01330828
5	0x3e3a1c1f	0.1817479
6	0xbdd9d996	-0.10637204
7	0x3e79713c	0.24359602
8	0xbe0a9688	-0.13533986
9	0xbec892f5	-0.3917462
10	0x3dccfc40	0.1000905
11	0xbe10d117	-0.14142261
12	0xbd3f6fb2	-0.04673738
13	0xbd07b528	-0.03313175
14	0x3e0fe7f4	0.14053327
15	0x3d980453	0.074227
16	0x3d87da10	0.06633389
17	0x3e267229	0.16254486
18	0x3e25b4f8	0.16182315
19	0xbe47eb60	-0.19523382
20	0xbce1daba	-0.027570117
21	0x3cfd0c30	0.0308896
22	0xbe80cb04	-0.2515489
23	0xbdc6fe9d	-0.097165324
24	0xbdb3628a	-0.08759029
25	0xbe4deff5	-0.20111068
26	0xbd24a4e2	-0.040196307
27	0x3c7fa69f	0.01560369
28	0xbd50022e	-0.05078333
29	0xbe472377	-0.19447123
30	0xbcec4672	-0.028842185
31	0x3d3ea633	0.04654522
32	0x3e17b169	0.1481377
33	0x3da359e1	0.079761274
34	0xbded4261	-0.115849264
35	0xbbabfc61	-0.005248592
36	0x3e3cf0e8	0.18451273
37	0xbe186e4c	-0.14885825
38	0xbd4844da	-0.048893787
39	0x3e979754	0.29607642
40	0x3e3d7eb2	0.18505362
41	0x3d95c8ba	0.07313676
42	0x3e0dfd27	0.13866101
43	0x3e53b77d	0.20675464
44	0xbe85e875	-0.26153913
45	0x3e0870be	0.13324258
46	0xbe2ff08d	-0.17181607
47	0xbe7d383f	-0.24728487
48	0x3d9b9ea5	0.075986184
49	0xbca5d8f6	-0.020245057
50	0x3e42ccd7	0.19023453
51	0xbe955abe	-0.29170793
52	0xbe45a583	-0.19301419
53	0x3e2d386d	0.16916056
54	0xbdeac6f6	-0.1146373
55	0x3dff574a	0.12467821
56	0x3d94d524	0.07267216
57	0x3e922598	0.28544307
58	0xbd4fe48d	-0.050755072
59	0xbe117156	-0.1420339
60	0x3da3fbe5	0.080070294
61	0xbcb0af4e	-0.021567967
62	0xbdc82d13	-0.09774222
63	0x3d9b9b3e	0.075979695
64	0xbd01aa4b	-0.031656545
65	0xbb8b05ca	-0.0042426335
66	0xbd1ab447	-0.037769582
67	0x3e38d5a0	0.18050241
68	0xbdde1e67	-0.108456425
69	0xbac94d90	-0.0015358198
70	0xbd91de80	-0.07122517
71	0xbe2be664	-0.16787106
72	0xbe384d9e	-0.17998359
73	0xbdaba0ce	-0.083802804
74	0xbdfae117	-0.12249964
75	0xbe1d1587	-0.15340243
76	0xbd578a49	-0.052622113
77	0x3e24cf1b	0.1609463
78	0xbe3284c0	-0.17433453
79	0xbe0a9de3	-0.13536792
80	0x3c7124cb	0.014718245
81	0xbd8873fd	-0.06662748
82	0xbdd2b8d9	-0.10289163
83	0x3e3acaa3	0.18241362
84	0x3e5b56ff	0.21419905
85	0xbdf8b6f2	-0.12144269
86	0x3eb51374	0.35366404
87	0x3d30261d	0.043005098
88	0x3d4f7018	0.05064401
89	0x3e58f917	0.2118877
90	0xbe534a36	-0.20633778
91	0x3e35fcc9	0.17772211
92	0xbdee9b2a	-0.11650689
93	0x3e79ba49	0.24387468
94	0x3d3e1e33	0.04641552
95	0xbe3604ef	-0.1777532
96	0x3db52f27	0.08846884
97	0x3caa6f87	0.020805134
98	0x3e11250b	0.14174287
99	0x3d48716e	0.0489363
100	0xbe2f9d4c	-0.17149848
101	0x3e4bdbe3	0.19908099
102	0x3e5942df	0.21216916
103	0x3c1c4cb5	0.009539773
104	0xbda7ab85	-0.08187012
105	0x3ab1236a	0.0013514583
106	0xbd8f4597	-0.06995695
107	0xbb929fc1	-0.0044746106
108	0xbd9633aa	-0.07334073
109	0x3e51e5f1	0.20497872
110	0x3e4da0c1	0.20080854
111	0xbe061c59	-0.13096751
112	0xbde29724	-0.11063984
113	0x3e021466	0.12703094
114	0xbd66c501	-0.05634022
115	0xbc44af80	-0.012004733
116	0xbd98ab48	-0.07454544
117	0x3bf6b256	0.0075285835
118	0x3e3ac09b	0.18237536
119	0xbe455d1e	-0.19273803
120	0x3e834ab1	0.25642923
121	0x3dd0e504	0.10199931
122	0xbcdc5f19	-0.026900815
123	0x3d85fc56	0.0654227
124	0x3ad22c8e	0.0016035007
125	0x3e38081b	0.17971842
126	0xbd2db530	-0.042409122
127	0xbdb6cc4b	-0.089256845
128	0x3e01cd77	0.12676035
129	0xbdc57318	-0.09641093
130	0xbe56fd38	-0.20995033
131	0xbd6d8887	-0.05799153
132	0x3e937ea6	0.28807563
133	0x3e435b49	0.19077791
134	0x3e10f3b6	0.14155468
135	0x3dc79af2	0.0974635
136	0xbda5521a	-0.080723
137	0x3d91b7a0	0.07115102
138	0x3d0df6e7	0.034659293
139	0xbdf1282e	-0.11775242
140	0xbe765067	-0.24054109
141	0xbe15eeb4	-0.1464184
142	0x3e41df41	0.18932821
143	0xbeb1cccb	-0.34726557
144	0xbe34dbbd	-0.17661949
145	0x3d89c9aa	0.067279175
146	0xbe3b9ab6	-0.18320736
147	0xbe235560	-0.15950537
148	0x3dfd380e	0.12364207
149	0x3c879d3f	0.016554473
150	0xbeae9260	-0.3409605
151	0xbde754d6	-0.11295478
152	0xbd9b507b	-0.0758371
153	0xbe646791	-0.22305132
154	0x3db76737	0.089552335
155	0x3d801b3e	0.06255196
156	0xbe5166cb	-0.20449369
157	0x3e9eab8a	0.3099025
158	0xbe128334	-0.14307863
159	0xbe83c25c	-0.25734222
160	0x3d4c7589	0.049916778
161	0x3e0d9036	0.13824543
162	0x3cbddf54	0.02317778
163	0x3db9f313	0.09079566
164	0x3de2958b	0.11063679
165	0x3dd13663	0.102154516
166	0xbda86573	-0.08222475
167	0xbe88cc50	-0.26718378
168	0x3e1221c1	0.14270689
169	0x3daee626	0.08539991
170	0xbe18f5ee	-0.14937565
171	0xbe795dbf	-0.24352168
172	0xbe326838	-0.17422569
173	0x3de4c59f	0.11170506
174	0xbc449a15	-0.011999627
175	0x3e414bc9	0.18876566
176	0x3d51a230	0.051180065
177	0xbc8696f6	-0.016429406
178	0x3e4efa83	0.2021275
179	0xbd8c311f	-0.068453066
180	0x3bcba329	0.0062145186
181	0x3d463690	0.04839188
182	0x3e0cf230	0.13764262
183	0xbe1c2e90	-0.15252137
184	0xbebca4f0	-0.36844587
185	0xbe0b3fcc	-0.13598555
186	0xbdd31c46	-0.10308127
187	0x3d963889	0.07335002
188	0x3dc66454	0.09687105
189	0x3d6aa337	0.05728456
190	0xbed4b0be	-0.41541094
191	0x3d9f94e8	0.077920735
192	0x3e0cc6d5	0.13747723
193	0xbe143d31	-0.14476468
194	0xbe4d9012	-0.2007449
195	0xbe1050e2	-0.14093354
196	0x3db4c721	0.08827043
197	0x3d671626	0.056417607
198	0xbcd38940	-0.025822282
199	0xbe1abce9	-0.15111126
200	0xbec6352b	-0.3871244
201	0xbec53fcd	-0.3852524
202	0x3d756d59	0.059918735
203	0x3dbd464d	0.092419244
204	0xbdaa55eb	-0.08317169
205	0xbe0364ba	-0.12831393
206	0xbe169d03	-0.14708333
207	0xbd93c8f9	-0.07216067
208	0x3d801883	0.06254675
209	0xbdf213d2	-0.11820187
210	0x3dc954ba	0.098306134
211	0x3e2225b9	0.15834703
212	0x3d1d499d	0.03840028
213	0x3e123967	0.1427971
214	0xbe142b8f	-0.14469741
215	0x3d4c7c25	0.04992308
216	0xbdcc1f63	-0.09966924
217	0xbdf3d69a	-0.119061664
218	0x3c8d4787	0.017246021
219	0xbd00fd27	-0.031491425
220	0xbddf2e3b	-0.1089749
221	0x3def0cc8	0.1167236
222	0x3dcca496	0.0999233
223	0xbdecfa23	-0.11571147
224	0xbe164100	-0.14673233
225	0x3e111c62	0.14170983
226	0x3de16965	0.110064305
227	0x3e4cd3fa	0.20002738
228	0x3c3878df	0.011259287
229	0x3e3481ee	0.17627689
230	0xbe20b2cb	-0.15693204
231	0x3c78b5ed	0.015180093
232	0xbd95bc92	-0.073113576
233	0xbc2957a6	-0.010335838
234	0xbd91a329	-0.071111985
235	0x3ddb72f7	0.10715287
236	0xbe245a1d	-0.1605
237	0x3d9fc515	0.07801262
238	0x3d98610d	0.07440386
239	0x3e52a28d	0.2056982
240	0xbeaf7fb8	-0.3427713
241	0xbbdaa1f7	-0.0066721397
242	0x3e83130a	0.25600463
243	0xbe9847cc	-0.29742277
244	0x3caba6ab	0.020953497
245	0x3d407a30	0.046991527
246	0xbde4e2af	-0.11176049
247	0x3e2d90fd	0.1694984
248	0x3d909451	0.07059539
249	0x3c5a32c2	0.013317766
250	0xbdf8b32e	-0.12143551
251	0x3bbce856	0.0057650013
252	0x3e1c4a99	0.15262832
253	0xbe3c4bed	-0.18388338
254	0x3d2cdbdd	0.042201865
255	0x3dc0e8f1	0.0941943

bias f4 [13]
0	0x3dff4781	0.1246481
1	0x3e54f91b	0.20798151
2	0x3daae075	0.08343593
3	0xbcf1969d	-0.029490763
4	0xbe4bf75f	-0.19918583
5	0xbd956a44	-0.07295659
6	0xbdf1b80f	-0.118026845
7	0xbe48388b	-0.1955282
8	0xbe63515c	-0.22199005
9	0xbc7f718e	-0.015591038
10	0x3e437017	0.19085728
11	0xbce68040	-0.028137326
12	0xbe8a3220	-0.26991367
