trainingOnSyntheticData/results/20230802_174628_debug/model_training_set_size_1000_hidden_neurons_50_n_batches_5.pt (torch, 56559 bytes, 6 tensors)

weight f4 [50, 200]
00000000: f59a ba3c edda d7bc 66c3 333d 2abd 7c3d
00000010: 7764 49bc b29f 7f3d ce83 da3c 4528 a83c
00000020: 3e6c 9cbd 9d6e bc3c 5c95 473c 6c11 25bd
00000030: f7f0 b13b 7b6e 50bc e187 dabc 111c 3b3d
00000040: 1aa5 2a3d 7a4f 78bd 7d3a 573d 7bdf c53c
00000050: 541f 27bd a26d 39bc 52b6 8a3d 67a4 a93d
00000060: 3a77 4cbd b52a 3dbd 3f4f 303d 6123 35bd
00000070: f5a2 093d 1343 94bd b5f3 823d 2ef2 243d
00000080: fb1e a23d 6225 96bc ae63 84bd 7002 24bc
00000090: 574f 783d d74a a03c bf0a 2d3d 5d9a 10bd
000000a0: 2576 a33c e0b0 1e3d df3c 333d 2bc5 a6bd
000000b0: 59ab cbbb 8d09 04bd d2c6 ea3d f838 8d3d
000000c0: 1dc6 bf3c d913 c5bc c968 e2bd 6c77 c2bd
000000d0: bfc9 9ebd ee3c cf3a 0329 03be d0d0 03be
000000e0: 501d 93bd 887b 8abb de91 943d bab3 58bc
000000f0: be61 c8bc 8b75 71bc 3beb e03b cb24 72bd
00000100: 98d9 bdbc dc59 4c3d 7395 2e3c 634c e5bc
00000110: 8c9e 52bc 3151 173c 52e1 353c 51d8 093d
00000120: ed16 07bd 25d4 c2bd 0e2d 693d 8649 b03c
00000130: 7032 f2bc a9ed 89bc 0b04 59bc f0ec 86bb
00000140: c7f1 babd 5c8b 38be 58c9 88bd c67d 65bd
00000150: 7d41 fbbd d621 5dbb 6094 81bd 2b76 95bb
00000160: 5d8c c8bd 128c 50bd 77b7 303d 6533 a8bc
00000170: 5828 273c 4d7c f9bc c732 babc 4bf6 6c3c
00000180: cc8b 8bbd 2c80 f2bd c35e b5bd 07a8 90bd
00000190: 3ac5 a6bd 65b9 b6bc bdd5 c6bd 35e2 31bd
000001a0: 7bc1 acbc fd51 89bd 703a 483c c6e2 ddbd
000001b0: bc55 04be c5e0 03be 016c e5bd f0f0 95bd
000001c0: 716d 9abd 078f edbd 2423 f0bd 77a4 81bd
000001d0: ac2c 52be d47c f8bd c315 0cbe 115d 45be
000001e0: 2ad7 9bbd 1fdc d5bd bbd1 853c b16c b1bd
000001f0: 822f f3bc b799 19bc 3a3f efbc 158a 43bc
00000200: 5452 533c 53d7 5ebd 0f18 6bbd fd73 d8bd
00000210: 61f7 b9bd a59d ebbd 870a 22be d9cd 28be
00000220: c3da 063b e591 193d 4332 39bd b3c6 313c
00000230: 68e6 193c 58ea debc 8604 4ebc 573f 53bd
00000240: 17b7 80bd 3d59 a43c 1069 b13d dfa5 d9bc
00000250: ad80 a6bd 2f64 a43b 98f8 203c 59f3 aebc
00000260: b16b 233d 815a 31bd a53b debd 6177 d7bd
00000270: bd6c 8ebd 05c7 a8bd b93d 13bd 5237 3bbd
00000280: 841a b0bd 842e 3e3d 18fb d1bc d65b 63bc
00000290: f852 03bd 2682 e33a cfae 283d 93da b03c
000002a0: c7b2 64bd faf8 933c 942e 3cbd f75d 59bd
000002b0: a6e8 6cbd 0ff3 9cbd c402 94bd 8d15 d33c
000002c0: 7732 1fbc c802 463d 59c3 6d3c b10d 66bd
000002d0: e388 75bd 19f8 063d 35c0 9bbc a4fb 2b3d
000002e0: b139 fd3c 23bc 17bb 3be7 85bb 668e 88bd
000002f0: 2e83 9cbd ae6f 403d c695 8fbd 22e9 623b
00000300: 7baa bc3d f597 243c e454 173d 779f 80bd
00000310: 7479 213c ac97 2a3d 8be4 903d 1eba d9bc
00000320: a20a 923c 1df9 c73b 924c 113d 5cf9 ebbb
00000330: 2529 3c3c bd80 973d 84dd a53d f361 2fbd
00000340: 712e 9bbc cb57 3fbd 0be3 60bd 24cd 08bd
00000350: d093 903d 63be b53d 163b 11bc ef40 79bd
00000360: d6be 52bc d035 8a3c 67b5 9abd d475 a2bc
00000370: f63e ed3b 7cfd 053c 6067 9d3d 2fba 50bc
00000380: 8b7d 94bc 1c8c c33d a5ba 183d 127a ab3d
00000390: fea3 1d3b 3954 4cbd eca3 d6bc 29d7 993b
000003a0: ec2d a13c 768b 61bd a3d3 b23b 880e b63d
000003b0: 97cf ac3c edad 33bd e0c9 efbb 2c28 503d
000003c0: 4c0d 9b3c 45a3 2a3d b594 033d c68d f33c
000003d0: 34f9 b0bc 9594 9c3d dd6a bd3d 5264 643c
000003e0: 8364 c1bc b3c5 88bd ccdc c4bd 8b6f a93d
000003f0: 83b8 203d e1f1 463d fd37 c93c c23f afbd
0.022778967 -0.02634951 0.04388752 0.06170384 -0.012292019 0.062408157 0.026674177 0.020527015
-0.07637833 0.023001963 0.012181606 -0.040299818 0.0054303366 -0.012721653 -0.02667612 0.045681063
0.04166136 -0.06062267 0.052546013 0.024154415 -0.04080136 -0.011317642 0.06773056 0.082833104
-0.04991839 -0.046183307 0.043044325 -0.044223193 0.033602674 -0.07239356 0.0639414 0.040270023
0.07916065 -0.018328372 -0.06464325 -0.010010347 0.06062254 0.019566936 0.042246576 -0.035303462
0.019953797 0.0387429 0.043759223 -0.081430756 -0.0062154946 -0.03223567 0.11463703 0.068956316
0.023409897 -0.024057316 -0.110551424 -0.09495434 -0.07753324 0.0015811005 -0.12808613 -0.12872624
-0.07183325 -0.004226152 0.072543845 -0.013226444 -0.02446067 -0.014737497 0.006863979 -0.05911712
-0.023175046 0.049890384 0.010655749 -0.027990526 -0.012855183 0.009235666 0.011101084 0.03365356
-0.032980848 -0.095131196 0.056927733 0.021519434 -0.029565066 -0.016836958 -0.013245593 -0.0041176006
-0.091281466 -0.18021911 -0.06679028 -0.05602815 -0.1226835 -0.0033742092 -0.063271284 -0.004561206
-0.09792397 -0.05091483 0.043143716 -0.02053232 0.01020249 -0.030454779 -0.02272929 0.014463018
-0.068137735 -0.11840853 -0.08855965 -0.07063299 -0.08143087 -0.0223052 -0.09708736 -0.04342862
-0.021088352 -0.06705091 0.012220964 -0.10834269 -0.1292333 -0.12878712 -0.11202241 -0.07321346
-0.075404055 -0.11599546 -0.117254525 -0.06330197 -0.20524853 -0.12133184 -0.13680176 -0.19273783
-0.07609399 -0.104423754 0.016335359 -0.08663309 -0.02968574 -0.009375027 -0.029204953 -0.011934777
0.0128980465 -0.054404568 -0.05739599 -0.10568998 -0.09080387 -0.11504678 -0.15824328 -0.16484775
0.002057717 0.03749265 -0.04521395 0.010850596 0.009393312 -0.027211353 -0.012574321 -0.051574077
-0.062849216 0.020062083 0.08662617 -0.026568351 -0.08130012 0.0050168256 0.009824894 -0.021356272
0.039897624 -0.043299202 -0.1085122 -0.105208166 -0.06954334 -0.08241085 -0.035947535 -0.045707054
-0.085988075 0.04643108 -0.025632426 -0.013876876 -0.032061547 0.0017357513 0.041182335 0.0215886
-0.055834558 0.018063057 -0.045942858 -0.053068127 -0.05783906 -0.07663547 -0.0722709 0.025767112
-0.009716622 0.048342496 0.014511907 -0.0561654 -0.059945 0.032951448 -0.01901255 0.04198803
0.030911298 -0.002315291 -0.0040864027 -0.06667785 -0.07642208 0.046981506 -0.07010989 0.0034623821
0.09212204 0.010045995 0.036946192 -0.062804155 0.009855617 0.04164855 0.07074841 -0.026578005
0.017827336 0.0061026947 0.035473414 -0.007201357 0.011484419 0.07397602 0.080988914 -0.04281802
-0.018943043 -0.046714585 -0.054904025 -0.033398762 0.07059443 0.08874204 -0.008864185 -0.06085294
-0.012862882 0.016871363 -0.07554131 -0.019831575 0.0072401715 0.008178111 0.07685733 -0.012739702
-0.01812627 0.09548208 0.037287373 0.083728924 0.0024054046 -0.04988501 -0.02620121 0.0046948385
0.019675218 -0.05506464 0.005457358 0.0888949 0.02109508 -0.04386704 -0.0073177665 0.05081956
0.018927239 0.041659612 0.03212424 0.029730689 -0.021603204 0.07645527 0.09248898 0.013939934
-0.023607498 -0.06678333 -0.09612426 0.08273228 0.039238464 0.048570517 0.02456283 -0.08557083

bias f4 [50]
00000000: 9f51 a23e 6cbb dd3e 3d7f 923e cf1d c23e
00000010: 6ca8 403d cc81 ac3a c666 bf3e 6b13 963e
00000020: 877e 80bd b29b 1ebe 7da1 28be 590c 2a3d
00000030: cc09 d73d d7ca 3b3e 3d7b a03e 3e37 c43e
00000040: c0ed dd3e 7dd7 46bd 7391 ca3e cffb 013e
00000050: 8a04 7d3e 07dc ee3e 3454 3bbe 7ab5 0f3e
00000060: 8dfc 34bc 2184 333e 1c86 cc3e c795 ad3e
00000070: cde6 e13c 26a2 f9bd 79cf 843e 3d7a 24bc
00000080: 5c27 02be 7f9b 6bbe 9aef 903e 1dd0 e13d
00000090: 5122 be3d 86af b93e 6087 5f3d 37d6 a63d
000000a0: a53d 26be 590b 9a3c 0a07 b93e b26c 8fbb
000000b0: 4144 253b e1a3 ea3e ddbf 1d3e a40a d8bc
000000c0: 9020 e6bd b691 6dbe
0.31702897 0.43307054 0.286127 0.37913367 0.04703562 0.0013161241 0.37383097 0.2931169
-0.06274133 -0.1548908 -0.16467853 0.041515682 0.104999155 0.18339096 0.31344023 0.38323396
0.4334545 -0.04854535 0.39564094 0.12693714 0.24708763 0.46652243 -0.1829384 0.14034072
-0.011046541 0.17530872 0.39946067 0.33903334 0.027575875 -0.121891305 0.2593954 -0.0100389095
-0.12710327 -0.23008536 0.283078 0.110260226 0.09283889 0.36266726 0.054572463 0.08146327
-0.16234453 0.01880424 0.36138183 -0.004376971 0.0025217684 0.45828155 0.15405221 -0.026372261
-0.112366796 -0.23200116

weight f4 [50, 50]
00000000: 71cf 3c3e 17b2 413e 6591 c63d 939d 1a3c
00000010: 9562 63bd a1c0 b6bc c830 853e 28b1 c0bc
00000020: 7345 48bd 2810 013e 2f86 e2bd 2a67 9bbd
00000030: 7cd6 2e3e fa09 a53d 59c7 00bc 884a c13c
00000040: 4045 043d a424 afbe 0689 e43d 6da4 1b3e
00000050: e08c 093c ed4a 933e 5672 4cbe 2d06 5e3e
00000060: 800d 053e b49a f43d 23d5 5f3e c562 de3c
00000070: 3f1c 813e 43b5 3bbe d915 bfbd ddda a0bd
00000080: baf1 bfbd 1f0b 82be dbe1 ebbb 994d 2fbe
00000090: c5f4 20be 3927 273e d58a 9d3d fc98 573e
000000a0: 90ed 35be 0429 543e 47cb 453e 0050 3e3e
000000b0: bf89 dcbd 1b2f ad3d 4a33 6b3e a733 57be
000000c0: 55de 403d 68a4 a0be c6c7 f03c c280 f93d
000000d0: aa68 5abd cc21 a6bd f8db a7be b19f fe3c
000000e0: a5c3 4bbd 94a7 773d 830d 183e 8cbb 3d3d
000000f0: 7e90 573c 63ad 4c3d bd24 3e3e 88bc 293e
00000100: 528f d63d 6b16 2fbe a588 43be 7e35 323e
00000110: 58a0 e23d 3738 1a3e 98b4 283e 9216 8b3d
00000120: d1fd 84bc d471 37bd 3723 e03c a1aa c33d
00000130: 9f2b 57bd a374 133e 3670 06bd 491c fcbd
00000140: 878d 89bc 6007 fe3c b30a d2bd 9fa1 05bd
00000150: eff6 35bd 1d2f 813d a868 263e 4118 66bc
00000160: d0e8 6ebd f944 dcbd 8ee1 473d 17c2 183d
00000170: faa0 863d bc9a f1bb 5409 eabd 95bc 3dbd
00000180: b6af 81be 064d 003d 56db 243e 5b53 af3d
00000190: 3be5 9cbd e81d 1e3e 4494 a3bd 57b2 083d
000001a0: 9260 b0be d238 71bd 543f 6c3e 95c5 85be
000001b0: 1535 bc3b 6416 1bbd 3448 58bd 1329 c6bd
000001c0: 455a a5bb d229 103e 61db b0bd eac1 f63c
000001d0: 781e 403e a802 b33d c951 523c c493 91be
000001e0: f121 253d 4c7c c33d b46e 2a3e 951e 37bd
000001f0: 150c 2dbe bae6 6abe b0c7 c43c e0e4 bf3c
00000200: 326d 493e 67a7 6dbd 17a8 833e 791a b63d
00000210: 8d27 ffbc 4607 b03c 97da 833d f7ca 2b3e
00000220: 6826 1abe 6b26 41be 7ca5 61bd eaa0 983d
00000230: a740 253d 48b5 e73d 9268 38be f6d8 5abe
00000240: a774 afbd 368b 093d b471 4dbe a377 b73d
00000250: f5df d8bc 3713 9abd ea5b 983d af07 b33d
00000260: 0670 0cbd 0922 823d f3b9 6d3d e82e cfbd
00000270: bc1b 8a3e 0bf6 003e 2b1b b9bb 96b0 c2bd
00000280: 632c 5abc 7a35 89bd 5a68 3b3d 2a11 c9bd
00000290: 782a 2a3e 1923 65be 5b4e 99bd 1b4b b7bc
000002a0: f98a 7b3c a380 003e af5e 073e 21fe 5b3d
000002b0: 7432 193d 636a 983d b3e2 7bbd 6d1e aa3e
000002c0: 8f2b 20be f3ab f83d 9d91 5a3e 3d21 ef3d
000002d0: 74f3 253d d6bc ce3d 46cf a23b 9122 03be
000002e0: 95aa 7cbd f879 683d 6916 e93d bac9 1d3e
000002f0: ed43 a33d bcfa 643e c4ef 54bd fc58 bdbc
00000300: b968 8dbc 4dc3 343e a53b 983c 9a5a d83d
00000310: 2961 813e d926 01bd 3746 05bc 4a44 05bd
00000320: bfc1 3ebc e83c 9c3e d41f 8dbd dc92 4f3e
00000330: 25bf cb3c 1a37 a3bd 550a d6bd d439 46be
00000340: 1d7c 63be be2d 9bbd eb14 69be e082 b83d
00000350: ca91 863e 6a30 883e cf6d 83bc fe93 303e
00000360: 0509 a1bd 6676 b93d b642 103e b7fe 36bd
00000370: 97f8 753e 12a8 653e f329 edbd fa1a 5abd
00000380: 4240 a93d 46b0 a83d c8f9 883d 3e7c 723e
00000390: 808a 94bd 4e0c 16be 0850 4f3e ef65 c4bc
000003a0: ae88 2ebd c09b 653d f600 943e 46eb 20bd
000003b0: 58ba 073e 23f3 873c 66f8 dabd b24f 813e
000003c0: fd1a 74be c444 e73d 3b23 abbd 1835 1f3d
000003d0: 59b8 62be a1ae 503e 2ad5 573e 2a61 08be
000003e0: 9c9d 30bc 832c da3d 8ea3 163c 8d3b e13d
000003f0: 0c85 4abc 5440 ba3a bbf8 40be e527 7f3d
0.18438508 0.18915592 0.096957006 0.009436983 -0.055513937 -0.02230865 0.2601378 -0.023521975
-0.048894357 0.1260382 -0.1106075 -0.07588036 0.17074007 0.080585435 -0.007860028 0.02359511
0.032292604 -0.34207642 0.11158948 0.15199442 0.008395404 0.287681 -0.1996549 0.21682043
0.12993431 0.1194357 0.21858649 0.027146706 0.25216863 -0.18330865 -0.09330339 -0.07854245
-0.093722776 -0.2539911 -0.007198555 -0.17119445 -0.15718372 0.16323556 0.07692496 0.21054453
-0.17766404 0.20718771 0.19315825 0.18585205 -0.107684605 0.0845625 0.22968784 -0.21015798
0.047087032 -0.31375432 0.029392134 0.12182762 -0.05332247 -0.08111915 -0.3278501 0.031082006
-0.049747128 0.06046255 0.14848904 0.046321437 0.013157008 0.049970042 0.18568702 0.16575825
0.10476555 -0.17098396 -0.19095095 0.17403218 0.110657394 0.15060507 0.16475141 0.06791414
-0.01623431 -0.04478629 0.027360542 0.09554029 -0.052531835 0.14399962 -0.032821856 -0.123100825
-0.016791118 0.031009376 -0.10255947 -0.032624837 -0.044424947 0.06307814 0.1625086 -0.0140438685
-0.058327496 -0.10755343 0.04879909 0.037294473 0.065736726 -0.007373182 -0.114275604 -0.046322424
-0.2532937 0.031323455 0.16099295 0.08560821 -0.0766091 0.15441096 -0.07987264 0.033373203
-0.34448677 -0.05889208 0.23071033 -0.26127306 0.0057436326 -0.03786315 -0.052803233 -0.09675803
-0.0050461614 0.14078453 -0.08635593 0.030121762 0.18761623 0.08740741 0.012836882 -0.2843305
0.040315572 0.09545192 0.16643792 -0.0447069 -0.1689914 -0.22939578 0.024021 0.023424566
0.19670561 -0.058020975 0.2571418 0.08891768 -0.031146789 0.021487843 0.06438177 0.16776644
-0.15053713 -0.18862312 -0.05508946 0.07452567 0.04034486 0.113138735 -0.1800864 -0.21371827
-0.085671715 0.033580028 -0.20062906 0.08958366 -0.026473979 -0.07523196 0.07439406 0.087417
-0.03428652 0.06354148 0.058038663 -0.101163685 0.26974285 0.12593858 -0.0056489906 -0.09506337
-0.013316247 -0.06699653 0.045753814 -0.09817727 0.16617763 -0.2237667 -0.07485648 -0.02237468
0.015352958 0.12549071 0.13219713 0.053709153 0.03740163 0.07442167 -0.061495494 0.33226338
-0.15641616 0.12142172 0.2134461 0.116762616 0.040515378 0.10094611 0.0049685566 -0.12806155
-0.061686117 0.056756943 0.113812275 0.15408984 0.0797194 0.22361273 -0.05198647 -0.02311372
-0.01726185 0.17652626 0.018583128 0.10564156 0.2526944 -0.03153119 -0.008134416 -0.03253583
-0.011642872 0.30515218 -0.06890836 0.20270866 0.024871418 -0.07969494 -0.104511894 -0.19357997
-0.22215314 -0.07577084 -0.22761886 0.090093374 0.26283103 0.26599437 -0.016043572 0.17243955
-0.078630485 0.09055786 0.14087948 -0.04467651 0.24020611 0.22427395 -0.11580267 -0.053248383
0.08264209 0.082367465 0.06688267 0.23680207 -0.07252979 -0.14653131 0.20245373 -0.023974387
-0.042610817 0.056056738 0.28906983 -0.039286874 0.13254678 0.016595429 -0.106919095 0.25256115
-0.2383842 0.11292413 -0.08356329 0.038868994 -0.22140636 0.20379116 0.2107741 -0.13318315
-0.0107797645 0.10653021 0.009194268 0.109976865 -0.012360822 0.0014209845 -0.18844883 0.062293906

bias f4 [50]
00000000: 175b 683e de8c 2ebc e2bf 153d f806 dfbe
00000010: af1b 433e 5270 933e 5b10 3b3d b79c 013e
00000020: 38c1 b1bd b9fc f3bd a6fc 403e 5a12 ad3d
00000030: 489b 523d f4f0 b9bd f47f 66be bf1b 753e
00000040: cce0 d43e e166 42bc dff5 433e f0ef 933e
00000050: b657 00be 64f3 a63e 7494 c03e 4874 6c3e
00000060: 2de5 efbd 9bf7 763c da7b c73e 802d 513e
00000070: 4aec ac3e 0457 15bd 418e 66be e607 8b3e
00000080: d338 bf3e 161c d73d 1682 c83e c723 873c
00000090: 4703 e33e c1e7 48bd b673 de3d 3b1a 0bbe
000000a0: e6bc 5f3e 47d9 a53d 0b97 8dbe 4f31 01be
000000b0: 8aa0 93bc 9cf2 d93e dbd4 5c3e cab1 993e
000000c0: 90a9 923d 444a 803e
0.22690998 -0.010653703 0.036559947 -0.43560004 0.19053529 0.2879663 0.045669895 0.12657438
-0.08679432 -0.119134374 0.18846378 0.08450766 0.05141762 -0.09079161 -0.22509748 0.23936366
0.41577756 -0.011865349 0.19136761 0.28893995 -0.12533459 0.32607567 0.3761326 0.23091233
-0.11713634 0.015073682 0.3896168 0.20427513 0.33774024 -0.036459938 -0.22515203 0.27154464
0.3734804 0.10503404 0.39161748 0.016496552 0.44338438 -0.049049143 0.10861914 -0.13584225
0.21849403 0.08098083 -0.276543 -0.12616466 -0.018020887 0.4256791 0.21565573 0.30018455
0.07161248 0.2505666

weight f4 [13, 50]
00000000: 435f 0fbe 6607 ea3d 2640 e83d 16fb cc3c
00000010: 031f a73e f7bf 323c 6fb1 bfbe 89eb 283e
00000020: 1e2e 233d e07a 28bd 99da 05be dd57 cb3d
00000030: 8d67 8abd 5e26 83bd 7a07 b6bc c1c5 46bc
00000040: a091 3abe 8f92 2fbe b5d4 4f3d 7c48 033e
00000050: 1b2f 323e 7dd0 723e 1f76 d4bd b9d6 283e
00000060: 16b2 e8bd 8006 5f3d bb38 0d3e c9e7 a1bd
00000070: 24fe f6bd 0bef 06be 091d d83d 1159 0cbe
00000080: 5050 473e 60b6 e4bd 96a3 1dbe 02da 64bd
00000090: 90fb 83bd ae37 71bd 802c 083e 556c 053e
000000a0: f37e 5ebd 1f03 a23d 4faf 7abd 15b3 52bd
000000b0: 1998 bc3d 6857 a0bc 4922 a63c 0c68 1a3e
000000c0: 71b4 333d 1383 45bd 54d5 57be f7e6 843d
000000d0: 8166 e0bc ff20 38be 9d78 f93b 29f8 ea3d
000000e0: 7dbe 87bd bed7 8e3e f711 0ebe 1265 123e
000000f0: c4fd fe3d 8922 8abd b2e6 02bd 5836 f73d
00000100: 28a9 43be 1138 6cbb b334 3f3e 7e72 03bb
00000110: 1277 873d 1216 9ebd 85f5 483e 52ed cbbd
00000120: a41b 003e 555e bb3d e303 b9bd fef4 85bd
00000130: e73c 58bc 1735 edbc a7c1 313d 25e6 5a3d
00000140: 5b38 b13c b984 1c3c 5307 8a3e 2613 b73d
00000150: 77b1 27be c5ea 163d 92ca 353d 5e13 1ebe
00000160: 3c89 813d 8263 ad3c 2063 dc3d 51c1 1d3d
00000170: 1403 033d 8622 383e eec2 fcbd 965a cb3b
00000180: 9ec4 d4bc 3a20 073e 468d e03d 30df 68be
00000190: 80ab 9f3e ef9a 91bd 275b 59bd 8caf 43be
000001a0: a2c5 a23e 1e70 85bd 07e1 2dbe 50d3 fcba
000001b0: 1283 bfbd db8d 273e 66e5 893d 207f 08be
000001c0: 985f 3e3d 827c 823e 6a4a 1d3e d8be b8bd
000001d0: 1592 e33d 19fa 81bd adf9 2f3d 234e 073c
000001e0: 1fe6 28bd f1ed 4c3e 8d56 ac3d 4669 9abc
000001f0: b467 2e3d 0a2f 1e3d ce8f 05be 805e 63bd
00000200: 28b6 953d 426e ec3d caa9 ab3d 5390 81bd
00000210: 8de2 ea3c a940 273d 9c74 e33d f7b6 3b3e
00000220: 44e3 1b3e 588b 0c3e 3e38 a1bd b49c f0bd
00000230: 7ce9 79bd e29d 93bd 3eb6 273d a440 64be
00000240: 1224 573e fb95 4d3c ad4b 67bd cdc0 71bd
00000250: 09b9 f83d 4d29 a1bd 8996 4e3d d753 99bd
00000260: 0579 3dbd ec31 72bd 4857 31be 5bf1 b53d
00000270: 4631 4e3c 48a0 ec3d c055 16bc 0652 5a3d
00000280: 9d65 bdbd ce8d 1a3e caa0 14be bd9c 27bc
00000290: 92a3 253d e663 7fbd 95a3 82be e282 ec3d
000002a0: e3f2 0abe f053 58be f621 643e cc29 b23d
000002b0: aadc 00bf fc8f d23d 204b e43c 772b 233e
000002c0: 06d1 cb3c be9f 8fbe 2769 0fbe 5170 c53d
000002d0: 8303 c5bd a47b a63d 5495 79be f19d 093e
000002e0: ff0b 533a 514b 95be 12d1 3cbd e766 673d
000002f0: d8a5 7d3d e9c3 efbb 1939 e43d 9d2f d9bb
00000300: 101d 9a3d 9ee9 9bbc 0b7f e03e d04e 8cbe
00000310: 08c1 60bd b228 91be 77f7 e5bd c9fb e8bd
00000320: 1016 71be 6d35 0c3e b17d 0fbe cda4 583d
00000330: 35f9 36be e04c 13bd 11e7 143e d866 453e
00000340: 5300 1e3e e0d4 41be 25e4 2d3e 90e8 fd3d
00000350: 06b4 fe3c 546f 20bd 769a 0b3d 328d 2b3d
00000360: de0a 6bbc c649 d13d 709d 163d c3b1 99be
00000370: e4b2 05bc 6dce 813d d4d7 b3bd 5cd9 7b3e
00000380: e48c 96bc 939f 3dbd 9794 58bb 2aa1 abbe
00000390: 05a0 4abe abbe a2bd bfa3 21bd 7687 aabd
000003a0: e21c 2fbe e22d 383e 33ba 27be 9f4b aa3e
000003b0: 3d93 1a3e a9cf 6e3e e4e2 3d3e 471c 15be
000003c0: 5278 5cbc 7205 16be cb38 18be 973f 2abd
000003d0: 584d 883e fbb3 22be a7d3 f03d 5f83 6dbe
000003e0: 1832 7dbd 8deb 6fbe 1273 b13d dbcd 863d
000003f0: 9783 f63e 196c 4ebd f58e 0fbe 3de1 e6bd
-0.14001183 0.114271924 0.1134036 0.02502207 0.32640848 0.010910026 -0.3744006 0.164961
0.039838903 -0.041132808 -0.1307167 0.09928868 -0.06758032 -0.06403802 -0.022220362 -0.012132109
-0.18219614 -0.17145751 0.050739963 0.1282062 0.17400782 0.23712344 -0.10374092 0.1648816
-0.11362092 0.05444956 0.13791172 -0.07905538 -0.12060192 -0.13177125 0.10552413 -0.13705851
0.1946423 -0.11167598 -0.15394434 -0.05587197 -0.06444466 -0.05889099 0.13298225 0.13029607
-0.054320287 0.079107516 -0.061202344 -0.051440317 0.09208698 -0.019572929 0.02028002 0.15078753
0.043873254 -0.048220705 -0.21077472 0.064893655 -0.027392628 -0.17981337 0.007613255 0.11473114
-0.0662813 0.27898973 -0.1387404 0.14296368 0.12450746 -0.06744868 -0.03195829 0.12070912
-0.19107497 -0.003604416 0.18672447 -0.0020057256 0.06614508 -0.07719053 0.19624908 -0.09957375
0.12510544 0.09148852 -0.090339445 -0.06540869 -0.013198114 -0.02895598 0.043397572 0.05344214
0.021633318 0.009553128 0.26958713 0.08939199 -0.16376291 0.036844987 0.04438264 -0.15437075
0.063250035 0.021165613 0.10761094 0.03851444 0.031985357 0.1798192 -0.123418674 0.006205867
-0.02597266 0.13195887 0.10964446 -0.2274139 0.31185532 -0.07109629 -0.053065445 -0.19109935
0.31791407 -0.06515525 -0.16980372 -0.001928905 -0.093511716 0.16362707 0.067332074 -0.13329744
0.046477884 0.25485617 0.15360418 -0.090207756 0.11111847 -0.063465305 0.04296272 0.008258375
-0.041235086 0.20012642 0.08414946 -0.018849026 0.042579368 0.03861908 -0.13043138 -0.055510044
0.07310134 0.115444675 0.08381994 -0.06326356 0.028672481 0.04083315 0.11106226 0.18331514
0.15223414 0.1372503 -0.078720555 -0.11748639 -0.061013684 -0.07207848 0.040945284 -0.22290283
0.21009853 0.012547965 -0.056468654 -0.05902176 0.12144668 -0.078692056 0.05043653 -0.07486694
-0.04625799 -0.05912964 -0.17318451 0.088839255 0.01258499 0.11554009 -0.009175718 0.05330088
-0.09247897 0.15093157 -0.14514461 -0.01023024 0.040439196 -0.06235113 -0.25515428 0.115484014
-0.13569216 -0.2112577 0.2227858 0.08699378 -0.50336707 0.10281369 0.027867854 0.1593455
0.024879944 -0.2805156 -0.14004956 0.09640563 -0.096198104 0.08129051 -0.2437337 0.13439156
0.0008050799 -0.29159024 -0.046097822 0.05649462 0.06192574 -0.0073170555 0.11143703 -0.0066279904
0.075250745 -0.019032296 0.43846926 -0.2740388 -0.05487159 -0.2835136 -0.11228841 -0.11376149
-0.23543572 0.13692255 -0.14012791 0.05289154 -0.17868502 -0.035961986 0.1454127 0.19277513
0.15429811 -0.18928862 0.16981561 0.123978734 0.031091701 -0.03916867 0.034082852 0.0418827
-0.014345853 0.10219149 0.036771238 -0.30018434 -0.008160327 0.06338201 -0.087814 0.24594635
-0.018377729 -0.04629476 -0.003304755 -0.33521396 -0.19787605 -0.07946523 -0.0394628 -0.083266184
-0.17100862 0.17986253 -0.16379623 0.3326082 0.1509523 0.23321404 0.18543583 -0.14561568
-0.013456421 -0.14650515 -0.14865415 -0.04156455 0.2662151 -0.1588897 0.117591195 -0.23194645
-0.06181535 -0.23429699 0.08664526 0.065822326 0.4814727 -0.05039606 -0.14019378 -0.112734295

bias f4 [13]
00000000: 02fa 19be d97c 1f3e 6b9b 0f3e 1569 9e3d
00000010: d7d3 c0bd 1188 753d 8e48 a0be 0e74 17be
00000020: b3fd 363d 6d9c 1ebc 44b8 08be d79c 97be
00000030: ec47 d0be
-0.15036777 0.1557497 0.14024131 0.077348866 -0.09415405 0.059944216 -0.31305355 -0.14790365
0.04467554 -0.0096808495 -0.13351542 -0.29611847 -0.40679872
