trainingOnSyntheticData/results/20230807_122502_train/model_training_set_size_2000000_hidden_neurons_100_n_batches_100.pt (torch, 129567 bytes, 6 tensors)

weight f4 [100, 200]
0.096010774 -0.075508624 0.06324528 -0.007860581 0.04936703 -0.04937066 0.039980426 0.043418534
-0.02105306 0.00069908024 -0.022038016 0.043559406 0.039355416 -0.0168199 -0.008450916 0.033149082
0.010921573 0.022339148 0.060111888 -0.037646145 0.033001237 0.021508789 0.01183917 0.0031095499
0.053260412 -0.03555168 0.0112436395 0.033584222 0.057601765 -0.049188245 0.028478917 0.069269404
-0.042838708 -0.04127315 0.068241194 -0.034957923 0.0061745415 0.00029979035 0.007116107 -0.005552523
0.004492623 -0.028838087 -0.019662987 0.01177983 -0.06834156 0.034772277 -0.07428629 -0.04567582
0.013417723 -0.038033135 -0.0041727307 -0.08515562 -0.019272553 -0.057598595 0.0108925775 -0.061469402
-0.08282564 -0.0059413128 -0.0295884 -0.052482445 -0.067449786 -0.079402946 0.025083488 -0.031431694
-0.06576172 -0.07511781 -0.04760262 -0.025778508 -0.027434051 -0.12032261 -0.015302624 -0.0543493
-0.029144332 -0.04854257 -0.06639545 -0.026320172 -0.017572835 -0.09806522 -0.00215245 -0.062249612
-0.018920079 -0.00079304253 -0.036736943 -0.09318828 -0.02568294 -0.029435096 0.052015588 0.03783095
-0.054091033 -0.026804611 -0.0365269 -0.03397629 -0.012586374 0.019002987 -0.05480812 -0.054271523
0.08026809 0.05719156 -0.011658844 -0.0100968145 0.013746153 0.04888477 0.019633222 0.05339271
0.06708151 0.050563265 -0.0047874614 0.006718912 0.063345864 0.0552905 0.020789605 0.07478063
0.091379516 -0.043727018 0.09951662 0.039298087 0.06050036 0.031085987 0.0580031 0.10616949
0.055790693 -0.010972663 0.08054156 0.030526502 0.1087254 0.041536354 0.10179088 -0.007079343
0.11031207 0.07083474 0.026060684 0.0031837327 0.13084152 0.03217539 0.035071325 0.07920772
0.023049833 0.050907128 0.020117532 0.048722345 0.059537936 0.037881583 0.0377023 0.0104392525
0.09607772 0.055212334 -0.025942147 0.029453292 0.02731949 -0.008415555 0.038390096 0.0051948484
-0.027290933 0.059455454 -0.000248939 -0.009956614 -0.03728965 0.055630367 -0.04665174 0.004502019
-0.0024057776 -0.004287341 -0.01779372 -0.008003071 -0.046288557 -0.029750645 -0.011861399 -0.040215842
0.020172453 -0.08789861 0.03497429 -0.03321679 -0.0061857007 -0.0643575 -0.016422514 -0.037216563
-0.0597859 -0.009236122 -0.053471003 -0.016284937 -0.047173895 0.03169241 -0.053838428 -0.07073579
0.063960195 -0.03355146 -0.087054975 0.015867166 -0.023142971 -0.04095623 -0.032233566 -0.027804976
-0.0058580595 -0.014555674 0.0026465636 -0.067134105 -0.023332978 -0.0076265815 0.07176437 -0.13318655
-0.081112094 -0.06194184 -0.0166476 -0.002520767 -0.12553492 -0.13922167 -0.1738927 -0.17404714
0.009263702 0.14590804 0.12822431 0.11368729 0.07517227 -0.007320443 0.044097718 0.033770565
-0.0120065585 -0.07910069 -0.087359995 -0.14477701 -0.038720608 -0.0216394 0.031116806 0.11621379
0.02876 0.019474138 0.054592516 -0.024770828 -0.033860255 0.023067199 0.013325156 0.036002025
-0.06153296 -0.033227608 -0.026780268 -0.00792106 0.036301218 -0.015030868 0.012468398 0.06370311
0.15019368 0.16505198 0.123118244 0.049974427 0.03823185 -0.007135749 -0.041355345 0.0018698602
0.044785146 0.043340378 0.1424668 0.0742853 -0.0012163683 -0.04489493 -0.045485392 -0.0040243217
00000000: 4ca1 c43d 44a4 9abd be86 813d abc9 00bc
00000010: 1535 4a3d e438 4abd 84c2 233d a2d7 313d
00000020: 7877 acbc 7b42 373a 1289 b4bc 596b 323d
00000030: 2533 213d e3c9 89bc b675 0abc 55c7 073d
00000040: 66f0 323c 9700 b73c e237 763d d832 1abd
00000050: 4e2c 073d 3333 b03c 14f9 413c 97c9 4b3b
00000060: 9727 5a3d a39e 11bd 3e37 383c 9c8f 093d
00000070: d4ef 6b3d 9d79 49bd 9e4c e93c 1edd 8d3d
00000080: a477 2fbd 090e 29bd 0ac2 8b3d 0a30 0fbd
00000090: cf53 ca3b 2e2d 9d39 3b2e e93b f0f1 b5bb
000000a0: da36 933b da3d ecbc 4614 a1bc 3000 413c
000000b0: a9f6 8bbd 606d 0e3d 6923 98bd 9216 3bbd
000000c0: 02d6 5b3c a2c8 1bbd 67bb 88bb 1266 aebd
000000d0: 79e1 9dbc 81ec 6bbd c876 323c 57c7 7bbd
000000e0: 7da0 a9bd 58af c2bb 5f63 f2bc d5f7 56bd
000000f0: 1d23 8abd 039e a2bd e37b cd3c 85be 00bd
00000100: 15ae 86bd 5ed7 99bd f7fa 42bd 732d d3bc
00000110: 60bd e0bc b36b f6bd dbb7 7abc 5f9d 5ebd
00000120: 18c0 eebc 93d4 46bd 56fa 87bd 679d d7bc
00000130: e8f4 8fbc 6bd6 c8bd 1e10 0dbb 73f9 7ebd
00000140: 48fe 9abc 2fe4 4fba 7a79 16bd 7fd9 bebd
00000150: 0765 d2bc df21 f1bc 4c0e 553d a0f4 1a3d
00000160: 8f8e 5dbd 5895 dbbc 3b9d 15bd b92a 0bbd
00000170: 1437 4ebc 27ac 9b3c 7b7e 60bd d14b 5ebd
00000180: 9963 a43d b241 6a3d bc04 3fbc 1c6d 25bc
00000190: 8b37 613c 663b 483d dad5 a03c 50b2 5a3d
000001a0: 0862 893d 6d1b 4f3d 23e0 9cbb 522a dc3b
000001b0: 7abb 813d 4b78 623d f64e aa3c 9626 993d
000001c0: 2f25 bb3d 1a1b 33bd 5fcf cb3d 08f7 203d
000001d0: 3acf 773d 0aa8 fe3c a994 6d3d 646f d93d
000001e0: c884 643d afc6 33bc f9f2 a43d b712 fa3c
000001f0: 6cab de3d 0622 2a3d bd77 d03d d5f9 e7bb
00000200: 4beb e13d ce11 913d 377d d53c 2ca6 503b
00000210: 52fb 053e 57ca 033d f3a6 0f3d a837 a23d
00000220: 01d3 bc3c fe83 503d 86cd a43c 1591 473d
00000230: 0dde 733d b829 1b3d ba6d 1a3d 6609 2b3c
00000240: 65c4 c43d 5426 623d a084 d4bc 0848 f13c
00000250: 20cd df3c 65e1 09bc ef3e 1d3d 8c39 aa3b
00000260: 3c91 dfbc 9087 733d 0784 82b9 1121 23bc
00000270: 08bd 18bd abdc 633d e515 3fbd ac85 933b
00000280: 40aa 1dbb d37c 8cbb 23c4 91bc 501f 03bc
00000290: 1299 3dbd a0b7 f3bc 5056 42bc 5eb9 24bd
000002a0: b340 a53c 3004 b4bd 3341 0f3d 540e 08bd
000002b0: 6bb1 cabb ddcd 83bd 8288 86bc 6570 18bd
000002c0: 0fe2 74bd 1a53 17bc 6904 5bbd fd67 85bc
000002d0: 6a39 41bd e7cf 013d af85 5cbd eddd 90bd
000002e0: 90fd 823d 416d 09bd e149 b2bd dcfb 813c
000002f0: 5496 bdbc b8c1 27bd 5807 04bd 43c7 e3bc
00000300: f7f4 bfbb ec7a 6ebc f871 2d3b 9b7d 89bd
00000310: cd24 bfbc 67e8 f9bb 33f9 923d 0e62 08be
00000320: 191e a6bd bab6 7dbd 8c60 88bc 7433 25bb
00000330: 3a8c 00be 2090 0ebe ee10 32be 6a39 32be
00000340: c8c6 173c eb68 153e 3c4d 033e e2d4 e83d
00000350: ebf3 993d 54e0 efbb cf9f 343d 0153 0a3d
00000360: 28b7 44bc 8bff a1bd cce9 b2bd 6d40 14be
00000370: 8099 1ebd 1c45 b1bc ace8 fe3c 7f01 ee3d
00000380: 179a eb3c 3a88 9f3c 679c 5f3d 31ec cabc
00000390: 0db1 0abd 6cf7 bc3c c151 5a3c dc76 133d
000003a0: fc09 7cbd ac19 08bd 4b62 dbbc 55c7 01bc
000003b0: 96b0 143d 0844 76bc 4048 4c3c c776 823d
000003c0: 5fcc 193e 6303 293e 6b25 fc3d fcb1 4c3d
000003d0: 0099 1c3d 00d3 e9bb 3964 29bd 1916 f53a
000003e0: a170 373d ae85 313d d1e2 113e e422 983d
000003f0: 8c6e 9fba bfe3 37bd e44e 3abd 75de 83bb

bias f4 [100]
0.008896808 -0.021811329 -0.00029769872 -0.0027825069 -0.0014646492 0.00037489872 -0.0016475954 0.00037589384
-0.00013992812 -0.0027743971 -9.391961e-05 -0.00076921086 -9.40266e-05 -0.00084604946 -0.00482937 -0.22615537
-1.354228 -0.0238138 -0.4017197 -0.046387754 -0.0016327542 -6.865327e-05 -0.004209174 -0.022287868
0.00026233774 -0.00878387 -0.0051501407 7.0226727 -0.0007175952 -0.0011604595 -0.006105738 -1.8647329
-0.0010180005 -0.28992823 -0.29188108 0.00011319312 -0.00034598535 0.12762707 -1.2038301e-05 -0.59658736
-0.0014611895 -0.0014398915 -0.006825241 -0.026520569 -0.017711088 0.00015128887 -0.018326046 6.2868834
-1.0081608 -0.0016289069 0.00090732827 -0.00068101235 -0.006407756 -2.0472782 -0.4421096 -0.0030577772
-0.0021828162 -0.08189674 0.24821764 -0.000600177 0.00054191356 -0.061555795 -0.0032687262 -0.00049445906
-0.0027278585 -0.026354065 -0.0011078714 -0.016167875 -0.0023827453 -0.2927677 0.0005134396 -0.017253479
-0.000996209 -0.003115386 -0.0020830014 -0.35559943 -0.0008125727 0.001170175 -0.00016051161 -4.7393365
-0.0029180115 -0.01838077 0.00023726151 -0.0003542936 -2.3035738 -0.0023298836 -0.0027343784 -0.004567545
-0.005019785 -0.0022288405 0.16782963 -0.75401264 -0.010365204 -0.0011677301 -0.006225722 0.29628685
0.008223686 0.10834229 -0.26210734 -0.17652538
00000000: ebc3 113c acad b2bc 7214 9cb9 b85a 36bb
00000010: 79f9 bfba 0e8e c439 21f4 d7ba 9e13 c539
00000020: abb9 12b9 a9d2 35bb b5f6 c4b8 dea4 49ba
00000030: 2630 c5b8 6bc9 5dba b13f 9ebb 4695 67be
00000040: 5857 adbf 2915 c3bc 34ae cdbe 1601 3ebd
00000050: 2402 d6ba f2f9 8fb8 1ced 89bb 0c95 b6bc
00000060: 608a 8939 39ea 0fbc 83c2 a8bb bcb9 e040
00000070: 001d 3cba 8f1a 98ba a512 c8bb 91af eebf
00000080: 6e6e 85ba 7971 94be 7071 95be 1862 ed38
00000090: 5e65 b5b9 acb0 023e 1cf8 49b7 f3b9 18bf
000000a0: 6285 bfba beba bcba 45a6 dfbb aa41 d9bc
000000b0: d816 91bc 4ca3 1e39 8120 96bc 262e c940
000000c0: 6a0b 81bf 0c81 d5ba c5d9 6d3a f785 32ba
000000d0: 27f8 d1bb 9b06 03c0 315c e2be fd64 48bb
000000e0: 940d 0fbb 7ab9 a7bd c42c 7e3e 3255 1dba
000000f0: 340f 0e3a ee21 7cbd 2038 56bb 969e 01ba
00000100: dfc5 32bb 7be4 d7bc ff35 91ba 7e72 84bc
00000110: d527 1cbb a6e5 95be 5998 063a 2b57 8dbc
00000120: 3a93 82ba 812b 4cbb f782 08bb 2111 b6be
00000130: d502 55ba 8f60 993a 024f 28b9 a5a8 97c0
00000140: 1c3c 3fbb 4593 96bc 67c9 7839 7bc0 b9b9
00000150: c16d 13c0 f6b0 18bb 4233 33bb 58ab 95bb
00000160: 027d a4bb bd11 12bb 88db 2b3e f906 41bf
00000170: d1d2 29bc 850e 99ba 2401 ccbb e9b2 973e
00000180: a4bc 063c 90e2 dd3d ef32 86be 12c3 34be

weight f4 [100, 100]
-0.018438732 0.120940536 0.86934173 0.049552135 0.069686726 -0.058715772 0.10807512 0.07162698
0.08640344 -0.8521035 0.007300331 0.005824619 -0.094740346 -0.02777953 0.025803 -0.02708903
-0.0025209882 0.06804916 0.010310102 -2.0915382 0.02752799 0.07084819 0.30203706 0.0052920547
-0.19239157 -0.25475582 0.21150498 -0.031043328 -0.44904667 -0.12524137 -0.10459632 0.03486765
-0.124267206 -0.020699989 -1.0582914 -0.3058512 -0.020432232 -0.014512016 -0.008083994 -0.29692113
0.32058504 -0.026967712 -0.07901556 -3.0131512 0.23608182 0.05589142 0.17280753 -0.012627358
-0.027657649 -0.12871684 2.0666945 0.068838425 0.15378061 -0.22140658 -0.15893734 -0.061747797
0.123080425 -0.8716691 -0.24910592 0.026805665 0.13608202 -0.49275634 -0.46723008 -0.07817243
-0.08978058 0.19747567 0.028258987 -4.21237 -0.25833738 -0.08494073 0.030230038 -0.17775732
-0.040905252 0.27180552 -1.8519917 -0.26250657 0.020754453 0.2832572 0.052241642 -0.021173576
-0.26463687 -0.97531056 -0.06827595 0.16749999 -0.022886839 -0.050792124 -0.06792644 0.04444116
-0.17168383 -2.7293763 -0.06854666 -0.02103889 -13.940059 -0.16021928 0.08505714 0.12983963
0.20939536 0.022548772 0.024401804 0.0010157624 0.0056314017 0.04602471 0.14761989 -0.17875014
0.08956894 -0.02212411 0.09367426 0.060513224 0.085338585 -0.6318538 0.017116211 -0.05518972
0.004381056 0.041650075 0.11405419 -0.06025563 0.002843096 -0.24943884 0.041950285 -0.4985604
-0.02179996 0.19388926 0.3761748 -0.31422642 0.12332468 0.09148393 -0.41387808 -0.12505847
-0.20407042 0.2259827 0.03853291 0.0051334584 -1.1220467 0.004183497 -0.19521928 0.28169698
0.0645843 -0.008656405 -0.0017587831 -0.106776305 0.3288303 0.27999508 -0.34260693 -1.041394
0.007684964 0.026678393 -0.10153826 -0.12306869 -0.0012574901 -1.7515309 0.29800233 0.21075785
0.011967246 -0.01618668 0.0013353225 -0.08478359 0.17989749 -0.22082886 -0.2555722 -0.059161138
0.13210474 0.3234621 -0.6549296 -0.17547499 -0.21921396 -0.7604273 0.06701851 -1.9961885
0.22284266 0.23282328 -0.02068932 -0.34029102 -0.009731585 -1.4071255 -0.5050751 0.013406602
0.24683262 0.035888456 -0.1836819 -0.049187806 0.09704693 -4.9892597 -0.08401385 -0.561466
-0.08952826 -0.32580194 0.06907477 -0.08286322 -1.0154186 -0.25473303 0.07509496 0.1162171
-3.8558605 -0.16737898 -0.04882229 -0.31363317 -0.030917691 -0.1532615 -0.062822595 -0.0675534
0.07256698 0.02532509 7.564998e-05 -0.7621539 0.03754101 -0.049319528 0.019086706 -0.028905395
0.1051493 0.06034709 -0.014498936 -0.02665619 0.017526925 -0.005007535 -0.06570335 -0.09562802
-0.025509315 -0.015954444 0.014874504 0.05896253 0.20405385 0.0021902681 0.054254208 0.14552338
-0.13915011 0.14322774 -12.381582 -0.146809 0.028076824 -0.48176852 0.0025476946 -0.083262965
-0.18074901 -0.46843892 -0.018176593 -0.089795694 -0.057093896 0.051119 0.16528805 0.13606247
0.06896487 -0.5610735 -3.959256 -4.987773 0.08346648 -0.012584698 -2.723497 -0.11674894
0.016861837 0.09007553 -0.004482023 0.11876841 -0.0036845559 -0.03340271 -0.0639364 -0.12522249
00000000: d30c 97bc acaf f73d 2e8d 5e3f 2ef7 4a3d
00000010: eab7 8e3d f37f 70bd 7d56 dd3d 2bb1 923d
00000020: 49f4 b03d 7423 5abf 9d37 ef3b 72dc be3b
00000030: 3a07 c2bd e691 e3bc d060 d33c d0e9 ddbc
00000040: 2a37 25bb 5c5d 8b3d b4eb 283c c3db 05c0
00000050: 6182 e13c db18 913d 9aa4 9a3e f968 ad3b
00000060: 4c02 45be 5b6f 82be c394 583e 944e febc
00000070: 72e9 e5be 463f 00be 9836 d6bd 62d1 0e3d
00000080: ce7f febd 0693 a9bc 1876 87bf 8798 9cbe
00000090: 7f61 a7bc cfc3 6dbc ba72 04bc 0c06 98be
000000a0: b923 a43e 64eb dcbc e9d2 a1bd 78d7 40c0
000000b0: 6fbf 713e 67ee 643d 75f4 303e fae2 4ebc
000000c0: 4b92 e2bc 59ce 03be b944 0440 29fb 8c3d
000000d0: aa78 1d3e 68b8 62be 78c0 22be 42eb 7cbd
000000e0: 9711 fc3d b525 5fbf 9f15 7fbe 8e97 db3c
000000f0: 1659 0b3e 8f4a fcbe c838 efbe de18 a0bd
00000100: e1de b7bd 1037 4a3e 647f e73c bccb 86c0
00000110: cc44 84be 68f5 adbd fca4 f73c 0406 36be
00000120: 448c 27bd 182a 8b3e 100e edbf 4367 86be
00000130: 3e05 aa3c 1607 913e 55fb 553d 3574 adbc
00000140: 7c7e 87be f4ad 79bf 43d4 8bbd 1e85 2b3e
00000150: 2e7d bbbc 670b 50bd 041d 8bbd ef07 363d
00000160: e3cd 2fbe 1aae 2ec0 3162 8cbd c059 acbc
00000170: 7b0a 5fc1 8610 24be 7032 ae3d aef4 043e
00000180: bd6b 563e 34b8 b83c 4be6 c73c 5523 853a
00000190: 9f87 b83b 6884 3c3d ab29 173e 470a 37be
000001a0: ec6f b73d 9f3d b5bc 4ad8 bf3d b7dc 773d
000001b0: ffc5 ae3d 2cc1 21bf 4c37 8c3c 9e0e 62bd
000001c0: f68e 8f3b 4599 2a3d 3e95 e93d 9cce 76bd
000001d0: 3c53 3a3b e56c 7fbe 10d4 2b3d 4f43 ffbe
000001e0: d495 b2bc e88a 463e fc99 c03e 49e2 a0be
000001f0: a691 fc3d ed5b bb3d d4e7 d3be 540f 00be
00000200: d6f7 50be 0268 673e afd4 1d3d 9236 a83b
00000210: 3a9f 8fbf b715 893b 90e7 47be 963a 903e
00000220: c644 843d 98d3 0dbc f886 e6ba 89ad dabd
00000230: 725c a83e 845b 8f3e 2d6a afbe 664c 85bf
00000240: 27d2 fb3b a58c da3c 4bf3 cfbd 700b fcbd
00000250: 5ed2 a4ba 2a32 e0bf c393 983e e8d0 573e
00000260: 4512 443c ee99 84bc fd05 af3a 05a3 adbd
00000270: 0c37 383e f620 62be 5cda 82be f352 72bd
00000280: 7746 073e d39c a53e 77a9 27bf b7af 33be
00000290: a079 60be 5dab 42bf 0041 893d 1b83 ffbf
000002a0: de30 643e 3a69 6e3e a67c a9bc a03a aebe
000002b0: 3a71 1fbc b01c b4bf 9a4c 01bf 5da7 5b3c
000002c0: b1c1 7c3e c6ff 123d 1c17 3cbe 2779 49bd
000002d0: 8ac0 c63d 04a8 9fc0 740f acbd 3cbc 0fbf
000002e0: 985a b7bd 83cf a6be 1377 8d3d 31b4 a9bd
000002f0: 3df9 81bf 5e6c 82be 63cb 993d 3b03 ee3d
00000300: 6bc6 76c0 6565 2bbe e2f9 47bd 8794 a0be
00000310: 1947 fdbc 95f0 1cbe 22a9 80bd 7059 8abd
00000320: ff9d 943d 9076 cf3c 46a6 9e38 851c 43bf
00000330: 9ac4 193d 4603 4abd b95b 9c3c 02cb ecbc
00000340: 8458 d73d 832e 773d f28c 6dbc 155e dabc
00000350: a094 8f3c 4016 a4bb 7a8f 86bd a0d8 c3bd
00000360: e9f8 d0bc e5b2 82bc 31b4 733c b282 713d
00000370: 7ef3 503e 9a8a 0f3b a939 5e3d 1504 153e
00000380: 5e7d 0ebe 4baa 123e f61a 46c1 1955 16be
00000390: 5e01 e63c 5daa f6be 39f7 263b c685 aabd
000003a0: 4516 39be 3ad7 efbe 14e7 94bc cee6 b7bd
000003b0: 4adb 69bd 2862 513d 4541 293e f653 0b3e
000003c0: 743d 8d3d 83a2 0fbf 7364 7dc0 d69b 9fc0
000003d0: 79f0 aa3d 0d30 4ebc c64d 2ec0 111a efbd
000003e0: d621 8a3c 8579 b83d efdd 92bb da3c f33d
000003f0: 9778 71bb 48d1 08bd 16f1 82bd 533a 00be

bias f4 [100]
0.3496873 1.760257 2.3661768 2.2266936 2.6280077 3.4921298 3.963373 1.2223593
0.5578381 1.8654064 0.15731794 0.4660892 -0.36144876 3.821277 1.1884359 4.8304415
0.8398333 1.2739115 2.4764128 2.5445335 -3.8904374 -1.2114369 -0.36382633 3.9762983
3.1915786 0.968327 2.3690045 1.7047919 0.7178892 -5.0282674 3.9571688 3.0599535
6.6896095 2.7515275 0.9084962 1.1405818 2.8581986 3.8292027 0.6389169 3.303267
0.9705057 2.5425787 3.0710807 -0.51495177 5.613997 3.1255927 -1.4695473 -1.1482939
5.1434183 -1.3699226 0.80024266 2.6585388 0.2524749 1.6998098 4.552477 4.188061
-2.2469726 0.38259792 3.477536 4.847796 2.88078 5.4112234 3.8738458 -0.025470117
0.9623958 3.5124123 2.0374684 3.4399252 5.162701 2.9722264 1.4126986 1.1360666
-0.4125872 0.92721254 2.7879632 2.5100806 2.87717 4.2697897 -0.41825038 -0.0074706543
2.1558318 6.7773056 2.696545 1.5382926 1.0029368 1.0676928 1.0777901 2.1866198
4.1809072 6.905465 -0.78612703 -0.061227128 1.7990094 3.040716 1.0058407 -0.64815617
3.4344 0.37207103 1.3759946 3.0054572
00000000: 370a b33e 1a50 e13f 716f 1740 2682 0e40
00000010: 4731 2840 0e7f 5f40 e7a7 7d40 4576 9c3f
00000020: 7ace 0e3f a3c5 ee3f f417 213e 3ea3 ee3e
00000030: d00f b9be cd8f 7440 ab1e 983f fa92 9a40
00000040: 51ff 563f 880f a33f 8c7d 1e40 a3d9 2240
00000050: edfc 78c0 5d10 9bbf 7247 babe ac7b 7e40
00000060: d342 4c40 47e4 773f c59d 1740 9f36 da3f
00000070: 96c7 373f 91e7 a0c0 4142 7d40 47d6 4340
00000080: 4811 d640 0719 3040 3593 683f 96fe 913f
00000090: baec 3640 a811 7540 0f90 233f ba68 5340
000000a0: 1073 783f 9cb9 2240 968c 4440 e1d3 03bf
000000b0: dda5 b340 b609 4840 201a bcbf 4bfb 92bf
000000c0: e296 a440 a059 afbf b4dc 4c3f 8025 2a40
000000d0: 6444 813e 5e93 d93f e4ad 9140 9904 8640
000000e0: 66ce 0fc0 e0e3 c33e f38f 5e40 2521 9b40
000000f0: b35e 3840 be28 ad40 17ed 7740 b5a6 d0bc
00000100: 925f 763f 5dcb 6040 e265 0240 bc27 5c40
00000110: d934 a540 f538 3e40 4fd3 b43f a16a 913f
00000120: a13e d3be cd5d 6d3f fd6d 3240 29a5 2040
00000130: 8e23 3840 1ea2 8840 ea24 d6be 64cc f4bb
00000140: 26f9 0940 b0df d840 3194 2c40 c6e6 c43f
00000150: 3c60 803f 28aa 883f 07f5 893f 94f1 0b40
00000160: fec9 8540 92f9 dc40 9f3f 49bf 4cc9 7abd
00000170: f145 e63f 179b 4240 63bf 803f 90ed 25bf
00000180: 36cd 5b40 1880 be3e 9720 b03f 6959 4040

weight f4 [12, 100]
-2.7537475 -1.1588008 -2.517625 0.3900203 -0.30074558 -0.5613299 0.061961982 0.02051434
-2.4076982 0.14921832 -4.4375234 -0.009492974 -0.10809954 -0.0585605 0.04803949 -0.03722275
0.041306134 0.074373625 0.12902153 -0.61337745 -0.06788275 -0.08879338 0.007471925 0.041858602
-0.5427584 0.15157862 0.05063406 -0.0011149008 0.02648286 0.009605613 -0.46482 0.21321405
0.00053699 0.163119 -0.00017194089 -4.4146504 0.3574073 -0.24657682 0.0138949 0.08230233
0.12612437 -1.1436253 -0.13753097 -0.0958174 -0.06492779 -0.062080134 0.030751351 -0.10288639
-0.2517249 -0.04092949 0.11943797 0.018251367 -0.04729276 0.009233204 -0.0045436793 -0.17820136
0.06439755 -4.8796663 0.010641374 -0.39558104 0.012705418 -0.19018689 -0.14571418 0.0109365005
-2.7999847 0.016004665 0.19571158 -0.02646952 0.20340379 -0.05973433 -0.1318617 0.049530573
0.017221153 0.4523492 -0.114487834 0.10404871 -0.37675697 -0.15891601 -0.0179073 1.5410616
2.1031232 -0.024349555 0.04125812 -0.30361566 -0.011222029 -0.019593703 -0.00684815 -0.18886808
-0.29978338 0.034441963 -0.005690924 0.14792806 -0.009508963 -0.10846538 7.276053 0.024919251
0.36773866 19.35898 1.3055074 1.5134542 -2.6735158 -1.7398758 -0.8799795 0.16056302
-0.33287078 -0.44933018 -0.052246742 0.035413034 -2.8612552 0.32372573 -6.516572 0.011787098
0.0058323084 -0.005193404 0.0028545621 0.058323488 0.0047980268 0.32595336 0.028326094 -0.8120094
-0.0889505 -0.07204536 -0.04547768 0.10351755 0.058998547 -0.15142177 0.07456094 0.04837469
-0.08506977 0.009781247 -0.08488859 -0.06921035 0.09414693 -0.2970364 0.22351012 0.3995926
-0.66456246 -0.33903447 -0.012815441 -0.11946443 -0.016761327 -1.6138189 -0.14100277 0.25078672
-0.10507286 -0.02800914 0.10611808 -0.00015175075 0.2562512 -0.015580106 0.001248311 -0.068447545
0.104607575 -0.040669523 0.008844144 -0.24323034 0.10003597 -0.73381597 -0.11883984 -0.28020334
0.057695344 0.0095524425 -0.506621 -0.004277383 -4.350164 0.08788047 0.054636724 0.06588117
0.22168343 -0.062075596 0.06474226 -0.025499167 -0.25370154 0.26434836 -0.11605283 0.041396443
-0.5942799 -0.3376958 0.13148326 2.1916711 1.9651707 0.055088315 -0.043834437 -0.3319025
7.8179116 0.06763106 0.031415872 -0.1692326 -0.19914465 0.029838178 -0.05323322 -0.04780255
-0.047674872 -0.07529553 10.298549 -0.30162528 0.6978333 23.291862 -1.9110024 1.5569217
2.1360757 0.26460996 -1.2105888 -0.5525538 0.33326477 0.21305446 -0.051870577 0.1610302
-2.2993398 -0.5597335 -2.044954 -0.032839347 0.025641784 0.021537758 0.15586334 0.23977673
0.050998386 -0.18327396 -0.05610299 0.68837935 0.024795765 -0.018492155 0.011217646 -0.2440798
0.14814265 -0.14042163 0.041998845 0.0024880855 -0.18031752 0.08247547 -0.0343646 -0.11938123
-0.051553212 -0.116055354 0.031243496 -3.714051 0.033970956 -0.28680807 -0.08756478 0.103989206
0.017615242 1.3137782 0.06904203 -0.087824896 -0.078591645 0.22561719 -0.00082824414 0.07011835
0.11788788 0.0049535767 -0.04732468 -0.3380413 0.056295644 -0.12986442 -0.39305288 -0.3212812
00000000: 663d 30c0 9653 94bf c520 21c0 beb0 c73e
00000010: 53fb 99be 51b3 0fbf d9cb 7d3d b00d a83c
00000020: ba17 1ac0 b0cc 183e 3100 8ec0 6b88 1bbc
00000030: 4b63 ddbd 23dd 6fbd 0ec5 443d e276 18bd
00000040: 9f30 293d 3351 983d 381e 043e 4e06 1dbf
00000050: 1c06 8bbd 4ed9 b5bd 0dd7 f43b ed73 2b3d
00000060: 37f2 0abf 6d37 1b3e a965 4f3d dd21 92ba
00000070: 95f2 d83c dc60 1d3c e3fc edbe c954 5a3e
00000080: cac4 0c3a ab08 273e 084b 34b9 d144 8dc0
00000090: 17fe b63e a27e 7cbe 6fa7 633c 208e a83d
000000a0: bf26 013e 5062 92bf ebd4 0cbe ea3b c4bd
000000b0: dcf8 84bd bd47 7ebd 42ea fb3c 1ab6 d2bd
000000c0: 16e2 80be aea5 27bd e59b f43d e483 953c
000000d0: 0eb6 41bd dd46 173c 25e3 94bb 6b7a 36be
000000e0: dde2 833d 3a26 9cc0 2859 2e3c 9989 cabe
000000f0: 632a 503c 5ac0 42be 1936 15be 022f 333c
00000100: f332 33c0 371c 833c 9e68 483e 9bd6 d8bc
00000110: 1549 503e fcab 74bd c106 07be 92e0 4a3d
00000120: 6013 8d3c 509a e73e 9978 eabd 7d17 d53d
00000130: 4ae6 c0be e1ba 22be 54b2 92bc 8241 c53f
00000140: 9299 0640 b878 c7bc 46fe 283d 8373 9bbe
00000150: 9adc 37bc f982 a0bc 7266 e0bb a266 41be
00000160: 357d 99be 0413 0d3d ee7a babb 747a 173e
00000170: 7bcb 1bbc 1923 debd 6dd5 e840 7523 cc3c
00000180: 3e48 bc3e 31df 9a41 de1a a73f deb8 c13f
00000190: e21a 2bc0 40b4 debf 5646 61bf a26a 243e
000001a0: 0a6e aabe 9b0e e6be ae00 56bd 420d 113d
000001b0: ce1e 37c0 61bf a53e c287 d0c0 ac1e 413c
000001c0: f31c bf3b 6e2d aabb 9b13 3b3b 9ce4 6e3d
000001d0: c438 9d3b 5ce3 a63e 200c e83c d9df 4fbf
000001e0: ae2b b6bd 858c 93bd ce46 3abd 0201 d43d
000001f0: 76a8 713d 4f0e 1bbe 68b3 983d 8a24 463d
00000200: 0f39 aebd 8641 203c 12da adbd 28be 8dbd
00000210: 1bd0 c03d 2815 98be d6df 643e 6797 cc3e
00000220: c420 2abf ed95 adbe dbf7 51bc c4a9 f4bd
00000230: 0d4f 89bc 9e91 cebf 0863 10be 1e67 803e
00000240: 7130 d7bd 6d73 e5bc 7054 d93d 481f 1fb9
00000250: 5b33 833e b343 7fbc 5e9e a33a 3a2e 8cbd
00000260: 7f3c d63d 1695 26bd 07e7 103c 6011 79be
00000270: a9df cc3d 5ddb 3bbf 4d62 f3bd d076 8fbe
00000280: f451 6c3d d981 1c3c eab1 01bf 4a29 8cbb
00000290: 8b34 8bc0 adfa b33d c2ca 5f3d b5ec 863d
000002a0: fb00 633e fb42 7ebd 9797 843d a1e3 d0bc
000002b0: 2be5 81be ab58 873e 1bad edbd 518f 293d
000002c0: ba22 18bf 77e6 acbe 8ca3 063e 5744 0c40
000002d0: b78a fb3f 49a4 613d bd8b 33bd 20ef a9be
000002e0: 552c fa40 2782 8a3d eead 003d 504b 2dbe
000002f0: 93ec 4bbe 326f f43c 140b 5abd 9bcc 43bd
00000300: ba46 43bd 8b34 9abd dbc6 2441 a16e 9abe
00000310: 34a5 323f bc55 ba41 ba9b f4bf 3649 c73f
00000320: 77b5 0840 f57a 873e 93f4 9abf 2a74 0dbf
00000330: aea1 aa3e f32a 5a3e 3e76 54bd 1ae5 243e
00000340: 6228 13c0 b24a 0fbf 87e0 02c0 8d82 06bd
00000350: b80e d23c f46f b03c a49a 1f3e 0888 753e
00000360: afe3 503d 2bac 3bbe 40cc 65bd a139 303f
00000370: 7d20 cb3c dc7c 97bc 38ca 373c 0ef0 79be
00000380: b5b2 173e b0ca 0fbe fb06 2c3d 260f 233b
00000390: 28a5 38be e6e8 a83d e5c1 0cbd 257e f4bd
000003a0: 7629 53bd 6eae edbd 5cf2 ff3c 03b3 6dc0
000003b0: 2125 0b3d 82d8 92be 2a55 b3bd 4bf8 d43d
000003c0: d74d 903c e229 a83f e865 8d3d 8add b3bd
000003d0: a8f4 a0bd 3108 673e 861e 59ba 369a 8f3d
000003e0: 336f f13d 9d51 a23b 86d7 41bd c013 adbe
000003f0: 4396 663d 2efb 04be 3a3e c9be f87e a4be

bias f4 [12]
1.3173124 1.2421781 -0.28744337 0.10147509 -1.5927547 -1.4547235 0.09471845 -1.0377517
-0.94718635 -1.0372335 -0.46806633 -2.9179423
00000000: b19d a83f b1ff 9e3f c72b 93be 2cd2 cf3d
00000010: 63df cbbf 6134 babf bffb c13d 0cd5 84bf
00000020: ce7a 72bf 11c4 84bf 64a6 efbe 91bf 3ac0
