trainingOnSyntheticData/results/20230807_122502_train/model_training_set_size_2000000_hidden_neurons_100_n_batches_500.pt (torch, 129567 bytes, 6 tensors)

weight f4 [100, 200]
000000 d3 bb af bd 1b 86 fd 3c 52 49 b7 bb 9f 9b 93 bc
       -0.085807465 0.030947736 -0.0055934573 -0.018018542
000010 a9 77 94 bd c9 52 17 3c be 93 ca bc 8c ea 10 bd
       -0.07249386 0.009236046 -0.024728652 -0.03537993
000020 ff 1e f3 bc ab 5f cc bd a8 73 21 bd 26 9b 65 bc
       -0.029677866 -0.09979185 -0.03941694 -0.014014041
000030 19 ac 34 bd a5 10 cb bd 95 c6 cf bd 80 56 c0 bc
       -0.044109438 -0.09915284 -0.101452984 -0.023478746
000040 90 36 64 bd 32 3d 81 bd a0 09 38 be d2 d2 8e bd
       -0.055716097 -0.063105 -0.17972422 -0.069738045
000050 a2 d3 57 bd 07 48 cc bd d3 51 19 be ae e7 e0 bd
       -0.052692063 -0.099746756 -0.1497262 -0.109816894
000060 b4 35 01 be 6c f6 bf bd 8b e4 f3 bd 53 49 69 be
       -0.12618142 -0.09373173 -0.119088255 -0.22781877
000070 c7 1a 07 be de 5b a7 bd 93 58 6f be ce e1 21 be
       -0.13193808 -0.08171819 -0.23373632 -0.15808794
000080 5f dd 35 be ef 09 3e be d8 89 3b be d7 92 40 be
       -0.17760228 -0.18558477 -0.18314302 -0.18806015
000090 ca b7 82 be e5 f8 60 be 22 42 4d be 8a 29 54 be
       -0.25530845 -0.21969946 -0.20044759 -0.20718971
0000a0 3f 03 87 be bc 5c 91 be 0a 7a 3a be ec d6 8a be
       -0.26369664 -0.28391063 -0.18210617 -0.27117097
0000b0 64 71 8b be 35 54 98 be f1 7a 86 be d0 d0 8e be
       -0.27234948 -0.29751745 -0.26265672 -0.27893686
0000c0 94 12 86 be 23 11 a5 be 1e ba 95 be 99 ef 9c be
       -0.2618605 -0.32239637 -0.2924356 -0.30651549
0000d0 04 bb 97 be 19 55 a7 be 5d 2b 79 be 41 fe bd be
       -0.2963487 -0.32682112 -0.24332948 -0.37108043
0000e0 45 af a8 be 51 86 8b be 34 5b b4 be e4 58 91 be
       -0.3294622 -0.27250913 -0.35225832 -0.2838813
0000f0 df 12 bd be 6f f0 a7 be eb 6b 96 be 55 4f aa be
       -0.3692846 -0.32800624 -0.2937921 -0.3326365
000100 cc af 88 be 46 f4 cc be b1 70 97 be 0b bc a1 be
       -0.26696622 -0.40030116 -0.29578164 -0.31588778
000110 43 4b aa be b7 08 97 be 68 ba b8 be 9c 2d 86 be
       -0.33260545 -0.29498836 -0.36079717 -0.26206672
000120 23 ba a9 be 18 50 8e be 36 55 99 be ea fc 85 be
       -0.33149824 -0.27795482 -0.29947823 -0.2616952
000130 42 94 b6 be 3f 84 60 be b6 fd 88 be dd 25 8a be
       -0.35659987 -0.21925448 -0.26756066 -0.26982012
000140 a4 80 85 be ca b0 7c be 89 61 3c be 7b 26 7b be
       -0.26074708 -0.24676815 -0.18396582 -0.24526398
000150 13 98 32 be 0f 0c 90 be 41 4f f4 bd 02 71 fd bd
       -0.17440824 -0.281342 -0.11929179 -0.1237507
000160 d0 1e 85 be e4 91 db bd 03 7d 1e be d1 d0 aa bd
       -0.2600007 -0.10721186 -0.15477376 -0.0834061
000170 21 fa 81 bd 5a 59 4c be 8e 87 0d be b7 36 cc 3d
       -0.063465364 -0.1995596 -0.13821241 0.099713735
000180 c2 73 ca bd fb a1 06 be 65 ce d0 bc 39 5a 8d 3d
       -0.0988536 -0.13147728 -0.025489042 0.06901974
000190 cd 53 de bc 13 a8 b6 3d ff 67 06 be e9 84 a9 3d
       -0.027139569 0.08918776 -0.13125609 0.08277304
0001a0 72 5c c4 3d 68 d4 a9 3d 1a 5d ca 3d 06 85 97 bc
       0.09587945 0.082924664 0.09881039 -0.018496048
0001b0 47 d5 5c 3e 8d 51 f7 3d c8 90 17 3e ee a3 eb 3d
       0.21565734 0.120761015 0.14801323 0.115058765
0001c0 13 06 d9 3d 2d 96 4a 3e 15 88 87 3e 54 7b 23 3e
       0.10596862 0.1978385 0.2647101 0.15965015
0001d0 7c 92 50 3e c1 65 40 3e 28 21 60 3e 53 a3 a0 3e
       0.2036838 0.18788816 0.21887648 0.31374606
0001e0 6d c6 4f 3e 65 8e 7a 3e 30 de 84 3e 30 11 93 3e
       0.20290537 0.24468382 0.25950766 0.2872405
0001f0 b3 72 aa 3e ca f7 7a 3e bc dd 9f 3e d3 88 6b 3e
       0.33290634 0.24508587 0.31223857 0.23001413
000200 ec 4f bd 3e 65 3a a2 3e 2e 09 85 3e df fd b1 3e
       0.36975038 0.31685176 0.25983566 0.34764
000210 96 0f 9b 3e 1c 3a bf 3e c0 aa 88 3e fa 51 b9 3e
       0.3028533 0.3734902 0.26692772 0.36195356
000220 ea 47 a4 3e 1c 02 96 3e e2 75 a5 3e 56 a2 be 3e
       0.32086116 0.29298484 0.323165 0.37233227
000230 59 f3 73 3e b1 93 c7 3e cb 06 94 3e f7 57 b3 3e
       0.23823299 0.38979867 0.28911433 0.3502805
000240 ca bb 9b 3e 4e 7a aa 3e c5 40 96 3e f9 7a 82 3e
       0.3041671 0.33296436 0.2934629 0.25484446
000250 56 1a ab 3e 44 ee b7 3e a5 92 92 3e 53 e8 7a 3e
       0.3341853 0.3592397 0.28627506 0.24502687
000260 a0 10 84 3e 6c 2d b9 3e 43 af 97 3e 72 32 4e 3e
       0.25793934 0.36167467 0.29625902 0.20136431
000270 7f cc 81 3e 09 db 86 3e 99 62 a8 3e 7b c4 45 3e
       0.2535133 0.26338986 0.32887724 0.19313233
000280 f7 9f 89 3e 4e 1f 19 3e 20 1b 7e 3e 4b a7 87 3e
       0.26879856 0.14953348 0.24815035 0.26494822
000290 2d 38 43 3e 98 f6 5f 3e 7c 59 27 3e f2 30 32 3e
       0.19064398 0.21871412 0.1634273 0.17401484
0002a0 e4 c2 6f 3e 93 5b 16 3e 25 b8 0f 3e e9 ab 3a 3e
       0.23414189 0.1468337 0.1403509 0.18229641
0002b0 b4 ad 13 3e cb 62 14 3e b7 28 04 3e c4 9b 14 3e
       0.14421731 0.14490812 0.12906156 0.14512545
0002c0 7c f1 f4 3d a8 a1 07 3e 86 9b 53 3d 2d 46 02 3e
       0.11960122 0.1324526 0.05166199 0.12722082
0002d0 60 67 f9 3d a7 fb d2 3d ff c9 0d 3d 5d 2c 0f 3e
       0.1217792 0.10301905 0.034616467 0.13981767
0002e0 d6 2a 22 3d 4a d3 8e 3d d4 e6 a7 3d cd cc a5 3d
       0.039591633 0.06973894 0.08198324 0.08095703
0002f0 17 98 22 3d d3 3a 28 3c ee b8 47 3d df 4a 05 3e
       0.039695825 0.010267931 0.048760347 0.13016842
000300 23 da 2f 3c 5e 20 3f 3d f0 31 63 bd 9f 4d 6a 3d
       0.01073316 0.046661727 -0.055467546 0.05720293
000310 ae 0f f4 3d c2 99 52 3c 70 43 3b be 4e 47 49 3e
       0.11917053 0.0128540415 -0.18287444 0.19656107
000320 03 bc a2 bd a4 19 08 bd ca d7 2a bd a7 32 fa bc
       -0.07946017 -0.033227578 -0.0417097 -0.030541731
000330 67 5a e8 bd c0 2a 02 be 42 c2 cc bd b8 9b 8e bd
       -0.11345368 -0.1271162 -0.09997989 -0.06963295
000340 2a 85 29 be 89 f4 07 be c3 86 25 be b4 73 3a be
       -0.16554704 -0.13276877 -0.16164689 -0.182082
000350 62 ba 7f bd c7 08 03 be 54 59 10 be e2 2b 8a bd
       -0.062433608 -0.12796317 -0.14096576 -0.06746651
000360 22 48 05 be 32 f3 3f bd 35 07 a9 bd a7 ab 9b bd
       -0.13015798 -0.04686279 -0.08253328 -0.076010995
000370 68 9a 34 be a9 f1 f8 bd 95 79 cb bd 4b 67 93 bc
       -0.17637026 -0.12155468 -0.09935299 -0.01799359
000380 5c b4 c0 bd ae 81 b5 bd fe 81 14 bb cf d7 30 bd
       -0.09409401 -0.08862625 -0.002266049 -0.04317456
000390 fa fa d2 bd 9c 44 d7 3c 0f a0 85 3d 04 61 2c 3c
       -0.10301776 0.026277833 0.065246694 0.010521177
0003a0 6a 48 f8 3c 71 7e c2 3d 7e 5d 01 3e 31 bc dc 3c
       0.030307967 0.09496773 0.1263332 0.026945205
0003b0 cf ff a9 3d 2b 80 14 3c e9 f3 ed 3d 41 5a b1 3d
       0.08300745 0.009063761 0.11618788 0.08659793
0003c0 ec 5a a7 3d f8 1b 06 3e 5f b2 17 3e 7a e3 b6 3d
       0.08171639 0.13096607 0.14814137 0.089301065
0003d0 16 27 14 3e 66 38 49 3e 04 ee 47 3e f0 c2 50 3e
       0.14468035 0.1965042 0.1952439 0.20386863
0003e0 35 65 3f 3e c2 ec 61 3e c3 39 69 3e 3c 99 3b 3e
       0.18690951 0.22062972 0.2277594 0.18320173
0003f0 c9 cf 8f 3e 70 c7 41 3e 19 84 65 3e 61 42 6b 3e
       0.28088215 0.18923736 0.22413673 0.2297454

bias f4 [100]
000000 50 e3 75 ba bb 7f cd bb ae 5a f4 ba 2e 6d 22 bb
       -0.00093798805 -0.00627133 -0.0018642747 -0.0024784314
000010 03 ba 87 b9 36 d3 fc 3d db 16 90 bd bb 23 ab ba
       -0.00025887796 0.12344973 -0.07035609 -0.0013056913
000020 9f af f5 bf 97 86 43 bb e6 8d 71 3a 22 1d ff b9
       -1.919422 -0.002983486 0.0009214565 -0.00048659096
000030 1a ad 3d bd a5 04 81 bb 50 68 01 3d 05 2e 4e ba
       -0.04630766 -0.0039373212 0.03159362 -0.0007865134
000040 56 92 98 ba 65 3b 5e bc 5e 90 b8 3e bc 90 37 be
       -0.0011640291 -0.013563965 0.36047643 -0.17926306
000050 f3 1d 3c bb 9c be 82 c0 0d 6a 2a b9 ca 19 9b bb
       -0.0028704375 -4.0857677 -0.0001625197 -0.004733299
000060 36 dd e9 3f 0d 49 8a bb 52 80 55 bd 22 a2 59 ba
       1.8270633 -0.004220134 -0.05212433 -0.0008302053
000070 be 38 fe bd cf 10 95 b9 49 69 b6 3d 3f db aa 39
       -0.124131665 -0.00028432018 0.089068 0.00032588278
000080 c2 8e ee 39 58 e2 94 bc 25 52 29 bc db 14 96 c0
       0.0004550126 -0.018174335 -0.010334526 -4.690046
000090 52 f5 ad ba 08 c5 98 40 99 9f 93 3d 04 70 c7 bf
       -0.0013271964 4.7740517 0.07208175 -1.558106
0000a0 0f 2a 1d bf 46 60 9a bc 7a 94 d4 be 23 b6 aa c0
       -0.613923 -0.018844735 -0.4151953 -5.3347335
0000b0 06 76 f2 be bd b0 03 bc cf 70 8f 3e 88 25 e5 3a
       -0.4735567 -0.008037743 0.28015754 0.0017482499
0000c0 25 3d 04 3c 8e 1b 27 bc c1 76 5a bc 40 cb 2d bd
       0.008071219 -0.010199441 -0.013333977 -0.042430162
0000d0 70 ae 89 bf c7 ed d9 be cd 01 59 bc 07 a7 27 bf
       -1.0756359 -0.42564222 -0.013245058 -0.6548924
0000e0 48 8d 9b ba 47 f4 e8 bc 10 06 e2 bd 51 2e ac 3c
       -0.0011867667 -0.028436793 -0.110363126 0.02101818
0000f0 0f 19 37 bf 7a 4b 18 3d dc 23 37 bd 4b c5 8f 3e
       -0.7152261 0.037181355 -0.044711933 0.2808021
000100 e7 94 51 38 14 b9 91 ba 37 ad ba 39 d4 e3 32 c1
       4.996816e-05 -0.001111778 0.0003560574 -11.180622
000110 0f c8 67 41 ce 22 b7 bc e4 b1 f4 38 08 aa ef 3d
       14.486342 -0.022355463 0.000116679614 0.11702353
000120 25 d5 b8 bb b0 df b2 3f 18 01 29 c0 a1 5d 98 ba
       -0.005640643 1.3974514 -2.6406918 -0.0011624583
000130 76 f1 ca ba 09 da d9 c0 18 ce 68 ba 5a 93 8e bd
       -0.0015483338 -6.8078656 -0.0008880808 -0.06961699
000140 01 ae 3b bd be c7 0b c0 14 2b 1c bb 3f 5b bb bc
       -0.04582024 -2.1840663 -0.0023829388 -0.022870658
000150 27 13 60 3d d1 3a 51 bc ce f5 af 3b 27 8e 56 ba
       0.054705765 -0.012770371 0.0053698784 -0.00081846345
000160 40 b7 5f be b0 99 0c 3b ab 77 a8 bd b2 92 e0 3c
       -0.21847248 0.002145391 -0.0822595 0.0274137
000170 1d 56 83 bc 4b bf 4d ba 60 9b 3d 3e 46 84 0f bb
       -0.016032273 -0.0007848634 0.18516302 -0.002189891
000180 14 60 31 bc d7 9d 66 c1 86 0e 59 be 4e 97 f1 ba
       -0.0108261295 -14.413535 -0.21196947 -0.0018431933

weight f4 [100, 100]
000000 90 d6 79 3d 3c f2 0b 3e 05 10 98 3d 8c b5 99 be
       0.06099564 0.13666624 0.074249305 -0.30021322
000010 e1 3c fb 3d 80 c7 c7 3c c3 ae 29 bc 2a da 31 3d
       0.12267471 0.024387121 -0.010356608 0.043420948
000020 1f ba 85 3d 2e 7b ce 3c 7c 4c 08 3e 6f ab dc bc
       0.065296404 0.025205221 0.13310426 -0.026937215
000030 6a 86 82 bc 4c 3f ae bd 0e 7d af bc 23 25 33 3d
       -0.015933234 -0.08508167 -0.021421935 0.04373659
000040 20 8b ec 3f 90 d8 1e 3e 8b 9a 37 bd b9 a4 c4 be
       1.8479958 0.155123 -0.044825118 -0.38406923
000050 37 07 84 bd 6d 58 e1 be 19 eb a9 3d fa f3 73 3e
       -0.064466886 -0.44012776 0.082967944 0.23823538
000060 b4 72 f2 be b8 60 df 3b e4 78 4a 3e 25 52 9c bd
       -0.47353137 0.0068169497 0.19772679 -0.07632855
000070 ef 89 1d bf 98 d6 a0 bd 44 43 f5 bc 97 16 83 bc
       -0.61538595 -0.078534305 -0.029939301 -0.016001983
000080 5c bf a2 bc ec 6c 23 41 3f 2f aa 3d 98 c2 81 be
       -0.019866638 10.214092 0.08309793 -0.25343776
000090 70 cf 9a 3d 20 7b 9c be b3 f5 0d bd 99 7b 7a 3a
       0.07559097 -0.30562687 -0.034658145 0.00095551607
0000a0 d0 4f fd 3d a1 03 96 c1 9a 74 84 bd 39 19 bb be
       0.12368739 -18.751772 -0.064675525 -0.3654268
0000b0 7f 24 99 bb e6 76 b9 3e 4d 22 56 3e 29 42 e6 3d
       -0.00467354 0.36223525 0.20911522 0.11243088
0000c0 f6 ec 8a 3e c3 04 f4 3d be 0e 0c bd 45 60 f7 c1
       0.27133912 0.11914971 -0.034193747 -30.922007
0000d0 39 d8 b4 be b3 61 53 3e 81 6f bb bd 8f 62 28 be
       -0.35321215 0.20642738 -0.09152127 -0.16443847
0000e0 3f 69 5e 3d 4c ce ba c1 b8 af d2 3e c2 24 44 bd
       0.05429959 -23.35073 0.41149688 -0.047886617
0000f0 da 6c 82 3c 16 3f 03 3d 46 1a 38 3d 5d 36 86 bd
       0.015921045 0.032042585 0.04494693 -0.06553338
000100 fb 94 01 bd 3a ba b3 3c 91 da 0f 3e d2 ea 93 be
       -0.03163622 0.021939386 0.1404822 -0.2889009
000110 4f 0e 1c be 7e ab 82 3b 4c 20 bd 3e b1 e5 07 bd
       -0.15239833 0.0039877286 0.36938703 -0.033178035
000120 15 e8 6a 3d ba 09 73 bb 36 60 4a be 21 6f 00 bd
       0.057350237 -0.0037084655 -0.19763264 -0.03135598
000130 ef c1 bf 3c 9d b5 a9 be 15 b2 07 3d 9a 39 86 bb
       0.023407904 -0.33146372 0.033128817 -0.004096222
000140 71 cf b3 3d 1e a5 13 be d1 a1 fe 3b e7 8f c7 bd
       0.08779801 -0.14418456 0.007770755 -0.09744244
000150 42 f3 8c 3e 6f 19 62 3e 52 10 33 be 32 1f 2c 3e
       0.2752934 0.22080015 -0.17486694 0.16808775
000160 08 69 37 be 80 6b 8d bc 96 08 95 3e 72 d0 08 3c
       -0.1791116 -0.017263174 0.29108113 0.0083504785
000170 81 a7 87 3e 6c 58 35 3e c6 2f 98 bc a5 ba 5c bc
       0.26494983 0.17709512 -0.018577468 -0.013472234
000180 1c 05 b2 3d f2 fd 44 be fc 5a 15 be 69 10 cb 3d
       0.08692381 -0.19237497 -0.14585489 0.09915239
000190 90 2d d7 bd 07 3b b7 bc 31 07 32 3d 3a d0 cb be
       -0.10506737 -0.022367014 0.04346389 -0.39807302
0001a0 9f c7 b6 3e 0a 48 62 3d 22 0d 17 3e d8 1b de bb
       0.35699174 0.055244483 0.14751104 -0.0067782216
0001b0 7d 2b 68 3c 59 53 04 3f 70 be 08 3d af 32 32 be
       0.014170525 0.5168968 0.03338474 -0.17402147
0001c0 01 7a 3f 3e 4c 92 4e bd 62 bb c9 bc 16 ba fb be
       0.18698885 -0.05043249 -0.024625484 -0.4916541
0001d0 16 4f 54 be 97 8f bc bd c4 c4 82 be e3 23 b1 3d
       -0.20733294 -0.09207075 -0.25540745 0.08649423
0001e0 49 c7 9d 3d ce 73 c6 bd 87 80 dc bd 07 b7 65 bf
       0.07704026 -0.09690057 -0.10766702 -0.897324
0001f0 4d a9 36 3e 1f 73 e4 3d 2b 2d 7d bf 76 19 56 3d
       0.1783802 0.1115477 -0.98897046 0.052270375
000200 3e 68 24 be 42 a8 24 3e 68 1d 90 be 56 70 38 3e
       -0.1605539 0.1607981 -0.28147435 0.18011603
000210 0d 35 83 3d 9b 5a 73 40 73 6b 3c 3f 12 8f b6 3d
       0.06406603 3.802405 0.73601454 0.08914007
000220 c2 a3 2d bd 96 b5 9e 3d fe ba 15 3c 85 2a 74 bd
       -0.0423925 0.077494785 0.009138821 -0.059610862
000230 70 52 5e 3d 5e 77 54 40 a1 f4 76 3d ee 9e 89 be
       0.054277837 3.3197856 0.06029189 -0.26879066
000240 35 46 29 bc 98 49 a4 bf e7 3f 1d 3e c6 66 31 3e
       -0.01033168 -1.2834959 0.15356408 0.17324361
000250 a7 49 47 bf 4c 32 0c 3f 4e 0b d6 3d be 29 7a be
       -0.7784676 0.54764247 0.10451375 -0.24429986
000260 62 9e 62 3c c3 e5 60 be 1f c7 83 bb 33 cb 1f bb
       0.013831707 -0.21962647 -0.00402154 -0.002438259
000270 75 6b 7e 3e ea dd 39 bd 35 dc 80 be 2f f5 00 3e
       0.24845679 -0.04537765 -0.25168005 0.1259353
000280 49 2a c3 be be 0b be 3e 42 7f 8a bd 4b ae 0b bd
       -0.381182 0.37118334 -0.06762554 -0.034101766
000290 0f 91 5e be 83 3c 06 be 90 75 79 bd ba 67 90 be
       -0.21735023 -0.13109021 -0.060903132 -0.28204137
0002a0 8a 41 7e 3d 9a ac e9 3d be 12 52 3e d1 01 02 3d
       0.06207422 0.11409874 0.20514962 0.031740014
0002b0 dc f8 43 3e 1c 5c 3c 3d f8 e2 95 be 31 4a 04 40
       0.19137901 0.04598628 -0.29274726 2.0670283
0002c0 9f 67 95 3f bd b6 8e bd 39 09 25 40 85 13 9f be
       1.1672248 -0.06968448 2.578688 -0.3106958
0002d0 71 bd 83 3f 9a 43 a4 3e 6e 18 86 be ee be db 3b
       1.0292188 0.32082826 -0.26190513 0.00670611
0002e0 2c 53 f1 3e 81 2d 80 bf 11 30 b5 b9 de cd bb 3d
       0.47133768 -1.0013887 -0.00034558823 0.091701254
0002f0 02 56 32 3e 28 e1 e3 be 65 5c ce bf 4b eb 5a bd
       0.17415622 -0.44507718 -1.6121947 -0.05344705
000300 6a 28 13 bf 48 90 1f bd ef 4d bb be 38 5b 9e 3e
       -0.5748354 -0.038955957 -0.36582896 0.3092897
000310 77 e5 51 40 53 21 65 3d 13 2b 2b be fa 63 0e 3e
       3.2796304 0.055939984 -0.1671565 0.13905326
000320 4e 0f 1b bf 56 63 50 3e 4a c6 70 3e 9c 32 9b be
       -0.6057023 0.20350394 0.23513141 -0.3031205
000330 80 5d 0c 3e 80 b6 f4 3d 5c 74 ba be 7d 35 37 3f
       0.13707542 0.119488716 -0.364169 0.7156599
000340 80 08 1e bf 5e 1e 86 3d de 8c 2e be ff ae 45 be
       -0.6173172 0.06548761 -0.17045924 -0.19305037
000350 81 8e cc 3b 19 de 2b be 25 b6 80 3e a6 d3 e6 be
       0.0062425737 -0.16783942 0.25138965 -0.4508335
000360 58 7d 94 be b5 65 17 3e b7 f4 b7 3e 8a e7 09 3f
       -0.2900188 0.14784892 0.3592889 0.53868926
000370 b6 57 dc 3c 48 cd 1a be 06 46 8b be 16 ad 3d bf
       0.026897293 -0.15117371 -0.2720186 -0.74092233
000380 b7 6a f0 3d b4 d1 47 ba 83 14 0c 3e cb 83 c8 3e
       0.11739104 -0.0007622496 0.136797 0.3916305
000390 b6 52 8a be 21 e4 a3 3d ad a0 a1 bf e6 38 59 3e
       -0.27016228 0.080024965 -1.2627159 0.21213111
0003a0 af 31 71 bc cc fb c0 bf 57 99 c0 be c4 be 00 be
       -0.014721318 -1.5076842 -0.3761699 -0.12572771
0003b0 39 91 8d 3d 96 68 8e bd 72 4f c4 3d e7 a5 26 bf
       0.06912465 -0.06953542 0.095854655 -0.65096897
0003c0 94 47 33 be 91 08 bd bf 1d 38 e7 bd a3 3c d8 bd
       -0.17507774 -1.4768239 -0.1129 -0.105584405
0003d0 2e 87 cc bd a6 08 a5 bf 29 5c f9 bd 03 05 64 3f
       -0.09986721 -1.2893264 -0.12175781 0.8907015
0003e0 32 b0 0e 3f 25 0b c4 bd 6a d7 3e 3e 47 f2 3b be
       0.557376 -0.09572438 0.18636861 -0.1835414
0003f0 90 32 73 3e d5 ba 6b bf 4a 4e 27 3d 1d 7e 83 bd
       0.23749757 -0.9208196 0.040846147 -0.064205386

bias f4 [100]
000000 02 fc 29 41 2c 9f 92 40 b0 6d 2b 40 c1 69 c2 40
       10.624025 4.58193 2.6785698 6.0754094
000010 9b 78 76 3f d7 3f 8e 3f 5c be 87 bf 49 a9 09 41
       0.9627778 1.1113232 -1.0604968 8.603829
000020 57 1d 7a 40 a9 9d b6 3f 58 de fe 40 97 82 51 41
       3.9080408 1.4266864 7.9646416 13.094382
000030 76 a4 80 40 ae 5e 03 3f b2 dc d0 40 57 64 b4 3e
       4.020076 0.51316345 6.5269403 0.35232803
000040 67 d7 23 40 41 3d 43 3e eb 21 bd 40 b3 8f f4 3f
       2.560022 0.19066335 5.9103904 1.9106354
000050 c8 17 30 40 60 98 a6 40 75 2b 04 40 0f 28 a4 40
       2.7514515 5.2061005 2.0651524 5.12989
000060 9b c5 8f c0 9e 62 a8 40 6e 71 db 3f 47 2a 07 41
       -4.4928718 5.262038 1.7143991 8.447822
000070 ce 8a 78 c0 c5 c9 e5 3f 14 f9 9b 3f dc 8c 0b 40
       -3.883472 1.79522 1.2185388 2.1804724
000080 0d 31 82 40 bc 46 04 41 fa 43 e9 40 34 ab 38 40
       4.0684876 8.267269 7.289548 2.8854494
000090 0f 89 2b 41 78 9c 7d c1 32 86 1f 40 b3 ca 97 40
       10.720962 -15.8507 2.4925656 4.7434936
0000a0 5f 2b 9a be 21 22 84 c0 c1 d0 3a 40 44 a9 0b 41
       -0.30111215 -4.129166 2.9189913 8.728825
0000b0 00 7b 14 41 b5 ad 24 40 e7 54 74 40 f8 c7 ce 40
       9.280029 2.5731022 3.817682 6.4619102
0000c0 1d 57 0d 41 ef 7c 9e 3f ad 2d 0f 41 fe 49 1b 40
       8.833768 1.2381877 8.948651 2.4263911
0000d0 73 9f de c0 10 b5 57 40 49 f0 b0 40 47 ae cd 40
       -6.956964 3.3704262 5.5293317 6.427524
0000e0 00 54 2a bf 63 2c 1f 40 e7 e2 0d 41 ed 14 1d 41
       -0.66534424 2.4870842 8.867896 9.817609
0000f0 22 c0 cd 3f e0 d0 b0 40 7c a4 3b 41 e5 c3 43 c0
       1.6074259 5.5254974 11.727657 -3.0588315
000100 04 b6 3b c1 2d ae 45 40 41 d8 1e c0 85 3e 09 41
       -11.731937 3.0887558 -2.481949 8.577764
000110 1f d8 c2 c0 f4 2c 5e 40 3b 92 b1 40 83 a8 8a 40
       -6.088882 3.4714937 5.5491004 4.3330703
000120 a9 09 d0 3f fa 62 fe 3f 50 4c e9 3f 4a 47 56 40
       1.6252948 1.9873955 1.8226414 3.3481011
000130 c0 c8 33 40 ec a7 4d 41 20 6d 80 40 f8 2e e7 bf
       2.8091278 12.853497 4.013321 -1.8061209
000140 8d 0f bb 40 10 3d 85 bf c3 9c 25 41 e2 7e a3 c0
       5.8456483 -1.040926 10.350772 -5.1092386
000150 64 b5 9c 40 b0 ff 44 41 ff 02 2c 40 bc 07 1b 40
       4.8971424 12.312424 2.6876829 2.422347
000160 49 a7 a9 3f 89 2c bf 40 14 f6 79 c0 08 a1 c6 be
       1.3254176 5.9741864 -3.9056444 -0.38794732
000170 63 ea 93 40 56 53 6f c0 ef e6 94 3f 3c d3 01 41
       4.6223617 -3.7394614 1.1632975 8.114071
000180 10 94 25 3f 51 b2 b4 3f ae cb 46 40 48 2e 79 40
       0.6467905 1.4116918 3.1061816 3.8934498

weight f4 [12, 100]
000000 d6 d8 e7 bd b8 22 96 3b c2 69 83 bd 3d 81 2c be
       -0.11320655 0.0045817755 -0.06416656 -0.16846175
000010 d7 7d 00 bc 32 a6 66 3d 77 bf 59 bc ca 9e e3 bd
       -0.007842503 0.05631084 -0.013290278 -0.11114271
000020 e3 81 e3 3c 13 4d 87 3b d1 5b 46 bc 41 88 db 3c
       0.027771896 0.004129061 -0.012106852 0.02679837
000030 3c 84 d7 bd d5 c7 c5 bc 5b a4 c1 be b2 c8 16 bc
       -0.105232686 -0.024143139 -0.37820706 -0.009203123
000040 30 12 b6 3f 64 ab 2e bd 8d 8f 00 3c b6 d1 d1 3d
       1.42243 -0.04264392 0.007846725 0.10245077
000050 45 bd e0 bd e1 d4 d8 3d 99 5f bb 3d 09 03 2e 3e
       -0.109736 0.105874784 0.09149093 0.16993345
000060 cc d3 ca bc 98 3a d1 bd dc 61 ad bf 2f 29 50 3d
       -0.024759196 -0.10216254 -1.3545489 0.050820526
000070 da db 0c 3c f5 39 4e bf ab 70 12 be 19 e2 95 be
       0.008597339 -0.80557185 -0.14300792 -0.2927406
000080 d3 6a 5d bc 34 b5 ae bb 7e 2d bc bc 05 58 a6 be
       -0.013514238 -0.0053316597 -0.022970911 -0.3248903
000090 95 01 c6 3c 8d f2 1c 3c 2f 8a 60 3f 8a 1e 8a be
       0.024170676 0.009579313 0.8771085 -0.26976424
0000a0 7b f9 6c bd a5 a8 cd 3c a5 94 2f 3c e3 e1 71 bc
       -0.05785511 0.02510483 0.010716592 -0.014763328
0000b0 95 ea 35 be 75 e6 05 bd ad 70 82 3e 9f 91 85 3c
       -0.17765267 -0.032690484 0.2547659 0.01630479
0000c0 db ee 6b be d7 4f e7 bc 43 52 94 bc 8f b9 e8 3b
       -0.23040335 -0.028236313 -0.018105632 0.0071021984
0000d0 9c 74 58 3d 72 2b fd be 3e 0e 00 3e e7 19 03 be
       0.052845582 -0.4944721 0.12505433 -0.1280285
0000e0 68 0a 8b 3c 6f 06 fc bb 08 05 5a 3c e8 8c b4 bc
       0.016972736 -0.0076911966 0.013306864 -0.022039846
0000f0 b2 e3 a0 bc f0 c7 38 3d 81 43 28 3d 82 d5 96 bd
       -0.019639824 0.04511255 0.04108 -0.07364942
000100 d3 4a 58 3c b7 6f df bc 8b ab f3 ba b7 3a 5a bd
       0.013201433 -0.02727495 -0.0018590552 -0.05327865
000110 14 bd 58 3b 96 e7 ae 3b d1 cf 49 3c 80 79 80 bc
       0.0033071684 0.005337666 0.012317614 -0.015682936
000120 cb 0d ca be b5 81 e5 bb 8a 3b 6d 3e 69 a4 eb 3c
       -0.39463648 -0.0070039877 0.23167244 0.02876492
000130 98 6c 9a bf 94 86 2d 3c 85 e3 d8 bd 58 01 5e 3c
       -1.206439 0.010591168 -0.10590271 0.013550125
000140 8b 58 36 3e 37 bc df bb b3 a0 fe 39 60 fc 74 bb
       0.17807214 -0.006827857 0.00048566386 -0.0037381873
000150 17 7d d7 3a 92 5f 19 bd c2 44 17 bc 4a 95 ec be
       0.0016440478 -0.03744466 -0.009232702 -0.4620765
000160 c0 ea 4d c0 c6 7c 0f 3d 8d b7 09 bc 7a c4 89 3d
       -3.217453 0.035031103 -0.008405578 0.06726928
000170 d6 d2 cd 3d bc 86 47 3d 18 bf 1f 40 98 04 b6 3b
       0.100499794 0.048712477 2.4960384 0.005554747
000180 c2 1a 3c bd 7f 65 53 bf fe 0c 46 bf fc ac 59 3c
       -0.045923956 -0.82576746 -0.77363575 0.013285872
000190 1a 9e 36 bd 3c 29 55 bc e6 f0 5c 3d 9a bf 73 be
       -0.04458437 -0.013010319 0.053940676 -0.23803559
0001a0 e6 b7 e9 bc a3 c7 c3 3d 37 3c 48 3c 9f b2 a0 3b
       -0.028530072 0.09559562 0.012221388 0.004904106
0001b0 61 0a 5a 3d dd a2 85 3d c4 2d 4c 3c 9f 8a 70 3b
       0.053232554 0.06525204 0.012462083 0.0036703718
0001c0 e3 fe 88 be 64 94 d1 bc 95 72 7b bc 7e 92 3d bd
       -0.26756963 -0.025583453 -0.015347143 -0.046282284
0001d0 16 23 5e 40 2e da 69 3b d0 85 40 3d 13 94 42 3d
       3.4708915 0.0035683024 0.047002614 0.047504496
0001e0 e2 fe 06 bd 17 00 02 3e dd 07 04 bd 0c 78 32 3e
       -0.03295792 0.12695347 -0.03223406 0.17428607
0001f0 1a cb 80 bc 23 2b d9 bd 50 3a c8 3d 89 ed c9 3d
       -0.015721846 -0.10603931 0.09776747 0.09859759
000200 80 84 b3 bb 97 9f 95 bf 77 a5 3e bf b5 b0 86 bf
       -0.0054784417 -1.1689328 -0.7447123 -1.0522677
000210 f6 d9 76 39 d6 de bc 3c d5 ad 13 3d 72 b3 1e bf
       0.00023541585 0.023055475 0.03605445 -0.6199256
000220 a7 e3 1b bc f8 29 35 bc 28 ab 8f 3f 9e e4 74 be
       -0.009514726 -0.011057369 1.1224108 -0.23915336
000230 db e1 ee bc d5 07 6b 3b dd e3 72 3c d6 4d 87 bd
       -0.02916043 0.0035862823 0.014824835 -0.06606643
000240 cb d4 8f bd 6f ea 88 3d 23 51 6c 3e 77 ea 68 bd
       -0.07023009 0.0668534 0.23077826 -0.056864228
000250 69 06 23 be 12 f3 26 bd 63 12 cf bc 3f 1d 13 3c
       -0.15920414 -0.040759154 -0.025277322 0.008979141
000260 eb 72 0c 3d e7 95 fb bd 74 b0 82 3d c2 7d 13 be
       0.03428928 -0.12284451 0.06381312 -0.14403442
000270 e8 bd 8c bb 0e 3f b0 3f b0 ed 12 3c ec 87 f2 3c
       -0.0042950995 1.3769243 0.008967802 0.029605828
000280 0e f0 98 3e c6 d6 2b 3d 0d 53 06 3d f5 11 bc 38
       0.29870647 0.04195287 0.032794047 8.967883e-05
000290 32 6e 81 bc 3c 13 4f bb 35 a9 ae bb 45 f6 78 bd
       -0.015799616 -0.0031597158 -0.0053302296 -0.060781736
0002a0 bb 7a 3d 3c 44 ca 13 3d ed 19 e7 bb 5b e1 52 3d
       0.011564906 0.036081567 -0.007052651 0.051484447
0002b0 6f 8d 36 bf a8 68 94 bd 15 33 02 3f 9d 3e aa bc
       -0.7130956 -0.07246524 0.50859195 -0.02078181
0002c0 ea 35 7c be e6 7a fc bc c0 91 4c be a1 da fd 3b
       -0.24629942 -0.030820321 -0.19977474 0.00774701
0002d0 9c b9 36 3e d6 65 81 bc 56 ac c6 3c 48 d4 3f ba
       0.17844242 -0.01579563 0.024252098 -0.0007317704
0002e0 be 8b 18 3c fe b7 26 bc f2 3f e5 3d 80 ac 10 bf
       0.009310661 -0.010175703 0.11193837 -0.56513214
0002f0 9b a9 a3 bf 6d a2 00 3d 34 ad c4 bc 9c 03 11 be
       -1.2786134 0.0314049 -0.024008371 -0.14161533
000300 90 87 3d 3d 18 48 90 3d b0 03 74 40 16 c5 29 bd
       0.04627186 0.07045001 3.812725 -0.04144772
000310 bc 9f a1 3b 85 08 98 bf 2a a6 8a bf a5 95 90 bb
       0.004932372 -1.18776 -1.0831959 -0.0044123703
000320 90 e2 96 3d 55 38 f1 bc 59 b2 e6 bc 2d 91 37 3c
       0.07367432 -0.029445807 -0.028161215 0.011204046
000330 c2 ec 27 3d e5 73 5d bd 38 88 0f 3d d1 5c 50 3d
       0.040997274 -0.054065604 0.035042018 0.050869767
000340 24 3f 29 3d 9b 4d 44 bd 72 63 fe 3c 70 a5 e0 bd
       0.04131998 -0.047925573 0.031053279 -0.10969055
000350 22 0a 10 bf f8 b7 05 3d dc 35 d0 3d 11 68 b2 bc
       -0.5626546 0.03264615 0.10166523 -0.021778138
000360 4b 0b d4 bf 33 15 1c 3d c1 02 72 3d 34 8f a2 bd
       -1.6565946 0.038106155 0.059084658 -0.0793747
000370 b2 21 c4 3e 91 63 f3 3b 50 95 d3 be 70 50 0f bf
       0.38306957 0.0074276407 -0.41324854 -0.5598211
000380 31 e7 52 3d 08 f9 83 3e 39 33 9a bf 77 ad 9c bd
       0.051490013 0.25775933 -1.2046882 -0.07650273
000390 85 3d af 3b ae eb 3f bf 67 cb 51 3e 81 5a 9b 3f
       0.00534791 -0.74968994 0.20487748 1.2136995
0003a0 22 d4 a3 bc f7 39 13 3d 70 ab fe 3c 18 cc 68 3e
       -0.019998614 0.03594395 0.031087607 0.22734106
0003b0 e4 d4 54 be 76 79 5d 3d f5 6c 81 3c 70 e6 08 bd
       -0.20784336 0.054070912 0.015799025 -0.033422887
0003c0 8c 47 43 3e 69 3d 3d 3b c4 fe 4a bd 4f 67 81 3c
       0.19070262 0.0028875715 -0.04955937 0.015796332
0003d0 15 4c fd 3d c6 4c 36 ba 25 98 b7 be 31 24 a0 3a
       0.12368027 -0.0006954189 -0.35858265 0.0012217817
0003e0 44 cf 22 be 97 5c 1f 3e 14 b4 76 3d 68 f0 a2 3b
       -0.15899378 0.15562664 0.06023033 0.0049725063
0003f0 89 9a 93 ba a0 61 d3 3d f2 08 72 be 5f 56 9c 3c
       -0.0011261265 0.10321355 -0.23636225 0.019084154

bias f4 [12]
000000 51 2e 0f 40 0a dd 51 3f 60 12 4d 3f 5e 6c 30 bf
       2.237202 0.81977904 0.80106163 -0.68915355
000010 19 0f 03 c0 13 eb b4 bf e4 5d 28 3b c1 37 8f bf
       -2.0477965 -1.4134239 0.0025690729 -1.118889
000020 71 60 e9 bf 91 4e 15 c0 63 fe be bf f0 78 93 c0
       -1.8232557 -2.3329203 -1.4921383 -4.608513
