trainingOnSyntheticData/results/20230802_182940_train_local/model_training_set_size_100000_hidden_neurons_100_n_batches_100.pt (torch, 128855 bytes, 6 tensors)

weight f4 [100, 200]
000000 e7 13 8d bc 70 94 0a bd 52 66 9d 3b 15 6f fa bc
       -0.017221404 -0.033832967 0.0048034573 -0.030570546
000010 a2 0c 42 bd 4f 87 18 bd 7e 25 a2 bc 39 28 6c bd
       -0.04737533 -0.037238415 -0.019793268 -0.057655547
000020 60 31 9e bd 35 71 6a 3c 88 1a dd bc ef c7 3a 3d
       -0.07724261 0.014309217 -0.02699019 0.045600828
000030 e9 08 bf bc 01 56 4f bc 3f c1 95 bb 7e a0 b2 3d
       -0.023319678 -0.012654782 -0.004570156 0.08722018
000040 db 44 5c 3d 46 56 84 3d 64 10 43 3d 24 63 7a 3b
       0.053776603 0.06461768 0.047623053 0.0038206065
000050 21 40 a9 3d d2 ea 7d 3b 25 74 2b bc 8b d0 a5 3d
       0.08264185 0.00387447 -0.010464703 0.08096417
000060 47 c3 5c 3d a4 81 5f 3d da c4 ef 3d 10 b7 ae 3d
       0.05389717 0.054566994 0.11707468 0.0853101
000070 df ff 06 3e 2a cc 56 3d 29 c7 9a 3d 8f ca c9 bb
       0.13183545 0.0524408 0.07557518 -0.00615818
000080 eb d3 cd 3d 1d 88 da 3d bb 70 43 3d db 12 90 3d
       0.10050186 0.10670493 0.04771493 0.070348464
000090 ab 3d e6 bc e4 a4 42 bc c6 4e a9 bc 5e 8d 55 3d
       -0.028105577 -0.011880133 -0.020667445 0.05213677
0000a0 15 e6 7b bc af 8c 6c bd 27 51 f1 bd 4c b1 11 be
       -0.01537468 -0.057751354 -0.11783057 -0.1422779
0000b0 3d eb 92 bd 38 34 05 be b8 6b 04 be 4f fe d6 bc
       -0.071737744 -0.13008201 -0.12931716 -0.02624431
0000c0 28 09 4d bd 67 65 9e bc 5f 1e 81 bc ba 38 a8 3d
       -0.05005756 -0.019335462 -0.015761552 0.08213945
0000d0 3e b5 52 bc f5 5b 62 bd 84 a7 9f 3d 44 ca a0 bb
       -0.012860594 -0.05526348 0.07795623 -0.0049069244
0000e0 40 1d 8c 3d 23 3a 57 3c f6 44 09 bd 6d a8 64 bd
       0.068415165 0.0131364195 -0.033513032 -0.055824686
0000f0 cf 47 84 bd 39 53 54 bc a1 c9 32 bd e9 0d 83 bd
       -0.06459009 -0.012959295 -0.04364932 -0.063991375
000100 a2 4a ce bd 95 6e 15 be b5 cf 02 bd 98 ea 4f bd
       -0.10072829 -0.14592965 -0.031936366 -0.050760835
000110 ea a0 84 bd ca 25 7f bd 02 71 12 3d 0d dc 26 bd
       -0.064760044 -0.062291898 0.035752304 -0.0407372
000120 6f 30 7a 3c 0c 9e 09 3c 47 14 54 bb a0 f9 c4 bd
       0.0152703365 0.008399498 -0.003236072 -0.09617925
000130 7c d7 8a 3b 9a ba b9 bd 46 69 3d 3d 3b d5 73 3d
       0.0042371135 -0.090687945 0.046242975 0.059529524
000140 20 dc 7b bd f3 04 81 bb 41 84 55 3d c7 21 f9 3b
       -0.061489224 -0.0039373576 0.05212808 0.0076029035
000150 44 c1 86 3c 1f df 60 3d d0 97 62 bd 9b 3f 87 bd
       0.016449578 0.054900285 -0.05532056 -0.06603929
000160 b7 8b f7 bc ed 8a 39 bd 36 78 0a bd 50 16 11 bd
       -0.030217988 -0.045298506 -0.03380605 -0.03542167
000170 2e ea 91 3d 4c 3a 8c 3d 79 7c e8 bc ff 54 85 bd
       0.07124744 0.06847057 -0.028379666 -0.06510352
000180 4f 28 59 bd 33 b7 cf bd 5c 33 38 bd 73 ae b6 bd
       -0.053016957 -0.10142364 -0.044970855 -0.08919992
000190 3e b9 04 bd d2 06 92 3b c4 6e 9e bc 25 b9 ca 3c
       -0.032403223 0.0044563795 -0.019339927 0.024746487
0001a0 3c 47 c6 bd 00 ad 8a bd ed c8 4e ba 16 54 d2 bc
       -0.09681556 -0.067712784 -0.00078882166 -0.02567486
0001b0 18 f4 6b 3c 6e 16 dd 3d 1e d1 7b 3c 38 a5 c1 bc
       0.014401458 0.10795294 0.015369682 -0.023638353
0001c0 65 23 5d bd 16 fd 4a bd a0 b0 f2 ba cb ec c0 3a
       -0.053988833 -0.049557768 -0.0018515773 0.0014719007
0001d0 5e 40 3e bd 80 2d 8a bd 46 ce 36 bd be 2c d8 3c
       -0.046448104 -0.0674696 -0.04463031 0.026388522
0001e0 7f 5f cc 3c db 2b fd bc 90 fb 84 bc 0f b5 ed bc
       0.02494788 -0.030904701 -0.016233236 -0.029017
0001f0 42 c0 12 3d 0e 8e 3c bb 02 ae c9 b9 a7 d3 e3 3b
       0.035827883 -0.0028771195 -0.00038467353 0.006952721
000200 da 82 94 bd 4e e0 ff bc 8b 45 b1 bc 0f 47 0b 3d
       -0.072515205 -0.031234886 -0.021639606 0.034003314
000210 c8 61 78 bd 61 d3 44 ba 39 09 6a bc 7f ee 11 3c
       -0.060640126 -0.00075083046 -0.014284425 0.00890696
000220 da ac a2 3c 8c 88 72 3c 2a d5 47 bd 85 eb a6 bd
       0.019857813 0.014803063 -0.048787273 -0.081503905
000230 55 f2 33 bc db 49 6c bd 57 da 84 bc e0 8a e5 bd
       -0.010983069 -0.05768762 -0.016217394 -0.11208129
000240 36 3f 84 bd c6 01 f8 bd 3a f4 b2 bd bd 85 9f bd
       -0.06457369 -0.12109713 -0.08737989 -0.077891804
000250 66 1a 7a ba df 72 32 be 54 09 43 bd ad be 07 bd
       -0.0009540677 -0.17426632 -0.047616318 -0.033140827
000260 5b 7f b4 bc 62 8d 76 bd 97 18 8d 3d 0f 4a d9 3a
       -0.022033384 -0.060193427 0.06889456 0.0016577857
000270 89 bb 70 bc a6 ae 82 3d 7f 04 76 3d ba ef 8a bc
       -0.014693149 0.06380968 0.06006288 -0.016960014
000280 de 56 12 bd e0 0c b4 bd 91 07 09 bc 91 32 45 bc
       -0.035727374 -0.08791518 -0.00836362 -0.012035982
000290 be d2 75 3d b1 7f 12 bd d9 6f c2 3c b4 11 0a bd
       0.060015433 -0.035766307 0.023734974 -0.03370829
0002a0 94 f3 d2 ba 13 20 fc 3d 04 74 50 3d 41 b4 a1 3d
       -0.001609432 0.12310805 0.05089189 0.07895709
0002b0 a9 42 be 3c 52 bd 83 3d 84 aa 1f 3c 5c 2b d0 3d
       0.023225145 0.06432594 0.009745244 0.1016452
0002c0 3e 09 a4 3d fb f0 23 3d e2 8d 12 3e d2 55 ea 3d
       0.08009575 0.04002474 0.14311936 0.1144215
0002d0 0c b6 11 3d 04 b2 e5 3d a8 d7 49 3d cb 3d 8c 3c
       0.035574004 0.112155944 0.04927793 0.017119309
0002e0 54 2f 6f 3c 8d cf 24 bd 47 12 d9 3c 3e 22 31 3d
       0.014598686 -0.040237 0.026497973 0.043245547
0002f0 ec b6 91 3c 56 77 85 bd 8e a0 38 bb 45 20 2e bd
       0.01778742 -0.06516902 -0.002817187 -0.042511243
000300 16 b0 25 3d 32 0a c0 bc 0a 47 98 bd a9 17 2f bd
       0.04045113 -0.023442362 -0.074354246 -0.042747173
000310 b1 35 e4 bc a9 6b c5 bc c0 4b 83 bd 9e 94 46 bc
       -0.027857633 -0.024099188 -0.064109325 -0.012120394
000320 ea 2e 17 3d 0a 8c 88 3c 1f 9f b4 3c a4 08 88 3d
       0.036909975 0.016668338 0.022048531 0.06642273
000330 03 4d ae bc c5 41 ca 3c 2c 96 d3 bb 05 30 5e 3b
       -0.021276956 0.024689564 -0.006457111 0.0033903134
000340 b5 31 42 3d da 6f 1d 3d 73 d7 39 3d 1e 5b 4b 3c
       0.047410686 0.038436748 0.045371484 0.012411861
000350 c4 0a 2c 3c 60 75 ff 3c 7d 67 cf bb 62 61 4e 3d
       0.010500614 0.031183898 -0.0063294754 0.05038584
000360 4b 87 f3 3c c0 b1 1a 3d 4a fc 22 3b 76 69 73 bd
       0.029727599 0.03776717 0.0024869614 -0.059426747
000370 b9 4a 2f 3d 97 bc 4d 3d 06 34 67 3d d4 f3 57 3d
       0.04279587 0.05022868 0.056446098 0.052722767
000380 71 e5 96 3d f0 a5 af 3d 91 7b da 39 52 b5 59 3d
       0.07367981 0.08576572 0.00041672264 0.053151436
000390 89 5c d3 bc 5d 35 68 bc 69 dc 19 3d 9c 5e ef 3c
       -0.02580096 -0.014172879 0.037563715 0.029219918
0003a0 28 a7 06 3d 2e d8 a5 3d 62 bc 0f 3d 2b da 48 3d
       0.032874256 0.08097874 0.035091765 0.049036186
0003b0 2c 4b 8d 3c 6a 76 2a bc c8 29 45 3d 4d 88 78 3a
       0.017247759 -0.010404209 0.04813555 0.00094807596
0003c0 9d 63 14 bd 03 fd 80 3d 3b 29 ed bc 4c d6 a1 bd
       -0.03622781 0.06298258 -0.028950324 -0.07902202
0003d0 c9 d5 0c bd 49 85 2d bb 0b 87 21 bd 25 4a f8 bd
       -0.03438357 -0.002647715 -0.039435428 -0.12123517
0003e0 12 d1 23 be 6d f6 14 3d 9d bf e2 bd 06 6d c7 bc
       -0.15997723 0.036367822 -0.110717036 -0.024343979
0003f0 2f 78 90 bd 7a 72 ca bc e0 9c cf bd 35 82 be bd
       -0.07054173 -0.02471279 -0.101373434 -0.09302179

bias f4 [100]
000000 4c a4 2d bc 4c f7 66 b8 8c 4a 16 3d 48 49 8b 3f
       -0.010598253 -5.5066586e-05 0.036692187 1.0881739
000010 b1 a6 0b 3c b8 36 a1 bc 75 32 ee be dd ce c8 bb
       0.008523629 -0.019679412 -0.4652287 -0.0061281756
000020 f1 e1 99 3e db 4d c5 ba d1 40 e8 b9 df e5 29 bb
       0.30055192 -0.001505311 -0.0004429878 -0.0025924367
000030 0e 2e 0a ba 87 2d 73 bb 77 39 27 3c c2 d1 21 bb
       -0.0005271145 -0.0037105994 0.010206572 -0.0024691676
000040 f4 86 b9 bb 5b e7 a2 3f bb 09 fc ba 06 8f 02 bf
       -0.0056618396 1.2726854 -0.0019228974 -0.50999486
000050 12 02 5b bc f1 55 01 bc ed bd 6a 3b 2c 73 b6 bf
       -0.013367193 -0.007894025 0.003581877 -1.4253898
000060 cf ab 4b bc 59 e3 ed 3f 99 6d c2 b9 3c 4e 62 bc
       -0.012431099 1.8585006 -0.0003708422 -0.013812598
000070 87 08 57 bb 26 48 38 bc 8a 3c 6d bb 3d 65 7f bb
       -0.003281148 -0.01124767 -0.0036199414 -0.0038970255
000080 b1 aa 61 ba 44 dd df b9 09 12 88 bb 0d 92 60 ba
       -0.0008608504 -0.0004269873 -0.0041525406 -0.0008566685
000090 2e 3c 15 3d 59 f0 1d 3d 34 1f 17 3c b4 40 10 3c
       0.036434345 0.03855929 0.009223748 0.008804489
0000a0 fc d1 57 3b 21 6b 96 bb ec 6a f5 3e f3 68 49 3a
       0.0032931557 -0.0045904075 0.47933137 0.000768318
0000b0 31 fd f7 3e fc 64 07 bb 41 c8 08 bc 30 34 b2 ba
       0.48435357 -0.0020659557 -0.0083485255 -0.0013595875
0000c0 0b 9b e5 ba 82 b8 95 bf 18 c3 fa ba 82 60 4e bb
       -0.001751752 -1.1696932 -0.0019131629 -0.0031490629
0000d0 fe db a9 3e cb b0 12 3b cb e5 32 bb 94 49 51 bb
       0.33175653 0.002238321 -0.0027297612 -0.0031934725
0000e0 1c d9 f9 3e fe a9 d9 3c ec 29 90 3c 3c d1 50 bb
       0.48798454 0.026570316 0.017598115 -0.0031862995
0000f0 34 4c 17 b8 58 87 74 3f d2 a9 12 b8 a6 b2 84 3f
       -3.6072175e-05 0.9551902 -3.496727e-05 1.0367019
000100 8b 8d ba 3c a4 ba 0e b8 a9 07 8e 3f 27 2d a2 ba
       0.022772571 -3.402926e-05 1.1096088 -0.0012373076
000110 49 2c 54 3a 25 90 98 bb ca f3 ce 3d 18 8d c0 bb
       0.0008093757 -0.0046558552 0.10105093 -0.0058761947
000120 6d 0f 17 bc 8c b4 21 3b 17 a4 47 bf e5 b5 e9 bb
       -0.009219986 0.0024674265 -0.77984756 -0.007132279
000130 72 47 44 3f 2e a4 c8 ba f0 56 e1 38 75 02 47 3d
       0.76671517 -0.0015307718 0.000107450294 0.048586328
000140 36 7c 9c 3d d6 5a 8f ba b5 fb e3 3e 0e da a3 3b
       0.07640879 -0.0010937105 0.44527975 0.0050003594
000150 9e f6 8a 3a 57 a7 c2 bb 43 00 12 3b d9 d1 3a bb
       0.0010602062 -0.0059403586 0.0022277988 -0.0028506427
000160 b8 95 16 3f 3a f3 7e bb b5 da 77 ba 4f d8 1e 3c
       0.588222 -0.0038902299 -0.0009454892 0.009695127
000170 23 56 35 3b 99 43 e1 3e 84 64 8c ba 6b a0 af ba
       0.002766975 0.43996885 -0.0010711108 -0.0013399249
000180 d7 b5 65 b9 f7 0e c6 bc 3c 01 81 3f 2e ed 7f bb
       -0.00021906882 -0.024177058 1.0078502 -0.0039051282

weight f4 [100, 100]
000000 7d 9b b9 bd 8b 84 84 bb 6d a9 9b bd 40 a7 ee 3c
       -0.0906286 -0.0040441207 -0.07600675 0.029132485
000010 b9 da 85 be 6a a7 48 3d 7e 96 49 be 75 5b 7d be
       -0.26143435 0.048987783 -0.19686314 -0.2474192
000020 dd 76 8e 3d 4f 1a 05 3e f4 85 bd bd 29 f7 5d 3c
       0.06956265 0.12998317 -0.09254065 0.013547697
000030 c2 52 57 3e 38 c5 e5 3c 16 d9 c1 3d 02 9b 88 be
       0.21027663 0.028048143 0.09465234 -0.26680762
000040 25 3f 12 be a5 ac 39 3d 5b 56 3b bf fa 40 8a be
       -0.142819 0.045330662 -0.73178643 -0.27002698
000050 25 52 98 3d 8b 50 0b 3e 6e 40 16 be db 3f 82 bd
       0.07437543 0.13604943 -0.14673015 -0.06359836
000060 11 65 cf 3d a3 6d 0a be 54 1c 81 bd 48 02 99 be
       0.10126699 -0.13518386 -0.06304231 -0.29884553
000070 51 3f 48 bd 2f bd 09 3d 5f 37 76 bd 2d 94 24 be
       -0.04888851 0.033627685 -0.0601114 -0.1607215
000080 9d cf 9d 3c b4 0e 90 3e 77 46 22 3d 4d 41 92 bd
       0.019264037 0.28136218 0.03961798 -0.071413614
000090 1d f5 98 bd 44 d5 4e 3e 1a 76 53 3e dc 8d 1d bf
       -0.07468627 0.20198542 0.20650521 -0.61544585
0000a0 57 60 dc bd 3f 3e 40 be 78 f6 f4 3d 6a d1 66 be
       -0.10760563 -0.18773745 0.11961073 -0.22540823
0000b0 72 57 ca bd 93 7b 0e bf 6d 5e b1 bd 1d f4 90 3c
       -0.0987996 -0.5565731 -0.086605884 0.017694527
0000c0 7e 07 9d bf b9 ea d2 be 9a e6 38 be 50 dd 10 be
       -1.2267911 -0.41194704 -0.18056718 -0.14146924
0000d0 43 9e a9 3d e0 35 51 3e 4c 32 69 bd 20 c9 85 be
       0.08282139 0.20430708 -0.056932732 -0.2613001
0000e0 58 ae e9 bd 4f d7 2e be 4c d3 de bb b9 65 42 3e
       -0.114102066 -0.17074321 -0.006800091 0.18984117
0000f0 15 71 82 3e cb 80 9f 3d 8c a9 78 3d 98 bb be bd
       0.254769 0.07788237 0.060708568 -0.093131244
000100 ec b1 c4 be d3 73 ea bc 7d 63 f8 3a a0 b9 d8 3d
       -0.38416994 -0.028619682 0.0018950548 0.1058228
000110 25 63 d5 bd 0c 78 3c bd 4a 66 ff 3c 9f 66 d1 3b
       -0.10419301 -0.046012923 0.031176705 0.006390407
000120 24 1f 4a bd f9 f0 61 3e 2a 8f 46 be ac e9 41 3d
       -0.049346104 0.2206458 -0.1939055 0.047341987
000130 d8 b0 99 3e 16 fe b0 be a5 05 b6 bc 75 a3 86 3e
       0.30017734 -0.34568852 -0.022219488 0.26296583
000140 cb 2b 2c be f0 58 07 be 6f 7f 3a 3d 26 f7 83 3e
       -0.1681358 -0.1321752 0.045531686 0.25774497
000150 24 6b 2b ba cd 07 dd be 40 a3 d2 3c 8c 2c 1c be
       -0.00065390975 -0.43170014 0.02571261 -0.15251368
000160 ae 28 1c 3e d9 b1 81 bd 3a c4 18 3e 49 f9 7d bf
       0.15249893 -0.0633275 0.14918604 -0.99208504
000170 4f 94 1f 3e c7 d9 4b bc 61 7a fb 3c fb a6 3c 3e
       0.15583919 -0.012442059 0.030698003 0.18423073
000180 ac 6a 7f 3e 8b 91 62 3e e2 ff a6 be 35 fc 3e be
       0.24943036 0.22125833 -0.32617098 -0.18650897
000190 02 0c db 3c d1 d4 05 bd b0 d9 84 bd d1 06 b4 3d
       0.026739124 -0.03267366 -0.06486833 0.087903626
0001a0 fe 95 78 3d b8 ad 00 bd 28 06 f2 3c 38 df 54 bc
       0.06068992 -0.03141567 0.029543951 -0.012992673
0001b0 dd 9d 82 3c 84 72 c2 3e ae 80 e6 bd f4 44 ff 3b
       0.015944416 0.37977993 -0.112550125 0.0077902023
0001c0 31 68 94 3b 19 d1 ea bd 45 94 7c 3e 95 e8 53 3c
       0.004529022 -0.114656635 0.24665935 0.01293387
0001d0 0b 97 74 bd 5c 91 5c 3d 31 ea 01 bd 53 27 96 bd
       -0.05971436 0.053849563 -0.031717483 -0.07331719
0001e0 8a 7c 4f 3e 3a 72 c1 be e1 56 72 bd 53 69 87 3c
       0.20262352 -0.3778246 -0.059164885 0.016529715
0001f0 e8 5e c1 3b 73 2f d3 3d eb 4b b5 3d d8 21 87 bd
       0.0059012063 0.103117846 0.08852371 -0.06598252
000200 bc f5 cb 3b 08 bc 92 bd 65 04 00 3d d7 cb 34 be
       0.006224362 -0.0716477 0.03125419 -0.17655884
000210 8d 8a 32 3d 06 58 5d 3d d2 98 c9 3d f5 8e 96 bd
       0.043589164 0.054039024 0.09843601 -0.07351486
000220 e6 6c 01 bd 54 59 0a 3e 57 14 23 3e da c6 5e 3d
       -0.031597994 0.13510638 0.15925728 0.05438886
000230 f2 ce ff 3d 1a ff 81 3d e6 5b 23 3e 6a 18 3c bd
       0.124906436 0.06347485 0.15953025 -0.04592172
000240 55 a0 3a bd 15 77 1c bd 46 53 40 be e0 a2 46 3e
       -0.04556306 -0.038199503 -0.18781766 0.1939807
000250 ed 0e 50 bb 0a b9 9f bd 2b 36 59 3e ce 1f d7 be
       -0.0031747178 -0.07798965 0.2121207 -0.42016453
000260 b9 b1 75 3d 4d bf a9 3d 64 5a 08 3c 64 22 9b 3e
       0.059983943 0.08288441 0.008322332 0.30299675
000270 ac 81 c7 bd 90 3d 9d 3d 62 7c b7 be c8 74 db bd
       -0.0974153 0.07677758 -0.35837084 -0.10715634
000280 3a 4b d1 bd 62 91 a7 bd 41 2e 38 bd c7 aa 35 be
       -0.102194265 -0.081820264 -0.044965986 -0.17740928
000290 df 51 c0 3c d4 7f 90 3d ce 75 0c 3d 27 b7 71 bd
       0.02347654 0.07055631 0.034292035 -0.05901256
0002a0 55 7c 08 be 36 c4 5e bd 55 31 5a bd 11 ea 6e 3d
       -0.13328679 -0.05438634 -0.053269703 0.058328692
0002b0 54 12 be 3d 96 3b 20 bb c1 da 13 bd 68 bd ad bb
       0.092808396 -0.0024449578 -0.03609729 -0.00530212
0002c0 f9 18 1b 3e b1 a1 67 3e 44 29 03 3c 24 3a 28 3b
       0.15146245 0.22620274 0.008005444 0.002566942
0002d0 bd 59 b7 bd 90 95 05 be e8 b0 04 3e 41 bb bb bc
       -0.08952663 -0.13045335 0.1295811 -0.022916438
0002e0 4c bb 26 3e d3 8a 99 bd 3a 9d 38 bd b9 d3 89 3e
       0.16282386 -0.07497182 -0.045071818 0.26919344
0002f0 be a9 2c 3c e0 44 49 3e ce 4b 21 be 4c cf b8 3d
       0.010538517 0.1965518 -0.15751573 0.09023914
000300 94 f9 f1 3d 3f 50 75 be 41 8e ec 3c 84 fc 9e bc
       0.118151814 -0.23956393 0.028876426 -0.019407518
000310 df 9f bf 3d ad 9f 82 3e 97 90 09 3e c4 84 38 3d
       0.09356665 0.25512448 0.13434063 0.04504849
000320 9e 99 ad 3d 23 3c 65 bc 9d 75 5d be 9f 72 b9 be
       0.08476566 -0.0139913885 -0.21626897 -0.3622026
000330 4d 86 53 38 0f 9b 84 3d 11 09 ab bc d3 17 c4 bc
       5.0431398e-05 0.064748876 -0.020878347 -0.023937142
000340 c1 6a 09 bf 0a 27 2d 3d b5 a0 81 bb e4 e5 9a ba
       -0.5367852 0.04227356 -0.0039559253 -0.001181778
000350 7f 53 20 be fb 43 72 3d 8c ab da 3b ff 08 a3 3d
       -0.15656851 0.059146862 0.006673282 0.079607
000360 5b 96 1e 3b ee 46 06 3d 78 0b 34 3c 98 71 f3 3d
       0.0024198506 0.032782488 0.0109890625 0.11886901
000370 56 82 b9 3b da de c6 bc 83 ad 81 3a 15 3e 21 be
       0.005661289 -0.024276186 0.000989363 -0.15746339
000380 27 4f de bc 43 f6 9e bd cc 66 01 3d be 1f 26 3b
       -0.027137352 -0.077618144 0.031592175 0.002534851
000390 d6 d6 29 bd 47 47 05 be 0b 55 86 3e f5 18 f1 3d
       -0.04146465 -0.13015471 0.26236758 0.11772338
0003a0 e5 09 6a 3d fb 19 39 be 73 10 1c bc 32 a7 1e 3d
       0.057138342 -0.18076317 -0.009525406 0.03873367
0003b0 8b 26 07 3d 4e 32 25 be 67 0f e1 bc 25 38 c6 bc
       0.03299574 -0.16132471 -0.027473165 -0.024196694
0003c0 da 5a ac bd 05 03 0c 3c 35 b6 c8 3d a4 c7 9c 3c
       -0.08415766 0.008545642 0.09800378 0.019138165
0003d0 a0 e3 8f be 0f f3 37 bd a1 53 2c 3d 2c 50 71 bb
       -0.28103352 -0.044909533 0.042071942 -0.0036821468
0003e0 62 5f b2 bb 7b ba aa bd 30 86 1e be db 20 03 3d
       -0.0054434994 -0.083363496 -0.15480876 0.032013755
0003f0 46 bc 96 3d 79 a2 9d bc 8f 09 0f 3e 28 3f 82 bd
       0.07360129 -0.019242512 0.1396849 -0.06359702

bias f4 [100]
000000 52 ca d2 3e e4 c8 8f 3e b0 39 d5 3f 45 6f c9 be
       0.41169983 0.28082955 1.665823 -0.39342704
000010 67 f4 0c 3e ac d6 24 bf b8 59 09 40 d4 24 7d bf
       0.13765107 -0.64390063 2.146101 -0.9888432
000020 81 38 42 be ad 67 2a bf 69 ca 89 3e 41 6b cd 3d
       -0.18966867 -0.66564447 0.2691224 0.10030223
000030 e1 bf 1a be f5 d5 ab 3d f5 91 e3 3e 4b 64 e1 3c
       -0.15112258 0.083904184 0.44447294 0.027513644
000040 79 12 0a bc 06 0d 53 bd 11 63 86 3f a7 ab 39 3f
       -0.008427256 -0.051526092 1.0498983 0.72527546
000050 cc 2f ba be 66 c7 07 3f 52 fe e5 3e 99 0f 3b be
       -0.3636459 0.5303863 0.44920594 -0.18267669
000060 0e 73 ba 3f 7c fd 5d 3f 60 63 c8 3f 0e 03 08 3f
       1.4566362 0.8671491 1.5655327 0.5312966
000070 34 0f da 3e 30 5f 04 3f 6a bd 8d 3e f9 6f d5 3e
       0.42589724 0.51707745 0.27683574 0.4168699
000080 33 42 24 3f 1f 31 12 40 c3 17 d7 3d 97 bd de be
       0.6416351 2.284248 0.10502579 -0.4350402
000090 3a f1 3f 3f 99 a6 f1 3e 20 a3 93 3e 2f 70 5d 3e
       0.7497746 0.47197416 0.28835392 0.21624826
0000a0 45 7b 20 be 29 fa 89 3f 28 19 74 3f 54 b0 c3 be
       -0.15672024 1.0779468 0.95350885 -0.38220465
0000b0 5a d1 37 3d 16 b2 04 3f b2 8c 66 3e fe 5a 15 3f
       0.044877388 0.5183424 0.22514609 0.5834197
0000c0 34 f0 d1 3e 1c 8a f4 3d db 92 4f 3f 41 2b 36 3f
       0.41003573 0.11940405 0.8108346 0.7115975
0000d0 fe d8 8a 3f d6 9b 2e bf bc f6 5c 3f 74 a5 9b 3d
       1.0847471 -0.68206537 0.86313987 0.07599917
0000e0 2d c5 1f 3f 98 13 8c 3e 15 f0 ce 3f b6 07 c3 3f
       0.6241024 0.273587 1.6167017 1.5236728
0000f0 dd 96 44 bc 10 06 c7 3f 3b c6 48 3f 0f 89 4e 3f
       -0.011998859 1.5548725 0.78427476 0.80677885
000100 08 a5 27 be ea af 51 3f 22 59 5c 3f 90 e6 8e 3e
       -0.16371548 0.8190905 0.86073506 0.2791028
000110 79 4d 54 3d 0c 7e d3 3e 09 e6 03 3f de 21 29 3e
       0.051831696 0.41307104 0.5152288 0.16516826
000120 08 d4 40 3f 91 ed cf 3e fa 47 00 bf d3 6e 86 3f
       0.75323534 0.40610936 -0.5010983 1.0502571
000130 1d 4a 17 3f b6 d2 3c 3f 4f 4e 0d bd ea f6 12 3e
       0.5909746 0.7375902 -0.03449851 0.14352003
000140 f7 69 85 3f c8 35 3a 3f 0d 06 1a 3e a6 2f 6e be
       1.0422963 0.72738314 0.1504137 -0.23260364
000150 89 ca a0 3e 21 58 88 3f 1c f0 1b 3f 90 d7 57 3f
       0.31404522 1.0651895 0.6091325 0.843133
000160 4d bf b6 3e 12 2b 3d 3e 7a ff 85 3e 5d b7 82 3e
       0.35692826 0.18473461 0.26171476 0.2553052
000170 be 03 eb be 03 dc 6b be 2a cd 92 3f 0a 41 bd 3e
       -0.45901293 -0.23033147 1.1468861 0.36963683
000180 bf 54 e2 3e 52 39 4b 3f 4b bb b7 3e d4 e9 79 3f
       0.4420528 0.7938434 0.3588508 0.9762242

weight f4 [11, 100]
000000 42 8a 3f be 14 d6 dc bd bd d6 8d 3d 43 8b 93 3d
       -0.18705085 -0.1078302 0.06925724 0.072042964
000010 75 2c 31 3d 39 d5 f0 bd 12 71 62 3f 57 c3 91 bc
       0.04325529 -0.11759419 0.8845378 -0.01779334
000020 6a b5 03 be 55 de 8d 3d ae f9 41 3e 7a 87 a4 bd
       -0.12862173 0.06927172 0.18942901 -0.080336526
000030 cd 28 d6 bd 4a fb 20 be 99 8f d8 3c 30 c9 27 3e
       -0.10457001 -0.15720859 0.02643566 0.1638534
000040 7e fa 82 3c 72 80 54 3e 48 37 b3 3d d5 47 0e 3e
       0.015988585 0.20752123 0.087507784 0.13894589
000050 49 30 e1 3d 1b 4d a9 bd 66 14 72 bd 01 4f 07 be
       0.10995538 -0.0826666 -0.059101485 -0.13213731
000060 5e c9 6b be 63 12 cc 3c 8b fc 96 ba b9 26 0d 3e
       -0.23026034 0.024911111 -0.0011519355 0.13784303
000070 0f b0 87 be 78 65 84 3d ae 90 59 bd 11 0c 5a 3d
       -0.2650151 0.06464666 -0.053116493 0.053234164
000080 f3 a6 8b 3e bd f9 7b bf 45 2f 16 be e1 25 d7 3d
       0.2727581 -0.98427945 -0.1466647 0.10505272
000090 d8 e5 f1 3d 72 1a 7e be ba 27 94 bb 21 5d 86 bd
       0.11811417 -0.24814776 -0.0045213373 -0.06560732
0000a0 36 82 51 be 69 12 88 bf da 27 c0 bb 82 d8 ca bb
       -0.20459828 -1.0630618 -0.0058641257 -0.0061903605
0000b0 56 1c 80 3d 28 fb 15 be b5 34 1b 3d c4 23 bc be
       0.06255405 -0.1464659 0.037892062 -0.36746037
0000c0 a8 bc bd bd e8 f0 05 be 4b bf de 3d 1f c7 09 3d
       -0.09264499 -0.1308018 0.1087633 0.033637162
0000d0 4b b9 9f bd 03 76 0a 3d 91 96 d9 3d 01 be 3a bb
       -0.07799014 0.03380395 0.106244214 -0.0028494599
0000e0 5c 9d bf 3d fe 7e b4 3e 72 da 9e be d1 f7 7e bd
       0.09356186 0.35253137 -0.31026036 -0.062248055
0000f0 d7 0d aa bd 66 e6 62 3f 17 40 c4 3d 76 b3 34 bb
       -0.08303421 0.8863281 0.09582537 -0.0027572787
000100 47 ca 6c 3c 4d 0b c9 be 85 e3 1c be d6 02 a3 bd
       0.014452524 -0.39266434 -0.15321167 -0.07959525
000110 37 70 df 3d b1 4c bf 3c f8 60 7e 3f 61 16 58 3e
       0.10910075 0.023351999 0.9936671 0.21102287
000120 11 7b 17 bd a1 44 b2 be fc a0 1d 3d f0 42 e6 bd
       -0.0369826 -0.34817985 0.038483605 -0.11243236
000130 bc 71 7d c0 31 c6 3a 3e 03 c3 8c bd 84 0f 85 bd
       -3.9600668 0.18239667 -0.06873133 -0.064971
000140 7b 31 8a 3d 14 30 c8 be b9 b4 0c 3e b3 0c ae be
       0.06747719 -0.3909918 0.13740815 -0.33994064
000150 a0 46 18 3d 56 ba ae 3f 15 6c d8 3a 83 d6 63 bf
       0.03717673 1.3650615 0.0016511703 -0.88999194
000160 10 72 86 bd cf e5 63 3c 77 ab 25 3e 36 5a cf 3d
       -0.065647244 0.013909771 0.1617869 0.10124628
000170 91 d6 65 be 9c 20 7b bd 56 3b 89 bf 60 cb 68 3e
       -0.22445132 -0.061310396 -1.0721233 0.22733831
000180 17 0a f4 3c e4 bd a7 3e d3 c9 88 3d cc b9 a9 3e
       0.029789967 0.32762063 0.0667912 0.33149564
000190 cb be c7 3f a9 8d 44 be 9d 11 65 bd ff 18 25 3d
       1.56051 -0.19194664 -0.055925 0.04030704
0001a0 eb 91 ad bc 08 a6 db be 58 de 92 3e 5f 70 53 3e
       -0.021187743 -0.4290011 0.2868526 0.20648335
0001b0 f1 fc 84 bf 8d 0b 12 be 3e 4b 40 40 23 30 bb 3d
       -1.0389692 -0.14262219 3.0045924 0.09140041
0001c0 8d f5 36 bd 06 5d 0a be 6b 56 32 be 34 c9 11 3d
       -0.04466777 -0.13512048 -0.17415778 0.035592273
0001d0 fe 6d c1 3d 2f 6b 24 bc f7 e2 22 3e 81 73 13 3d
       0.094448075 -0.01003532 0.15906893 0.035998825
0001e0 a8 4b f6 bc 07 ca 67 3d b1 95 23 be f8 d5 9f 3d
       -0.030065373 0.056589153 -0.15975071 0.07804483
0001f0 44 fa 79 bd fe 98 53 3e 59 6a 0b 3c c5 e8 11 bd
       -0.061029688 0.2066383 0.008509242 -0.035622377
000200 98 d4 06 c0 fc de 1b 3e e4 96 89 bd fa 02 31 be
       -2.1067257 0.1522178 -0.06718233 -0.17286292
000210 ee ff 08 bd af 78 8c be c1 2d c5 bb 74 ee 06 3d
       -0.0334472 -0.27435824 -0.006017417 0.03294225
000220 f1 40 91 3d 9d 83 d4 bf 18 20 b6 bd 6a 37 d0 3d
       0.07092465 -1.6602665 -0.0889284 0.101668194
000230 24 e3 7d bd 7d 5b 10 bf ed 8e 53 3e 56 77 07 be
       -0.061984196 -0.563896 0.2065999 -0.13229117
000240 09 4e 7b bd f0 dd 08 bd 64 4e 21 be 9b 94 eb bd
       -0.061353717 -0.03341478 -0.1575256 -0.115029536
000250 74 1d 45 be b4 44 e8 bd 52 0f 7b bd a4 be 3c 3b
       -0.19249517 -0.11341229 -0.061293907 0.0028800154
000260 74 7b a9 3c 94 a2 81 3c 8c 98 ce 3d 0d fd 28 3e
       0.02068875 0.015824594 0.1008769 0.16502781
000270 20 b4 16 3e 7b f5 81 3e 2b 3c 2e be b9 cd 58 3e
       0.1471715 0.253826 -0.1701514 0.21172227
000280 d5 ac 95 3d 31 55 c6 3d 50 9c 73 3e 96 10 81 3d
       0.07308356 0.09684218 0.23790097 0.06301992
000290 a9 e1 d3 bc 53 73 e5 bb 48 c4 58 bf ea 87 3d bc
       -0.02586444 -0.007002273 -0.846745 -0.011568049
0002a0 c8 72 9b 3c e3 83 86 3e ae 4f 61 3f f9 c0 cc 3d
       0.01897563 0.26272497 0.88012207 0.09997744
0002b0 4d 9d 69 3c d8 2b 84 c0 15 11 1a 3e 08 c6 be bd
       0.014258695 -4.130352 0.15045579 -0.09315115
0002c0 f1 18 88 c0 f6 79 38 3c f6 c4 0b 3e cd 6d 04 be
       -4.2530446 0.0112595465 0.13649353 -0.1293251
0002d0 34 86 02 3e 2e 83 86 3f 93 f3 77 3e 50 79 bf be
       0.12746507 1.0508783 0.2421401 -0.37397242
0002e0 9f 82 9c 3c c2 b7 ed 3e e7 b2 a5 3d 28 6e a7 bd
       0.019105254 0.4642926 0.080907635 -0.081753075
0002f0 e7 3e 1c bd 86 9c bf 3c ce dd 46 3e 65 90 c9 bd
       -0.038145926 0.023390066 0.1942055 -0.09841994
000300 fb 87 ae bd 37 39 3a bd 90 e2 aa bf 62 0e ce 3d
       -0.0852203 -0.04546472 -1.3350391 0.10061337
000310 b8 fb 59 be 38 c5 86 3e b7 38 85 3d 48 8c ca 3d
       -0.2128743 0.2632234 0.06504958 0.09890038
000320 21 82 be 3e 80 f6 9c 3d 2f 99 09 bd 0c a2 74 bc
       0.37208655 0.07664204 -0.033593353 -0.014931213
000330 a1 46 c4 3d 34 7c 54 be e7 25 83 3e b7 05 02 bc
       0.09583784 -0.20750505 0.25614855 -0.007935933
000340 7d 3d a6 3e 8a 0e 0f bd f8 98 a4 bf 10 e6 4d bd
       0.32468787 -0.034925975 -1.2859182 -0.050268233
000350 50 a0 bb 3c dd 1f 11 3e 4b 78 ce 3e a8 b5 98 3c
       0.022903591 0.14172311 0.4032615 0.018641308
000360 d6 0b 1d be 78 95 80 ba 56 97 a0 3f 78 3e 99 bd
       -0.15336546 -0.000981017 1.2546184 -0.07482618
000370 07 0a cf 3d 37 46 05 3c 50 b5 93 3f c7 88 d4 bd
       0.101093344 0.008134416 1.1539707 -0.10377651
000380 30 03 0e be 95 17 9a 3e e1 d3 21 3c 40 e8 e3 3d
       -0.13868403 0.30096117 0.009877176 0.111282825
000390 9c 79 46 3f 50 23 00 3c 5d 3c 6d bd 83 03 95 3e
       0.7752931 0.007820919 -0.057918895 0.29104242
0003a0 f8 e1 08 be e8 08 17 be 09 59 a8 bd 6f 64 d7 3d
       -0.1336745 -0.14749491 -0.08220107 0.10517203
0003b0 ce d1 8f 3c ed ab 3b 3f 7d 54 c4 3c 42 db f9 3d
       0.017556097 0.7330921 0.023966068 0.12200023
0003c0 34 de cf bd 01 a7 66 be 81 b8 bf be 9b 37 81 bc
       -0.10149804 -0.22524644 -0.37445453 -0.015773585
0003d0 a7 e7 b9 3d 97 0c fb be 66 62 c2 bc 0c cb df 3e
       0.09077387 -0.49033043 -0.02372856 0.437096
0003e0 6c 86 b0 bd b2 83 a7 bc c5 73 5f bd e2 83 8a 3f
       -0.08619389 -0.02044854 -0.054553766 1.0821497
0003f0 35 72 14 be e5 07 e2 3c a5 60 a7 3d 24 e9 83 be
       -0.14496692 0.027591655 0.0817273 -0.2576381

bias f4 [11]
000000 ec 6a 5e 3e ea 29 af 3e a8 e4 74 3d ca 64 5b 3e
       0.21720475 0.34211665 0.059788376 0.21425167
000010 06 a9 bf 3e 02 55 a3 3e 35 76 4d 3e 18 cb 0c be
       0.37433642 0.31900793 0.20064624 -0.13749349
000020 29 e7 40 be fc 0d 57 be 7d 94 5e 3e
       -0.1883818 -0.21001428 0.21736331
