trainingOnSyntheticData/results/20230802_182940_train_local/model_training_set_size_100000_hidden_neurons_200_n_batches_100.pt (torch, 334039 bytes, 6 tensors)

weight f4 [200, 200]
000000 ff b3 49 b8 3a 91 04 3d c2 55 a4 bc 7c 03 2a 3c
       -4.808977e-05 0.03236506 -0.020060424 0.010376807
000010 68 cb 6e bd 62 bb f3 3c 2d 0e e5 3c 89 a2 4d 3c
       -0.058299452 0.029752437 0.027960861 0.012550958
000020 a0 7c 67 3d 71 63 86 3d d6 bc 6e bd 72 8e 8d bb
       0.056515336 0.06561936 -0.058285557 -0.0043199593
000030 40 a9 41 bb ec 92 d9 bc 97 69 17 3c eb a3 fd 3b
       -0.0029550344 -0.026559316 0.009241483 0.007740488
000040 c5 65 27 3d 6c 66 86 bd 55 6b 02 bc d6 b9 4e bd
       0.04086854 -0.06562504 -0.00796016 -0.050470196
000050 9a c3 9b 3d 98 ef 03 3d 5d af 25 bc 1d 85 38 3d
       0.076056674 0.032210916 -0.010112611 0.04504882
000060 98 b1 28 3d cc 57 f7 bd 50 b0 ee 3c 8a 95 17 3e
       0.04118499 -0.12077293 0.029136807 0.14803138
000070 ca 59 e5 3c 1c 2c 58 3c 06 0c db 3d ac 71 ee bc
       0.027996916 0.01319411 0.10695653 -0.029106937
000080 28 fb da bc 9e a7 cc 3d 57 fa be 3d f7 76 6d bc
       -0.026731089 0.09992908 0.09325092 -0.014493695
000090 6b 87 b8 3d b0 cc 89 3d 57 77 bd bc 7d 61 e6 3c
       0.09010204 0.06728494 -0.023128195 0.028122658
0000a0 e9 37 c9 3c 19 d9 be 3d 34 5b 63 3d 2d a8 88 bd
       0.024562793 0.09318752 0.0555069 -0.06672702
0000b0 47 8f ae bd cd 77 83 bc 1c b9 a8 3d ce a2 0f bd
       -0.08523422 -0.016048336 0.08238432 -0.035067372
0000c0 e5 bf 27 3c d4 73 59 bc 6c 59 95 bc ba 8b ed bc
       0.010238622 -0.0132722445 -0.018231116 -0.02899729
0000d0 1b be 9f 3d 50 78 78 3c 78 3e 82 3d a0 60 c0 3c
       0.077999316 0.0151654035 0.06359571 0.023483574
0000e0 55 a7 cd 3d 76 26 07 3d c6 4d 53 bd c6 07 6c 3c
       0.10041682 0.032995664 -0.051587842 0.01440615
0000f0 a8 c9 50 3d 1f 05 3a 3d ab 1f 2d 3e 8d 57 08 3e
       0.050973564 0.04541504 0.16906612 0.13314648
000100 e7 f4 ff 3c 45 c9 b0 bc 36 30 8c 3d ca e2 6d bc
       0.031244708 -0.021580348 0.06845133 -0.014519403
000110 57 70 ec 3c c4 ce 2e 3d bb 94 53 3d e4 fc 19 3e
       0.028862162 0.042677656 0.051655512 0.15037876
000120 5a 93 a9 bc 00 04 8c bc f2 42 25 3e 4e 02 fc 3d
       -0.020700146 -0.017091751 0.16138819 0.12305127
000130 5a 2a 46 3d 0c ec df bc 0a 33 95 3c 87 93 37 bc
       0.048380233 -0.027334236 0.018212814 -0.011204607
000140 3c be 87 bd d6 0a e2 bd 87 2a 4d bd f1 57 50 bd
       -0.06628081 -0.11037223 -0.050089385 -0.050865117
000150 c4 0b 61 bd 1e 32 f4 bd 43 4c 71 be ed 19 bb be
       -0.05494286 -0.119236216 -0.23564248 -0.36543217
000160 71 ac 63 be de 52 51 be d6 c1 98 bd 4c ec 69 3e
       -0.2223375 -0.20441768 -0.07458846 0.22844046
000170 f3 e7 96 3e 86 c8 d9 3e fa 57 df 3e 71 c2 ae 3e
       0.29473838 0.425358 0.43621808 0.34132722
000180 db fb 14 3e 71 66 0b be 93 0a 7e be 91 99 dc be
       0.145492 -0.13613297 -0.24808721 -0.43085912
000190 b3 3d af bf d2 33 c8 3e 48 0e 14 3f 62 83 2e 3f
       -1.3690704 0.39102036 0.5783429 0.68169224
0001a0 50 bc 25 3f 8f 4c fa 3e 75 23 b5 3e e9 43 8a 3e
       0.6474047 0.48886535 0.35378614 0.27004936
0001b0 dc 12 f2 3d bb 9f e6 3c 40 26 63 bd c6 66 12 be
       0.118200034 0.028152337 -0.0554564 -0.14297017
0001c0 72 a8 20 be 81 0c 13 bd f2 2a 30 3e f0 84 96 3e
       -0.15689257 -0.035900597 0.17203882 0.29398298
0001d0 3f bc 9f 3e 45 1f 57 3e f6 38 89 3d 20 0c 03 3d
       0.31198308 0.21008022 0.067003176 0.031993985
0001e0 80 71 8e 3d 94 dd 2b 3e b8 1e 8b 3e e4 78 c2 3d
       0.06955242 0.16783744 0.27171874 0.09495714
0001f0 e1 e3 23 bc fb 6a ae 3c 05 a8 36 3d 3d b3 b9 3d
       -0.010003061 0.021291247 0.04459383 0.0906739
000200 07 3b fd 3b d3 10 d3 3d 5a fd 03 3e f4 1f a4 3d
       0.007727984 0.10305943 0.12889615 0.08013907
000210 9c 2f 20 3d 26 96 ce 3b ab 37 13 bc dc 36 1f bd
       0.039107904 0.00630452 -0.00898544 -0.038870677
000220 39 6c c1 3d b2 08 62 3d c9 da 7e 3b 00 3a 98 bd
       0.0944447 0.055184074 0.003888773 -0.074329376
000230 f5 bf 94 3c b7 d0 03 3d fd 7d e1 3c 0e 33 b1 3c
       0.018157938 0.032181468 0.027525896 0.02163079
000240 86 df 3a 3d 22 7b 67 3c 9f 6c 72 3d 12 9a 20 bd
       0.045623325 0.014128478 0.05918562 -0.039209433
000250 81 d2 1d 3d 59 f9 ad 3d f0 bb aa bd 8a ef d5 bc
       0.03853083 0.08494825 -0.083366275 -0.026115198
000260 3e be 3b bb d5 5f 55 3d 79 04 8d 3d db 8c ab 3d
       -0.0028647329 0.052093346 0.06885619 0.083764754
000270 d0 8f 87 bd 83 46 21 bd bb 5c 11 3e 03 cc ce 3b
       -0.06619227 -0.039373886 0.1419553 0.006310941
000280 f2 25 28 bc e4 4b 2c 3c 5b 3a 09 3e 53 e6 e1 bc
       -0.010262953 0.010516141 0.13401167 -0.027575647
000290 46 0d 70 3d 92 3a 38 3d 88 58 e1 3d 9e b8 45 3a
       0.05860641 0.044977732 0.11003214 0.0007542464
0002a0 99 36 1e bd 1a b7 64 bd b0 63 90 bd 9e ec 36 3c
       -0.038626287 -0.05583868 -0.07050264 0.011164812
0002b0 6c 2c ff bb e7 88 00 bc 25 1b a2 bb a7 7f 94 3c
       -0.007787278 -0.00784514 -0.0049470835 0.018127276
0002c0 b7 da 38 3d 7d 64 8f 3c 91 da de bc c3 63 06 3c
       0.045130458 0.017503971 -0.02720383 0.008202496
0002d0 d8 a2 37 bd b1 1a cc bc 51 e0 6f 3d 2e ed 7f bd
       -0.044833034 -0.024915071 0.058563534 -0.06248205
0002e0 d4 07 64 bd 11 cc 5a 3d 42 29 8a bd c8 42 58 3d
       -0.055671528 0.05341727 -0.067461506 0.052798063
0002f0 3c c4 15 3d 35 84 50 bc 11 db 8a 3d 3c 39 4a bb
       0.036564097 -0.012726833 0.06780065 -0.0030856868
000300 c0 f1 de 3d 40 0c 3c 3d 43 73 9f bc 03 94 e8 bc
       0.10885954 0.04591012 -0.01946414 -0.02839089
000310 8b f0 93 bc 17 83 93 bd e5 a9 4f bb 6b a6 14 3d
       -0.018059036 -0.07202738 -0.0031686958 0.03629152
000320 18 30 ec ba c5 da 83 bc cf ff 00 bd a6 19 f1 3a
       -0.0018019704 -0.016095528 -0.031493958 0.0018394485
000330 05 2b 58 3c e1 41 05 3d 56 71 08 bd a3 bd 73 bc
       0.01319385 0.03253353 -0.03331121 -0.014876756
000340 7c 92 4f bc 29 4a 6e 3d 5b a3 8b 3d 84 c6 32 3d
       -0.012669202 0.058176193 0.06818267 0.04364635
000350 0e 68 a6 3d a7 e1 18 bd b6 a6 ca bc c7 a8 f1 bc
       0.081253156 -0.037324574 -0.024737697 -0.029499425
000360 e4 f1 3b bd b3 71 fb 3c d1 86 2a 3d 37 22 da 3c
       -0.04588498 0.030693864 0.041632477 0.026627643
000370 a8 91 79 bd 59 9a ba bb b3 62 3e bd cf 90 9e 3c
       -0.060929924 -0.005694669 -0.046480846 0.01935616
000380 33 7d 35 bd 12 11 76 bc 89 de 7e bc 1f ae 81 3d
       -0.044308852 -0.015018718 -0.015555986 0.06332039
000390 05 51 0c bd bc 15 d7 3c 87 04 a1 bc 50 43 03 bb
       -0.034256954 0.026255481 -0.01965548 -0.0020029135
0003a0 30 2f 92 3d 70 3e 88 b9 a4 03 84 bd 17 8d 45 3c
       0.071379066 -0.0002598646 -0.06446007 0.012057564
0003b0 38 80 20 3d 8d 7b e7 bc 38 ab 39 bd b4 84 37 bd
       0.03918478 -0.028257156 -0.045329303 -0.04480429
0003c0 e2 4d 88 bc 45 e6 59 3d 18 63 83 3d ab 00 69 3d
       -0.0166387 0.053198118 0.06415385 0.056885403
0003d0 29 7a f7 bc 80 4b 96 bc 1a c9 7e 3c 68 a0 33 bd
       -0.030209618 -0.018346548 0.015550876 -0.043854147
0003e0 89 84 97 3b 89 6d ab 3c f1 02 35 bd 70 f1 06 bd
       0.0046239537 0.020926254 -0.04419226 -0.032945096
0003f0 0a e8 62 bd 60 86 97 bb 10 02 be 3d df ed d2 3d
       -0.05539707 -0.004624173 0.09277737 0.102992766

bias f4 [200]
000000 44 06 6a 3b 1f b3 f5 3e a6 11 1a bc 83 5b 74 bb
       0.00357093 0.4798822 -0.009403622 -0.003728599
000010 c9 6d 84 ba 96 0f a5 3b 08 25 9d 38 f5 91 c7 bc
       -0.0010103519 0.0050372584 7.493241e-05 -0.02436159
000020 e7 c4 c4 3e 70 8b cc b9 55 1f 9c 3f f9 25 3f 3e
       0.38431475 -0.000390138 1.2197062 0.18666829
000030 fa 89 6f 3b cf 54 fb ba d1 68 ce b9 18 b2 da bd
       0.0036550746 -0.0019175055 -0.00039369476 -0.106785
000040 ae 55 81 bb b2 c9 29 38 92 21 87 bc 3e 2b 3d 3e
       -0.0039469814 4.0480583e-05 -0.0164955 0.18473527
000050 58 47 ae b9 7d 78 51 bb 1a 31 00 ba 73 ee 48 bb
       -0.0003324102 -0.0031962686 -0.0004890129 -0.0030659705
000060 c1 99 00 bc 10 ad 74 bd aa 2d b0 ba e0 66 ec ba
       -0.007849158 -0.059735358 -0.0013441343 -0.001803603
000070 ec 82 ae 39 76 8e ee ba 6d 6e c6 3a 4d 88 c9 ba
       0.0003328541 -0.0018200416 0.0015139111 -0.0015375704
000080 97 5d 7f 3f 70 67 4d 3b 1c 71 fa 3c 0a 57 5b ba
       0.9975218 0.003134217 0.030571513 -0.0008367157
000090 74 4c 42 ba 11 92 3c 3a fa 48 b8 38 21 55 7c ba
       -0.0007411905 0.00071933965 8.787397e-05 -0.00096257223
0000a0 e9 84 80 ba b2 54 42 3f 1a 1a 0a 3f a3 03 32 3f
       -0.0009805235 0.75910485 0.5394608 0.695368
0000b0 9d 57 86 bd 3a 29 43 3f 9e 44 1c 3c e1 f5 bf 3e
       -0.0655968 0.7623478 0.009537844 0.37492278
0000c0 d6 e5 0f b8 20 d3 6c 3b cd 8f 5a be 09 18 54 bb
       -3.430791e-05 0.0036136582 -0.21343918 -0.003236296
0000d0 22 bd 2e bd 63 8f 2a 3f b6 24 23 bb e7 ca 62 bd
       -0.04266084 0.6662504 -0.0024893708 -0.055369284
0000e0 4c 4f d0 39 fc ab 33 ba a3 fb c8 3e 44 35 bd ba
       0.00039731932 -0.0006853936 0.39254484 -0.001443543
0000f0 13 5e c4 3d a3 ba 88 3f df 69 93 ba ae 5b 26 b8
       0.09588256 1.0681957 -0.0011246762 -3.9662867e-05
000100 c7 ae 81 3a eb 92 30 3a db 36 87 3a d0 5c 6d ba
       0.0009894007 0.00067357597 0.0010316031 -0.00090546627
000110 d1 46 d9 3c 27 7a 38 3c cc f8 68 bc 8f 71 ff 3e
       0.026523026 0.011259592 -0.014219474 0.49891326
000120 eb 4b 83 bb 91 44 6d b9 1a a3 66 ba 7f d9 35 ba
       -0.004006853 -0.00022627624 -0.0008798108 -0.00069370115
000130 3d f0 ee b8 bb c8 29 ba ea c6 5c 3b 5f b6 9d ba
       -0.00011393472 -0.00064767495 0.0033687898 -0.00120325
000140 9a fc 2e 3a 68 25 8b bb c6 7a 03 bd 4d 4e db 3e
       0.0006675214 -0.0042464025 -0.032099508 0.42833176
000150 63 28 6a 3a 6e 4d 51 3a 75 d0 8a 3a 1b 5d ee ba
       0.00089324097 0.0007984255 0.001059069 -0.0018185707
000160 a4 58 6f 39 9f a5 66 be 0a 1d 02 be 14 8d 71 bb
       0.00022825837 -0.22524117 -0.1270639 -0.003685777
000170 7e dc 15 bb b9 22 58 3d 52 32 19 39 fb 83 72 bc
       -0.002286702 0.05276749 0.00014609963 -0.014801974
000180 3b ad 20 3e b2 2f 23 3f 88 d2 37 3e e0 07 97 ba
       0.15691082 0.6374465 0.17951405 -0.0011522733
000190 e4 af 60 ba 13 ae 84 3c 9f 04 9e 3e ff 72 64 3e
       -0.00085711316 0.016196286 0.308629 0.22309493
0001a0 ac b6 33 3f f2 f7 d5 bc 65 a7 2a bc 0f 78 cd 3d
       0.7020061 -0.026119206 -0.0104158865 0.10032665
0001b0 23 58 70 bf f1 a9 75 bf ed df 75 b9 d1 53 83 3a
       -0.93884486 -0.95962435 -0.0002344844 0.0010019486
0001c0 a4 6f 25 3c 20 5a 0d 3c e8 66 7a 3e 4f f1 27 3f
       0.010097418 0.0086274445 0.24453318 0.6560258
0001d0 d6 b9 31 bc 5a ed f4 b8 d4 ab 8d bf 14 bb 81 bb
       -0.010847529 -0.00011679037 -1.1068063 -0.003959069
0001e0 b1 2c cb b9 78 36 90 ba db 08 24 3c b6 06 ce 3e
       -0.00038752475 -0.0011002561 0.010011877 0.40239495
0001f0 00 25 14 bd 54 0b 03 3d 59 6e a4 ba 5d d6 26 3f
       -0.0361681 0.031993225 -0.0012545093 0.6517084
000200 94 94 68 39 e0 6d 0d b7 95 e0 cb b9 36 d1 06 bb
       0.00022180594 -8.429837e-06 -0.00038886504 -0.0020571477
000210 ac d2 ab 3f 53 60 51 bf 61 3f 77 be f9 b5 2c bf
       1.3423667 -0.81787604 -0.24145271 -0.6746517
000220 51 2f 50 ba da fa 7f 39 2e 8d 7b bb 67 d3 86 39
       -0.0007941621 0.00024412145 -0.003838371 0.0002571598
000230 f3 35 00 b9 28 eb ee be a9 37 21 b9 35 30 74 3e
       -0.00012227129 -0.46663785 -0.00015374892 0.23846515
000240 c5 ba 89 bb ff e6 dd bc 06 59 19 3f f8 15 39 bc
       -0.004203173 -0.027087687 0.59901464 -0.011296742
000250 01 94 08 3a 50 ae 23 bc cf 3c d7 b8 03 33 f6 3e
       0.00052100426 -0.00999029 -0.000102633254 0.48085794
000260 90 bb 20 3c 64 38 0c ba 70 b0 99 ba cc 10 a8 be
       0.009810343 -0.0005348979 -0.0011725556 -0.32825315
000270 39 89 4a 3c 33 59 25 ba af 09 34 3b 55 35 49 ba
       0.012361818 -0.0006307542 0.0027471592 -0.00076754886
000280 c0 73 69 bd 94 1c 0c 3c 51 25 61 3e 3e 84 ab 3e
       -0.056995153 0.008551735 0.21986891 0.3349933
000290 c5 fa f1 3e 89 90 58 b9 51 dd 3c bb 9b 71 08 3f
       0.47261634 -0.00020653209 -0.0028818438 0.5329835
0002a0 ef cb 87 3a 65 71 15 ba f2 55 f0 3a f2 a4 b5 39
       0.001036046 -0.0005700796 0.001833616 0.00034645904
0002b0 45 65 fd 39 41 0f 22 3a 54 e7 ba be c6 e6 99 bf
       0.00048331372 0.00061820826 -0.36504614 -1.2023551
0002c0 fe 1b cc b9 96 f3 aa 3a 78 cf 1c bb fc a8 27 3f
       -0.00038930768 0.0013042565 -0.0023927372 0.65492225
0002d0 6a f8 c2 3e 3d c5 88 3a 91 f0 cb bc 9a e5 72 b9
       0.3808015 0.0010434758 -0.024894984 -0.00023164452
0002e0 90 ff 83 ba 5a b1 53 3a b7 6b 0d 3e e8 59 0f 3d
       -0.001007067 0.00080754387 0.13810621 0.03499785
0002f0 fe 29 10 bb 26 0f 26 bd 72 17 00 3d 0b 93 1a b9
       -0.0021997686 -0.04054179 0.03127236 -0.00014741362
000300 d1 d6 32 ba 53 8d fb b9 3e db 2d bd 5f 8d 19 bc
       -0.0006822171 -0.00047979745 -0.042445414 -0.009372084
000310 f8 60 92 be db ba 57 b9 e7 2e 9e 3f b6 e5 2f 3f
       -0.28589606 -0.00020573607 1.2358063 0.68709886

weight f4 [200, 200]
000000 fe e8 f7 bd 74 c0 3a 3e fe 4b 2b be 64 b2 09 3e
       -0.121049866 0.18237478 -0.16728207 0.13446957
000010 b2 93 bb 3e 9d 76 b1 3d 29 ba 78 3d de 7d 80 bd
       0.3663612 0.08665202 0.06072441 -0.06274007
000020 9c a6 87 3d d7 11 10 3e 81 36 13 3d b2 37 0d 3e
       0.06623575 0.14069305 0.03594065 0.13790777
000030 1f 1e 23 3e 67 3e aa bc c2 ec 0f be 61 67 7f 3d
       0.15929459 -0.020781709 -0.1405516 0.06235445
000040 64 9c 61 3c ca 5c 68 3e fb 74 84 bb a0 4f 64 be
       0.013770197 0.22691646 -0.0040422655 -0.22296
000050 81 99 a2 3d 93 43 8e bd 86 2f 6e 3d f5 f5 c9 3c
       0.07939435 -0.069464825 0.05815079 0.024653414
000060 29 72 94 3c 63 2c 10 be ec 0b c5 bc ae 64 55 3e
       0.018120842 -0.14079432 -0.024053536 0.20839188
000070 b1 85 79 3e 63 0b 9b bd 1e 38 0a bd d7 4a 89 3d
       0.24367405 -0.07570531 -0.033744924 0.06703728
000080 46 17 00 3d 64 e1 e4 3c be cc 01 3d 61 35 20 bd
       0.031272195 0.027939506 0.031689398 -0.039113406
000090 40 34 66 bd 52 64 51 3c 27 2d 8b bc 4f 7a a0 bd
       -0.056202173 0.012780266 -0.016989304 -0.078358285
0000a0 df c1 00 3d 9e b6 da 3d 17 a5 01 be 51 d6 7d 3d
       0.03143489 0.10679363 -0.12660633 0.061971966
0000b0 93 08 61 3c 1a 29 80 be 2f 06 fc b8 d2 d2 89 bc
       0.013734954 -0.25031358 -0.00012017448 -0.01682416
0000c0 31 f3 07 ba c3 f5 fc 3d 15 f2 2f bd 6f 55 c1 bd
       -0.00051860797 0.12351563 -0.042955477 -0.09440123
0000d0 20 60 f3 bd 41 cb 78 3c d4 ce 85 bd ca 3a f2 3c
       -0.11883569 0.015185178 -0.0653359 0.029569048
0000e0 e4 a2 5c bd 91 32 79 bd 91 bb 8b bd ed b3 3c bd
       -0.053866282 -0.06083924 -0.06822885 -0.046070028
0000f0 df 25 68 bd 10 c2 f8 bd fe 58 ff 3c fc 65 7d 3d
       -0.05667674 -0.121463895 0.031170364 0.061864838
000100 1e 92 52 bd fd 9a 32 bd d2 5c 1c 3d 79 c6 0c 3e
       -0.05140888 -0.04360484 0.038174458 0.13747586
000110 a6 58 cb 3c df 9a a3 3d c2 99 84 3e dc 4a 88 3d
       0.024822544 0.07988524 0.25898558 0.06654903
000120 7c 7d 1c bd 56 c8 80 3c a0 1f 34 be c4 e1 90 3d
       -0.03820561 0.015720528 -0.17590189 0.070743114
000130 44 54 65 bc 5c ab b1 bd 07 96 31 3d a8 7a 30 3e
       -0.013997141 -0.08675262 0.043355968 0.1723429
000140 08 bb a7 3c 0b 3f cf 3c f2 09 20 be 9f 1e d5 3d
       0.020474926 0.025298616 -0.15628794 0.10406231
000150 7f f2 b1 3c 01 84 f7 3c 1c 6d 91 bf 45 6c d1 bc
       0.021722076 0.030214312 -1.1361423 -0.025564322
000160 2e 06 27 be e6 98 94 bc ba be 2d 3b 6c f5 d9 3d
       -0.16310951 -0.018139314 0.0026511387 0.10642514
000170 2c 7d 71 bc 57 0c 6f bd 58 51 d5 bc 0b bb 39 3d
       -0.014739316 -0.058361378 -0.026039764 0.045344394
000180 e1 4a f2 3c 86 ae ef bd 4a 7f 73 bd 38 a9 d1 3d
       0.02957672 -0.117032096 -0.059447564 0.10237354
000190 bc 02 9d 3e 38 d9 07 bd d1 52 99 bd 50 ec b2 bd
       0.3066615 -0.03316614 -0.07486499 -0.08736479
0001a0 d4 bd 2e 3c 37 34 96 bc 4c f2 22 3d 04 d8 92 bc
       0.010665376 -0.018335445 0.039781854 -0.01792527
0001b0 21 69 8d 3e aa 7c ff bd 5b 7c 08 3e 29 90 bc bd
       0.2761927 -0.1247495 0.13328688 -0.09207184
0001c0 3c e0 91 3d 63 4f 58 3c 96 92 aa 3c 5c ad 6d bd
       0.071228474 0.013202521 0.02082185 -0.058026657
0001d0 6c f9 30 3e 3c bd 51 3e 38 ab ba 3d c6 54 1f 3e
       0.17282647 0.20482343 0.09114689 0.15559682
0001e0 74 8e 54 be 3e a6 37 bd 37 23 37 bd 30 4b 19 3d
       -0.20757467 -0.044836275 -0.044711318 0.03742522
0001f0 83 e1 84 bd 6b 0e 82 3d ab 77 47 3d e4 8b f1 3d
       -0.064883254 0.06350406 0.04869811 0.1179426
000200 23 46 03 be 1e fa 11 3e cf 77 52 3d 97 7e d2 3d
       -0.12819724 0.14255568 0.05138379 0.10278051
000210 32 90 db 3d 42 43 9a bd bf a0 cd 3c 7d 0c 99 3b
       0.107208624 -0.0753236 0.025101064 0.004670678
000220 8b 82 7a 3c 0e 7b 22 3a 3f 04 bf 3b f3 56 3d 3d
       0.015289913 0.0006198146 0.0058293636 0.0462255
000230 14 b7 3e be 6d d1 f9 3d 1c f6 36 bd 3d af ea bd
       -0.18624526 0.12198148 -0.044668302 -0.11459205
000240 b7 54 0e bd 4e de 29 bd e1 96 f5 3c 7b d6 87 bc
       -0.03474876 -0.041471772 0.029979171 -0.016581764
000250 7b 16 06 bd ee d8 e4 bb ec 5c 0f 3d 1e 3f e1 3c
       -0.032736283 -0.006983868 0.035000727 0.027495917
000260 76 f5 4c 3c a5 16 0e bd 32 55 79 bd 9b f2 02 bd
       0.012509694 -0.034689564 -0.060872264 -0.031969648
000270 36 c1 9d 3d 43 cd ae bd 87 a5 0b bd 7d fb 1e be
       0.07702868 -0.08535244 -0.034093406 -0.15525623
000280 b4 16 01 bd 42 16 1c bd a6 3e 81 bb 0f 7e 4b bd
       -0.031515792 -0.038107164 -0.003944236 -0.049680766
000290 e7 43 a8 3d b9 25 84 be a3 8b 28 bd 5f 66 11 be
       0.08216076 -0.2581003 -0.041148793 -0.14199208
0002a0 7e 1a 2b 3d 69 76 8e bd 20 78 f8 3d 18 d6 da b6
       0.04177331 -0.06956179 0.12132287 -6.52183e-06
0002b0 46 43 d4 3b 4a 2a 82 bd ab ac 71 bc 0f 8f 2c bd
       0.006477746 -0.06355722 -0.01475064 -0.04212862
0002c0 cd 30 9f bd 84 a7 c3 3d 3e f8 df 3d 46 b2 cd 3d
       -0.0777298 0.095534354 0.1093602 0.100437686
0002d0 5b df b1 bc ff 55 bd bc 96 b5 1e 3d dd 8e 00 3e
       -0.02171295 -0.023112295 0.038747393 0.12554498
0002e0 c5 e7 cc bc 61 e4 b4 3a 13 e4 7f bd a6 28 1d 3e
       -0.02501286 0.0013800972 -0.062473368 0.15347537
0002f0 41 1c 10 be 0c fd 33 bc 43 35 4a be a0 ee 12 3e
       -0.14073278 -0.010985624 -0.1974688 0.1434884
000300 56 5a 90 be c9 e9 94 3b db da f0 bc 47 9c a1 bd
       -0.2819392 0.004544471 -0.029401233 -0.07891136
000310 ca 6a a8 bc c9 fb a4 3d b1 39 b9 bd c3 14 da be
       -0.020558733 0.08055837 -0.09044207 -0.42593965
000320 cf df 1b 3d 5f 10 4d bd b6 01 6c be 90 37 b5 3c
       0.038055237 -0.05006444 -0.23047528 0.02212122
000330 29 71 1c 3e d1 9a 8f 3d db dd db bd 56 8a 2f be
       0.15277542 0.07011951 -0.10735675 -0.17142615
000340 e3 4f b0 bc 45 20 36 3d 0a e9 84 bd 31 ab 45 be
       -0.021522468 0.04446437 -0.06489761 -0.19303586
000350 72 ed 98 3d 3c d7 03 bc 9a 6e 14 3e 78 55 33 3d
       0.07467164 -0.008046921 0.14495316 0.04378268
000360 32 8d 41 bc 6f 90 16 3c ab 64 b1 3d b2 d4 ba 3c
       -0.011813449 0.009189709 0.08661779 0.0228065
000370 01 0e 0d bd dc d3 8b bc 15 62 a7 bd 29 4b 38 be
       -0.034437183 -0.017068796 -0.081730045 -0.17997421
000380 e6 3f 6e be 02 e5 b3 b9 25 fd eb 3d 87 26 24 3e
       -0.23266563 -0.00034312165 0.11522893 0.16030322
000390 d0 8e 84 3e 92 f7 c5 3d 41 77 3b bd 44 70 d1 3c
       0.25890207 0.09666361 -0.045768026 0.025566228
0003a0 d4 99 87 3c c7 c6 8d 3d 08 d2 8d bb 42 65 2c be
       0.016552843 0.069226794 -0.004328016 -0.16835502
0003b0 b0 78 8a 3d 36 80 02 be 14 a5 a8 bb 72 be 54 3c
       0.067613006 -0.12744221 -0.005146632 0.012984859
0003c0 40 e3 ed 3d b8 81 ed 3a 04 4a d4 3d 79 50 84 3d
       0.1161561 0.0018120324 0.1036568 0.064606614
0003d0 18 80 03 be f7 44 02 be 47 4b 8e bc 0d f8 77 3c
       -0.12841833 -0.1272162 -0.01736988 0.0151348235
0003e0 94 ab 84 3d b4 ed a1 3d 15 61 ad bb 32 02 62 3e
       0.064780384 0.079066664 -0.005291114 0.2207115
0003f0 a4 2b 71 3d 9e e2 0a bd 5c 26 00 3e af 5b ce 3d
       0.05887951 -0.033907525 0.12514633 0.10076081

bias f4 [200]
000000 f8 bc c5 3e 89 ae 33 be d2 45 a7 3d df a3 a6 bd
       0.38620734 -0.17547049 0.08167614 -0.08136725
000010 16 3a 1b bd fa f3 9c 3e b4 42 f0 3e 68 3d 16 3e
       -0.037897192 0.3065489 0.4692589 0.14671862
000020 66 22 7c 3e 40 38 87 3e bc b3 16 be 21 70 11 3e
       0.24622497 0.26410103 -0.14717 0.1420293
000030 c3 05 23 3e 84 3c 91 be d1 3b 53 3e 9b b5 f9 3d
       0.15920167 -0.28366482 0.20628287 0.121928416
000040 b7 7b 05 be 1d bc b9 3e d5 12 4d bd eb 11 9a be
       -0.13035475 0.36276332 -0.050066788 -0.30091795
000050 34 73 51 3e 10 3f c0 be c2 1e 1a 3f b1 b2 8d 3e
       0.20454103 -0.37548113 0.6020318 0.27675393
000060 9c b2 de bd eb 93 ce bd 9d f8 11 3f 36 17 84 3e
       -0.10873911 -0.10086807 0.5701998 0.2579896
000070 72 ea c1 3c 28 b2 97 3f b5 d6 ad 3e c1 a1 f9 bd
       0.023671363 1.1851244 0.3395287 -0.12189055
000080 ee 76 01 3f c2 ec 00 3f 8b 50 b7 3d c6 f5 ab 3e
       0.505721 0.50361264 0.08950909 0.33585948
000090 12 9a 89 3c 37 92 73 3e 43 81 19 3e b4 6b 4a 3e
       0.0167971 0.23786245 0.14990716 0.19767648
0000a0 1b 1c 40 3e e4 bb fb 3e f1 ac 8c 3e a4 4f 50 3f
       0.18760721 0.49166787 0.27475694 0.8137152
0000b0 e6 c5 03 3e ec 05 bf 3e 1f a8 3d 3e 59 8b b6 3e
       0.12868461 0.37309206 0.18521164 0.3565319
0000c0 16 1c 48 3f b8 e6 66 3e 31 f7 19 3f 63 50 9d be
       0.78167856 0.2254895 0.6014281 -0.30725393
0000d0 df 1a 0f 3f b8 50 ea 3e ac 12 9c be ed 73 df 3e
       0.5590038 0.4576471 -0.30482996 0.43643132
0000e0 94 91 94 3e 00 55 2d 3f e5 84 2d 3e 78 89 48 3f
       0.29017317 0.67707825 0.16945226 0.7833476
0000f0 0c f6 88 3e f3 83 95 3d 62 2e 49 3e f0 1a 31 3f
       0.2675022 0.07300558 0.196466 0.6918173
000100 50 83 71 be 9d e7 4b 3e e1 17 0a 3f 02 35 e3 3e
       -0.23585248 0.19912572 0.53942686 0.4437638
000110 d7 18 e6 3d e6 d7 95 3d 44 23 34 3e bb 4c 60 3d
       0.112352066 0.0731657 0.17591578 0.054760676
000120 47 72 83 3e 35 91 90 bd 2a 7e 59 bd 45 fb 67 ba
       0.25673124 -0.07058946 -0.053098835 -0.0008849393
000130 c4 75 17 bd 80 65 17 be 1f b0 90 3e 20 55 de 3e
       -0.036977544 -0.14784813 0.2825937 0.4342432
000140 8f 5b 0e bf 21 03 c6 bd de a3 06 3f 5f 2a 08 be
       -0.5560846 -0.096685655 0.5259379 -0.13297413
000150 ac 28 70 3f e6 dc 33 bd d1 fa e1 3d 62 3c 4a 3e
       0.9381206 -0.043911837 0.110341676 0.19749597
000160 6b 7f d6 3e cd b0 54 3e 5d 24 b9 3e f0 a3 b5 3d
       0.41894087 0.20770569 0.36160555 0.08869159
000170 8f 45 50 3e 8f 92 de 3f c5 5c cc be 40 4b ff 3e
       0.20339034 1.7388476 -0.39914528 0.498621
000180 9a 5f 2e 3e e1 be d5 3e 67 aa 03 3e 4d 92 43 be
       0.17028657 0.41747192 0.12857972 -0.19098778
000190 74 37 38 3d 25 15 50 3e dc 30 cc 3e 95 b2 8d 3e
       0.04497476 0.20320566 0.39881027 0.2767531
0001a0 4b f5 0d 3f 2c 4f 23 3e 6f 3e 10 3f ca 65 9b 3e
       0.5545241 0.1594817 0.56345266 0.30351096
0001b0 1a 2c 3d be c4 f5 c5 3e d4 58 9c 3e 54 cd 64 3e
       -0.18473855 0.38664067 0.3053652 0.22343951
0001c0 1b 26 01 3f 04 55 c5 3e 0c 70 d1 bc 27 a1 82 3f
       0.5044877 0.38541424 -0.025566123 1.020543
0001d0 c8 67 83 be a1 38 14 be 2d ac 8f 3e 38 98 1f 3f
       -0.25665116 -0.14474727 0.28061047 0.6234164
0001e0 83 e9 ac 3e b3 e6 84 bd e4 b6 1b bf 4f 81 90 bd
       0.33771905 -0.06489315 -0.60825944 -0.07055914
0001f0 a8 8d 3b bf 4e 1e 8d 3d 64 f9 6e 3f e0 35 32 be
       -0.73263025 0.06890546 0.9334929 -0.17403364
000200 2f 0c 92 3f 5f ab 00 40 85 97 f8 bc e1 26 1a 3e
       1.1409968 2.0104597 -0.030345688 0.15053894
000210 f7 97 b6 3e 11 2e 21 3e b0 c9 2b 3f c4 91 ec bd
       0.35662815 0.15740229 0.67104626 -0.1155124
000220 e9 61 a6 3e 18 6f 9a be 2d 59 12 3f c0 10 a7 3e
       0.32496575 -0.30162883 0.5716732 0.32629967
000230 69 eb c6 3d 2e 70 13 3f 05 72 d8 3e 0b 9f 93 3d
       0.0971287 0.5759305 0.4227449 0.072080694
000240 3d 41 7b 3f 4e 54 88 bf c1 4c bb bd 2d 22 94 3e
       0.9814642 -1.0650728 -0.09145499 0.28932324
000250 d1 6b 86 3e 9c 09 bd 3e 62 71 4a be 3a 53 25 3f
       0.26254132 0.36921394 -0.19769815 0.6458012
000260 43 28 95 be 32 ec e3 3e 21 af a0 3f 00 8f 21 3f
       -0.2913228 0.4451614 1.2553445 0.63108826
000270 41 1b 0c 3f 95 7a 06 3f eb 42 a7 3e fe 93 a1 3e
       0.54729086 0.52530795 0.32668242 0.31558222
000280 7e 45 0e 3e 57 57 01 3f e6 19 80 be 99 44 c4 3e
       0.13893697 0.50523895 -0.2501976 0.38333586
000290 19 fe d4 bd 5e d9 43 3f 13 8f f0 ba 39 e3 9a 3f
       -0.10400028 0.7650355 -0.0018353186 1.2100593
0002a0 5a 5a 70 bd 0b 14 84 3d 46 bd ba 3e 99 cd 09 3e
       -0.058679916 0.064491354 0.3647253 0.13457336
0002b0 87 15 25 3e d0 45 41 be d1 70 a9 3d e6 19 ea 3e
       0.16121493 -0.18874288 0.08273471 0.45722884
0002c0 d6 53 5d 3f 5a b2 04 bf 5f 26 96 3d f6 73 f2 3d
       0.8645605 -0.5183464 0.073315375 0.11838524
0002d0 a6 52 2b bf cd 8e cd 3c 0a 29 a8 3e b1 a9 96 3f
       -0.66922987 0.025092507 0.3284381 1.1770536
0002e0 ab 52 c7 3e 21 ad e2 bd dd 54 70 be 95 30 94 3f
       0.38930258 -0.11068178 -0.23469873 1.1577326
0002f0 58 cf 9a be 8f a2 88 3e 46 7a 05 3c 15 76 9e 3e
       -0.30236316 0.26686522 0.008146828 0.30949464
000300 37 44 cd 3e df bc c5 be b3 a1 cd be 18 d8 b9 3d
       0.40091106 -0.3862066 -0.4016243 0.0907442
000310 24 0d 01 3f d6 1a d9 3e ee 50 20 be fa f0 e3 3e
       0.50410676 0.42403287 -0.15655872 0.44519788

weight f4 [11, 200]
000000 32 75 f4 bd d4 a1 0a be e7 15 0c be 04 63 47 be
       -0.11936416 -0.13538295 -0.1368023 -0.19471365
000010 3e d6 b9 3c e5 42 69 bd 95 be 91 3e 5d ce 29 3e
       0.022685166 -0.05694856 0.28465715 0.16582628
000020 2b af 58 3e af a7 79 3d 3d 31 0c 3e 02 a3 ee 3e
       0.21160571 0.06095093 0.13690658 0.4660874
000030 ad 10 b2 bd 06 d4 6c bb 50 3c 43 3d 0f 1a 40 3e
       -0.08694587 -0.0036137118 0.04766494 0.1875994
000040 00 2d 1d bd 29 50 2a be b7 f6 30 3e a7 38 8f 3d
       -0.038372993 -0.16632141 0.17281614 0.069932275
000050 d8 41 05 bd 6f 8e e0 bd 83 b3 1c 3d e0 68 13 3e
       -0.032533497 -0.10964667 0.038257133 0.14395475
000060 8d 2a 91 3d dc 7a 5c be d1 d3 ca be 18 3e 92 3c
       0.07088194 -0.21531242 -0.39614728 0.017851874
000070 93 24 20 bd 25 f1 87 3c eb d2 60 be 0b 69 5a 3d
       -0.03909738 0.016594479 -0.21955459 0.053322833
000080 3b 13 10 3e 89 e6 9c bb 3e 4e fd 3e a0 8f 14 bd
       0.14069836 -0.004788224 0.49473757 -0.036269784
000090 6b 5a 92 bc 74 1c 98 3f 26 d3 0c be 26 4d 90 3d
       -0.01786538 1.1883683 -0.13752422 0.07045965
0000a0 ff 9e c4 3e bc 0b 1b bd 50 50 d9 3c bb 13 4d be
       0.38402554 -0.037852988 0.026527554 -0.20027058
0000b0 20 23 5c 3e d7 e6 49 3d 7b fc 6f bd 93 79 ee bd
       0.21497774 0.04929241 -0.058590394 -0.11644282
0000c0 80 6b 88 be f6 8e 62 3d b1 f9 44 3d 3a 94 96 3d
       -0.26644516 0.05531212 0.048089687 0.07352491
0000d0 5d 2a 08 bf 07 ce 1b bd b8 32 ac 3d 93 cb 9f be
       -0.5318964 -0.03803828 0.08408111 -0.31210002
0000e0 6d 10 1e 3e 89 76 e8 bc 7a 2c a5 bd 20 e9 c0 3d
       0.15435953 -0.028376834 -0.08065124 0.09419465
0000f0 2c 30 17 3e b0 ed 0a 3e 40 95 85 3d 49 98 da bf
       0.1476447 0.13567233 0.06522608 -1.7077724
000100 ac ca 2a 3e 38 2e 37 3b 27 6d a5 3d 07 84 73 be
       0.16678876 0.0027951133 0.0807746 -0.23780833
000110 0e 58 a6 bd d4 4d 5d 3e bc ce af bc cd af 62 3d
       -0.08122264 0.2161172 -0.021460883 0.055343438
000120 45 dd a4 3d 4c 4c e7 3e 3e d7 a1 3d 0f f2 1a be
       0.08050016 0.45175397 0.07902382 -0.151314
000130 59 5c 0f 3d 35 bc b0 3d 87 f6 27 be ce e6 c8 3e
       0.03500018 0.08629648 -0.16402636 0.3923859
000140 26 be 5e 3d 1e d6 12 bd 10 02 fc 3d de 77 b2 bd
       0.05438056 -0.03584873 0.12305081 -0.08714269
000150 0b a6 05 3f 0d d2 a4 bc 5d e6 51 3c 49 21 7f 3c
       0.52206486 -0.020119691 0.012811271 0.015571901
000160 a4 98 c3 3e 4a f6 7a 3e 9e d7 c2 3d 54 d1 8b bd
       0.38202393 0.24508014 0.09513782 -0.068270355
000170 db d6 5a be 24 4a 23 3f 8c ad dc bd 8c 59 ca bd
       -0.21371023 0.63785005 -0.10775289 -0.09880361
000180 8c b6 52 be bf 9d 84 3c 97 d9 2a 3d 98 45 88 3d
       -0.20577449 0.0161885 0.041711416 0.06653899
000190 d9 4d 03 bd 7e 0b 33 3e 5e cb bf 3d d0 7d 61 bd
       -0.032056663 0.17484853 0.09364961 -0.055051625
0001a0 06 89 fb 3c ba 7e e2 3d b1 f0 78 bd 77 47 1e be
       0.030704986 0.110593274 -0.060776416 -0.15456949
0001b0 53 e9 79 3c cd 40 81 3d 94 b5 9c bd 4e f0 42 be
       0.015253383 0.06311188 -0.07651821 -0.19036981
0001c0 34 e6 d3 bf b1 90 cd bc 3b 57 ca 3d 1b 7c be bd
       -1.6554627 -0.025093408 0.09879919 -0.09301015
0001d0 0f 10 17 be 10 de 24 bd 98 bf 0e 3f 58 5f 1a be
       -0.1475222 -0.040250838 0.557611 -0.15075433
0001e0 80 52 42 c0 8d 1b 26 bc c4 1d 4a 3e 7d 42 e9 bc
       -3.0362854 -0.010138405 0.19737917 -0.028474087
0001f0 22 91 9b be 5a b6 0f 3e c7 13 af be 85 cb 49 3e
       -0.30384165 0.14034405 -0.34194776 0.19706543
000200 23 0e 42 3f f3 6a 4d bf 9f 84 17 bc a3 08 6a be
       0.7580282 -0.80241317 -0.009247928 -0.22854857
000210 ef c5 28 3f 4c 54 8f 3e ac bb 9c bb b9 0e 3d bd
       0.6592702 0.27994 -0.0047831144 -0.04615662
000220 05 ef 52 3e 79 95 81 3d 8d 9d 83 3d 99 08 5e 3e
       0.20598991 0.06327338 0.06426535 0.21682967
000230 eb ee d4 bd 88 79 65 be 18 f0 91 3e 2f 81 e9 bd
       -0.103971325 -0.22409642 0.2850349 -0.11401593
000240 e5 2a 20 3e c2 75 fa 3d 29 73 ec 3d 34 96 09 be
       0.15641363 0.12229492 0.115454026 -0.13436204
000250 28 5d ac 3d 51 48 51 bb 56 b7 a6 3c 8c e1 e1 3d
       0.08416206 -0.0031933973 0.020351093 0.11029348
000260 37 43 52 3e 0d 2d fb 3c a4 01 76 be 32 6f 38 3e
       0.20533453 0.03066113 -0.24024063 0.18011168
000270 80 3a f1 bd d4 4c 9a 3e 9f ca 2d 3e 08 6c 29 be
       -0.11778736 0.3013674 0.16971825 -0.16545117
000280 3e 69 86 bd 80 de 0a 3e 30 4b 0b bd b7 8b 26 3e
       -0.06563042 0.1356144 -0.03400725 0.16264234
000290 bc fa 03 be 60 05 3a bf a8 c4 68 bd 36 3d f2 3c
       -0.12888616 -0.7266445 -0.05682817 0.029570203
0002a0 57 34 10 be c5 58 79 3d d2 bc ba bd 31 b1 0d 3c
       -0.14082466 0.060875673 -0.09118046 0.008648203
0002b0 8a bb 56 3d f0 a1 02 3c a4 4a fa bd 78 92 50 bf
       0.052424945 0.007973179 -0.12221268 -0.81473494
0002c0 01 8e 63 3e 48 de 58 bd 53 88 8d 3d 73 d1 36 be
       0.22222139 -0.05294636 0.069107674 -0.17853336
0002d0 0e b2 6d be 07 2f 1d 3e c4 f3 c8 be 86 9e 5b bf
       -0.23212454 0.15349971 -0.39248478 -0.8578876
0002e0 1f e3 62 be 9c ea a4 bd 8e 44 b2 bd 7e b1 36 be
       -0.22156952 -0.08052561 -0.08704482 -0.17841145
0002f0 cf 81 99 3b 23 c9 40 3d f3 90 3c be 7e 58 04 bf
       0.004684664 0.04706682 -0.18414669 -0.5169753
000300 6c bc 37 be a6 23 e0 bd e1 a8 00 be 73 66 49 3c
       -0.17942971 -0.109442994 -0.12564422 0.012292492
000310 76 06 ad 3d 28 77 4c bd 37 1a a1 3c b8 3e 1c 3e
       0.08448498 -0.049918324 0.01966582 0.152583
000320 dc e5 64 bc 34 87 35 be 84 76 28 3e 45 8f 48 be
       -0.013970818 -0.17727357 0.1645146 -0.19585903
000330 26 98 2e 3d 8d a7 fe bd b3 4f 4f bd 1b 75 dc bc
       0.04262557 -0.124343015 -0.050613116 -0.026911309
000340 98 d6 81 3e 5d d5 08 3e f4 63 94 bf a6 2b 46 3e
       0.25359035 0.13362642 -1.1593003 0.19352588
000350 49 1c 6c be b2 2b 99 3d aa 60 4c 3e 79 77 0f 3a
       -0.23057665 0.07479037 0.1995875 0.000547282
000360 89 fe 53 3e 31 c2 82 be 1e 73 fc bc 71 d2 53 3d
       0.20702566 -0.2553878 -0.03081661 0.051714364
000370 03 c0 17 3e 69 67 9a bd 80 7f 96 3e 23 a8 8d 3e
       0.1481934 -0.07539255 0.2939415 0.2766734
000380 96 67 03 bd 9a 11 13 3c be c9 96 be 2f db 20 bd
       -0.03208121 0.0089763645 -0.29450792 -0.03927153
000390 d6 d0 b5 bd 43 8c ab 3d f2 e7 b1 bd 46 6c c1 bd
       -0.08877723 0.08376362 -0.08686818 -0.0944448
0003a0 4d 32 6c 3d 48 a4 ca be c7 ed 3b 3f 80 78 64 3d
       0.057665158 -0.39578462 0.73409694 0.05577898
0003b0 03 8d 8b bb fa fc 3c bd b0 0b a3 3d 60 55 55 bd
       -0.0042587533 -0.046139695 0.079612136 -0.052083373
0003c0 30 cb b4 3d 6c 5d 17 3d d8 1c c8 bd aa cd b4 bd
       0.088278174 0.03695433 -0.097711265 -0.0882829
0003d0 3f 7e 9e 3d 8b 9b 3d be e5 5c ac bc d4 33 10 bd
       0.07738923 -0.18516366 -0.02104039 -0.035205677
0003e0 0f 6f b8 bf 6e d4 da bb 5a 3f 4c bd 4b b1 68 bd
       -1.4408892 -0.0066781556 -0.049865104 -0.056809705
0003f0 36 d2 56 be 25 6f 8c 3d 54 92 be 3d 99 aa f3 3d
       -0.20978627 0.06857137 0.093052536 0.11897773

bias f4 [11]
000000 87 62 9f 3e 29 b6 da 3e 2e 34 f0 be 1a 3e 75 3e
       0.31129858 0.42717102 -0.4691481 0.23949471
000010 8d 67 bf 3d ae 7f 09 3e 24 56 ef bd d6 be a1 be
       0.093459226 0.13427612 -0.11686352 -0.3159091
000020 46 6a 6c be 93 64 0a bf 27 07 9a 3c
       -0.23087415 -0.54059714 0.018802239
