trainingOnSyntheticData/results/20230807_121105_debug/model_training_set_size_1000_hidden_neurons_50_n_batches_5.pt (torch, 56687 bytes, 6 tensors)

weight f4 [50, 200]
000000 2c 92 66 3d c1 52 a9 3b a5 8a 02 bc db c4 83 bc
       0.056291744 0.0051673357 -0.007967626 -0.016085079
000010 3e ef a9 3c 46 8e 1e 3d c4 74 13 bc 63 38 79 bd
       0.020743962 0.0387099 -0.009000007 -0.06084479
000020 e2 f1 b3 bc 50 74 1c bd 74 8e 8f bc d8 20 1c bd
       -0.021965925 -0.03819686 -0.017523982 -0.03811726
000030 c4 70 a8 3d 7d ea 83 3d 07 0f a5 3d 21 ba 85 3d
       0.08224633 0.064412095 0.08059507 0.06529642
000040 ff 8a 2f 3d e5 90 7d bd ae 67 1b 3c ac f3 24 3d
       0.042857166 -0.06190576 0.009485168 0.040271446
000050 3a ed 17 3b a8 b5 fe bc 75 ce 30 bd f4 3d 86 bd
       0.002318217 -0.03109248 -0.043165643 -0.06554785
000060 95 0a 8e bd ad cd 8f 3d ee 50 88 bd 03 09 05 3d
       -0.06935612 0.070216514 -0.06656061 0.032479297
000070 f2 53 e7 b9 44 19 02 3c 8c 0c 8e 3d 45 45 0b bd
       -0.00044122298 0.007940594 0.06935987 -0.034001607
000080 7f af 5c bc 1a c0 5d 3d fa 0b f8 bc 09 c8 b6 3d
       -0.013469576 0.05413828 -0.030279148 0.089248724
000090 0f 8a 1f bb 2a ba ab 3d bf e9 44 3c 29 ac 29 3d
       -0.0024343764 0.08385117 0.01201862 0.04142395
0000a0 03 df 27 3d da f1 5a bd 5f c7 7c 3b de bb 0f bd
       0.040984165 -0.053453304 0.0038570983 -0.035091273
0000b0 4d 1c 8d bd fc 7e b5 bd 55 d6 94 bc 04 06 0a 3d
       -0.068901636 -0.08862111 -0.018168608 0.033697143
0000c0 6d 45 70 3d b2 78 70 3c 80 49 69 bd a0 36 96 bd
       0.05865996 0.0146772135 -0.05695486 -0.07334638
0000d0 4a 9d 99 bc 93 43 2f bd 56 91 c5 bc 46 3a be ba
       -0.01875176 -0.042789053 -0.024117153 -0.0014513216
0000e0 30 22 3f b9 af ff 48 3d 18 95 00 3d be 7b 9d bc
       -0.00018227915 0.049071964 0.031392187 -0.019224044
0000f0 08 53 89 bd 42 52 81 bc e8 2b d8 3c 26 be 93 3d
       -0.0670529 -0.015786294 0.026388124 0.07214002
000100 5a e7 03 bb 69 e6 e2 bc c0 6b 4b bc 17 5c c2 bc
       -0.002012691 -0.027697759 -0.012415826 -0.023725552
000110 76 b8 2d 3d e5 d0 b0 3d e8 1e ae ba cc f5 94 3d
       0.042412244 0.086335935 -0.0013284357 0.072734445
000120 42 5b 07 bd 4a ec 08 bd fc 59 26 3d 4f 1b cb bd
       -0.033046015 -0.033428468 0.04061316 -0.09917318
000130 ec e3 ae bd dd c8 a7 bd 77 5c be bd de 92 83 bd
       -0.085395664 -0.081926085 -0.0929498 -0.06424497
000140 da 8a 27 bd 52 74 07 be 3a ce 97 bd cf 64 4d bd
       -0.040903904 -0.13227966 -0.074123815 -0.050144967
000150 96 51 b5 bd 54 30 71 bc fc d7 a7 bd 1d 74 11 be
       -0.08853452 -0.014720995 -0.081954926 -0.1420445
000160 ea ad 0a be 21 4b ee bd 83 fa 98 bd be 3c 0e be
       -0.13542905 -0.116354235 -0.07469656 -0.13890359
000170 6d 00 58 be 62 57 50 be 36 3e 74 be 1d 68 6d be
       -0.21093912 -0.20345834 -0.23851857 -0.23184247
000180 17 63 7c be 90 00 bd bd a0 bb 2b be 63 ad 4f be
       -0.24647175 -0.09228623 -0.16770792 -0.20280986
000190 03 8b 3d be ee 33 25 be df c7 ce bd d6 22 2c be
       -0.1851006 -0.16133091 -0.10096716 -0.16810164
0001a0 d3 d8 5f be 92 19 f7 bd 25 1c 16 be 4e e7 12 be
       -0.21860056 -0.12065424 -0.14659174 -0.14346048
0001b0 6d 80 5d be 74 6d 41 be 40 f8 00 be d9 e7 e8 bd
       -0.21631022 -0.1888941 -0.125947 -0.113723464
0001c0 02 08 02 be 8b 06 2a be 10 44 16 be 90 81 ac bd
       -0.12698367 -0.16604058 -0.14674401 -0.084231496
0001d0 ac e0 41 bd 69 fa 68 bd c0 3b 7f bd d6 c9 47 bc
       -0.047333404 -0.056879435 -0.06231284 -0.0121941175
0001e0 77 57 66 3c dd d2 1f bd d2 3d 52 bd c1 9e 08 bd
       0.014058939 -0.039019454 -0.051328488 -0.033354525
0001f0 19 8e c4 3c d5 51 30 3d 97 d4 8b 3d 56 40 07 bd
       0.023993539 0.04304679 0.06827658 -0.03302034
000200 ff 73 50 3d 32 db b0 bc 69 27 e0 3c d8 ac e2 3c
       0.050891872 -0.021588895 0.027362542 0.027670309
000210 ac 84 7c 3d c8 7e 31 bd 6d 87 25 3d 56 dc 7a bd
       0.061649963 -0.0433338 0.040412355 -0.061245285
000220 55 1d 25 3d a5 f8 80 bd e2 b9 9e 3c 29 42 a1 bd
       0.040311176 -0.06297425 0.019375745 -0.07873947
000230 a6 1f 93 bd cc 47 64 3d fc 6b f4 3c cb df 17 3d
       -0.07183771 0.055732533 0.029836647 0.03707866
000240 6f ae 4d bc 1d 95 50 bd a6 56 16 bd fa 1d 70 bc
       -0.012553795 -0.050923456 -0.03670373 -0.0146555845
000250 b3 fd 01 3d 07 97 34 3d d8 b8 d5 3c fb 5b 20 bd
       0.031736087 0.044089343 0.026089117 -0.03915022
000260 bd 11 84 3d 34 1f a6 bc 42 e6 fd bc ae 78 48 3d
       0.06448696 -0.02027855 -0.030993585 0.048943214
000270 21 a6 03 3d fb 81 72 3b bd 99 3e 3d b5 30 a8 bc
       0.032140855 0.0037003744 0.046533335 -0.020531038
000280 b4 ba fc bc b2 c1 84 3d 2e 82 82 3d fb 2f 06 bd
       -0.030850746 0.06482257 0.06372486 -0.0327606
000290 5e 82 9c bc 14 51 c2 bb cc 6e 88 3d 8a f2 31 bd
       -0.019105133 -0.0059300754 0.06661758 -0.043444194
0002a0 cc b6 39 3d c2 64 3b bd 01 d7 f9 bc be 95 2f ba
       0.045340344 -0.045750387 -0.03049803 -0.00066980335
0002b0 66 89 0b 3d 41 02 94 3d 0d 99 96 bc a6 e3 15 3d
       0.03406658 0.072269924 -0.018383527 0.036594056
0002c0 8d f4 f9 bc b8 d9 83 3c 4f 9b 70 3d 1c 5b 84 3d
       -0.030512119 0.016095027 0.058741864 0.0646269
0002d0 7d 22 15 bd 94 1a 22 3d bc 8c 25 3d 32 85 12 3d
       -0.036409844 0.039576128 0.040417418 0.035771556
0002e0 2b 6d 80 bd d6 8f 02 bd 85 8c f9 bc 4d 48 b4 bb
       -0.06270822 -0.031875454 -0.030462513 -0.005501783
0002f0 04 ff 13 3d cb b2 8b bc fa e3 dd bb 52 53 9f 3d
       0.036131874 -0.017053029 -0.0067715617 0.07779564
000300 b8 99 84 bd 53 a7 67 bb 77 d9 8c bd bf e7 7b bd
       -0.06474632 -0.0035347536 -0.068774156 -0.061500307
000310 86 70 ba bb 1c 99 85 bd b3 4d 26 3d 12 59 6c bd
       -0.0056896834 -0.06523344 0.040601443 -0.05770213
000320 52 e0 12 bd e5 75 0a 3d f1 9b 2d bd 67 4f 81 3d
       -0.03585846 0.03380384 -0.042385045 0.06313973
000330 9e 0f cc bc 56 47 02 3d 8f 6c 6c 3c da 3a 1f bd
       -0.02490979 0.031806313 0.014430179 -0.038874485
000340 f1 69 55 3d 0e 4f 01 3d af 16 40 bd 8d e5 19 bd
       0.052102987 0.031569533 -0.046896633 -0.037572432
000350 58 71 fc 3c c7 7e 28 bd 2d 02 b7 3c 1a 19 cc 3d
       0.030815765 -0.04113653 0.022339905 0.09965725
000360 f9 b4 14 3d b8 11 78 3d 45 29 92 3d db 9c da 3d
       0.0363054 0.060563773 0.07136778 0.10674449
000370 88 80 be 3d 56 2d d0 3d f0 53 93 3c 9d b9 29 bb
       0.09301859 0.10164897 0.01798436 -0.0025897988
000380 7f 9d 37 3d 45 0c 22 3d 6d 8d b3 3c d0 0e c7 3c
       0.044827934 0.039562482 0.021918023 0.024299055
000390 81 d6 9f bb c7 b7 b1 3d 15 15 24 bb 30 d6 d1 3d
       -0.004877866 0.08677631 -0.002503698 0.10245931
0003a0 d6 8c 22 3c 94 f3 52 3c 16 7a 29 bd 38 42 ab 3c
       0.009921273 0.012875456 -0.041376196 0.020905599
0003b0 c3 2a 0a 3c 22 73 12 3d a3 69 5f bd b9 01 59 bb
       0.008433047 0.03575433 -0.054544102 -0.00331126
0003c0 d6 64 13 bd e0 d7 5b 3c 3c 4c 08 bd fa 1b 35 3d
       -0.035984837 0.013418168 -0.033275828 0.044216134
0003d0 55 7c 97 bd f9 18 90 bc c2 96 b5 3c 66 29 7b bd
       -0.07396761 -0.017590033 0.022166613 -0.061318778
0003e0 23 3b 31 3c 6a f3 6d bd 1e b5 22 bd 74 d1 c2 bd
       0.010817322 -0.058093466 -0.039723508 -0.09512606
0003f0 81 fe 16 3c ee c5 4d bd 36 cf 49 3d ad 54 9d bb
       0.009215952 -0.05023759 0.049269877 -0.004801354

bias f4 [50]
000000 69 1d 33 3b 53 12 ac be 8a 0b 23 3f a1 67 e2 3e
       0.0027330762 -0.3360773 0.6368948 0.44219688
000010 e1 eb e0 3e 8e 68 8f 3e 58 90 0c 3f a6 66 f4 b9
       0.4392996 0.28009456 0.5490775 -0.00046615786
000020 0c f2 8d 3a bb 47 ab 3e 6a 85 5b bd d6 87 f4 bd
       0.0010829582 0.33453164 -0.05359403 -0.11939971
000030 af fd 8c 3d 39 f3 20 be 6d f9 58 3e 96 05 1c ba
       0.06884324 -0.15717782 0.21188898 -0.000595176
000040 a0 b5 84 bb 3e 26 c7 39 a5 ec c3 bc 64 11 00 3f
       -0.0040499717 0.0003798473 -0.023916552 0.50026536
000050 29 1a a6 3e ce 72 82 3d 90 88 01 3e b4 98 a6 bb
       0.32441834 0.063695535 0.1264975 -0.0050841216
000060 71 3d 7c bc e3 0e 11 be 04 5d 22 3f cb af 6f be
       -0.015395508 -0.14165835 0.6342318 -0.23406903
000070 df 13 6e 3e 61 2f 81 be 1e 45 8a ba 0c 54 01 bf
       0.23249768 -0.2523146 -0.0010549163 -0.5051887
000080 9e 52 9f 3d fd 31 10 3f 86 89 21 bf 5d d9 d6 bd
       0.0777943 0.56326276 -0.6310047 -0.104906775
000090 94 0a 9f 3e 8d a0 b2 3c 6a 16 06 bd 55 e6 2a 3f
       0.31062758 0.021805072 -0.03273622 0.6675771
0000a0 c2 49 49 3e fa e9 b9 be ea 92 06 3f f2 a2 1e 3f
       0.19657043 -0.36311322 0.52567923 0.61967385
0000b0 0e be ba 3e dc 91 f7 be 9a e2 29 3f f1 08 16 3f
       0.36473125 -0.4835347 0.6636139 0.58607394
0000c0 0b 80 38 3f 05 12 08 3f
       0.7207038 0.53152496

weight f4 [50, 50]
000000 df ba a6 bc 73 29 09 3e f6 0d eb b9 72 a4 bb 3d
       -0.020352779 0.13394718 -0.00044833095 0.09162225
000010 b5 f0 52 be 7a 55 d8 3d 09 d9 c0 3d 89 f2 a7 3d
       -0.20599635 0.10563178 0.09416396 0.08200557
000020 3b e4 ee 3d de f6 3c 3d c4 b6 e5 3d 1f e0 11 3e
       0.11664625 0.04613387 0.112165004 0.14245652
000030 dc 6a 4c 3d a6 07 9f 3d e0 98 16 3c 29 6f 0b be
       0.049906597 0.07765131 0.009191722 -0.13616623
000040 55 ce d1 3d 99 a8 f5 3d ce 83 f6 bd 1d f1 b8 3d
       0.10244433 0.11995048 -0.120368585 0.09030364
000050 65 04 09 bd bc 0e 2f bc c3 6c 4b 3e 5b 7c 13 3e
       -0.033451457 -0.010684665 0.19865708 0.14402907
000060 66 46 08 3e a8 f2 19 be cc b5 74 be eb cb 0b be
       0.13308105 -0.15033972 -0.23897475 -0.13652007
000070 20 fa 9a 3d 61 65 ca bc 09 8f 36 3e 8b 66 91 3d
       0.07567239 -0.024706544 0.17828001 0.07099637
000080 a6 a4 a3 3e e0 8b 5e 3d f5 41 69 3d 5c 5b 1a be
       0.31961554 0.054332614 0.056947667 -0.15073913
000090 16 6c 98 bc 5c ba 67 bc 88 fc 88 bd cc 61 82 bc
       -0.018606227 -0.014143553 -0.066887915 -0.015915774
0000a0 b0 31 56 be fd 5c a0 bd 10 19 12 be be 05 14 3d
       -0.20917392 -0.07830236 -0.14267373 0.03613829
0000b0 db 41 7f 3d 6e 92 78 3d f0 f9 4c 3d 37 6c 84 3c
       0.062318664 0.06068652 0.050043046 0.016164882
0000c0 ac 96 15 3d 9d d0 89 bd 48 0b 54 bd 2d 51 bd bd
       0.036520645 -0.06729243 -0.05176857 -0.09243999
0000d0 e3 db 24 bd 2b 4c 9e bd 5d 56 10 bc 86 7c fa 3d
       -0.040248763 -0.07729372 -0.008809653 0.12230782
0000e0 54 32 e8 3d 35 c1 67 be d7 dc 86 3e 60 51 96 bd
       0.11337724 -0.22632296 0.26340362 -0.0733974
0000f0 b7 67 44 bd dd 90 9c bd 02 bb 0c 3e b4 8b 5f be
       -0.047950473 -0.07644818 0.13743213 -0.21830636
000100 77 a6 28 bb c0 9b 4d bd 3e 90 30 be 52 ad 61 3d
       -0.0025733986 -0.050197363 -0.17242524 0.05509693
000110 ef 89 1f 3d 8f cc 55 bd 5e ec 46 3e 0c 19 95 bb
       0.038949903 -0.052197035 0.19426104 -0.004550105
000120 11 4e ea 3d e4 7c 9a bd 50 6e 18 bd e1 69 09 be
       0.11440671 -0.07543352 -0.037214577 -0.13419296
000130 1f 15 06 3d 61 26 28 3d 88 75 52 bd a0 c8 bf 3d
       0.032734986 0.041052226 -0.051381618 0.09364438
000140 e7 c7 d4 3d 93 81 0c 3d dc 04 ab 3d 83 ed 94 3e
       0.10389691 0.03430326 0.08350536 0.29087457
000150 19 c8 f4 3d 59 19 84 3e 43 f5 85 3e c1 4f 85 be
       0.11952228 0.2580059 0.26163682 -0.2603741
000160 f8 2e b9 3c 2c 92 34 3e c9 46 23 be 47 b9 94 3d
       0.022605404 0.17633885 -0.15944971 0.07261901
000170 87 33 89 3d 49 75 8f bd db 68 0c 3d 8d 3b a4 3d
       0.06699281 -0.07004792 0.034279685 0.08019171
000180 33 57 dc bd 7f 44 a6 3d c8 ad 9f be 9b 07 78 bd
       -0.107588194 0.08118533 -0.31187272 -0.06055413
000190 b2 6c 3f be 11 fb a1 3d 4d 69 07 3e 7e f3 ba bd
       -0.18693808 0.07909215 0.13223763 -0.09128474
0001a0 3c 3c 33 3e 27 60 d7 3d b3 88 61 bd 28 ee 61 be
       0.17503446 0.105163865 -0.055062007 -0.22063506
0001b0 18 50 a7 3e cc f3 64 bd 0c 07 3e 3e 76 75 b7 3d
       0.32678294 -0.055896565 0.18557376 0.08957951
0001c0 72 e9 0a be 74 38 0d be 51 f1 1b 3e f7 7d 23 be
       -0.13565615 -0.13791066 0.15228774 -0.1596602
0001d0 28 48 1a 3e 40 88 f6 3b 8e 0c 5a 3e 5b 63 ae 3e
       0.15066588 0.0075235665 0.21293852 0.34060177
0001e0 e3 6a db bd 13 1b 56 be 06 d6 36 be 44 51 c5 bc
       -0.107137464 -0.20908765 -0.17855081 -0.024086602
0001f0 3f 37 2a 3e a8 0f 56 bd 6f e5 27 bd 0b a8 dc 3d
       0.16622637 -0.052261025 -0.04099029 0.10774239
000200 06 cf c6 bc 7b 3c ac be f3 8e 68 be 6c 1a 2e 3d
       -0.024268638 -0.33639893 -0.22710781 0.042505667
000210 4d a5 8a 3e b1 ce 97 3e 78 39 c0 3d 9a cb f6 bd
       0.2707924 0.2964988 0.09385961 -0.12050553
000220 c5 1d c5 3d 5e 53 86 be 91 ad b1 bd 9f dd 87 bd
       0.09624819 -0.2623548 -0.08675683 -0.06634068
000230 66 96 2e 3e 8f bf 08 be 99 b8 07 3c a1 06 86 3d
       0.1704956 -0.13354324 0.008283758 0.06544233
000240 65 53 00 3d 1e 18 da bd bd 2b ca 3d 6c 30 64 3e
       0.03132953 -0.10649131 0.09871624 0.22284096
000250 31 b5 97 be ae 84 57 3d b3 af 27 3d dd 71 9e 3d
       -0.29630426 0.052616768 0.040939044 0.077365614
000260 ec bc 0f be 41 8a 59 bc f1 f4 70 be 91 a1 2d b9
       -0.14036912 -0.013277591 -0.23530938 -0.00016558754
000270 3f 1c 64 3d 48 05 43 3e 1c 67 43 3e dd 0c 1c 3e
       0.055691 0.19044983 0.19082302 0.15239282
000280 47 98 a4 3d d3 61 a2 3d d5 82 2a 3d 1f af 90 3d
       0.08036857 0.07928815 0.041628677 0.07064652
000290 81 73 13 be 5c 47 18 bd 77 7e 0a bd 53 d3 b9 3d
       -0.1439953 -0.03717743 -0.033812013 0.0907351
0002a0 16 1f c8 bd c1 15 21 3e 90 26 a1 3d 65 c1 46 bc
       -0.09771554 0.15730955 0.07868683 -0.01213107
0002b0 5f d6 06 be 03 11 94 3d d6 4a 2e be 59 5d 52 3c
       -0.13167714 0.07229807 -0.17020735 0.012839639
0002c0 96 08 c9 bd 52 2f 42 bc e5 3d 13 be b2 e1 09 bc
       -0.09816091 -0.011852102 -0.1437908 -0.008415626
0002d0 ef 99 f1 3c bc ec 0e bd 0b 62 00 be 98 79 8f 3e
       0.029492347 -0.034893736 -0.125374 0.28022456
0002e0 47 b7 a9 3c 88 72 fc bd 28 cb 73 be bf ab 88 3c
       0.020717276 -0.123265326 -0.23807967 0.016683457
0002f0 c4 64 e5 3d b9 3c b7 3c b2 31 ab bd e8 07 36 3c
       0.1120086 0.022367822 -0.08359088 0.011110283
000300 23 81 98 3d 69 d7 85 bd 64 7b 0e be c5 ed 0d bd
       0.07446506 -0.06535227 -0.13914257 -0.034650583
000310 47 14 95 3a 5e 36 94 3d 10 16 4f be 35 73 99 3d
       0.0011373841 0.07236932 -0.2022326 0.07492677
000320 fb e2 9b 3b 91 87 4b bd 42 07 21 3e 5e 9b ef bd
       0.004757283 -0.049689833 0.15725425 -0.11699556
000330 14 fb f1 be 3a ac 08 3e df 0c 95 3e 04 bf 7a 3d
       -0.4726187 0.13346949 0.29111382 0.061217323
000340 06 7e 63 be c4 5c f6 bd 27 d5 0a bc 59 7a 95 3d
       -0.22216043 -0.120294124 -0.008473671 0.072987266
000350 26 f8 bd bc da ce 18 bd 82 00 24 be a3 99 0e be
       -0.023189615 -0.037306644 -0.16015819 -0.13925795
000360 75 a9 24 3d e9 d0 1e 3e c0 7b 8a bc 03 82 dd bc
       0.04020067 0.1550938 -0.016904712 -0.027039533
000370 e6 01 15 3d c6 5c 6e be d9 4a 01 3e a2 72 7d be
       0.036378764 -0.23277578 0.12626208 -0.2475076
000380 8a 8b b7 3a 30 c6 42 3e e6 02 a0 3d 5f a8 20 bc
       0.0014003378 0.19020915 0.07813053 -0.009805768
000390 77 54 81 3e 7c 26 3b 3d 13 a2 0c 3e 0a 8c ee bd
       0.25259754 0.045691 0.13733701 -0.11647804
0003a0 cf c5 64 be d9 f1 96 be e6 e0 1f bd 2c b9 94 bb
       -0.22341083 -0.2948139 -0.03903284 -0.004538676
0003b0 b1 82 c7 3d a7 7d 6e bd 4d d1 c1 bc 16 e8 2b 3e
       0.09741724 -0.0582253 -0.023659373 0.16787753
0003c0 05 c0 55 bd 14 bf 67 bd cf 7f d8 3d 09 1d d4 bc
       -0.052185077 -0.05657871 0.105712526 -0.025892751
0003d0 0f 48 ee 3d f2 ca 33 be 0b 41 0a be a3 9d 7d be
       0.11634838 -0.17557886 -0.13501374 -0.24767165
0003e0 07 8a 6f 3e 69 cb 50 be 09 e3 76 bd c7 ff 04 be
       0.23392497 -0.20390095 -0.06027511 -0.12988196
0003f0 3c 05 92 3e d6 58 e1 3d c9 ea b7 3e cd 2c 57 bd
       0.2851962 0.11003272 0.35921314 -0.05253296

bias f4 [50]
000000 07 9c d4 3e 3a 5f 98 be 05 c4 ae 3d 67 a7 5f 3e
       0.4152529 -0.29760152 0.085334815 0.21841203
000010 73 6b 02 3f e0 b4 a5 3d 15 32 fa 3e 38 83 11 3f
       0.50945204 0.0809114 0.48866335 0.5684085
000020 b7 34 f6 be 88 80 00 bf 7a 32 0f 3f 3f 58 8f 3e
       -0.48087093 -0.50196123 0.55936396 0.27997014
000030 46 fe 00 3f c5 2c 95 3a b8 59 c4 3e 16 1c 53 3f
       0.5038799 0.001138114 0.383497 0.8246473
000040 67 55 52 3f 42 2f 36 be 3b df ca 3e 5c de d2 3d
       0.82161564 -0.17791465 0.39623436 0.10296318
000050 73 dc f6 3e 95 12 9b 3e 50 3d c7 3d 5c c3 03 3f
       0.48215064 0.30287614 0.09728491 0.5146997
000060 71 80 0e be f2 11 57 3f d6 c3 2f bf 27 98 10 3f
       -0.13916184 0.8401176 -0.68658197 0.56482166
000070 85 fa af be 87 cd a9 bc 99 10 80 3e 85 9e 34 3f
       -0.3437082 -0.020727886 0.25012663 0.7055438
000080 4c 1d 3f 3f 6e e6 52 bf a0 3a cc 3e b2 64 a2 be
       0.7465408 -0.8238286 0.39888477 -0.3171745
000090 ff 93 bb be b4 d5 77 3e 5d 53 3c bf fb b3 97 bd
       -0.3663635 0.24202615 -0.735647 -0.074073754
0000a0 05 03 f7 3e 2b b7 1c be 41 ef 07 3f eb 7d b8 be
       0.4824449 -0.15304248 0.5309945 -0.36033568
0000b0 7d f2 ad be 69 4f 25 bf 52 e2 05 3f e6 57 42 3e
       -0.33974066 -0.64574295 0.5229846 0.18978843
0000c0 0c c4 e7 3e 25 4c c9 3c
       0.4526676 0.024572441

weight f4 [12, 50]
000000 f3 01 00 be f8 3f 0f bd e9 5d fe 3d 93 eb 83 be
       -0.12500744 -0.034973115 0.12420256 -0.25765666
000010 5d 28 11 be f9 84 d7 3d b4 6f 0a be 95 d9 b1 3d
       -0.14175554 0.105234094 -0.13519174 0.086840786
000020 4d 34 e3 bd 9f d3 03 be f1 55 47 be e6 27 13 be
       -0.1109396 -0.12873696 -0.19466378 -0.14370689
000030 19 de 22 bd e1 7f b7 3c 37 8a 89 be ae eb 91 bd
       -0.03976259 0.022399845 -0.26863262 -0.071250305
000040 24 bc 4f bd 1f 3f 53 3d c0 a5 16 3d 16 c9 eb bc
       -0.050716534 0.05157387 0.036779165 -0.028782409
000050 8a 99 9a bd 0d e1 89 3c fb bd 79 be 91 57 f7 bd
       -0.075488165 0.016830945 -0.24388878 -0.12077249
000060 3d 91 f5 bd fe 61 12 be 46 76 05 3e 0f d0 76 3c
       -0.11990593 -0.14295194 0.13033399 0.0150642535
000070 b6 1e 32 3e 83 17 0d 3e aa da d4 3d f6 86 d2 bd
       0.17394528 0.137785 0.10393269 -0.10279648
000080 31 89 06 be b5 d9 39 3e 75 bf 86 3d 3c 70 e1 3d
       -0.13138272 0.18149455 0.06579486 0.11007735
000090 28 d1 82 3e 07 a0 a6 3d e2 d0 14 3e d9 54 2d bd
       0.255502 0.081359915 0.14532807 -0.042317245
0000a0 90 d3 c0 3e 4f 83 12 3e 12 da 3b be 1d 00 e0 bd
       0.3766141 0.14307903 -0.18344906 -0.109375216
0000b0 2f 8a 5b bc 1f ae 4d bd bd a0 a5 bd 6f 17 1d bc
       -0.013399645 -0.050214883 -0.08087299 -0.009588107
0000c0 03 a5 29 bd 6e b0 97 3d 74 c3 97 3d 6e 99 a7 3d
       -0.041417133 0.07406698 0.074103266 0.08183561
0000d0 75 bb fe bc ec 5a 7d bd b3 cd e7 bd a5 32 51 3e
       -0.031095246 -0.061854288 -0.11318531 0.20429476
0000e0 52 65 dd bd 05 df a5 bd e7 a1 59 bd d8 74 7d 3d
       -0.10810341 -0.08099178 -0.053132918 0.06187901
0000f0 9d 4e 20 3e 9b a2 13 3d 2a 1c 2d be 36 02 a9 bd
       0.15654989 0.036043745 -0.16905275 -0.08252375
000100 b9 22 86 3e e3 79 66 bc 28 4b 80 be 5e c8 b6 bd
       0.26198366 -0.014067146 -0.2505734 -0.08924936
000110 1e fe 1b 3e 21 15 c7 3c 33 b3 81 bc 49 c7 16 3e
       0.15233657 0.024302067 -0.01583252 0.14724459
000120 fa 08 25 bc 71 78 2e 3c a6 b2 b9 3e 1a c2 4a be
       -0.010072941 0.010648833 0.3626911 -0.19800606
000130 94 a4 12 3e 58 e3 87 3e 9f b1 37 3f 88 fe 2c 3e
       0.14320594 0.26540637 0.71755403 0.16893971
000140 49 33 08 be ec cb 16 be 71 d6 a4 3b c1 74 d5 3d
       -0.13300814 -0.14726228 0.005030446 0.1042266
000150 7b e2 15 3e a1 36 8a bd e2 ef 8f 3d ea da bb bc
       0.14637177 -0.06748701 0.07028176 -0.022931535
000160 90 79 87 bc c5 be 5b 3d 7e ea d4 3e 8e a3 1c 3e
       -0.016537458 0.05364873 0.41585153 0.15296766
000170 e6 c0 4f be e1 0a 09 3e 41 b6 89 bd c9 b8 03 3d
       -0.20288429 0.13383056 -0.06724215 0.032158647
000180 6d 92 04 be 88 0e 3d 3c 65 d4 77 be 0d cf d5 bd
       -0.12946482 0.011539109 -0.24202116 -0.104398824
000190 3c a3 79 bd 40 8a 25 bd 65 53 58 bd 59 21 55 3e
       -0.060946688 -0.04041505 -0.052813906 0.20813502
0001a0 a6 d9 ab 3b a6 ba 2a be 47 58 cd 3c bd 2a 1f 3e
       0.0052444516 -0.16672763 0.025066508 0.15543647
0001b0 38 93 4e 3e 2c 4b 8c 3d f6 ad 4e 3e 9d ff 17 be
       0.20173347 0.068502754 0.20183548 -0.14843602
0001c0 03 4d 8f bc 2b 39 95 bd d2 16 0a bd c3 b2 0d 3c
       -0.017492777 -0.072862945 -0.03371317 0.008648577
0001d0 49 d1 32 bd 4b 43 a8 3d 9a 6f 18 be dc cc dd bd
       -0.04365662 0.0821596 -0.14886323 -0.108300894
0001e0 f0 48 73 3d 27 e6 04 bf 7d 1c aa 3e 5c 82 a4 bd
       0.05939573 -0.51913685 0.3322486 -0.080326766
0001f0 8f 73 f6 bd 16 55 52 bd 35 66 22 3d f4 a5 4a be
       -0.1203376 -0.051350676 0.039648253 -0.19789869
000200 3d 4c e4 3d bb ff 64 3d 2b b9 89 bd 31 a7 75 bd
       0.11147354 0.055907946 -0.06724771 -0.0599739
000210 54 1c 1e be 6d 7a 3d 3e b6 4f 13 be 36 46 29 bd
       -0.15440494 0.18503733 -0.14385876 -0.041326724
000220 ea b0 4c 3e fc c7 1b bc 93 93 df ba 2c 42 66 3d
       0.19989362 -0.009508129 -0.001705753 0.05621545
000230 6f bf 20 3e c7 df 34 3d 67 2d 1c be c4 2a bd 3c
       0.15698026 0.044158723 -0.15251695 0.023091681
000240 0b 31 8e 3c 1e 98 b5 3c ff 95 4b bd 10 8c 29 3d
       0.01735737 0.022167262 -0.049703594 0.04139334
000250 a7 a5 19 bf ae d6 13 bd fe ee dd bd de 6d 29 be
       -0.6001839 -0.036093406 -0.108366 -0.16545817
000260 32 60 a0 be e9 61 6b bd 2a cc 40 3c 3e f5 0c bd
       -0.3132339 -0.05746642 0.0117674265 -0.03441357
000270 d4 c9 85 bd c7 d0 9c 3d 55 bd 49 3d 61 87 a2 3c
       -0.06532636 0.076570086 0.049252827 0.019839944
000280 ea 34 84 3e 33 e3 c2 3d fd 3a 18 be 8f 90 3f bd
       0.2582162 0.09515991 -0.14866252 -0.04676872
000290 94 32 3b 3e ec a0 82 3d ba e6 1e bd c5 b8 00 3e
       0.18281013 0.0637835 -0.038794257 0.12570484
0002a0 d0 fb bb 3b b7 8a 84 bd 9a 4c 37 be c4 62 1a bf
       0.0057368055 -0.0647177 -0.17900315 -0.60306954
0002b0 b9 df 79 3e c3 ce 7e 3d ea b5 82 3d 3c 89 69 3d
       0.2440175 0.062208902 0.063823536 0.057015643
0002c0 28 11 12 3e 41 76 61 be 2a e4 40 ba 61 eb d5 bd
       0.14264357 -0.22017767 -0.0007358218 -0.104452856
0002d0 c2 da 6f 3e 49 30 11 be 59 0b 0e bd 93 b4 88 bd
       0.23423293 -0.14178576 -0.03467879 -0.06675067
0002e0 29 80 5c bd 99 3a ae bd 8b 48 9e 3e f9 76 f8 3d
       -0.05383316 -0.0850727 0.3091472 0.12132067
0002f0 02 67 5b 3e fc 4e 07 3f 7a 97 c2 bc b8 c1 1b 3e
       0.21426013 0.52854896 -0.02375387 0.15210617
000300 f4 6c b6 bd 91 c0 64 3e 8b eb cf 3b f9 a2 b9 3d
       -0.089075 0.22339083 0.0063452176 0.09064288
000310 63 b9 47 3c 07 c0 af bd ec 65 ed be 70 c3 65 bd
       0.012190196 -0.08581548 -0.46366823 -0.056094587
000320 0d bc 80 3d 47 48 fa 3d d1 28 95 3d 66 ba fc 3d
       0.06285868 0.12220817 0.07283176 0.1234024
000330 35 5c a3 bd 31 e4 85 be dc 8a a8 bd 20 31 0d 3e
       -0.079765715 -0.2615066 -0.0822961 0.13788271
000340 79 f1 52 be 75 dd 95 3d 02 6f e4 3d bd a9 21 bd
       -0.20599927 0.0731763 0.111539856 -0.039468516
000350 fd e5 2b be ae 70 f9 3d af a4 19 bf 6a 2b b3 bd
       -0.16786952 0.12179695 -0.6001691 -0.08748515
000360 f0 56 89 3d 06 86 be bd d5 e9 1d 3d 23 96 0d bd
       0.06706035 -0.09302907 0.038553078 -0.03456701
000370 0f bc 50 bd 96 92 e2 3e 54 b5 88 3d c8 9b 09 be
       -0.050960597 0.4425246 0.066752106 -0.13438332
000380 24 c5 15 bd 77 44 8a bd 15 0b 03 3e f3 c0 97 be
       -0.03656496 -0.0675134 0.12797196 -0.29639396
000390 14 40 be bd c8 e8 f2 bd 86 ad 77 3d fa 4b e6 bd
       -0.09289566 -0.11860806 0.06046822 -0.1124496
0003a0 0f bd 01 3e c4 11 67 bd 08 27 86 3c e0 bf 63 bd
       0.12669776 -0.056413427 0.016376033 -0.055602908
0003b0 51 e6 a6 3d a4 b9 4c bd 4c f6 07 3e 56 4c 33 be
       0.08149398 -0.04998173 0.13277549 -0.17509589
0003c0 a3 52 01 bf 28 b1 81 bd b1 92 12 be ed 7f 6c bd
       -0.5051672 -0.06332618 -0.14313771 -0.057739187
0003d0 b1 2d d4 3d 46 65 75 bd a6 ca 8c 3d 91 78 b5 bc
       0.103602774 -0.059911035 0.068745896 -0.022152217
0003e0 a1 f3 38 3e 46 90 07 be bc 49 18 3e cb 7a 8e 3d
       0.18061687 -0.1323863 0.14871877 0.06957015
0003f0 45 23 40 3d 7a 4d da bd 1f 4c 5e 3d bb f8 5d be
       0.046908636 -0.10659309 0.054271813 -0.21676914

bias f4 [12]
000000 17 0c 09 bf 7f 2e 1e bf a7 a5 e5 be 57 a7 57 be
       -0.5353407 -0.617897 -0.44852945 -0.21059929
000010 c6 0f 5e be 90 6c f5 be 9e d2 0b bf 6c 4d 06 bf
       -0.21685705 -0.4793439 -0.5461825 -0.52461886
000020 b2 1f 35 bf f8 2c 92 be 75 c1 f3 be ec fc 1a be
       -0.7075149 -0.28549933 -0.47608534 -0.15135545
