trainingOnSyntheticData/results/20230807_121105_debug/model_training_set_size_100_hidden_neurons_50_n_batches_5.pt (torch, 56679 bytes, 6 tensors)

weight f4 [50, 200]
-0.0029845969 -0.018091943 0.0033476795 0.012340572 0.051166963 0.07252668 0.03161284 0.026928993
0.04201013 0.04581709 0.050717525 -0.055195145 -0.04266716 0.022511574 0.056301147 0.056384455
0.013408536 0.029882208 -0.017811649 0.0009532468 0.030349188 0.03141442 -0.009324578 0.0564693
0.04994169 -0.061296236 0.04185024 0.048490543 -0.03911125 -0.049012758 0.0026370732 -0.012309166
-0.057538234 -0.0013650515 -0.042583622 -0.06338273 -0.02644011 0.004546307 -0.052061915 0.0011113418
-0.039688308 -0.037466824 0.048418637 -0.0051627476 0.026673978 -0.038508642 0.064107426 0.013499547
0.07814913 0.06189333 -0.050160173 0.0555316 0.008773257 0.063881144 0.018589843 0.029319793
0.04440963 -0.05602753 0.04564989 0.04724075 -0.01931931 -0.006805327 0.00032713576 -0.07261449
-0.09662868 0.032173466 -0.07490639 0.0076227803 -0.014979399 -0.04976568 -0.018548159 -0.011691753
0.043944012 0.018677015 -0.0025501586 -0.011251898 0.008539934 0.058181114 -0.045157894 0.03018699
-0.052401215 -0.06278512 -0.020089945 0.0060188523 -0.013157416 -0.02666113 -0.002638404 -0.03570755
0.009314898 -0.023817137 0.03345645 0.038393788 0.09799092 -0.020002285 0.072602846 0.018677792
0.028175386 0.011139237 0.05531875 -0.03847683 -0.07678928 -0.19059664 -0.2468387 -0.19219351
-0.28466728 -0.32136828 -0.31415364 -0.20415507 -0.2632351 -0.18162674 -0.23974499 -0.14553295
-0.14538527 -0.1427941 -0.062330518 -0.05312703 -0.028075425 0.03648018 -0.054102708 -0.06388963
-0.09086047 0.019566547 -0.11546917 -0.081812456 -0.09427216 -0.05445686 -0.14000311 -0.07933622
-0.015562859 -0.038587376 -0.004411479 -0.057988387 -0.118814416 -0.031619996 -0.12040004 -0.030131089
-0.0059338547 -0.09657986 0.008687697 -0.040154822 -0.07077568 0.03413616 0.025078302 -0.048012625
0.0334131 -0.06865039 -0.060582444 0.059753638 -0.0690955 0.03824942 -0.019577393 -0.011573588
0.037744436 -0.0073952274 -0.060572706 0.04965136 -0.08215096 -0.07403097 0.022495823 -0.08652557
-0.057837497 -0.08168734 -0.023713648 -0.08543143 0.016048819 -0.010472986 -0.04183313 0.004928532
-0.07446853 0.044105697 -0.07176313 -0.0891182 -0.025305888 -0.09832252 -0.00018595 -0.10064359
-0.077905625 -0.0016010645 0.0023583653 -0.061512552 -0.018710209 -0.03131946 -0.08227918 -0.07501762
-0.01700495 -0.024360655 -0.010847997 -0.065034665 -0.07391945 -0.008103679 -0.06291836 0.016225487
-0.019429194 0.0128160035 0.0027009873 -0.05657574 0.04765134 -0.04398672 0.029548913 0.005875419
0.050438225 0.014524835 0.032801606 -0.06575593 -0.043968674 -0.014538335 -0.04995271 -0.061932333
0.024135103 0.0077973166 0.07217676 0.028412327 0.008141471 -0.0009214406 0.035005018 0.0035119387
-0.034809962 -0.041668653 0.025263567 0.04164984 0.022732157 -0.045157555 -0.0073149162 -0.06976197
0.026478788 0.07481401 -0.011499958 -0.006131969 0.04712069 -0.038384616 -0.003313506 0.081406526
0.03860669 -0.0044913315 0.058142208 -0.020831114 -0.05070091 -0.011169946 -0.0114052305 0.057060618
0.08915673 0.06252082 0.04519569 0.028045177 -0.010005249 -0.0061426563 0.06769599 -0.01764681
0.03013342 0.009752645 -0.04552329 0.031568028 -0.044565614 0.06104729 -0.0073316027 0.057679072
00000000: 3a99 43bb 8e35 94bc be64 5b3b 1c30 4a3c
00000010: 7394 513d de88 943d 777c 013d 319a dc3c
00000020: d012 2c3d b3aa 3b3d 2ebd 4f3d 4e14 62bd
00000030: c3c3 2ebd 316a b83c 089c 663d 63f3 663d
00000040: 7aaf 5b3c 88cb f43c bce9 91bc 4fe3 793a
00000050: dc9e f83c 68ac 003d 1dc6 18bc 5a4c 673d
00000060: a88f 4c3d c311 7bbd 286b 2b3d 059e 463d
00000070: 1e33 20bd 9ac1 48bd bfd2 2c3b 62ac 49bc
00000080: 36ad 6bbd 87eb b2ba 2a6c 2ebd cece 81bd
00000090: ee98 d8bc 30f9 943b e03e 55bd 71aa 913a
000000a0: 3590 22bd d076 19bd 9f52 463d 442c a9bb
000000b0: 6383 da3c 3dbb 1dbd c14a 833d 342d 5d3c
000000c0: a70c a03d dc83 7d3d c174 4dbd 1a75 633d
000000d0: b5bd 0f3c 1ed4 823d ba49 983c 1030 f03c
000000e0: dfe6 353d 207d 65bd 61fb 3a3d 847f 413d
000000f0: 8843 9ebc 38ff debb 6b83 ab39 e8b6 94bd
00000100: 42e5 c5bd 53c8 033d 8568 99bd 84c8 f93b
00000110: 276c 75bc 19d7 4bbd 4ff2 97bc c48e 3fbc
00000120: a3fe 333d 8a00 993c 9020 27bb e159 38bc
00000130: 14eb 0b3c 524f 6e3d 7cf7 38bd b54a f73c
00000140: a8a2 56bd 7c95 80bd ab93 a4bc cb39 c53b
00000150: 3492 57bc 7168 dabc 13e9 2cbb 1442 12bd
00000160: 849d 183c 281c c3bc a109 093d ce42 1d3d
00000170: 77af c83d d5db a3bc cdb0 943d 2b02 993c
00000180: 11d0 e63c 5981 363c ea95 623d e199 1dbd
00000190: b343 9dbd c42b 43be 49c3 7cbe 60ce 44be
000001a0: e9bf 91be 628a a4be bfd8 a0be 070e 51be
000001b0: c0c6 86be 5cfc 39be b67f 75be 9706 15be
000001c0: e0df 14be 9e38 12be 494e 7fbd bb9b 59bd
000001d0: 6ffe e5bc 3e6c 153d cd9a 5dbd 91d8 82bd
000001e0: 0e15 babd 064a a03c 1a7b ecbd 4a8d a7bd
000001f0: c311 c1bd 280e 5fbd fa5c 0fbe 077b a2bd
00000200: 5dfb 7ebc cc0d 1ebd 2b8e 90bb 3b85 6dbd
00000210: f954 f3bd f883 01bd 4c94 f6bd 79d5 f6bc
00000220: c870 c2bb a9cb c5bd d856 0e3c 6279 24bd
00000230: d7f2 90bd 5cd2 0b3d 0371 cd3c e3a8 44bd
00000240: 2ddc 083d 9398 8cbd 4c25 78bd 3bc0 743d
00000250: f181 8dbd 6cab 1c3d c560 a0bc 259f 3dbc
00000260: e999 1a3d aa53 f2bb 161b 78bd 395f 4b3d
00000270: c33e a8bd 8d9d 97bd 2949 b83c 5134 b1bd
00000280: 03e7 6cbd b14b a7bd 2043 c2bc acf6 aebd
00000290: d078 833c e396 2bbc 3759 2bbd 867f a13b
000002a0: f582 98bd 2da8 343d 8cf8 92bd 9a83 b6bd
000002b0: 4b4e cfbc 515d c9bd 93fb 42b9 3a1e cebd
000002c0: fc8c 9fbd cfda d1ba ce8e 1a3b 96f4 7bbd
000002d0: 2746 99bc d648 00bd fd81 a8bd d7a2 99bd
000002e0: f74d 8bbc ff8f c7bc ccbb 31bc e530 85bd
000002f0: 1563 97bd 4bc5 04bc 57db 80bd 50eb 843c
00000300: f929 9fbc 37fa 513c 0c03 313b f7bb 67bd
00000310: 0d2e 433d 6b2b 34bd 9010 f23c 9686 c03b
00000320: 5098 4e3d 93f9 6d3c fa5a 063d 0cab 86bd
00000330: 7f18 34bd 3232 6ebc 369b 4cbd c2ac 7dbd
00000340: fbb6 c53c a280 ff3b 69d1 933d f8c0 e83c
00000350: ce63 053c d58c 71ba 6c61 0f3d 8e28 663b
00000360: e494 0ebd c0ac 2abd 8af5 ce3c 0699 2a3d
00000370: ca38 ba3c 21f7 38bd f7b1 efbb 5ddf 8ebd
00000380: 0bea d83c 1638 993d 526a 3cbc afee c8bb
00000390: a001 413d 3039 1dbd 6827 59bb 77b8 a63d
000003a0: 0c22 1e3d 052c 93bb 8626 6e3d 03a6 aabc
000003b0: c2ab 4fbd 2602 37bc 01dd 3abc 65b8 693d
000003c0: ce97 b63d ea0a 803d 1e1f 393d 00bf e53c
000003d0: 0eed 23bc 5648 c9bb 32a4 8a3d 0b90 90bc
000003e0: 5dda f63c 8fc9 1f3c a176 3abd 7a4d 013d
000003f0: 6f8a 36bd b90c 7a3d f13d f0bb e440 6c3d

bias f4 [50]
-0.16179352 -0.06368072 0.14437452 0.25064814 0.6482086 0.36871156 0.3585963 0.042568017
0.3807479 0.08074213 -0.24878836 -0.081920154 0.109765254 0.16082868 0.39119422 0.3181558
-0.03675443 -0.13908485 0.5546755 0.0056760465 0.12255724 0.6760385 0.1752784 0.20046473
0.6844398 -0.33559352 -0.1363247 -0.014673615 0.11301562 0.47037432 0.22350948 0.22550505
-0.00053539494 0.09070585 -0.31139103 -0.1799423 -0.32827732 -0.02497144 0.021930737 0.0642756
0.18616161 0.18541236 0.5432486 -0.29568702 -0.03948423 0.00044328248 0.5454515 -0.4118274
0.28011474 0.13855071
00000000: 33ad 25be 0a6b 82bd ead6 133e f454 803e
00000010: 00f1 253f c3c7 bc3e ef99 b73e cd5b 2e3d
00000020: 64f1 c23e 215c a53d 60c2 7ebe c1c5 a7bd
00000030: 9bcc e03d 46b0 243e 9c4a c83e 51e5 a23e
00000040: d08b 16bd 426c 0ebe 37ff 0d3f 21fe b93b
00000050: 4aff fa3d dc10 2d3f 2e7c 333e a046 4d3e
00000060: 7237 2f3f ead2 abbe b498 0bbe 9a69 70bc
00000070: bc74 e73d e7d4 f03e abdf 643e ccea 663e
00000080: bf59 0cba fdc3 b93d a56e 9fbe cb42 38be
00000090: f713 a8be e890 ccbc 17a8 b33c eda2 833d
000000a0: 26a1 3e3e bddc 3d3e 5712 0b3f 4a64 97be
000000b0: 37ba 21bd 5e68 e839 b6a2 0b3f 0adb d2be
000000c0: 336b 8f3e 3de0 0d3e

weight f4 [50, 50]
0.008854452 0.07446719 -0.016773755 0.07529373 -0.06727884 0.12663905 -0.19999963 0.061742716
0.014092608 0.024117934 0.045667574 -0.04490371 -0.024959994 0.059839085 0.11070348 0.105074644
0.022318421 0.10675436 0.1489251 -0.09082096 -0.15558134 -0.09929114 -0.0668494 -0.07307907
0.058545116 0.08652709 -0.02198745 0.035910364 0.04150909 -0.08996001 0.025177348 -0.049966093
-0.14581554 0.08011645 -0.09829884 0.10686968 0.0823452 -0.0049509527 -0.0042168326 0.10207872
0.120184 0.056154683 0.008857381 -0.06749054 -0.1406518 -0.29182726 -0.12361954 0.15539242
0.06725804 -0.054060034 -0.14708713 0.022395395 0.012048589 0.0020231619 -0.14395224 -0.11790968
0.119246125 -0.0423209 0.05836943 0.1155733 -0.0710643 -0.16751939 0.15382747 -0.08583467
0.09949574 0.17773238 -0.16534492 0.10342697 -0.07465256 -0.09349638 0.12469748 -0.14931272
-0.021564132 -0.072170764 -0.10468526 0.019640457 0.04375459 -0.053010024 0.08415542 -0.043279756
0.17269102 0.008355817 0.21380277 -0.08107484 0.18224962 0.06829968 0.04049689 0.07881312
0.10964442 -0.0402951 -0.099384554 0.032145016 0.035964686 0.1375985 -0.06750478 0.1436727
-0.21217692 0.05928153 0.24981484 -0.08042272 -0.03949669 -0.07991578 -0.042899735 0.17565747
0.032512005 -0.1110367 -0.060409028 0.12418629 -0.027882285 -0.026552172 0.12752639 0.15908575
-0.11993678 0.12856296 0.1075711 -0.006198213 -0.043028153 0.14257376 -0.2381259 0.1571402
0.06446881 0.12585282 -0.13002123 -0.04732504 0.20253408 -0.16773549 -0.07963395 -0.13613018
0.20739831 0.04567635 0.0823625 -0.028852327 -0.01587711 0.12411353 -0.0065854937 -0.11337576
0.061369095 -0.14166468 0.10208978 -0.0063236244 -0.011908732 0.06449733 0.11318241 0.055469733
0.113269925 0.122296326 -0.24235825 -0.11012624 -0.09419001 0.106220715 0.08932997 -0.08563265
-0.06382795 0.15073013 0.08582629 -0.051396523 0.23461983 -0.019274432 0.07679953 -0.06516774
-0.10683642 0.08948107 0.3038899 0.090238474 -0.0022615907 -0.0859982 0.1801572 0.029481791
-0.25193122 0.045068495 0.024008159 0.014410158 0.10589801 -0.10932382 0.19481032 0.046861306
0.0042054914 0.15155262 0.044438273 0.11035974 0.08188624 -0.072356075 -0.041998684 -0.17224881
-0.030775119 -0.11291074 0.14390749 -0.07549798 -0.15998673 0.101895526 -0.034604065 -0.06762579
0.10936871 0.15386243 -0.021516442 0.15431447 0.08116989 -0.089002304 0.047018856 -0.08229769
-0.092355564 0.10237505 -0.046106204 0.10537673 -0.07932525 -0.013394742 -0.031861953 0.08011197
-0.12227065 -0.081321955 -0.12539664 0.12563485 0.013660472 0.03925926 -0.09487091 0.08183953
0.034307007 0.12681715 -0.23410058 0.07693917 -0.13811679 0.05806831 -0.053366225 0.031017745
0.14282225 0.022532249 -0.0753241 0.06426053 0.10976309 0.1377381 -0.064230695 0.08766685
-0.053274225 0.06976907 -0.045716826 -0.012878262 -0.00019202656 0.108779974 0.10022875 0.101431385
-0.04320785 0.04476314 -0.017806644 0.16180591 0.057110842 0.08592501 0.19215328 -0.10617377
-0.14037019 0.08038581 0.033990856 0.08152623 0.001335861 0.06447214 0.0157039 -0.10520269
00000000: 4312 113c 4182 983d 1d69 89bc 9933 9a3d
00000010: 7dc9 89bd abad 013e b4cc 4cbe eee5 7c3d
00000020: afe4 663c f992 c53c ec0d 3b3d f4ec 37bd
00000030: e778 ccbc d419 753d 82b8 e23d 6031 d73d
00000040: 1fd5 b63c 08a2 da3d d27f 183e 5700 babd
00000050: b750 1fbe 2759 cbbd 57e8 88bd 7baa 95bd
00000060: 01cd 6f3d 1d35 b13d 061f b4bc bf16 133d
00000070: 7005 2a3d f43c b8bd ba40 ce3c 3fa9 4cbd
00000080: ab50 15be 1814 a43d e750 c9bd 7ede da3d
00000090: 9aa4 a83d 9a3b a2bb 5b2d 8abb a60e d13d
000000a0: 0723 f63d 7402 663d 8c1e 113c 7b38 8abd
000000b0: 0707 10be 626a 95be 3e2c fdbd 311f 1f3e
000000c0: 95be 893d 0e6e 5dbd 029e 16be 8c76 b73c
000000d0: 7267 453c 0697 043b 3768 13be a17a f1bd
000000e0: 5037 f43d ae58 2dbd c914 6f3d b2b1 ec3d
000000f0: 298a 91bd 348a 2bbe f384 1d3e 16ca afbd
00000100: 6cc4 cb3d 7aff 353e 2e50 29be 85d1 d33d
00000110: 71e3 98bd 087b bfbd 6461 ff3d 6fe5 18be
00000120: 43a7 b0bc 44ce 93bd 3a65 d6bd 06e5 a03c
00000130: 0338 333d 0a21 59bd ad59 ac3d 1d46 31bd
00000140: ead5 303e d6e6 083c 1def 5a3e 910a a6bd
00000150: a59f 3a3e b4e0 8b3d 11e0 253d c668 a13d
00000160: 418d e03d 7a0c 25bd 218a cbbd 7eaa 033d
00000170: b54f 133d 9fe6 0c3e f23f 8abd f01e 133e
00000180: e844 59be 31d1 723d 76cf 7f3e abb4 a4bd
00000190: 48c7 21bd e2aa a3bd a2b7 2fbd 8ddf 333e
000001a0: 4f2b 053d 3667 e3bd 756f 77bd 6255 fe3d
000001b0: 6469 e4bc f183 d9bc 4796 023e 60e7 223e
000001c0: 6aa1 f5bd 02a6 033e 3d4e dc3d 611a cbbb
000001d0: 4a3e 30bd dbfe 113e 47d7 73be 5ce9 203e
000001e0: 3908 843d 90df 003e 4924 05be e7d7 41bd
000001f0: 1865 4f3e dac2 2bbe 2017 a3bd b665 0bbe
00000200: 3960 543e 2017 3b3d acad a83d b75b ecbc
00000210: b710 82bc 3c2f fe3d 20cb d7bb 8d31 e8bd
00000220: 295e 7b3d 8c10 11be 7214 d13d 6836 cfbb
00000230: d81c 43bc 2d17 843d 2ecc e73d 3b34 633d
00000240: 10fa e73d 7f76 fa3d c32c 78be de89 e1bd
00000250: b1e6 c0bd 3f8a d93d a2f2 b63d 2c60 afbd
00000260: 3ab8 82bd 0059 1a3e b2c5 af3d 2985 52bd
00000270: 2e40 703e 6ae5 9dbc 1249 9d3d aa76 85bd
00000280: 0ecd dabd da41 b73d 7597 9b3e f3ce b83d
00000290: 3237 14bb d31f b0bd 217b 383e cc83 f13c
000002a0: 21fd 80be be99 383d c2ac c43c 9518 6c3c
000002b0: 0ee1 d83d 2be5 dfbd 5b7c 473e a4f1 3f3d
000002c0: 38ce 893b 9c30 1b3e e804 363d 4a04 e23d
000002d0: f9b3 a73d 6c2f 94bd d006 2cbd fe61 30be
000002e0: 1a1c fcbc bf3d e7bd 7c5c 133e af9e 9abd
000002f0: 90d3 23be 9aae d03d febc 0dbd 647f 8abd
00000300: b4fc df3d 1d8e 1d3e 4043 b0bc 9d04 1e3e
00000310: 663c a63d d746 b6bd d896 403d b18b a8bd
00000320: ea24 bdbd 03aa d13d dcd9 3cbd c1cf d73d
00000330: 4775 a2bd 9f75 5bbc ae81 02bd bf11 a43d
00000340: 0969 fabd 208c a6bd fa67 00be 6ca6 003e
00000350: 2cd0 5f3c 51ce 203d ae4b c2bd 7c9b a73d
00000360: 8185 0c3d 5bdc 013e 10b8 6fbe 4992 9d3d
00000370: 7d6e 0dbe 09d9 6d3d 8b96 5abd ed18 fe3c
00000380: ff3f 123e 8d95 b83c 8643 9abd 069b 833d
00000390: 79cb e03d 370b 0d3e 628b 83bd ad8a b33d
000003a0: 1336 5abd 16e3 8e3d 9141 3bbd 59ff 52bc
000003b0: bd5a 49b9 09c8 de3d bb44 cd3d 42bb cf3d
000003c0: b7fa 30bd 8e59 373d 3ddf 91bc 73b0 253e
000003d0: 0fed 693d 74f9 af3d d4c3 443e a271 d9bd
000003e0: 34bd 0fbe 51a1 a43d ff39 0b3d 39f7 a63d
000003f0: 0f18 af3a f809 843d 77a5 803c 8274 d7bd

bias f4 [50]
0.5157956 -0.31232232 -0.055525076 0.24213544 -0.16534767 -0.16767973 0.08487054 0.02387979
0.362884 -0.36661476 -0.15974088 0.33969802 0.46466926 -0.048912376 0.043034025 0.058219265
0.14935333 0.031023279 -0.170307 0.065708995 0.64714366 0.38363132 0.57671887 0.21835525
-0.1443281 0.24162823 0.45529538 0.30973735 0.007741662 0.37053767 0.030916812 0.19880654
0.2859684 0.258269 0.27124855 0.5253945 0.111961104 0.6191167 -0.011710325 0.5334846
-0.104059674 0.40408292 -0.27771518 -0.43256736 0.34658265 -0.066837534 0.3936337 0.3458016
0.3843757 0.053464387
00000000: 2e0b 043f b6e8 9fbe 436e 63bd 5af2 773e
00000010: e650 29be 3cb4 2bbe 9bd0 ad3d 8d9f c33c
00000020: efcb b93e eeb4 bbbe 1d93 23be e6ec ad3e
00000030: 21e9 ed3e 5858 48bd 7244 303d 5377 6e3d
00000040: 14f0 183e 8824 fe3c f564 2ebe 7092 863d
00000050: 35ab 253f 536b c43e d9a3 133f 8598 5f3e
00000060: bfca 13be 646d 773e 7a1c e93e e595 9e3e
00000070: c5ad fd3b 1db7 bd3e 4145 fd3c f193 4b3e
00000080: 736a 923e d63b 843e 17e1 8a3e 4180 063f
00000090: dd4b e53d 6f7e 1e3f aadc 3fbc 7292 083f
000000a0: 3d1d d5bd f5e3 ce3e af30 8ebe 7879 ddbe
000000b0: 4873 b13e 1ee2 88bd 5b8a c93e e80c b13e
000000c0: e4cc c43e 79fd 5a3d

weight f4 [12, 50]
-0.13100334 0.19455576 0.13309464 -0.10789048 0.036058582 -0.35358483 -0.21822314 -0.062688954
-0.14190076 0.1260417 0.06665796 0.33544087 -0.23796017 -0.53497076 0.31582007 -0.07033912
-0.16605034 -0.030618515 -0.008527 -0.13654158 -0.29292154 -0.14635824 0.077710114 -0.35519347
0.078603394 -0.39878973 0.3594258 -0.11475591 -0.089722484 0.10630709 0.014467839 -0.006559274
0.14011809 0.003887775 -0.03051225 0.13886875 -0.16395439 0.031631067 -0.17609683 -0.05007706
-0.08252301 -0.3479571 0.07304618 -0.057711225 0.15396918 0.053799063 -0.13431056 -0.03241761
0.10105422 -0.05385129 -0.106930345 0.18702722 -0.10523218 0.079436034 -0.06300731 -0.15442902
-0.1661295 -0.025471078 0.16779329 -0.004629846 0.18161592 0.2946508 -0.5471082 0.09983703
0.0026848917 -0.005642343 -0.107317895 0.08254364 0.13205439 -0.042905293 0.54165065 -0.09818302
0.10018207 -0.24924706 -0.018210284 -0.008928747 0.29005146 -0.019317534 -0.1553333 -0.0337813
0.16724868 0.029309077 0.09445822 -0.053322315 0.060017858 0.03173429 -0.5125756 -0.054110795
-0.02915539 0.06590237 0.08690266 -0.07105116 0.054860115 0.007590446 -0.06714305 0.009749866
-0.0030481825 0.01762801 0.06404004 -0.0888169 -0.009251357 0.14001022 0.0870632 0.046232462
-0.046520717 0.06757425 -0.47766653 0.35431546 -0.06037174 -0.19553769 0.049311645 -0.044831347
-0.22819267 0.42504588 0.01766985 -0.05415602 -0.3101537 -0.1066625 -0.104608215 -0.15601748
-0.15073161 -0.053463828 -0.04995329 -0.1302266 0.052957986 -0.09973066 -0.19702624 0.0083223395
0.11341234 -0.015257019 0.050917424 0.25174013 0.040674068 0.0072321165 0.070715524 -0.2209342
0.24254361 -0.19403039 -0.16645256 -0.01489204 0.22111659 -0.0024049997 -0.0034252787 0.21170235
0.019843668 0.1219251 -0.03412499 -0.0046914313 -0.052919503 -0.058674846 -0.026016796 0.12711579
0.12948824 -0.034841616 0.14210832 -0.03859583 -0.29034474 0.6862588 0.0546307 0.11357949
0.12513821 0.14198951 -0.098335 0.27919418 0.030846598 0.103861876 -0.12354037 -0.1253782
0.17486571 0.032380473 -0.04541811 0.040580835 -0.20458518 0.17439546 0.2034809 0.012828849
0.04014181 0.06693018 -0.13659933 0.08422551 0.021043506 -0.090718634 0.0026911865 0.019256264
0.09360895 -0.22521707 0.2527029 -0.44589946 -0.0796575 -0.10016428 -0.077096574 -0.08195567
-0.13847417 -0.044024277 0.06348661 0.09887453 0.0071222703 -0.052172314 -0.14853585 0.19655387
-0.028319243 -0.02076136 -0.06074723 -0.12985131 -0.06539108 0.13716058 0.25461125 0.18480492
-0.0967088 -0.012923646 0.045112077 -0.18684399 -0.14805496 -0.0011755021 0.05866898 0.035166916
0.14856058 -0.026879434 -0.07878648 0.083839566 -0.4570734 -0.11971381 -0.115250826 -0.12727559
0.06383738 0.09535019 -0.01279577 0.2094385 0.11803179 -0.1105128 0.095831044 0.014711703
-0.017950721 -0.0029003825 -0.1409899 0.11075075 0.123996586 0.03158756 0.06119602 -0.0039923782
-0.12388771 0.16495511 0.07047775 0.050644472 -0.111034304 -0.15233482 -0.044699784 -0.12989928
-0.06943116 0.08016807 -0.14470322 -0.07102933 0.18665549 0.22607307 0.03021458 -0.013479904
00000000: bd25 06be a039 473e f649 083e aff5 dcbd
00000010: 2ab2 133d 1209 b5be e375 5fbe 1163 80bd
00000020: 6f4e 11be 1311 013e f883 883d e8be ab3e
00000030: d5ab 73be d8f3 08bf 2bb3 a13e f50d 90bd
00000040: 1a09 2abe aed3 fabc d5b4 0bbc 8ed1 0bbe
00000050: d0f9 95be efde 15be 7b26 9f3d ebdb b5be
00000060: d1fa a03d 2b2e ccbe a906 b83e 2605 ebbd
00000070: 6cc0 b7bd 88b7 d93d 840a 6d3c 2eef d6bb
00000080: 1e7b 0f3e 0aca 7e3b d3f4 f9bc 9c33 0e3e
00000090: a9e3 27be 948f 013d ba52 34be 9a1d 4dbd
000000a0: d301 a9bd 6f27 b2be 3c99 953d 9b62 6cbd
000000b0: 19aa 1d3e 685c 5c3d b588 09be 54c8 04bd
000000c0: 84f5 ce3d 2c93 5cbd 4cfe dabd 1084 3f3e
000000d0: f883 d7bd 5caf a23d fa09 81bd a422 1ebe
000000e0: da1d 2abe b9a8 d0bc 01d2 2b3e f7b5 97bb
000000f0: 86f9 393e 78dc 963e 480f 0cbf 5b77 cc3d
00000100: 02f5 2f3b 67e3 b8bb 7cc9 dbbd a40c a93d
00000110: 4439 073e 76bd 2fbd 9ea9 0a3f 2e14 c9bd
00000120: 422c cd3d 9f3a 7fbe bc2d 95bc e149 12bc
00000130: a081 943e ce3f 9ebc b10f 1fbe 435e 0abd
00000140: 3d43 2b3e 9719 f03c 5073 c13d 8068 5abd
00000150: 49d5 753d d1fb 013d 2838 03bf 48a3 5dbd
00000160: 49d7 eebc d2f7 863d 06fa b13d 4583 91bd
00000170: 00b5 603d 47b9 f83b 4c82 89bd e7bd 1f3c
00000180: 04c4 47bb 9e68 903c 6d27 833d a3e5 b5bd
00000190: 0193 17bc d75e 0f3e 314e b23d 405e 3d3d
000001a0: 828c 3ebd 5e64 8a3d b590 f4be d668 b53e
000001b0: 5c48 77bd 083b 48be 02fb 493d 13a1 37bd
000001c0: 57ab 69be 9d9f d93e 5cc0 903c b4d2 5dbd
000001d0: 77cc 9ebe de71 dabd d53c d6bd 0cc3 1fbe
000001e0: 6359 1abe e3fc 5abd d29b 4cbd 1f5a 05be
000001f0: 79ea 583d 973f ccbd 3fc1 49be 6c5a 083c
00000200: bb44 e83d 93f8 79bc ca8e 503d 15e4 803e
00000210: da99 263d 64fb ec3b 4dd3 903d 933c 62be
00000220: 5a5d 783e e7af 46be 8a72 2abe befd 73bc
00000230: 636c 623e 339d 1dbb a47a 60bb 80c8 583e
00000240: 308f a23c deb3 f93d a5c6 0bbd 94ba 99bb
00000250: 1fc2 58bd 0955 70bd 2d21 d5bc a42a 023e
00000260: 9198 043e 15b6 0ebd d884 113e a916 1ebd
00000270: 11a8 94be a8ae 2f3f 71c4 5f3d 5d9c e83d
00000280: 3b24 003e b365 113e dc63 c9bd 8af2 8e3e
00000290: 01b2 fc3c 89b5 d43d bc02 fdbd 2563 00be
000002a0: ff0f 333e 63a1 043d 5708 3abd 1738 263d
000002b0: c77e 51be b994 323e 4c5d 503e 1830 523c
000002c0: bd6b 243d b112 893d b2e0 0bbe 6d7e ac3d
000002d0: 6e63 ac3c b1ca b9bd 9e5e 303b 50bf 9d3c
000002e0: 0db6 bf3d 4e9f 66be 4662 813e ef4c e4be
000002f0: 7923 a3bd ee22 cdbd cfe4 9dbd 60d8 a7bd
00000300: 2ccc 0dbe cd52 34bd 4505 823d bb7e ca3d
00000310: ef61 e93b a3b2 55bd c819 18be 6b45 493e
00000320: c2fd e7bc ba13 aabc 16d2 78bd bef7 04be
00000330: c2eb 85bd d373 0c3e 685c 823e 803d 3d3e
00000340: 430f c6bd b3bd 53bc 71c7 383d 0854 3fbe
00000350: b89b 17be 4e13 9aba e24e 703d 2f0b 103d
00000360: 4420 183e 4232 dcbc ce5a a1bd 14b4 ab3d
00000370: 8605 eabe 842c f5bd a008 ecbd 8854 02be
00000380: 2cbd 823d f646 c33d 59a5 51bc 0c77 563e
00000390: a7ba f13d 8954 e2bd 1143 c43d 5b09 713c
000003a0: 640d 93bc 5814 3ebb a85f 10be 4ad1 e23d
000003b0: ecf1 fd3d f561 013d aea8 7a3d 7fd2 82bb
000003c0: d7b8 fdbd fee9 283e a356 903d 9470 4f3d
000003d0: f465 e3bd a9fd 1bbe 1f17 37bd 5104 05be
000003e0: ed31 8ebd 282f a43d 152d 14be d377 91bd
000003f0: 9e22 3f3e b37f 673e 9184 f73c d1da 5cbc

bias f4 [12]
-0.17958383 -0.09688732 -0.22523485 -0.2559156 -0.4497003 -0.4115709 -0.22464411 -0.39333296
0.033591192 -0.05662522 -0.13351925 -0.22405964
00000000: d3e4 37be dc6c c6bd f7a3 66be 5f07 83be
00000010: 1e3f e6be 6cb9 d2be 1b09 66be f062 c9be
00000020: eb96 093d d9ef 67bd 45b9 08be e46f 65be
