trainingOnSyntheticData/results/20230803_162736_train_local/model_training_set_size_100000_hidden_neurons_100_n_batches_100.pt (torch, 130071 bytes, 6 tensors)

weight f4 [100, 200]
-0.00988407 -0.09076242 -0.010549251 -0.0458348 -0.032172587 -0.013909607 0.023615131 -0.017383432
-0.05948006 -0.028726658 0.0024898604 0.023183575 -0.012828457 -0.063835606 0.024260564 -0.013773142
-0.01585518 -0.06255805 0.004948388 0.033337872 0.009605778 0.032956336 0.0066849133 -0.031699996
-0.065698475 -0.010514826 0.02163612 0.0027227188 0.0084922165 -0.009277766 -0.013534394 -0.016244581
-0.081213996 0.054870985 -0.0029519238 -0.06249483 -0.0023687999 0.025201546 -0.009300633 0.017784799
-0.028495952 -0.04370011 -0.038133726 0.008985831 -0.011222216 0.007898406 -0.0017800416 0.069195695
0.028417978 0.030347522 0.028700797 0.0055452213 0.033177067 0.09301407 0.05004423 0.12874162
0.116125725 0.07796142 0.03425259 -0.029543946 0.06976175 0.079886645 0.1797083 0.09772667
0.025484622 0.14444724 0.08588428 0.123344235 0.0003824986 0.12994969 0.07760153 0.204901
0.10235152 0.008768999 0.16669032 0.1467583 0.1686742 0.10306183 0.15134716 0.0789073
-0.17180908 -0.010325158 0.08254301 0.090260595 -0.03881025 0.05100579 0.07780943 -0.011647602
0.09632561 -0.004530862 0.025861077 0.035087235 -0.04782857 -0.16783836 -0.10325491 -0.14835595
0.063109525 0.1839322 0.31795612 0.103508234 -0.224049 0.095642276 -0.040799387 -0.038878422
-0.091199964 0.01664893 0.12963665 0.11752402 -0.02940034 -0.087994836 0.024239138 0.06807034
0.15455462 -0.040315706 -0.093046054 0.0039243116 0.063254766 -0.07186819 -0.15765835 -0.052852727
0.06154362 -0.18828239 -0.11455565 -0.022542892 -0.22272913 0.0036375164 -0.1327287 -0.21037611
-0.15326858 -0.13090053 -0.069794856 -0.12663236 0.0012150116 -0.14021124 -0.12335875 -0.00813235
-0.038477514 -0.08216826 -0.109862946 -0.08733811 -0.053345647 -0.16699894 -0.080733925 -0.069581844
-0.0900231 -0.0121012535 -0.065027535 -0.114144765 -0.091660626 -0.0060812384 0.08361738 -0.06636935
-0.03694163 -0.075411804 -0.038691953 0.061272677 -0.08227212 -0.044037156 -0.009691297 -0.09484661
-0.022207275 -0.0432178 0.039179236 0.007289347 -0.047881573 -5.3072534e-05 0.018018607 0.003756892
0.01792414 0.045916725 -0.03838763 0.02320821 -0.024142396 0.0010355472 0.023611473 -0.012748171
-0.030301906 0.06294154 0.0057374556 -0.016501328 0.03114013 0.021122903 0.03568365 -0.029224519
0.001630808 0.028523285 0.033452835 0.018227048 0.03653657 0.03597404 -0.020090496 0.07772714
0.049506526 0.05759602 0.07116344 0.035561066 0.031849865 0.030889483 0.028660275 0.0161882
0.004941017 0.001087253 0.0056853825 0.0028484429 -0.000516712 0.0033123847 0.0027815958 0.004499412
0.0038985827 0.006948468 0.006078618 0.005359073 0.0024399147 0.010822187 0.009408577 0.003278482
0.008715158 0.005615168 0.010600743 0.012610719 0.01242814 0.020598052 0.010054928 0.0058148685
0.02253312 0.017260695 0.028055523 0.022392116 0.024157515 0.021614447 0.021362273 0.025206951
0.03361286 0.022659862 0.038298793 0.033011187 0.041611962 0.03670145 0.036593955 0.03826638
0.043508153 0.045885336 0.05174926 0.04383157 0.045677274 0.06488876 0.04524962 0.052978646
0.059781276 0.059609413 0.070313625 0.06487968 0.06384363 0.047971528 0.058760494 0.06280666
00000000: cbf0 21bc a6e1 b9bd c4d6 2cbc 45bd 3bbd
00000010: 67c7 03bd 1fe5 63bc 8574 c13c b367 8ebc
00000020: 5da1 73bd 2b54 ebbc ed2c 233b 7beb bd3c
00000030: 732e 52bc 3ebc 82bd 17be c63c bfa8 61bc
00000040: b9e2 81bc 6f1e 80bd 1626 a23b 4b8d 083d
00000050: 8e61 1d3c 39fd 063d 1e0d db3b dbd7 01bd
00000060: ec8c 86bd 6046 2cbc 3b3e b13c a46f 323b
00000070: f022 0b3c c501 18bc 5dbf 5dbc 5b13 85bc
00000080: 8653 a6bd 66c0 603d 1075 41bb 94fa 7fbd
00000090: de3d 1bbb 7973 ce3c af61 18bc 6db1 913c
000000a0: 5870 e9bc e3fe 32bd 1c32 1cbd 4f39 133c
000000b0: 63dd 37bc 5168 013c 4950 e9ba 79b6 8d3d
000000c0: d2cc e83c 5e9b f83c ef1d eb3c b0b4 b53b
000000d0: ade4 073d 297e be3d 2efb 4c3d d8d4 033e
000000e0: 53d3 ed3d 3daa 9f3d 724c 0c3d 2506 f2bc
000000f0: 40df 8e3d 9c9b a33d 7405 383e ec24 c83d
00000100: 20c5 d03c fae9 133e 19e4 af3d e79b fc3d
00000110: 188a c839 8811 053e 8ded 9e3d 91d1 513e
00000120: ac9d d13d d9ab 0f3c deb0 2a3e cf47 163e
00000130: eeb8 2c3e 1512 d33d c0fa 1a3e 279a a13d
00000140: b8ee 2fbe da2a 29bc 4f0c a93d 8cda b83d
00000150: 7ff7 1ebd 72eb 503d 8d5a 9f3d 95d5 3ebc
00000160: 5d46 c53d a077 94bb 9cda d33c a2b7 0f3d
00000170: e4e7 43bd d2dd 2bbe 4f77 d3bd 9fea 17be
00000180: 913f 813d b958 3c3e 25cb a23e 20fc d33d
00000190: 1a6d 65be 19e0 c33d 421d 27bd fb3e 1fbd
000001a0: 0cc7 babd 5663 883c 78bf 043e 6fb0 f03d
000001b0: fbd8 f0bc a336 b4bd 2891 c63c 7668 8b3d
000001c0: 9143 1e3e 1522 25bd ee8e bebd 8397 803b
000001d0: b78b 813d a12f 93bd 3171 21be 1a7c 58bd
000001e0: 2a15 7c3d 19cd 40be 279c eabd dfab b8bc
000001f0: 1b13 64be 6663 6e3b 08ea 07be d66c 57be
00000200: 70f2 1cbe ca0a 06be 9bf0 8ebd eaab 01be
00000210: 0641 9f3a 8993 0fbe 83a3 fcbd 8c3d 05bc
00000220: 999a 1dbd d547 a8bd d3ff e0bd 53de b2bd
00000230: f780 5abd c501 2bbe d457 a5bd ed80 8ebd
00000240: 085e b8bd 5644 46bc 282d 85bd bbc4 e9bd
00000250: 91b8 bbbd 2045 c7bb 973f ab3d a7ec 87bd
00000260: 1b50 17bd 8171 9abd 747b 1ebd 0ff9 7a3d
00000270: 497e a8bd 4e60 34bd 3fc8 1ebc f13e c2bd
00000280: 08ec b5bc 2605 31bd 687a 203d 79db ee3b
00000290: 781f 44bd 339a 5eb8 c29b 933c 3036 763b
000002a0: a5d5 923c 2d13 3c3d 593c 1dbd 251f be3c
000002b0: 46c6 c5bc 33bb 873a d96c c13c b4dd 50bc
000002c0: b43b f8bc 7ee7 803d 4401 bc3b cb2d 87bc
000002d0: 9619 ff3c f009 ad3c 0529 123d 4268 efbc
000002e0: d6c0 d53a aaa9 e93c d705 093d e450 953c
000002f0: 5fa7 153d 8459 133d d394 a4bc 682f 9f3d
00000300: 5bc7 4a3d cee9 6b3d 23be 913d 7ba8 113d
00000310: 0175 023d f10b fd3c f4c8 ea3c 1e9d 843c
00000320: 41e8 a13b 2882 8e3a 724c ba3b f1ac 3a3b
00000330: f573 07ba 9814 593b 6f4b 363b ce6f 933b
00000340: 5d7f 7f3b f9af e33b 252f c73b 2a9b af3b
00000350: fae6 1f3b 8b4f 313c 6f26 1a3c cddb 563b
00000360: 06ca 0e3c 71ff b73b bdae 2d3c 309d 4e3c
00000370: 669f 4b3c 3fbd a83c 6dbd 243c a78a be3b
00000380: 6197 b83c 4d66 8d3c b2d4 e53c ac6f b73c
00000390: fbe5 c53c c810 b13c efff ae3c cf7e ce3c
000003a0: a3ad 093d 2da1 b93c 32df 1c3d bd36 073d
000003b0: 4e71 2a3d 4254 163d 8be3 153d 35bd 1c3d
000003c0: 9b35 323d 43f2 3b3d 08f7 533d bb88 333d
000003d0: 1818 3b3d 66e4 843d aa57 393d 2300 593d
000003e0: 36dd 743d 0029 743d 9700 903d a3df 843d
000003f0: 73c0 823d cb7d 443d d8ae 703d c7a0 803d

bias f4 [100]
1.3689854 -0.18636344 -0.00048308657 -0.2104279 0.00097004964 -0.018068623 -0.024686785 -0.101565845
-0.0013467146 -0.0024400675 1.6467764 -0.019347794 -0.11649362 0.80564344 -2.917697e-05 -0.17600663
-0.15310149 0.09808923 -0.053584427 -0.09147917 -0.0015787734 0.6914714 0.084235705 -0.0016753142
-0.0030622492 -0.035421 0.04404585 -0.5518655 -0.058612395 -0.0051663914 -0.0020728565 -2.380944
-2.9852118 -0.014311405 0.0005595255 0.002055475 0.0010845681 -1.3491747 0.6151778 -0.0040092673
-0.32625338 -0.72568655 -0.0053651165 -0.00088343304 -1.7499143 -0.9786197 -0.00130962 5.50411e-05
-2.078772 3.1693249 -0.00039326167 -0.019792907 0.874891 -0.14325489 -0.09677162 -0.00063252565
1.452982 -0.0009112363 0.38808924 0.04069204 -0.3228868 -0.06450867 -0.63484544 -1.8519363
0.00132174 -0.0007420042 -0.49918562 -0.012697112 0.28577453 0.25260836 0.89915705 -0.052054618
-0.018681705 -1.0902935 0.28542113 -0.000805134 -0.01922431 -3.8782399 -0.013273183 -0.00489759
-0.039202694 -0.01463266 -0.7213932 -0.09470664 -0.00097206415 -0.45614904 -0.0057808617 -0.16175248
-0.057187177 0.434823 0.88489336 -0.0011317666 -0.0030819178 -1.2492584 -0.02637791 -0.15310372
-0.5462658 -0.0021726252 -0.0022482595 -0.064926416
00000000: ea3a af3f 0fd6 3ebe c846 fdb9 697a 57be
00000010: ee4a 7e3a a604 94bc f13b cabc c101 d0bd
00000020: 3e84 b0ba 8ae9 1fbb 92c9 d23f 447f 9ebc
00000030: 3594 eebd a63e 4e3f 11c1 f4b7 153b 34be
00000040: a3c6 1cbe 02e3 c83d 587b 5bbd 6e59 bbbd
00000050: d8ee ceba 4504 313f c583 ac3d 3796 dbba
00000060: 04b0 48bb 9c15 11bd 6c69 343d 0f47 0dbf
00000070: 8d13 70bd d54a a9bb c3d8 07bb 6361 18c0
00000080: b60d 3fc0 627a 6abc 1fad 123a 26b5 063b
00000090: 1128 8e3a c2b1 acbf 4b7c 1d3f 2c60 83bb
000000a0: af0a a7be 98c6 39bf dccd afbb 3096 67ba
000000b0: 31fd dfbf d286 7abf 8ea7 abba eedb 6638
000000c0: 9a0a 05c0 38d6 4a40 b02e ceb9 bc24 a2bc
000000d0: dbf8 5f3f 69b1 12be 3330 c6bd 14d0 25ba
000000e0: 50fb b93f 08e0 6eba a2b3 c63e b2ac 263d
000000f0: 6b51 a5be 1f1d 84bd 3b85 22bf 400c edbf
00000100: 3c3e ad3a 0f83 42ba 4295 ffbe 8c07 50bc
00000110: 0a51 923e e255 813e 282f 663f 3937 55bd
00000120: 600a 99bc bd8e 8bbf b822 923e a10f 53ba
00000130: 4d7c 9dbc 1535 78c0 c477 59bc f67b a0bb
00000140: 0193 20bd d3bd 6fbc 3aad 38bf 8ef5 c1bd
00000150: 1fd2 7eba 5e8c e9be 626d bdbb 71a2 25be
00000160: 1a3d 6abd 1fa1 de3e 5f88 623f c957 94ba
00000170: 00fa 49bb b3e7 9fbf 7d16 d8bc 39c7 1cbe
00000180: 13d8 0bbf 9a62 0ebb 8957 13bb 24f8 84bd

weight f4 [100, 100]
0.10689338 -0.11517436 0.034203243 0.14540857 0.02879505 -0.10899777 -0.04312057 0.058120158
0.0008702837 -0.029958509 -0.034676448 -0.017024193 -0.13121459 -0.09363618 -0.07464996 -0.25652155
0.28607908 -0.09902218 0.18870786 0.029372036 -0.078176886 0.27923328 -0.19705248 -0.10247314
-0.19693673 -0.09887256 0.108072706 -0.14433363 0.038347766 0.13924101 0.1803934 -0.15603322
0.13153483 0.07745982 -0.004423957 0.06809473 -0.04828167 0.1639156 0.2036741 -0.07849354
-0.12325993 -0.12614933 0.13260658 -0.100888126 -0.15125677 -0.41429245 -0.3984031 0.13993777
-0.0422298 0.01295333 -0.25001553 -0.29697177 -0.015478525 0.022333588 0.1350227 -0.3542156
-0.36531737 0.026985692 0.11008432 -0.093072996 -0.22793697 0.058365706 -0.017107172 -0.02304849
0.042059537 0.12721409 -0.16097756 0.072873056 0.15318403 0.055796303 0.22735399 0.06504047
-0.025913931 0.0260162 -0.12689687 0.016497055 0.11040361 -0.14955401 -0.010874908 -0.15212733
-0.06462682 0.26268858 -0.09249156 -0.13463737 -0.37363908 0.17924021 0.2638205 0.01581511
0.16811126 -0.19116971 -0.0074372436 -0.020969916 0.12055223 -0.12360426 -0.003614496 -0.21159671
0.0072017373 -0.29773474 0.20670561 0.1078659 0.04957997 -0.0052012308 -0.04275476 -0.021482984
0.11239929 0.06471611 -0.026074225 -0.008525146 0.15028332 -0.021307535 0.070629455 -0.006165679
0.111338995 0.06771581 0.058287818 -0.13739687 0.020170642 -0.17466722 -0.0013322342 0.13316382
-0.050534047 0.03113592 -0.029162295 0.2070614 0.12606715 0.05100432 0.11173678 -0.021760862
0.019344645 0.045937557 -0.028028267 -0.0042001423 0.032456424 -0.2210329 -0.26115346 -0.0026605162
-0.08532534 -0.067620724 0.043483227 0.016313916 0.17256953 0.048406135 -0.08672732 -0.27121672
0.046557818 -0.029702969 0.072342604 -0.0312444 -0.11132644 -0.02174339 -0.013336311 0.14899643
0.0039092465 0.060264233 -0.007305498 0.045406874 0.032122724 0.028517975 0.05740728 0.04444105
-0.041150503 -0.012828694 -0.042759623 0.09949112 -0.0055173654 -0.08089549 -0.10438278 0.052788466
0.023311093 0.19050856 0.1356389 -0.1304171 -0.091862045 -0.030698871 0.08389505 -0.018973092
-0.09410539 0.078939095 -0.005995099 -0.06623673 0.0016813597 0.11283734 -0.0068870904 0.11530538
-0.05782108 -0.11080234 -0.043913778 -0.008759698 -0.028393028 -0.029056003 -0.044618424 0.010690439
0.119828574 0.050712503 0.005115732 0.014126976 0.03931275 0.07935775 -0.12753923 -0.06859289
0.12099972 0.044374753 -0.010206084 0.13220976 0.04290954 0.02565186 -0.101211816 0.073781334
0.15283443 -0.108325414 0.005535852 -0.29652637 0.04404962 0.13117279 0.010951757 -0.07783327
-0.0069259005 -0.091407605 0.056540996 -0.06504625 0.008112438 0.048412953 -0.09716487 0.03681406
0.044759154 -0.020429159 0.028518163 -0.1582138 0.007962071 0.14699696 -0.11660567 0.034662005
-0.04671643 -0.1591077 -0.019509276 -0.040669497 -0.048088085 -0.05955807 0.06834499 0.027931172
-0.08887096 0.008145322 -0.050472595 -0.0710475 -0.03442694 -0.11950704 0.06829234 -0.069777824
-0.004117911 0.051541496 -0.017572468 0.05112708 -0.18283297 -0.016442701 0.12531178 -0.02844453
00000000: ebea da3d 89e0 ebbd b318 0c3d fce5 143e
00000010: 99e3 eb3c 393a dfbd 329f 30bd 670f 6e3d
00000020: c023 643a 8c6b f5bc e408 0ebd 5276 8bbc
00000030: 1e5d 06be 53c4 bfbd 14e2 98bd cb56 83be
00000040: f578 923e 24cc cabd a23c 413e a09d f03c
00000050: 341b a0bd aaf7 8e3e 20c8 49be 70dd d1bd
00000060: c8a9 49be b27d cabd 3955 dd3d 32cc 13be
00000070: 8c12 1d3d 3295 0e3e 0cb9 383e 2cc7 1fbe
00000080: 11b1 063e 41a3 9e3d d7f6 90bb 4075 8b3d
00000090: 00c3 45bd 7ed9 273e f18f 503e 39c1 a0bd
000000a0: b46f fcbd 4a2d 01be 05ca 073e 6f9e cebd
000000b0: 0ee3 1abe 241e d4be 7efb cbbe d94b 0f3e
000000c0: 28f9 2cbd 343a 543c 0902 80be af0c 98be
000000d0: a499 7dbc eef4 b63c 6443 0a3e bf5b b5be
000000e0: e10a bbbe 1911 dd3c e373 e13d 0e9d bebd
000000f0: 4f68 69be e110 6f3d 5724 8cbc 30d0 bcbc
00000100: 9f46 2c3d 6944 023e 4dd7 24be 783e 953d
00000110: 46dc 1c3e aa8a 643d 7ccf 683e f033 853d
00000120: 7449 d4bc ed1f d53c 41f1 01be d524 873c
00000130: 4a1b e23d b024 19be ac2c 32bc 44c7 1bbe
00000140: 115b 84bd 1e7f 863e 376c bdbd 61de 09be
00000150: 9f4d bfbe bf8a 373e 7b13 873e b18e 813c
00000160: 5c25 2c3e fec1 43be 1fb4 f3bb 1ac9 abbc
00000170: 16e4 f63d 3b24 fdbd 2ee1 6cbb cfac 58be
00000180: 8dfc eb3b b070 98be a3aa 533e cce8 dc3d
00000190: 5e14 4b3d 166f aabb 9d1f 2fbd 15fd afbc
000001a0: 9931 e63d e189 843d 9d99 d5bc 0ead 0bbc
000001b0: dfe3 193e 248d aebc 2da6 903d 7709 cabb
000001c0: b305 e43d 96ae 8a3d 35bf 6e3d c4b1 0cbe
000001d0: e73c a53c f7db 32be 5d9e aeba 195c 083e
000001e0: cafc 4ebd c210 ff3c c4e5 eebc e707 543e
000001f0: bf17 013e e8e9 503d 41d6 e43d d643 b2bc
00000200: a978 9e3c 0529 3c3d 899b e5bc 59a1 89bb
00000210: 07f1 043d 7356 62be e8b5 85be 0e5c 2ebb
00000220: 0dbf aebd bc7c 8abd 781b 323d c3a4 853c
00000230: 11b6 303e 8345 463d 189e b1bd ebdc 8abe
00000240: 69b3 3e3d a453 f3bc 5c28 943d 42f4 ffbc
00000250: 1eff e3bd 321f b2bc 8b80 5abc 8592 183e
00000260: 2319 803b a1d7 763d f562 efbb 8ffc 393d
00000270: 1e93 033d 879e e93c e523 6b3d d207 363d
00000280: 6e8d 28bd 712f 52bc b724 2fbd 00c2 cb3d
00000290: 04cb b4bb 89ac a5bd a4c6 d5bd b838 583d
000002a0: e8f6 be3c ad14 433e ece4 0a3e 0f8c 05be
000002b0: 2b22 bcbd 337c fbbc 2bd1 ab3d 756d 9bbc
000002c0: 54ba c0bd d2aa a13d 8972 c4bb 1fa7 87bd
000002d0: 1261 dc3a 4317 e73d 1aad e1bb 3a25 ec3d
000002e0: ccd5 6cbd 56ec e2bd efde 33bd d684 0fbc
000002f0: 7f98 e8bc db06 eebc cfc1 36bd f326 2f3c
00000300: af68 f53d eab7 4f3d dfa1 a73b d574 673c
00000310: 6806 213d 5186 a23d a599 02be 6e7a 8cbd
00000320: b4ce f73d 4dc2 353d 6b37 27bc ff61 073e
00000330: eac1 2f3d d923 d23c 2448 cfbd ab1a 973d
00000340: a180 1c3e b7d9 ddbd 1866 b53b 4ed2 97be
00000350: 606d 343d 2952 063e 006f 333c 0d67 9fbd
00000360: aaf2 e2bb e933 bbbd 8897 673d f836 85bd
00000370: 08ea 043c a94c 463d 60fe c6bd 57ca 163d
00000380: 6055 373d 0d5b a7bc ec9e e93c cc02 22be
00000390: 5973 023c 5f86 163e f4ce eebd bff9 0d3d
000003a0: ba59 3fbd 21ed 22be ebd1 9fbc 0f95 26bd
000003b0: 03f8 44bd 2af3 73bd 75f8 8b3d eacf e43c
000003c0: fa01 b6bd f573 053c 5abc 4ebd 5a81 91bd
000003d0: 4303 0dbd 1bc0 f4bd dbdc 8b3d ade7 8ebd
000003e0: 8bef 86bb 2d1d 533d 23f4 8fbc a16a 513d
000003f0: 9138 3bbe d8b2 86bc bb51 003e 8104 e9bc

bias f4 [100]
0.5475699 0.5991612 0.16022904 2.2030885 -0.45892873 1.1782442 0.0043104272 1.7683507
3.662216 -0.07399967 -1.176679 -0.6753491 1.1751809 0.7057188 1.6282903 0.19896734
1.1516246 -0.96445507 1.1511028 1.4917809 1.8586278 2.3969958 0.6984539 -0.30489415
1.3249639 2.1903708 0.68566316 1.8166273 0.66543597 1.1574441 0.49056935 0.5510786
1.6771606 0.27608523 0.28860778 1.4425951 -0.15213957 0.6088426 1.8602806 1.4921563
-1.0689944 0.48176062 -0.61558646 1.3504078 -0.10681345 0.25816226 1.5875736 0.20216788
0.7523092 2.4228013 0.65786755 0.4701436 0.0948137 0.9343425 -1.0911413 -0.0024604746
0.88036084 0.459782 1.7338595 0.59081733 0.7249482 0.9563114 -0.72548985 2.814277
-0.47211137 0.9419935 0.6536119 0.96483606 2.0151684 1.1649171 1.7505156 1.546422
1.9373614 0.27254894 -1.3665453 0.13814801 -0.46509388 3.349287 1.6878338 1.4408963
0.78938115 -0.022303948 1.1548961 1.1756812 0.035689194 3.1418338 0.63272446 1.893192
0.32028154 2.6077442 1.4645271 1.2172221 0.6139608 1.4072598 1.2372787 0.6040776
2.5658174 0.86814815 0.9527795 -0.5436025
00000000: 8a2d 0c3f a162 193f 1513 243e 67ff 0c40
00000010: b5f8 eabe b5d0 963f 7c3e 8d3b 5159 e23f
00000020: bf61 6a40 248d 97bd 6b9d 96bf aee3 2cbf
00000030: 546c 963f fda9 343f d16b d03f 18be 4b3e
00000040: 6f68 933f 87e6 76bf 5657 933f adf2 be3f
00000050: 84e7 ed3f 6168 1940 e0cd 323f 161b 9cbe
00000060: 6b98 a93f 092f 0c40 9f87 2f3f 3e87 e83f
00000070: 035a 2a3f 2127 943f e82b fb3e 7d13 0d3f
00000080: 33ad d63f 0b5b 8d3e 66c4 933e f5a6 b83f
00000090: 7aca 1bbe 1cdd 1b3f ad1d ee3f fafe be3f
000000a0: cfd4 88bf 54a9 f63e 1397 1dbf 2ada ac3f
000000b0: 03c1 dabd d82d 843e 9d35 cb3f 1905 4f3e
000000c0: 5697 403f 2d0f 1b40 026a 283f a9b6 f03e
000000d0: af2d c23d 1231 6f3f 85aa 8bbf ea3f 21bb
000000e0: 545f 613f 8c68 eb3e 1cef dd3f ce3f 173f
000000f0: 3596 393f d3d0 743f b4b9 39bf 1d1d 3440
00000100: 95b8 f1be 7c26 713f 1c53 273f 7fff 763f
00000110: 85f8 0040 011c 953f e510 e03f 28f1 c53f
00000120: 75fb f73f 898b 8b3e f5ea aebf ac76 0d3e
00000130: c920 eebe b85a 5640 f00a d83f 4a6f b83f
00000140: e214 4a3f c5b6 b6bc a3d3 933f b97c 963f
00000150: d52e 123d ce13 4940 3bfa 213f 1e54 f23f
00000160: f1fb a33e 48e5 2640 a075 bb3f efcd 9b3f
00000170: 892c 1d3f 1721 b43f 265f 9e3f d4a4 1a3f
00000180: 5a36 2440 f53e 5e3f 5be9 733f 8929 0bbf

weight f4 [14, 100]
-0.14438814 0.043388855 -0.062548764 -0.32219598 0.01036153 -0.66774863 -0.0016391195 -0.07790506
-0.2758875 0.024161886 0.046781182 0.007931824 -0.38247502 -0.27085844 -0.050682776 -0.010140207
-0.04434207 -0.01722911 0.03687858 -0.27851114 0.008107331 -0.03111898 -2.9717002 -0.0037710005
-0.03950469 0.11235971 -0.1381018 0.011223254 0.0032132803 0.77623105 0.034742873 0.02048217
0.018233633 0.023042245 0.028519753 -0.006240514 -0.030210044 0.102821074 0.09474579 0.2844046
0.02186738 -0.0029204555 -0.0024188594 -0.021411456 0.03073784 -0.030847672 0.21338643 -0.022826238
-0.04943708 -0.012694964 -0.06313818 0.05640166 0.23448347 0.112724096 -0.014841071 -0.48566398
0.035277735 0.013864308 -0.5003386 -0.017030295 0.027313992 -0.091176525 -0.056294095 0.027412966
-0.030843409 0.031887993 0.2737082 -0.028214714 -0.25595602 -0.063962504 -0.07841892 -0.059590183
-0.043658804 0.0058597676 -0.012382114 0.011701701 0.030740239 -0.08073016 0.019587655 -0.77083296
-0.07392196 -0.043283224 0.053092983 0.03395119 0.052362755 0.011458698 -0.043067776 -0.09792128
-0.08868626 0.045632325 -0.018252194 -0.020734794 -1.3577664 0.050811473 -0.01075815 0.02780043
0.044192597 0.021829424 -0.89895666 0.030412225 -1.0437468 0.024335597 -0.054989234 -0.10525045
0.061654415 -0.7519587 -0.025592193 -0.12123662 -0.07431809 0.07487243 0.05897284 -0.028361779
-0.18657322 -1.6587336 -0.08492991 0.05868421 1.7309942 -0.059392676 0.028843114 -0.31727618
0.003406067 -0.041296665 -4.329884 0.048264705 0.08520039 0.10696713 3.3926122 0.0021138876
-0.030618375 -0.011562536 -0.004637475 0.047917634 0.0093555255 -0.009469101 -0.046956822 0.03866648
-0.024001459 0.04765763 -0.01964942 -0.05067243 -0.018580375 -0.019775258 -0.02325982 -0.078258
0.0152379265 -0.043736376 0.16210768 -0.0020684819 -0.036816232 -0.022716153 0.4414842 0.038103692
0.10779827 0.08258935 -0.054465458 2.0346596 0.024614044 0.006124858 -0.3424787 0.00909932
0.0042146016 -0.0687552 -0.047738083 0.057688028 -0.012859245 0.052696776 0.32999712 0.75605893
-0.07177839 0.0051614796 0.038461037 -0.055468116 0.064324886 0.018721988 0.04243692 -0.008572104
-0.0014640868 -0.07358791 -0.003916112 -1.0020393 -0.04176701 -0.03837124 0.049804226 0.08227626
0.052220125 -0.120514736 -0.054592352 -0.12304001 -0.03171391 0.039447602 -0.001313187 -0.013491906
-1.3497133 0.28689533 0.0025113486 0.012118328 -0.01553366 0.022944914 -1.1365885 0.022459108
0.8021044 0.025160858 -0.04699596 -0.10728202 0.02666499 -1.4276725 -0.02925435 -0.24721152
-6.305399e-05 -0.09799377 -0.07348196 0.04382805 -0.4665377 0.40125272 0.016303765 -0.039254572
-0.08449171 -0.04657985 0.011394091 -0.21600439 0.0932216 0.057830606 -3.106813 -0.0015521146
-0.05448707 0.03841732 -2.9606318 0.03756268 0.06732769 0.80977744 0.09063553 0.026939927
-0.023062691 -0.0246392 0.036135014 0.031594258 -0.057739645 0.14025277 0.11947829 0.25160703
0.04706314 0.005393564 0.009964951 -0.029484352 0.02374261 0.046835236 -0.31684843 2.862328
0.04300301 -0.0073444964 -0.3772385 0.026273606 -0.020463504 -0.03794655 0.024332553 -1.126351
00000000: 7cda 13be 83b8 313d 9119 80bd dff6 a4be
00000010: 68c3 293c 93f1 2abf b9d7 d6ba b08c 9fbd
00000020: 2041 8dbe 26ef c53c a09d 3f3d 7bf4 013c
00000030: c4d3 c3be f5ad 8abe be98 4fbd 1c23 26bc
00000040: 08a0 35bd 1024 8dbc fe0d 173d 0399 8ebe
00000050: 9cd4 043c 3bed febc 5630 3ec0 e422 77bb
00000060: abcf 21bd d91c e63d 8f6a 0dbe bde1 373c
00000070: e695 523b 14b7 463f 8b4e 0e3d 39ca a73c
00000080: b35e 953c 17c3 bc3c 42a2 e93c 3a7d ccbb
00000090: 0e7b f7bc db93 d23d 150a c23d 7b9d 913e
000000a0: 3823 b33c 1d65 3fbb ba85 1ebb 1467 afbc
000000b0: eccd fb3c 42b4 fcbc f981 5a3e 17fe babc
000000c0: 897e 4abd 8afe 4fbc 974e 81bd 6d05 673d
000000d0: 6f1c 703e e4db e63d f727 73bc f3a8 f8be
000000e0: 637f 103d 1f27 633c 3116 00bf 1e83 8bbc
000000f0: 98c1 df3c c2ba babd a394 66bd 2891 e03c
00000100: 51ab fcbc fc9c 023d 7b23 8c3e 8b22 e7bc
00000110: ab0c 83be c6fe 82bd 199a a0bd d614 74bd
00000120: 93d3 32bd 4b03 c03b 5ade 4abc 7eb8 3f3c
00000130: f4d2 fb3c db55 a5bd 4a76 a03c 4f55 45bf
00000140: 6664 97bd c049 31bd 0778 593d 6710 0b3d
00000150: 547a 563d 43bd 3b3c d667 30bd f48a c8bd
00000160: 24a1 b5bd f6e8 3a3d a085 95bc 04dc a9bc
00000170: 4acb adbf b11f 503d f442 30bc babd e33c
00000180: 4c03 353d 9fd3 b23c 0622 66bf 0f23 f93c
00000190: 7f99 85bf 725b c73c 643c 61bd 8c8d d7bd
000001a0: 5789 7c3d 5e80 40bf b8a6 d1bc e84a f8bd
000001b0: 1534 98bd b756 993d 818d 713d f656 e8bc
000001c0: 0d0d 3fbe 6251 d4bf bcef adbd db5e 703d
000001d0: 3891 dd3f bc45 73bd 6548 ec3c 0672 a2be
000001e0: 5238 5f3b b126 29bd 698e 8ac0 36b1 453d
000001f0: 8b7d ae3d 9511 db3d 8f20 5940 2689 0a3b
00000200: 63d3 fabc ca70 3dbc f6f5 97bb 4845 443d
00000210: eb47 193c 4a24 1bbc cc55 40bd be60 1e3d
00000220: b59e c4bc a634 433d d2f7 a0bc e58d 4fbd
00000230: df35 98bc b9ff a1bc 618b bebc bb45 a0bd
00000240: 7fa8 793c ea24 33bd 8eff 253e 5e8f 07bb
00000250: 9ecc 16bd 3a17 babc 380a e23e 9e12 1c3d
00000260: 57c5 dc3d 9b24 a93d 2c17 5fbd dd37 0240
00000270: 64a3 c93c 08b3 c83b 5e59 afbe 5015 153c
00000280: a41a 8a3b 87cf 8cbd 0289 43bd 484a 6c3d
00000290: 95af 52bc 93d8 573d 62f5 a83e 148d 413f
000002a0: 8c00 93bd a121 a93b 5289 1d3d 8932 63bd
000002b0: c4bc 833d db5e 993c 56d2 2d3d 0372 0cbc
000002c0: 9ae6 bfba 42b5 96bd ba52 80bb d342 80bf
000002d0: e213 2bbd 292b 1dbd 84ff 4b3d 7580 a83d
000002e0: c5e4 553d 6ed0 f6bd 3b9c 5fbd 67fc fbbd
000002f0: 72e6 01bd cf93 213d 3e1f acba 280d 5dbc
00000300: 68c3 acbf f2e3 923e 7095 243b f48b 463c
00000310: e480 7ebc f9f6 bb3c bb7b 91bf 2afc b73c
00000320: b756 4d3f 251e ce3c d67e 40bd adb6 dbbd
00000330: 8970 da3c f9bd b6bf d2a6 efbc 0425 7dbe
00000340: da3b 84b8 f5b0 c8bd b67d 96bd 0b85 333d
00000350: 08de eebe ff70 cd3e 798f 853c 67c9 20bd
00000360: fd09 adbd 83ca 3ebd 48ae 3a3c 4130 5dbe
00000370: f7ea be3d c9df 6c3d 06d6 46c0 5370 cbba
00000380: d52d 5fbd 7b5b 1d3d fe7a 3dc0 53db 193d
00000390: 1ae3 893d 934d 4f3f 1f9f b93d 1fb1 dc3c
000003a0: f8ed bcbc 26d8 c9bc 4f02 143d fb68 013d
000003b0: 6880 6cbd 6c9e 0f3e 09b1 f43d a3d2 803e
000003c0: 47c5 403d 7ebc b03b 0944 233c 2b89 f1bc
000003d0: dd7f c23c 4ed6 3f3d f539 a2be 6230 3740
000003e0: ed23 303d 1aaa f0bb 6825 c1be bf3b d73c
000003f0: 14a3 a7bc d76d 1bbd 1055 c73c 452c 90bf

bias f4 [14]
0.7875208 0.39727268 -0.22870055 0.05646377 0.34457806 0.034809396 -0.5678548 -1.3513008
-1.0618004 -0.53335947 -0.6524712 -1.3364615 0.1981502 -1.9283309
00000000: f79a 493f 5367 cb3e 7a30 6abe 8e46 673d
00000010: 896c b03e 4c94 0e3d ef5e 11bf 6df7 acbf
00000020: 13e9 87bf 3f8a 08bf 5a08 27bf 2c11 abbf
00000030: e3e7 4a3e 8cd3 f6bf
