trainingOnSyntheticData/results/20230803_162736_train_local/model_training_set_size_100000_hidden_neurons_200_n_batches_100.pt (torch, 336407 bytes, 6 tensors)

weight f4 [200, 200]
000000 dd 6e 27 3c 27 e5 a0 3c 40 cd cf bc 27 d9 78 3d
       0.010219303 0.019640518 -0.025366426 0.060753968
000010 87 2a 97 bd e4 6b 34 3d b8 85 95 3d 6c d2 be bb
       -0.07381158 0.044048205 0.073008955 -0.005823424
000020 05 d9 16 3c f9 5e 76 3c 42 81 28 bd b3 bf 81 3d
       0.009207015 0.015037292 -0.041138895 0.06335392
000030 fc df b9 bc c9 5e ee bc 93 00 70 3d 2f 34 1d 3d
       -0.022689812 -0.029097931 0.058594298 0.038379844
000040 27 74 ba bc d2 fc 78 3d 21 82 cf bd e8 80 77 bd
       -0.022760464 0.060787983 -0.10132242 -0.06042567
000050 7e af 90 bc 17 38 99 bc 9e 9a 61 bd 2e 2a 21 bd
       -0.017661806 -0.018703504 -0.055079095 -0.039346866
000060 a9 41 3b bc 7f 97 88 bc 8d 7e 80 bd fe 98 a5 3d
       -0.011429229 -0.016673801 -0.06274138 0.080858216
000070 2b 23 6b ba 7a 61 c3 bc 3a c7 88 3d 7e 1c 3e 3d
       -0.0008969779 -0.023850191 0.066786245 0.04641389
000080 d7 4f fa 3b 60 18 59 bd 87 87 cd ba 63 d7 05 bd
       0.007638912 -0.05300176 -0.0015680649 -0.032676112
000090 bf e9 00 3d 49 25 1d bd ed 05 85 3c a4 d8 37 3d
       0.031472918 -0.038365636 0.016238177 0.04488434
0000a0 dd a3 c9 3b a2 60 e7 3b 25 a5 11 bc 21 5a ab b9
       0.006153567 0.00706108 -0.008889471 -0.00032682813
0000b0 55 bf 3e bd 4d 79 8c bd c6 3e 09 bd 32 b2 24 bb
       -0.046569187 -0.06859074 -0.03350713 -0.0025130627
0000c0 ff 31 b8 3d eb 2c 55 3c 4e ba a1 3c e9 25 58 bc
       0.08993911 0.013011198 0.019742157 -0.013192632
0000d0 91 2e 40 3d 81 f8 c1 3c 08 c7 44 bc fd 89 6f bc
       0.04691941 0.023678066 -0.012010343 -0.014620301
0000e0 2b 97 be 3d f5 08 53 bd 96 23 80 bc 2e 0c 9e bc
       0.09306177 -0.051522214 -0.015641969 -0.019292917
0000f0 6e f0 93 3d f4 7f a9 3d fa 49 ae 3c 91 5d 51 bd
       0.07223593 0.08276358 0.02127551 -0.051114623
000100 a2 f9 be 3d fa 13 80 bd 86 fe 0c bc 18 fc 99 bd
       0.093249574 -0.0625381 -0.008605605 -0.07518786
000110 38 06 a8 3d ba 94 ad 3d 75 b1 6b 3c 8d 22 c2 bd
       0.08204311 0.08475633 0.014385571 -0.09479246
000120 90 cc 89 3b cf 7b 99 3d f1 cd 44 3d b9 e3 a4 bd
       0.004205294 0.07494318 0.048047964 -0.08051247
000130 6c 33 9b bd 8f 4d cb bd 75 b5 04 3c c8 89 52 bd
       -0.07578167 -0.099269025 0.008099903 -0.05140093
000140 4f 1e 78 3d e6 45 8c 3b 6c dc 99 3c 2a b9 88 3c
       0.06057578 0.0042807935 0.018781863 0.016689856
000150 04 c4 22 3e ef 78 fd 3d f3 d9 0c bd 41 5b bf 3d
       0.15895087 0.12376582 -0.03438754 0.09343577
000160 97 27 4b bc dc 12 71 3c 67 a7 42 3e af 5a 02 3e
       -0.012399576 0.014713969 0.19009171 0.12729906
000170 24 9b fa 3d 73 13 b7 3d c2 67 20 3d d2 41 33 3d
       0.12236622 0.089392565 0.03916145 0.043763943
000180 96 f5 36 3d 0c fa 67 3d e0 ab cf 3d 49 72 c1 3d
       0.044667803 0.056634948 0.101402044 0.09445626
000190 f1 28 d6 3e 2e ad 60 bc ca 2e 63 bc f2 24 b4 bd
       0.4182811 -0.013713164 -0.013866136 -0.08796109
0001a0 83 71 bd 3c 36 ff 2a 3e 8e c6 0f 3e be e1 31 3c
       0.023125416 0.16698918 0.14040586 0.010857044
0001b0 55 8d c7 3b d1 b3 a3 bd 08 66 15 3c 65 01 86 bd
       0.006089846 -0.07993282 0.009118564 -0.06543235
0001c0 ac 5f 6b 3d 49 0d 89 3d fb 04 1c 3d 68 dd 6c bd
       0.057464287 0.06691987 0.038090687 -0.057828337
0001d0 4c 3e b9 bc e5 f2 66 3c ad 33 90 bd 8c d6 42 bd
       -0.022612713 0.0140959965 -0.070411064 -0.04756789
0001e0 fb 9c 2a 3d e3 39 d6 bc 1a 21 aa bd 62 f2 95 3d
       0.041653614 -0.02615065 -0.08307095 0.073216215
0001f0 2a 61 f2 bd ba a6 6c b8 55 2b 0a be e1 a8 ca bd
       -0.11834939 -5.642206e-05 -0.13493092 -0.09895492
000200 ce 29 42 b9 e8 aa c3 bd 54 1f 12 3e 63 b4 26 be
       -0.00018516855 -0.09554082 0.14269763 -0.1627975
000210 93 21 93 bd 5d 68 70 3c 3f c8 91 bd f6 e6 2b 39
       -0.07184138 0.01467332 -0.07118272 0.0001639387
000220 7b c2 41 3d 28 86 d6 bc 79 31 62 bd bd 82 8b bc
       0.04730461 -0.026187018 -0.055222962 -0.017030114
000230 f2 90 21 bb 5d 04 0d 3d 64 f7 9d 3d e1 76 28 3c
       -0.0024653045 0.03442799 0.07713202 0.010282249
000240 fe ba 95 bd 6a 91 30 bd 54 2d 9f 3d ef b7 b6 bd
       -0.073110566 -0.043107428 0.077723175 -0.08921801
000250 44 a3 c0 3d ba 85 0b bd c5 08 b5 bc c9 f1 b4 bd
       0.094061404 -0.03406308 -0.022098908 -0.08835179
000260 45 69 81 bd 64 b8 b4 ba c7 a3 5b bc 63 cc 14 3c
       -0.06318907 -0.0013787863 -0.013405747 0.009081933
000270 96 26 c6 bc bc cc ed bc 4a a7 4d bd 5b b6 87 3c
       -0.024188321 -0.029028289 -0.050208367 0.016566446
000280 88 dd f4 3b d0 c2 61 3d fa d2 2a 3d f6 b3 14 bc
       0.0074726976 0.05511743 0.04170511 -0.009076109
000290 52 d5 80 3c 41 7a 08 3b 4d 37 e3 39 83 c2 c3 3c
       0.015726719 0.0020824822 0.00043338016 0.023896461
0002a0 f2 dd 74 3b c7 e2 14 3c b4 be 18 3d d5 5e 3e 3d
       0.0037363735 0.009087271 0.037291244 0.046477158
0002b0 c4 e9 68 bc 94 cd 9b 3c a6 ea 57 bd a3 38 9e 3d
       -0.01421589 0.019018926 -0.052714013 0.07725646
0002c0 9f 62 70 bd c3 e9 06 bd bf 3a 9e bd 22 19 93 3d
       -0.058687802 -0.032937776 -0.07726049 0.07182528
0002d0 36 9e 24 3d cb 3c 66 bd 79 38 bd bc 0c da b5 3d
       0.040189944 -0.05621032 -0.023098217 0.0887948
0002e0 43 52 ac 3c 1c 43 b8 3d 3e fb 16 bd 4d 76 62 3c
       0.02103532 0.08997175 -0.036860697 0.01382215
0002f0 11 9b 6f 3b da e7 74 3c b6 d2 b4 3c b7 f1 0f 3d
       0.0036560933 0.014947856 0.022073131 0.035142627
000300 f1 6b 0c 3d f3 bd 17 bd b3 18 9c 3c 1f b3 25 3d
       0.03428263 -0.037046384 0.019054746 0.040454026
000310 ba 11 0d 3d 13 c4 80 bd fa 62 e7 3c a6 9d f0 bc
       0.034440733 -0.06287398 0.028245438 -0.029372048
000320 8b b5 13 bd 7a 0f 5b bb 19 2b b1 3d 14 3a 3c bd
       -0.036061805 -0.0033425973 0.08650798 -0.045953825
000330 6b 49 d7 bc e4 4d fe 3c ff 93 f9 bc 8a ce 81 3d
       -0.026280126 0.031043 -0.030466078 0.06338222
000340 f8 93 38 3c 8f 60 97 bd 7c 29 1d bd ac b7 17 3d
       0.011265747 -0.07391464 -0.03836964 0.037040398
000350 c9 91 c6 bc 4e 74 ac bd 8c a9 68 3d 26 28 80 bd
       -0.024239438 -0.08420621 0.056802318 -0.06257658
000360 74 f6 4b bd 56 de e0 bc e7 6c a5 bd 1a 78 b0 3d
       -0.049795583 -0.027449768 -0.08077412 0.086166576
000370 a1 99 d4 3c 7a ec 9d 3d 0d 21 b4 bc 10 9c 73 3c
       0.025952162 0.0771112 -0.021988416 0.014868751
000380 0f d0 a8 3d 6e c6 47 bd d4 b2 9e bb e4 16 a5 bc
       0.08242809 -0.04877322 -0.0048430953 -0.020152517
000390 46 f8 c7 bd c1 eb 03 3d b0 04 dc bc 0e d4 c1 bd
       -0.09764151 0.032207254 -0.026857704 -0.09464274
0003a0 c7 3b 49 bc 9a 44 d8 bb 7d 3c 13 bd 2f 1d 35 3d
       -0.012282318 -0.006599975 -0.035946358 0.044217285
0003b0 de 84 23 3d 44 bb 77 bb fd c4 05 3d 74 ab 4e bc
       0.039921634 -0.0037800828 0.032658566 -0.01261412
0003c0 50 ed 7b bd a2 81 ff 3d 69 6d 85 b9 69 b8 33 bc
       -0.061505616 0.12475897 -0.00025449254 -0.01096926
0003d0 9a ee 68 bc 81 3d 27 3d 24 fc 73 3d 3b 27 f5 3d
       -0.014217043 0.04083014 0.059566632 0.11970373
0003e0 a6 83 16 3d 80 e4 74 bd b3 5d 8e 3d 38 56 9b bd
       0.036746643 -0.059788227 0.069514655 -0.07584804
0003f0 fd 2a b8 bd dd a8 9a 3d 66 96 fb 3b d3 4d 97 3b
       -0.08992574 0.07551739 0.007677841 0.0046174317

bias f4 [200]
000000 cc 29 a1 be 7a 2c fc 3b 10 53 47 ba 9f cb 85 3d
       -0.314772 0.0076957317 -0.0007603625 0.06532978
000010 90 cf 06 3b 6f 47 32 bb bc e9 3d ba 08 89 f5 3f
       0.0020570494 -0.0027203222 -0.0007244607 1.9182444
000020 aa 3b 9a bb d2 f7 9a bf 9e 38 f8 bf 66 01 5c ba
       -0.0047068195 -1.2106879 -1.9392278 -0.00083925424
000030 73 e3 dc ba 39 93 01 3c fb 24 eb 3e 56 9c 19 3d
       -0.0016852453 0.007908636 0.4592665 0.03750261
000040 b5 88 3c b9 dc 74 45 3e 69 8b 36 bf 7c 78 5e bb
       -0.00017980004 0.1928286 -0.71306473 -0.0033946326
000050 54 7d 50 bb 77 3c 90 3f e5 ae 0a bb a7 10 15 3e
       -0.0031812983 1.1268452 -0.0021161374 0.14557134
000060 a5 8e d0 bd da 78 3b bc 6e 7c 91 38 40 c4 88 b9
       -0.10183457 -0.0114423875 6.9373156e-05 -0.0002608616
000070 e7 3d 9f 3f 53 46 dd bd 9f 6f c1 3d ae 16 0a 3e
       1.2440766 -0.10804429 0.09445118 0.13485214
000080 a7 2f 86 3f c0 59 dd b9 b2 c0 e8 b9 a6 61 8e 3c
       1.0483292 -0.00042219274 -0.00044394057 0.017380547
000090 b2 c4 91 bc 22 4b 0f ba 19 56 40 ba 23 da 66 bf
       -0.017793987 -0.0005466213 -0.00073370483 -0.901766
0000a0 2a 32 a5 bf 30 72 9d bf 07 41 92 3f d9 e0 c3 be
       -1.2905934 -1.2300472 1.1426095 -0.38257483
0000b0 65 b9 c5 bc 29 8c 00 c0 25 b9 b8 bb 8e 55 a9 3c
       -0.024136255 -2.0085547 -0.0056373053 0.020670678
0000c0 49 f0 31 3f 5c 9e d5 b9 9c ce be 37 b8 7c d4 3f
       0.6950727 -0.00040744513 2.2745975e-05 1.6600561
0000d0 95 c1 9a 3e 85 9e 22 bf ff 81 ee b9 85 2c 81 3f
       0.30225816 -0.6352313 -0.00045491752 1.0091711
0000e0 aa 5b 55 40 90 a7 6d 3d 82 08 05 c0 70 5d 65 b9
       3.3337197 0.05802113 -2.0786443 -0.0002187395
0000f0 88 60 a0 bd 19 21 78 3f da 6a e1 be b6 98 59 3f
       -0.07830912 0.96925503 -0.44026834 0.84998643
000100 02 07 f4 bd 28 1f 88 bf dd 8e a6 3e ef b4 e4 3d
       -0.11915399 -1.0634508 0.3253087 0.11167323
000110 87 ee ce bf 15 80 8d bf 91 c0 17 bb d6 da 94 3a
       -1.6166543 -1.1054713 -0.002315555 0.0011356722
000120 85 df 13 3e 17 20 9e be 2f 94 1e 3f c2 d7 93 3f
       0.14440735 -0.30883858 0.6194486 1.1550219
000130 9b e9 08 bf 86 f1 a0 be 90 4a a5 bd fe 9b 3f ba
       -0.53481454 -0.31434268 -0.08070862 -0.00073093164
000140 ba be 80 b9 87 ee aa ba cb 1c dd bd 83 ff ef bf
       -0.00024556165 -0.0013041057 -0.107965074 -1.8749851
000150 c5 1d 6c b9 41 9e a0 bf 16 50 72 3d fe 21 3b b8
       -0.00022517804 -1.2548295 0.059158407 -4.4615932e-05
000160 81 0f c2 3d e4 f1 e9 3d 12 8b c3 3e 07 42 f4 3e
       0.094756134 0.1142309 0.3819204 0.47706625
000170 42 a3 4f 3c e6 05 71 bf 97 ca 1c bd 99 cc 17 40
       0.012673201 -0.94149625 -0.038279142 2.3718626
000180 ab 0f cf 3f 48 b2 65 3f ea e5 00 bd 8e 0d 99 bf
       1.6176656 0.8972516 -0.031469263 -1.1957262
000190 4d 5d 9d 3c 86 7e c4 bd 27 53 0c 3f f7 95 f0 bf
       0.019209528 -0.09594445 0.5481438 -1.8795766
0001a0 dc 74 2a 39 5a da 5c 3b e4 b6 b8 bb 49 20 2f b8
       0.00016255997 0.0033699484 -0.0056370366 -4.175332e-05
0001b0 11 f0 f9 bc 2d 71 52 bc 1e bc 55 bb 3a 74 eb bb
       -0.03050998 -0.012844366 -0.0032613347 -0.007185486
0001c0 a3 c9 92 3c b8 0b 59 bf bd 95 ae bc ae 1b 1e be
       0.017918414 -0.84783506 -0.021311635 -0.15440246
0001d0 38 86 00 bd 24 98 e2 39 e3 25 14 bc 11 72 02 3e
       -0.031378 0.00043219433 -0.009042236 0.12738825
0001e0 66 ee 8c 3f ea 6a 67 be e0 2b 62 c0 32 0e fc ba
       1.1010253 -0.22599378 -3.533928 -0.0019230305
0001f0 b0 9d a8 39 a3 e2 13 3f ca 07 fb b9 92 57 86 bc
       0.00032160943 0.57767695 -0.00047880254 -0.016399179
000200 7d 93 5f bf 71 4f 40 3f b7 14 84 bb 77 ba cb ba
       -0.87334424 0.7512122 -0.0040307897 -0.0015543242
000210 3e c1 cd b9 ca d6 97 be 2c 04 c5 3f 84 3c fd bc
       -0.00039244624 -0.2965606 1.5391898 -0.030912645
000220 e0 a8 88 3c 9e c9 c3 3f 2c 08 d7 ba ea a7 bc bf
       0.016682088 1.5295904 -0.0016405634 -1.4738743
000230 8c 48 ae bc ca b1 00 38 98 e8 e0 be a9 84 1b be
       -0.021274827 3.0683157e-05 -0.43927455 -0.15187325
000240 bb 9c a0 b9 6e c2 3b be 8b 82 e4 3a 2d d0 a6 bd
       -0.0003063435 -0.18335888 0.0017433924 -0.08145175
000250 21 bd 6f bf c1 1f 82 3b a3 74 1b 39 aa bb df bf
       -0.9364796 0.0039710705 0.00014825402 -1.7479146
000260 f1 77 ae 3f bc e2 65 ba b9 c3 a9 bd 99 94 a0 3f
       1.3630353 -0.0008769443 -0.08289284 1.2545348
000270 1f 21 08 bc 38 34 19 3f b2 e7 33 3e ba f4 36 3f
       -0.008308678 0.59845304 0.17568853 0.71467173
000280 d2 d2 1f be a9 3f f7 be e6 0f 17 bc 93 f3 f2 bf
       -0.15607765 -0.48290756 -0.009220099 -1.8980583
000290 0a db fe bd 76 9f 46 3c fb b0 4a c0 9d 13 f8 3f
       -0.12444122 0.012122979 -3.167052 1.9380985
0002a0 99 a6 4f bf 90 a4 70 ba d3 e0 95 bc f2 ae a5 b8
       -0.8111358 -0.0009179795 -0.018295681 -7.900399e-05
0002b0 48 c7 29 bc 2d f9 89 bb 84 aa bc bc ab ce 7b 3b
       -0.010362454 -0.0042106123 -0.023030527 0.0038422744
0002c0 60 c1 46 bf 70 65 b3 3f 62 f9 ad bc d4 7d 53 bf
       -0.77638817 1.4015331 -0.021237079 -0.82613873
0002d0 e4 e3 70 3f 50 23 40 ba 9c f9 8a bf db bf 54 3f
       0.94097733 -0.0007329481 -1.0857425 0.8310525
0002e0 12 5d 6d ba 86 1a 28 bc c4 6e 55 bc 5f 31 38 3d
       -0.0009054701 -0.01026023 -0.013026897 0.04496896
0002f0 76 82 cd bb 80 28 02 40 ec 90 4b 3e b1 12 49 3e
       -0.0062716557 2.033722 0.19879502 0.19636036
000300 e0 21 8b bc 61 c3 82 3f 43 e4 2d bb b4 bf 86 bb
       -0.016983926 1.0215875 -0.002653376 -0.0041122083
000310 48 ca 3c bf 71 8e 22 c0 d6 12 92 b9 01 cf a8 3d
       -0.73746157 -2.539944 -0.00027861324 0.08242608

weight f4 [200, 200]
000000 05 fe 78 bd fb d3 1d 3d 7f 1f ed 3d 72 d4 68 bd
       -0.060789127 0.03853224 0.11578273 -0.05684323
000010 31 9a 25 bb c0 7a 51 3d 90 31 83 bd 0b 4a ce 3b
       -0.0025268907 0.051142454 -0.06405938 0.0062954477
000020 1b e4 03 3d f2 de 2d bd 4d d3 8e bc 16 b5 b8 3c
       0.03219996 -0.042448945 -0.01743474 0.022547286
000030 ab 8f 00 3e 40 f5 82 bc 32 8a 95 3d fd d6 6e 3d
       0.12554805 -0.015986085 0.07301749 0.058310498
000040 14 e2 09 3e 25 d1 36 3d c5 96 ad 3d a8 83 85 3c
       0.13465148 0.04463305 0.08476023 0.01629813
000050 fb 77 04 bd c6 d4 48 bd f4 f0 d4 bd 0a 80 d7 3d
       -0.032340985 -0.04903104 -0.10397521 0.105224684
000060 d8 7e b0 bd 32 33 17 3d a1 ac ba 3d a8 07 b2 3c
       -0.086179435 0.036914058 0.091149576 0.021732166
000070 c2 21 72 3e 1f 8e 6e bd 28 2a f8 bc 2d 73 c1 3d
       0.2364569 -0.058241006 -0.03029354 0.09445796
000080 e9 3a 2c 3e ca ba a2 bd aa 98 3b bd 2f 31 4d 3c
       0.16819347 -0.079457834 -0.04579989 0.012523933
000090 85 4b 8a 3d 99 c9 e8 3b 38 86 06 be 90 00 b7 3d
       0.067526855 0.0071041104 -0.13137138 0.08935654
0000a0 41 a2 07 3d 26 fc a0 bd 9e 23 ce 3c ac 40 73 bd
       0.03311372 -0.078605935 0.025163468 -0.059387848
0000b0 07 1d 57 bd b4 2c 62 3d 30 ce dc bd 5d 80 54 3d
       -0.052517917 0.055218413 -0.10781515 0.05188023
0000c0 5b 91 2c 3d 54 a5 b8 3c 31 e2 38 ba e9 6f 9e bd
       0.04213081 0.022539772 -0.0007052748 -0.07736189
0000d0 d5 72 74 bc e7 39 8a bd 63 1b 0f be 73 a5 bf 3c
       -0.014919956 -0.06749325 -0.13975291 0.023394322
0000e0 51 d6 f8 3d 48 e4 21 3d 17 7f 70 3d 20 4e 5b bc
       0.121502526 0.039524347 0.058714952 -0.013385326
0000f0 67 49 56 3d 9a 2b ed bc a3 7d bf 3d 82 ff ca bc
       0.052316096 -0.028951455 0.09350135 -0.024780039
000100 78 ca cf 3c d7 10 08 3d f7 0d b3 bc 15 2d 10 bc
       0.0253651 0.033219185 -0.021857245 -0.008799811
000110 73 fd d7 bc f4 72 8f 3d 4e c8 d7 bc d8 6c ce 3c
       -0.026365971 0.070043474 -0.02634063 0.025198385
000120 7d 5f 59 3d 84 aa 7c 3d d9 4a ca bd 46 e3 20 3d
       0.05306958 0.061686054 -0.09877557 0.039279245
000130 43 0b 24 3e 80 22 02 3c 02 62 08 bd 55 6d ab 3d
       0.16019921 0.007942796 -0.033296593 0.08370463
000140 b3 d7 9e 3d 9b b7 c6 bd 16 b6 e5 3d 47 2c a1 3d
       0.07755985 -0.09702989 0.11216371 0.07869773
000150 7f fb 79 bd c1 37 0a 3e b2 96 30 3d 2c 66 3c 3d
       -0.06103086 0.13497831 0.043112464 0.045995876
000160 63 06 7b bc bc d6 a7 3d 15 95 71 bd 7f 72 70 bc
       -0.015321347 0.08195254 -0.058980066 -0.0146757355
000170 43 54 e6 bd f1 ad af 3d b3 9d 46 3d 60 e4 53 3d
       -0.112465404 0.085780986 0.048490237 0.051731467
000180 af b0 5b bd 5f 54 86 bc 25 8b d8 bc 8e 62 2e bc
       -0.053635295 -0.016397653 -0.026433537 -0.010643614
000190 1b d8 c6 3c 57 5f e9 3c a5 aa 06 3e 74 9a eb 3c
       0.024272969 0.028487844 0.13151033 0.028760172
0001a0 fb 28 36 bd 76 f6 37 bd 80 b4 b0 bd 53 e5 80 3d
       -0.044472676 -0.044912778 -0.08628178 0.0629374
0001b0 ac 8f 12 3e 04 a7 8b 3b e2 87 1e bd f5 6f 0f 3d
       0.14312619 0.004261853 -0.038703807 0.03501888
0001c0 88 0e ae 3c 9f 28 6d 3c 37 a8 15 bd b1 22 6a bb
       0.021247163 0.014475017 -0.036537375 -0.0035726244
0001d0 b0 43 5b 3e 62 47 a5 3c 98 87 c5 3b f9 43 ae 3d
       0.2141254 0.02017564 0.006028127 0.085090585
0001e0 d3 cf 3f 3b 4a 0c 00 bd b0 8e 1f 3e 2a ac f7 3c
       0.002926816 -0.03126172 0.15581775 0.030233461
0001f0 52 9a 00 3d 7e 9b d2 bc 53 c2 c8 3d f3 e2 d4 3b
       0.03139717 -0.02570891 0.098026894 0.006496781
000200 d3 e1 46 bd 9d 76 b5 3d 13 f4 4f bd 45 5f 00 3c
       -0.048555207 0.08860514 -0.050769877 0.007835214
000210 e2 a3 2c 3b 05 12 28 3c b6 69 ac bd 19 e2 76 be
       0.00263428 0.010258202 -0.084186 -0.24109687
000220 47 06 58 bd ee 8f de bd b0 33 d8 bc 17 fb bb bd
       -0.05274036 -0.10867296 -0.026391834 -0.09178751
000230 c4 63 43 bd 4f 52 9b 3c 98 c7 2a 3d 6e b2 09 3d
       -0.047702566 0.018960146 0.041694254 0.03361743
000240 cd dc 75 bc fe 7c 36 bd 67 ff c9 bc 10 64 23 bd
       -0.015006256 -0.044552796 -0.024657918 -0.03989035
000250 76 65 8e bc 26 84 9a bc 64 07 87 3d 2d 7a 4b 3d
       -0.017382365 -0.018861841 0.065932065 0.049677063
000260 9d 72 f7 bd 42 f9 9f bd 28 8d ba 3d b9 c8 bb 3b
       -0.120824076 -0.07811214 0.09108955 0.005730715
000270 2c 0d 0b bd e4 f7 a4 bd 1d 16 1f 3c 65 b3 a5 3d
       -0.03394811 -0.08055094 0.009709862 0.080908574
000280 bb c6 87 bc 57 df d8 bd 5a fa 88 bd 04 38 2b 3e
       -0.016574254 -0.10589474 -0.06688376 0.16720587
000290 73 b3 36 bd fb 17 fd 3c 0e 64 20 3e a6 55 fa 3b
       -0.04460473 0.030895224 0.15663168 0.0076396046
0002a0 4b e4 2b bd 15 ae 2d bd 52 aa 35 bd 1e 6d 4d 3c
       -0.041965764 -0.042402346 -0.044351883 0.012538223
0002b0 b9 ca 02 3a 41 29 32 3d 9f 77 f4 3c e4 91 14 3d
       0.00049893145 0.043496374 0.029842196 0.036271945
0002c0 b0 9b 17 3d d1 84 d9 bd 80 b1 23 3e 2d 13 c0 3d
       0.03701371 -0.10621036 0.1598568 0.093786575
0002d0 32 27 f2 bd 4b 99 03 3e 89 a1 e7 3d 3c b1 24 3d
       -0.11823882 0.12851445 0.11310107 0.040208086
0002e0 5a 33 77 3d 2e 9c 73 3d cf f5 b0 bc b6 ec 8b bd
       0.060351707 0.059475116 -0.021601586 -0.068322584
0002f0 9a 7e 51 bd 48 55 38 bd 3f 89 8c 3e 14 02 e6 bc
       -0.051146127 -0.045003206 0.2744846 -0.028077163
000300 e6 b3 11 3d 31 28 a0 3d 82 79 41 bc b2 3f c2 bc
       0.035571955 0.07820166 -0.011808755 -0.023712013
000310 0a 4d 84 bc 26 09 78 3d 6d 27 35 bd 2e 7e 6d bd
       -0.016150016 0.0605556 -0.044227052 -0.057981662
000320 91 41 5e 3d d6 86 29 3d f2 b9 91 3d 44 fa c0 3b
       0.054261748 0.041388355 0.071155444 0.005889209
000330 9e 4a e3 3c 5b 40 5e 3d a8 1d 49 3c 25 06 46 bc
       0.027745541 0.054260593 0.012275137 -0.012086426
000340 4b cf 51 3c de a9 3b be b5 08 81 3d 0c 62 ca 3c
       0.01280577 -0.18326518 0.06300489 0.024704956
000350 f4 c3 fa bc d8 84 9c bc 38 66 69 3d bd c9 aa 3d
       -0.030611016 -0.019106314 0.05698225 0.0833926
000360 af 09 39 bc 53 b2 dd ba 0d a6 37 3d 32 b1 7b 3d
       -0.011293813 -0.0016914107 0.044836093 0.061448283
000370 92 0d 9d bc 0c cb 70 3d 0e 60 2a bd f7 52 a9 bd
       -0.01917151 0.05878739 -0.04159551 -0.082677774
000380 18 fd ab 3a 98 a1 e2 bb dd 2e d7 bd 60 cb fb bc
       0.0013121692 -0.006916236 -0.10506985 -0.030736625
000390 18 27 9f 3d 39 18 5f 3e 3b 4b 6f 3d 03 9a be bc
       0.077711284 0.21786584 0.058421355 -0.023266798
0003a0 14 c3 a0 39 7c c0 44 bc 8f 31 a6 be 53 59 ab bc
       0.00030662923 -0.0120087825 -0.32459685 -0.020916617
0003b0 e1 c7 38 bc 38 6a 32 3c 8e 4d c5 bd f8 8d 3b 3d
       -0.011278124 0.010889582 -0.09633933 0.04578969
0003c0 75 cd 0b bd 2c 5a c7 bd 0c f0 1c 3e 19 bf b8 bd
       -0.034131486 -0.09733996 0.15325946 -0.09020824
0003d0 38 32 43 bd 91 93 46 bd 59 4f ef bd 02 b7 49 bd
       -0.047655314 -0.048480574 -0.11685056 -0.049246795
0003e0 bd 8d 73 bd 37 2c 50 bd 90 90 5c 3d 5b ea aa bc
       -0.059461344 -0.050823417 0.053848803 -0.020863703
0003f0 6f 77 c2 bd ea 60 8a bb c5 e2 f3 bb 69 41 b7 bd
       -0.094954364 -0.004222979 -0.0074428045 -0.08948023

bias f4 [200]
000000 8b d0 81 bf fc bb c1 bd 89 90 d9 3d 0d 17 25 40
       -1.0141767 -0.09459683 0.10623271 2.579532
000010 94 57 41 bf ea a1 82 bf 6a c9 15 bf 14 d2 4a 3f
       -0.7552426 -1.0205662 -0.5851046 0.79226804
000020 31 77 6b 3e fa e1 9e 3d 8e 29 29 3f a4 44 2b 3f
       0.22994687 0.07757945 0.6607903 0.6690161
000030 52 65 88 3f ee 66 50 bf f8 27 8f 3f fc 66 fb 3e
       1.065592 -0.8140706 1.1184072 0.49102008
000040 fe 28 f0 3d 34 d5 d8 3e 4d 30 d1 3f 49 68 85 3f
       0.11726569 0.4235016 1.6342865 1.042245
000050 bd ba 4f 3e 2c 52 91 3f 34 fe 26 40 df f4 11 bf
       0.20286079 1.1353202 2.6092653 -0.5701427
000060 36 02 9c 3f 07 e0 f0 3e 9b 06 66 3a 40 32 85 3e
       1.2188175 0.4704592 0.0008774788 0.260149
000070 65 23 a4 3f a6 25 11 be 9d ab 10 3f 7a 01 8e 3d
       1.2823302 -0.14174518 0.5651186 0.069338754
000080 84 06 8e 3f 1c cc 11 3f d6 81 31 bf 33 22 03 3f
       1.1095738 0.5695207 -0.6933874 0.5122406
000090 ce 5d 03 3f dc 36 9f 3f a7 d0 d2 bd bc 76 91 be
       0.5131501 1.2438617 -0.102937035 -0.284109
0000a0 59 a7 ba 3e 90 90 ea 3f d1 ea 6d be 53 5a 16 3e
       0.364558 1.8325367 -0.23234107 0.14682893
0000b0 f3 7b 1c bf 60 85 db bf 4e 6c 43 bf 75 41 9d 3e
       -0.6112663 -1.7150078 -0.76337135 0.30714002
0000c0 27 51 3a 3f 26 e6 83 3f bc 3c 94 be c9 76 00 40
       0.7278008 1.0304611 -0.28952587 2.00725
0000d0 c3 1e ad 3d 0d 35 70 be 23 93 21 3f 20 eb 89 3e
       0.08453133 -0.23457737 0.6311514 0.269372
0000e0 36 69 97 3f c3 95 08 3f c7 78 89 3e 26 96 f7 3d
       1.1828983 0.5335352 0.26849958 0.120891854
0000f0 82 ce 65 3f bd 68 65 3f 23 33 40 3e 41 9b a0 3d
       0.8976823 0.8961294 0.18769507 0.07842112
000100 df ce 72 bf a0 db ad 3f 1a 50 24 bd dc ef b2 3f
       -0.9484691 1.3582649 -0.040115453 1.3979449
000110 0e 6f 86 3f ea 83 71 3f 1f 5b 75 3f 8f be 69 3f
       1.0502641 0.9434191 0.95842165 0.91306394
000120 de 62 4c 3f 51 91 d8 3f 53 11 80 3e 8c ea 92 3e
       0.7983836 1.6919347 0.25013217 0.2869457
000130 b8 93 d8 3d a0 73 36 bf ba 68 aa 3d ff 03 75 3f
       0.1057505 -0.7127018 0.08320756 0.9570922
000140 3d 4f 7d 3f 3e c4 02 c0 07 41 e7 3f 26 f8 87 3e
       0.98949033 -2.0432277 1.806672 0.2655651
000150 31 85 85 3d 05 9b b8 be f7 23 45 be ac 83 1a bf
       0.06519545 -0.3605577 -0.19252001 -0.60357165
000160 28 14 30 3f 16 48 ba be 8c 00 82 3f 6e 24 85 3f
       0.68780756 -0.36383122 1.0156417 1.0401742
000170 c6 af ae bd 50 9e 1f 3f 39 7d 1f bf ec 30 9a 3e
       -0.0852962 0.6235094 -0.6230045 0.3011545
000180 5a d1 28 3f 12 f4 35 3e 24 0f c1 3f ed 1f 78 bd
       0.65944445 0.17768887 1.5082746 -0.06057732
000190 78 8a 4f 3e c6 5d 9e bd b4 68 07 3e 46 12 9b 3e
       0.20267665 -0.077327296 0.13223535 0.3028738
0001a0 d3 df fa 3e a5 cb f1 3f 9e 8e b4 be 30 a6 1d 3f
       0.4899889 1.8890272 -0.35265058 0.61581707
0001b0 f0 ee 42 3e 92 9c 0e bf f6 46 e8 3d 95 d2 4d 3e
       0.1903646 -0.5570766 0.1134166 0.20099862
0001c0 8c 75 e0 bd 9e ac dc 3e 08 52 8f bf d8 e0 fd 3e
       -0.1095992 0.43100446 -1.1196909 0.49585605
0001d0 65 c2 98 3f e1 bb 6b 3f 8a f8 2b bf b0 1a 95 3f
       1.1934325 0.92083555 -0.67176116 1.1648769
0001e0 9e da 1a 3f 50 ce ba be 64 4c df 3e 3f 8f 9f 3e
       0.60489833 -0.3648553 0.4361297 0.31163976
0001f0 09 36 44 3f f7 fa c6 be 77 80 fb 3e 99 4f 97 3f
       0.7664495 -0.38863346 0.49121448 1.1821166
000200 e9 34 d8 3e 91 ff 7e 3f 9c 5a 18 bf 0b 1b 75 3f
       0.42227867 0.99608713 -0.5951326 0.9574439
000210 9a 2e 51 be 34 0d 62 bb fa 11 78 3f 33 61 97 3f
       -0.20427933 -0.0034492733 0.9690243 1.1826538
000220 2c 32 c2 3e 91 4f 49 3f d6 7d 95 be ba 9d de 3e
       0.37928903 0.78637034 -0.29197568 0.4347971
000230 bc 4e 13 40 d3 7b 39 3f c9 d5 77 3e b3 31 50 3f
       2.3016806 0.72454566 0.24202646 0.81325835
000240 ae 1d 6c bf eb 8d d2 3e 9f d5 dd 3f 60 1e 77 3f
       -0.9223279 0.411239 1.7330817 0.96530724
000250 a6 1d fb 3c 0e e7 8d 3f 3d cd a9 3f 04 e7 b3 3e
       0.030653786 1.1086137 1.3265759 0.35137188
000260 13 9b f4 3e 0e 91 12 40 45 9d 8b 3e 6d c8 03 3f
       0.47774562 2.2901034 0.27268425 0.514777
000270 f2 b4 02 be c0 4a 6e bf 15 21 04 bf ea 35 66 3e
       -0.12764338 -0.9308281 -0.5161298 0.22481504
000280 41 08 21 3e ec 06 ef 3e 52 f3 89 3f bb 87 cf 3e
       0.15725805 0.46684968 1.077738 0.40533242
000290 e0 af 91 3f 6a 64 a1 3f f6 4d 1e 3f 4c 79 ad 3e
       1.1381798 1.2608769 0.6183771 0.33881605
0002a0 a3 86 a7 3f 0e a9 58 3f 92 fc 80 bf 87 66 c8 3f
       1.3087963 0.84632957 -1.0077078 1.5656289
0002b0 c2 c7 16 3f 64 4f 32 bf 34 41 15 3f 13 15 6c bf
       0.58898556 -0.6965239 0.5830262 -0.92219657
0002c0 33 72 48 bf df 78 89 bf 53 da 22 3f e3 f5 90 3e
       -0.78299254 -1.0740012 0.63614386 0.28312597
0002d0 3d 52 ee bd 23 e2 a8 3f b7 cc 56 3e 57 f9 c7 bc
       -0.116367795 1.3194011 0.2097653 -0.024410887
0002e0 76 82 9a 3f 91 93 e7 3e eb 39 86 3f 1a 4d 53 be
       1.2071064 0.45229772 1.0486425 -0.2063488
0002f0 78 78 8d 3e 1b 13 14 3f 16 89 8f 3f 5a 49 fc bc
       0.27630973 0.5784165 1.121371 -0.030796696
000300 2a 18 6f be 4c d4 4f be c6 54 b5 bc 75 03 fc bd
       -0.23349062 -0.20295829 -0.02213515 -0.12305347
000310 eb 6a 0e 40 a1 01 9c 3f b4 ca 9f 3f 5f 47 82 3f
       2.2252758 1.2187997 1.2483735 1.0178031

weight f4 [14, 200]
000000 91 3e c3 bb 1f 40 2d 3b c5 f0 9c bd 56 bb 68 3c
       -0.005958386 0.0026435924 -0.07663111 0.014204821
000010 14 db 5e bd f6 bc 8b 3d e2 9a 1f 3d 32 1b 01 3d
       -0.054408148 0.06823151 0.038966067 0.031520076
000020 f3 9a 01 bd bf ef 8e be bf b1 ef bc b7 5f b8 bd
       -0.03164191 -0.27917287 -0.02925956 -0.09002631
000030 bb 03 dd 3d 05 87 f4 3d ab 19 87 bc 92 82 16 bd
       0.10791727 0.119398154 -0.016491732 -0.036745615
000040 48 3b 75 bc e2 08 21 3d f3 13 66 be 1e ca d5 3d
       -0.014967747 0.039315112 -0.22468548 0.104389414
000050 ca 9f 07 3d b9 6c 4b be 6d 5d 7a be 7c bd db bd
       0.03311137 -0.19865693 -0.24449702 -0.10729501
000060 ea c1 81 3d 37 7b ba 3b 60 fa 3a bd c3 b6 43 bd
       0.06335814 0.005690958 -0.045648932 -0.047781717
000070 87 df b2 bd db 3d 0a 3d 92 ea 57 be 35 e9 d9 3d
       -0.08734041 0.033750396 -0.21085575 0.10640184
000080 74 e0 1f 3e 30 6d 7f bf 93 ab 61 3c 37 42 5e 3e
       0.15612966 -0.9977598 0.013773817 0.21704946
000090 9b 8f c5 bc 42 8c 18 b8 af e5 94 bd 05 17 c4 3d
       -0.024116328 -3.637025e-05 -0.07270371 0.09574703
0000a0 0b b8 36 bd f0 20 88 3c 5b ce 70 3d 32 9d ab be
       -0.04460911 0.016617268 0.058790546 -0.33518368
0000b0 5b 93 76 3d da 73 77 3a 0b 1d 48 bd 15 0b 84 3d
       0.060199123 0.00094395655 -0.048855823 0.06447426
0000c0 16 17 bf 3d d0 b5 64 bf c8 28 8b 3b 80 07 1c bd
       0.09330575 -0.89339924 0.004246805 -0.03809309
0000d0 ce 00 e7 3c 23 5b a1 bc 6f bc 88 bd f3 9a f5 bc
       0.028198626 -0.019696778 -0.06676566 -0.029981112
0000e0 37 b9 36 3d ad cf 83 3c 22 93 2b 3e ef d9 79 bd
       0.04461023 0.016090238 0.16755345 -0.060998853
0000f0 9a 77 99 bb e0 4c 10 3a 4c 6b bf bc 24 5d 8d b9
       -0.004683447 0.00055046193 -0.023366593 -0.0002696301
000100 5d 8c b2 3d 66 a4 8f bc 29 f0 ea 3c 68 0e 96 bc
       0.087181784 -0.017534446 0.02867897 -0.018317416
000110 c1 00 f9 3c 1e 12 12 3d 82 e1 63 3d 03 ba 8c 3d
       0.030395867 0.03566181 0.055634983 0.068714164
000120 ee e4 5b bd f4 35 22 bb d0 7c f5 3c 4e 1a d0 bd
       -0.05368512 -0.0024751397 0.029966742 -0.10161267
000130 46 ca 0a 3d 40 c3 83 bc f6 eb 17 be ab 40 03 bc
       0.03388431 -0.016084313 -0.14836106 -0.0080110235
000140 35 e1 28 3d a8 72 18 3c a3 23 e7 3c c8 59 54 bd
       0.0412304 0.00930468 0.028215235 -0.051843435
000150 16 12 3b bc 6b 52 89 3d a2 3a c4 3d 08 3e 3b bc
       -0.011417886 0.06705173 0.09581496 -0.011428364
000160 2b 7d 2c 3e 00 2b 47 3d ac d5 95 be a2 e3 39 3d
       0.16844623 0.048624992 -0.2926458 0.045383103
000170 97 59 94 3c 54 23 b0 3a c0 87 a2 bb 1c aa 29 3e
       0.018109126 0.0013438263 -0.0049600303 0.16568798
000180 fa 2b d1 bb 32 ba 89 bc 71 69 a7 3d 67 c4 06 3d
       -0.0063834162 -0.016812418 0.08174408 0.032902148
000190 dd cf 7f bd c2 28 75 3d da 41 39 3c 26 d3 24 bd
       -0.062454093 0.059853323 0.011307204 -0.04024043
0001a0 6f 08 96 3c 88 10 73 bd ff 32 87 3d 5d 8c ac bd
       0.018314568 -0.059341937 0.066015236 -0.0842521
0001b0 78 48 ed 3c 16 e3 ab 3d 58 83 3e bd dd 40 cd bd
       0.02896522 0.083929226 -0.046511978 -0.10022137
0001c0 cf 20 da bc 90 6d 27 3e ff d7 1a 3d 4d cc 99 bd
       -0.026626972 0.16350389 0.037803646 -0.075096704
0001d0 fa f8 a0 3c c0 9d 3a 3d 53 07 e8 bd 24 26 99 bf
       0.019649971 0.0455606 -0.11329522 -1.1964765
0001e0 ab c7 59 3d e0 aa 06 be bd 8e 22 c0 47 f1 80 bd
       0.053168934 -0.13151121 -2.539962 -0.0629602
0001f0 33 3a 3c 3c ca 44 97 3d 3d 25 5b bc f8 ec 8e 3b
       0.011488485 0.07386167 -0.0133755775 0.004361745
000200 c4 00 b4 bc 03 1c 68 bc 38 5f 34 bd 39 91 3d bd
       -0.021973021 -0.014166835 -0.04403612 -0.046281073
000210 5d 95 b2 bb 7f 28 8a bd 26 51 80 3d 2a 8c 9c 3e
       -0.0054499344 -0.06746005 0.06265478 0.30575687
000220 9a 9e 1a 3d 24 c7 28 bc c9 5f 88 bd 32 3e 0e bd
       0.03774891 -0.010301385 -0.066588946 -0.034727283
000230 35 9c 06 bb 37 93 9f 3c f9 e7 a0 bd 88 9f af bd
       -0.0020539884 0.019479377 -0.07856745 -0.0857535
000240 2b 6d 9a bd 98 77 b3 bc 2d 03 94 be 71 ec 95 bb
       -0.075403534 -0.021907613 -0.28908673 -0.004575305
000250 04 49 79 3e 08 1e 85 bc e1 06 62 bd 1c 79 23 bd
       0.2434426 -0.016249672 -0.05518234 -0.03991042
000260 e9 22 83 3d 8c bd 5e bc ca 1d f7 3c 0f 2d bd bd
       0.06403143 -0.013594996 0.030165572 -0.0923711
000270 12 55 93 bd b2 fa 5a 3c d4 48 76 bd 14 61 ed bc
       -0.0719396 0.0133654345 -0.060128048 -0.028976955
000280 00 f5 50 bd 76 14 ad 3d d1 dd 11 3e fa 82 c4 bd
       -0.0510149 0.08451168 0.14244772 -0.09595294
000290 f0 22 f3 ba 15 6f 91 3a 4d f5 d0 3d dc ff d0 bc
       -0.0018549841 0.0011095727 0.102030374 -0.025512628
0002a0 e2 3c 74 bd 0b b8 09 be 57 0e 8c bb 2d 62 56 3e
       -0.059628375 -0.13449113 -0.0042741704 0.20935889
0002b0 2b a3 eb bc 23 aa cc bc 33 4f 40 3d 5d 4b 9c 3d
       -0.028764328 -0.024983471 0.04695053 0.07631562
0002c0 e0 7e 96 3d a2 7b 27 bd 18 c6 37 3e 56 eb 13 3d
       0.07348418 -0.04088939 0.1794666 0.036113106
0002d0 a0 46 1a bd 6e 49 91 be 7d df 42 be 85 0f b3 3c
       -0.03766501 -0.28376335 -0.19030567 0.021857986
0002e0 07 79 46 be 45 20 10 3d af 2d be bd 26 20 86 3c
       -0.19382106 0.035187025 -0.09286057 0.016372751
0002f0 6f c5 f6 3d d8 a5 8e bf 85 34 85 bc 57 44 a2 3c
       0.12049376 -1.1144361 -0.016260395 0.019807978
000300 67 9a a4 3b a0 cd 26 bd b5 f8 8f 3a 69 6c c0 bc
       0.005023289 -0.040723443 0.0010984155 -0.023489194
000310 ff c7 cb bd f3 32 0f 3d 3b 03 8e 3d 82 22 af 3d
       -0.099502556 0.0349607 0.0693421 0.08551504
000320 78 04 83 bc 76 5f 68 bc c0 11 08 bb fc a6 a3 3c
       -0.015993342 -0.014182916 -0.0020762533 0.019977085
000330 be 20 ae bc 6f 0a e0 3d 87 40 c1 3c bd 10 9e 3d
       -0.021255847 0.1093949 0.02359034 0.07718036
000340 3c ad 54 bd 56 bd 05 bf dc 02 0b 3d 10 fe 99 bc
       -0.05192302 -0.5224203 0.033938274 -0.018797904
000350 55 26 43 3d 50 42 e8 3d 77 5a 53 3d aa 48 ca ba
       0.04764398 0.11340773 0.051599946 -0.0015433033
000360 89 34 e2 3c 59 84 a2 3d 05 3e b5 bd b8 7f bd 3c
       0.027612941 0.079353996 -0.0884972 0.02313219
000370 e6 97 ab bd ff 7a b1 bc 31 92 a5 bd 3c a2 5c 3d
       -0.08378582 -0.021665094 -0.080845244 0.053865656
000380 e4 d3 86 bd a8 41 00 3c 76 c6 8a bd 43 58 ee bd
       -0.06583384 0.007828154 -0.06776135 -0.11637928
000390 d0 72 a3 bd 3a 68 ae 3b de ea a6 bd c5 a7 0a 3d
       -0.07980883 0.0053224834 -0.08150266 0.033851404
0003a0 55 b8 75 bc e7 cd a0 bf ed c7 28 bb 79 f1 d5 3e
       -0.014997561 -1.2562836 -0.002575393 0.41785792
0003b0 20 60 fd 3d 28 52 ac 3d b4 9c 9d bd 30 3a 03 bc
       0.1237185 0.084141076 -0.076959044 -0.008009478
0003c0 bb ef 43 bd f8 cd 08 bd 38 63 b5 3d d5 2d 23 bf
       -0.047836047 -0.033399552 0.08856815 -0.6374181
0003d0 e2 48 ea 3c b9 90 49 bd 0e 92 86 bc f4 5b 6b 3d
       0.028599206 -0.049210284 -0.016427066 0.05746074
0003e0 6d 51 59 3d e8 4e 5d bf 33 73 f7 bc 8e a6 d9 bc
       0.05305617 -0.86448526 -0.030206298 -0.026568677
0003f0 0e cb 23 3c 6a c9 c6 bd 3b f9 28 be 7f 8a b3 3c
       0.0099971425 -0.097063854 -0.16501324 0.021916626

bias f4 [14]
000000 65 f4 80 3e 1c 2d aa bd cd 1d bb be 6d 1c 74 bd
       0.25186458 -0.08309385 -0.36546174 -0.05959742
000010 97 6d 60 3e e8 4d f1 3b 3d c6 a5 be 3f 1c ab bf
       0.21916805 0.0073640235 -0.32377806 -1.3367995
000020 2a d1 64 bf f0 73 c5 be 70 5b 13 bf c3 b3 8f bf
       -0.8938166 -0.38565016 -0.575614 -1.1226734
000030 61 95 23 be 9d 80 84 bf
       -0.15974952 -1.035175
