trainingOnSyntheticData/trained_models/20230807_213046_train/model_training_set_size_2000000_hidden_neurons_100_n_batches_100.pt (torch, 130399 bytes, 6 tensors)

weight f4 [100, 200]
0.017413042 0.10220171 0.0977603 0.049933054 0.009373699 0.056810297 0.058469426 0.048418183
0.07214909 0.02003822 0.03932694 0.008478032 0.014713767 -0.030222379 0.015930152 -0.008475512
-0.021199068 -0.033212483 0.0012971398 0.037597187 -0.00960609 -0.009346016 -0.04777422 -0.014283854
-0.015812295 0.018555915 0.009915079 0.05399623 -0.0696091 -0.0842662 -0.10513922 -0.0820166
-0.046550855 0.010448537 -0.0009795832 -0.0055742706 -0.10542873 -0.11702803 -0.09739015 0.037580386
0.0535647 0.025610035 0.06324943 -0.022292774 -0.07028921 -0.081083365 -0.08081744 -0.016276367
-0.0120125 0.05169708 -0.08143112 -0.046524834 0.019291589 -0.021929154 0.11032075 0.060513966
0.07411165 0.0054820543 -0.06848624 -0.15521318 0.010440177 0.010285607 0.1563044 0.0845745
0.010790517 -0.015348226 -0.10168879 -0.077853166 -0.03774082 0.019079784 -0.042285077 0.08104773
0.13739881 -0.050092135 0.026130782 0.06468572 -0.01639325 0.024825329 -0.1111123 -0.148106
-0.008457168 -0.020586792 -0.049617417 -0.02928284 -0.037810754 0.05459478 -0.063878626 -0.2126428
-0.1819321 0.064406954 -0.20822102 -0.32657045 0.07283667 -0.028994462 -0.5532858 -0.3263222
0.38718563 0.48650748 -0.371869 -1.1782669 3.587615 0.06335584 -0.24981692 -0.052941334
0.07471915 -0.11836198 -0.2058128 -0.06902616 0.30018902 -0.02936568 -0.00697995 0.097341575
-0.090253025 0.12654196 -0.09571536 -0.045253005 -0.116176 -0.099267885 0.050560165 0.10493895
-0.05995905 0.09916277 -0.18316123 0.088247314 0.037168976 -0.10400227 -0.06292478 -0.050733536
0.100637645 0.05009795 -0.02543106 -0.0605618 -0.06516669 -0.014009038 0.071943626 0.0069239857
-0.0073376247 -0.04479331 0.007540788 -0.124092594 -0.07865432 -0.004143532 0.01363553 0.04354635
0.06465554 -0.062034145 -0.08481239 -0.11105212 -0.09058528 -0.05352929 0.03043553 0.037601802
-0.0012858852 -0.016685726 -0.02823754 -0.10182027 -0.08300588 -0.14236121 -0.08215119 -0.055238403
-0.002813447 -0.06418159 -0.051418006 -0.11932869 -0.06176799 -0.04867112 -0.10782313 -0.04110597
-0.07276618 -0.04601718 -0.10022508 -0.059869554 -0.09943005 -0.06391202 -0.066900365 -0.056185387
-0.067343645 -0.027166722 -0.01782202 0.032349866 -0.019844476 0.0069113737 -0.005707361 -0.0019255357
-0.01992884 0.013374599 0.03551349 0.042557992 0.039884914 0.04700496 0.005253404 0.014095904
0.024468085 0.059705287 0.08130343 0.13091941 0.08997052 0.09983003 0.028423332 0.05170263
0.007850565 0.041194037 0.012676071 0.0055682696 0.019410089 0.023664821 -0.04121445 0.024389159
0.02771115 0.013916494 0.03199906 -0.004565612 0.007857351 -0.0020254739 0.018867735 0.0077699306
0.025065564 0.0244087 0.030389851 -0.02152683 0.001514603 0.014879709 0.04635331 0.02131399
0.0340648 0.045740176 -0.0034072925 0.06570548 0.018143838 0.051447168 0.012010019 0.005894022
0.012497929 -0.0019165884 -0.00022761997 -0.042479176 -0.012964557 0.015399761 0.029551629 0.03679779
-0.013019478 0.0120395385 0.053289525 -0.015915064 0.04020263 -0.010019645 -0.009788657 -0.01837536
0.003428975 -0.00489504 0.0086804135 -0.0069382153 -0.019046912 -0.036057245 -0.0072797816 -0.042107876
00000000: cca5 8e3c 214f d13d 8d36 c83d 9a86 4c3d
00000010: 2594 193c eab1 683d a37d 6f3d 2552 463d
00000020: e7c2 933d 3127 a43c 4915 213d 72e7 0a3c
00000030: 0312 713c ec94 f7bc f37f 823c e0dc 0abc
00000040: aba9 adbc d009 08bd ca04 aa3a 82ff 193d
00000050: dd62 1dbc 0820 19bc e7ae 43bd d306 6abc
00000060: c988 81bc 9302 983c db72 223c 272b 5d3d
00000070: 378f 8ebd c293 acbd 3b53 d7bd 52f8 a7bd
00000080: 1cac 3ebd 5730 2b3c 5c65 80ba 5fa8 b6bb
00000090: 05eb d7bd 64ac efbd 7d74 c7bd e4ed 193d
000000a0: a966 5b3d 23cc d13c eb88 813d 569f b6bc
000000b0: caf3 8fbd 090f a6bd 9d83 a5bd 0456 85bc
000000c0: 14d0 44bc 51c0 533d 5cc5 a6bd d390 3ebd
000000d0: 6509 9e3c c5a4 b3bc d8ef e13d 7edd 773d
000000e0: d9c7 973d cea2 b33b 8442 8cbd 34f0 1ebe
000000f0: 470d 2b3c f684 283c 430e 203e 6535 ad3d
00000100: b5ca 303c 2077 7bbc 3642 d0bd 7b71 9fbd
00000110: 1e96 1abd 354d 9c3c 1e33 2dbd 5afc a53d
00000120: 46b2 0c3e 692d 4dbd 3910 d63c f279 843d
00000130: 234b 86bc 7d5e cb3c d88e e3bd 19a9 17be
00000140: ef8f 0abc a2a5 a8bc a23b 4bbd 91e2 efbc
00000150: 73df 1abd c79e 5f3d ccd2 82bd 09bf 59be
00000160: 694c 3abe cbe7 833d e437 55be 3e34 a7be
00000170: 642b 953d cb85 edbc 23a4 0dbf b413 a7be
00000180: 323d c63e 8217 f93e 9d65 bebe 73d1 96bf
00000190: 7c9b 6540 b5c0 813d 02d0 7fbe 03d9 58bd
000001a0: 5b06 993d c467 f2bd 97c0 52be 965d 8dbd
000001b0: 60b2 993e 4b90 f0bc 10b8 e4bb 055b c73d
000001c0: 94d6 b8bd 3794 013e 6a06 c4bd 375b 39bd
000001d0: afed edbd f64c cbbd 2d18 4f3d 3bea d63d
000001e0: 9f97 75bd da15 cb3d 9e8e 3bbe 02bb b43d
000001f0: 7f3e 183d 24ff d4bd b5de 80bd f8cd 4fbd
00000200: 1c1b ce3d 8233 4d3d cc54 d0bc a60f 78bd
00000210: 1d76 85bd 2a86 65bc 2e57 933d 9ae2 e23b
00000220: 7570 f0bb 3179 37bd b718 f73b 4224 febd
00000230: 8415 a1bd 77c6 87bb 8f67 5f3c a85d 323d
00000240: 206a 843d 8417 7ebd 1eb2 adbd 4b6f e3bd
00000250: c684 b9bd 8741 5bbd ef53 f93c 5904 1a3d
00000260: 268b a8ba 81b0 88bc 6a52 e7bc 2587 d0bd
00000270: fdfe a9bd 23c7 11be e23e a8bd aa41 62bd
00000280: cf61 38bb a371 83bd b09b 52bd 9a62 f4bd
00000290: 6f00 7dbd 5e5b 47bd 60d2 dcbd bc5e 28bd
000002a0: 6f06 95bd 837c 3cbd cf42 cdbd c739 75bd
000002b0: fba1 cbbd 4ee4 82bd 0f03 89bd a622 66bd
000002c0: 77eb 89bd bf8c debc 7cff 91bc 4b81 043d
000002d0: e290 a2bc ce78 e23b d004 bbbb 4262 fcba
000002e0: cf41 a3bc 2221 5b3c 9876 113d 4a51 2e3d
000002f0: 5d5e 233d 4688 403d bf24 ac3b 82f2 663c
00000300: 4b71 c83c 888d 743d 6a82 a63d bd0f 063e
00000310: 7742 b83d b073 cc3d 0cd8 e83c 23c6 533d
00000320: a89f 003c 14bb 283d 4caf 4f3c 0876 b63b
00000330: e801 9f3c badc c13c 7cd0 28bd c6cb c73c
00000340: 7e02 e33c 0202 643c 7211 033d 219b 95bb
00000350: 1ebc 003c d0bd 04bb 8290 9a3c e79a fe3b
00000360: 4c56 cd3c c1f4 c73c 23f4 f83c 0959 b0bc
00000370: a585 c63a 06ca 733c f8dc 3d3d ad9a ae3c
00000380: 8887 0b3d 0d5a 3b3d e24c 5fbb 9890 863d
00000390: 63a2 943c 44ba 523d acc5 443c a422 c13b
000003a0: 1dc4 4c3c 0936 fbba 45ad 6eb9 a5fe 2dbd
000003b0: 4b69 54bc 474f 7c3c 4216 f23c 48b9 163d
000003c0: a64f 55bc 7c41 453c 1e46 5a3d 4f60 82bc
000003d0: 83ab 243d 7029 24bc 9a60 20bc ec87 96bc
000003e0: a7b8 603b 9266 a0bb 4b38 0e3c f859 e3bb
000003f0: 4508 9cbc c3b0 13bd 3c8b eebb 4f79 2cbd

bias f4 [100]
-0.012582183 -5.6334567 -0.0020152126 -4.527604 0.013292774 -1.719911 -0.018687166 -1.1292591
-0.007510152 0.049603503 0.0051309536 6.202822e-05 0.014424765 -0.0007883721 -0.00086820405 0.0007041155
-0.005629717 -0.054114915 0.40144852 -0.039246902 -0.0005940548 -0.0037993905 -0.22050546 -0.00033899915
-0.0026423417 0.00080623495 -0.00036579184 -0.0001705199 -0.0016368645 -0.002098315 -0.0024906078 -0.00043860317
-2.185381 -0.00202513 -0.0018161839 -4.5541024 -0.0053991936 -0.00031242715 -0.00706257 -0.3804524
0.036729466 -0.006934693 -7.238702 -0.004217129 -0.012794101 -0.00019438939 0.052458227 -0.00074681937
-0.00036566984 -0.028797701 0.40070507 -0.00042178985 -0.02967726 -0.014477731 -0.00032021775 -10.032536
-0.006530155 -0.03156353 -0.0034374658 -3.150077e-05 -0.038377278 -0.00015197253 -0.019363524 -0.00023235856
-0.0015007626 -0.0071165357 -0.0025481111 -0.18093915 -3.0187187 -0.0005561787 -0.0036987627 0.00024369457
0.0005210974 0.013906556 -0.010237676 -0.07574336 -0.0027753413 -2.8791332 -0.47007677 -0.0015214795
-0.00029638497 0.0018535912 -0.0023470377 -0.0034829685 -0.01584464 -0.0055414634 -0.012501824 0.067330115
0.05913678 -0.4899448 2.5441685 0.009315941 -0.030882876 -1.9640357 -0.013334549 2.5163878e-05
-0.028697273 -0.025959712 0.21507925 -0.0050821197
00000000: 8025 4ebc 4745 b4c0 a811 04bb 22e2 90c0
00000010: efc9 593c 0b26 dcbf d415 99bc 908b 90bf
00000020: b917 f6bb 0b2d 4b3d 8f21 a83b 2615 8238
00000030: d955 6c3c c2aa 4eba 3098 63ba 6494 383a
00000040: 7d79 b8bb 9aa7 5dbd a98a cd3e 5cc1 20bd
00000050: 58ba 1bba 32ff 78bb 2fcc 61be b2bb b1b9
00000060: 232b 2dbb 8359 533a c0c7 bfb9 96cd 32b9
00000070: 0f8c d6ba e283 09bb 7739 23bb 52f4 e5b9
00000080: 48dd 0bc0 0bb8 04bb 050d eeba 35bb 91c0
00000090: b8eb b0bb 43cd a3b9 226d e7bb a8ca c2be
000000a0: a371 163d 6c3c e3bb 72a3 e7c0 d82f 8abb
000000b0: 599e 51bc 01d5 4bb9 70de 563d 33c6 43ba
000000c0: 60b7 bfb9 28e9 ebbc 3729 cd3e ad23 ddb9
000000d0: ba1d f3bc 0134 6dbc e6e2 a7b9 4485 20c1
000000e0: e9fa d5bb c348 01bd 1b47 61bb b21f 04b8
000000f0: 7e31 1dbd d15a 1fb9 41a0 9ebc 47a5 73b9
00000100: 3db5 c4ba d431 e9bb 36fe 26bb 1d48 39be
00000110: b032 41c0 85cc 11ba f166 72bb 4388 7f39
00000120: 419a 083a 53d8 633c edbb 27bc 561f 9bbd
00000130: 80e2 35bb b843 38c0 e7ad f0be 616c c7ba
00000140: 1e64 9bb9 33f4 f23a c2d0 19bb 8442 64bb
00000150: 9ecc 81bc 2a95 b5bb 73d4 4cbc 5fe4 893d
00000160: 6939 723d 0bda fabe a8d3 2240 e3a1 183c
00000170: 16fe fcbc 8665 fbbf 2779 5abc 0417 d337
00000180: 8b16 ebbc 76a9 d4bc bc3d 5c3e e987 a6bb

weight f4 [100, 100]
-0.013939762 -0.085476734 0.030301847 -0.038905293 0.046211507 0.059404157 -3.8970282 -0.02456674
-3.5026166 -0.1731058 0.12862842 0.06388159 0.122792274 0.1069282 0.09375185 0.26720876
-0.021354817 -0.82992095 0.017717857 -0.10888029 0.071082905 0.072142735 -0.9539263 -0.23182471
0.010277436 -0.076615736 -3.3572752 0.035809614 0.02516119 -4.3466444 0.033747394 -1.208149
-0.054529652 -5.1169105 -5.4339623 -0.044162467 -0.6080261 -1.8678632 -0.008892676 -0.109421305
0.0039333967 -0.08278699 -0.018484063 0.12046061 0.6329904 0.029060623 0.10767118 -1.2827983
0.2772911 -0.0023969344 -0.17327078 -0.46652764 0.047991917 -0.0693873 0.1186268 -0.010856418
-0.0027505928 -0.05486743 0.10578786 -0.8184675 0.1862706 -0.3140508 -3.3571384 -1.6970681
-0.10569165 0.05822492 -0.11909732 -0.34583846 -0.030565016 0.49609336 -0.07431948 0.0013601907
0.14538717 0.17470634 -0.16349985 -0.066051856 -3.9099462 -0.1085192 0.025944533 0.16454142
0.18422441 -0.02639243 0.014206584 -12.892487 -9.856827 -0.00665827 0.06079183 0.18809806
-0.1414545 0.10434873 -0.21199438 -0.028290814 -1.00281 -0.052047838 -1.801873 -2.6405313
0.28454843 -1.30504 -0.029769598 -0.70432466 0.042106606 -0.23019496 -0.47201595 -0.16870196
0.10911191 0.07299902 0.054915376 -0.21327397 0.044947274 -0.105889454 -2.110745 -0.012769935
0.17100357 0.24731553 -0.2828443 0.43609667 -0.040369745 0.05393432 -0.07829167 0.10687801
-0.0831503 0.060985312 0.005237074 0.23394969 0.02070498 -0.07564759 0.042097628 0.040750027
0.15101722 0.007098296 0.060298618 -0.0071176095 -0.3721418 0.01778795 -0.009950778 0.008089034
0.103753865 0.06870908 0.2776842 -0.5474131 0.18540104 0.094595194 -0.008126539 -0.0790887
0.04661866 0.066618755 0.3386169 -0.009012 -0.51637274 0.030574314 -0.06855862 -0.00016200943
-0.21769996 -0.06981777 -0.05180485 0.013842782 -0.153952 -0.08353284 0.18514766 0.015661214
0.028766895 0.15164568 0.024535218 0.041615944 -0.1533138 0.23783615 -13.110619 -0.0041692597
-0.29927114 -0.11497674 -0.10245788 -0.03143104 -0.91688114 -0.13956815 0.006684167 0.26185504
0.06605966 0.016738527 -0.14588049 0.16347027 -0.0027263882 -0.016256593 -0.007552953 0.0264704
0.0071307323 0.060335454 -0.025314892 0.250698 0.02453967 -0.22084832 -0.00841601 -6.305268
0.042439 -0.3224729 0.03599041 0.07292929 0.0033235878 0.015617861 -0.1847121 0.02174317
0.0043602623 -0.18041559 0.047891267 -0.08181825 -0.1333896 -0.03324751 -0.09096184 -0.05529072
-0.0313519 0.7211667 0.07487462 -0.008759153 0.316528 0.10449936 -0.13783094 0.071348324
0.023335911 0.022538265 0.008766608 -0.05132295 -0.15814507 0.051481184 -0.023997994 0.012352236
0.039183192 -0.15807965 0.034435615 -0.005658789 0.080609076 -0.0636572 -0.0036334142 -0.06276102
0.22915193 -0.0123765785 0.031112703 -0.115404315 0.036607448 0.006319595 -0.034419663 -0.3459687
-0.96156156 -0.0017779645 -0.27923545 -0.05985884 0.016205791 0.03687699 0.4322637 -0.016399136
0.21590346 -0.074097306 -0.041816 0.0069489656 0.10704668 -0.4829216 -0.08426931 -0.07834507
00000000: 9963 64bc 6d0e afbd 943b f83c 285b 1fbd
00000010: 4748 3d3d c651 733d e968 79c0 3040 c9bc
00000020: df2a 60c0 a642 31be 2bb7 033e 5ad4 823d
00000030: 847a fb3d 2cfd da3d f800 c03d 96cf 883e
00000040: 4cf0 aebc b375 54bf 0a25 913c a1fc debd
00000050: ea93 913d 92bf 933d 8434 74bf 7563 6dbe
00000060: b162 283c b6e8 9cbd 99dd 56c0 1aad 123d
00000070: d71e ce3c b617 8bc0 b53a 0a3d a0a4 9abf
00000080: 7c5a 5fbd bbbd a3c0 05e3 adc0 b4e3 34bd
00000090: 99a7 1bbf 2416 efbf 96b2 11bc 4718 e0bd
000000a0: b9e3 803b 3a8c a9bd e46b 97bc 0db4 f63d
000000b0: a90b 223f 8b10 ee3c b582 dc3d bc32 a4bf
000000c0: 19f9 8d3e e315 1dbb e56d 31be b6dc eebe
000000d0: 2c93 443d ee1a 8ebd 9cf2 f23d 1edf 31bc
000000e0: 4a43 34bb acbc 60bd 4ea7 d83d 1687 51bf
000000f0: b8bd 3e3e 44cb a0be 5bdb 56c0 8739 d9bf
00000100: dd74 d8bd 417d 6e3d 4ce9 f3bd bd11 b1be
00000110: 7c63 fabc f3ff fd3e d034 98bd 6d48 b23a
00000120: 60e0 143e 38e6 323e 816c 27be 3246 87bd
00000130: 8f3c 7ac0 503f debd a189 d43c 8c7d 283e
00000140: 53a5 3c3e f034 d8bc bbc2 683c a047 4ec1
00000150: 90b5 1dc1 9e2d dabb db00 793d c79c 403e
00000160: 73d9 10be c9b4 d53d 0e15 59be 23c2 e7bc
00000170: 145c 80bf 1d30 55bd c6a3 e6bf 77fe 28c0
00000180: 55b0 913e 8d0b a7bf 5fdf f3bc 9f4e 34bf
00000190: fa77 2c3d 3ab8 6bbe 13ac f1be 35c0 2cbe
000001a0: 1176 df3d 8380 953d f2ee 603d 7e64 5abe
000001b0: a21a 383d 92dc d8bd 7216 07c0 fd38 51bc
000001c0: 8f1b 2f3e 4840 7d3e f8d0 90be 1048 df3e
000001d0: bf5a 25bd 3cea 5c3d 6257 a0bd dce2 da3d
000001e0: b44a aabd bccb 793d c39b ab3b 8290 6f3e
000001f0: 7d9d a93c 20ed 9abd 906e 2c3d 80e9 263d
00000200: 42a4 1a3e d398 e83b affb 763d d63a e9bb
00000210: 5f89 bebe 09b8 913c 9708 23bc de87 043c
00000220: e87c d43d 59b7 8c3d a02c 8e3e 4423 0cbf
00000230: c5d9 3d3e 20bb c13d 2d25 05bc 42f9 a1bd
00000240: 35f3 3e3d 6a6f 883d 325f ad3e 11a7 13bc
00000250: 0131 04bf fc76 fa3c 7668 8cbd 13e1 29b9
00000260: bdec 5ebe 9efc 8ebd 5331 54bd d6cc 623c
00000270: 98a5 1dbe 4413 abbd 5997 3d3e f24b 803c
00000280: 8da8 eb3c 0149 1b3e 15fe c83c 7b75 2a3d
00000290: 4bfe 1cbe 528b 733e 18c5 51c1 499e 88bb
000002a0: 113a 99be ed78 ebbd 70d5 d1bd d6bd 00bd
000002b0: b9b8 6abf f4ea 0ebe db06 db3b dd11 863e
000002c0: 494a 873d 3c1f 893c b261 15be c064 273e
000002d0: 34ad 32bb 8c2c 85bc c37e f7bb 74d8 d83c
000002e0: eba8 e93b 4f22 773d 2d61 cfbc 7d5b 803e
000002f0: 6b07 c93c 1026 62be 4ee3 09bc c1c4 c9c0
00000300: 84d4 2d3d 2b1b a5be ae6a 133d f45b 953d
00000310: 8dd0 593b 0fe2 7f3c 2b25 3dbe bc1e b23c
00000320: 88e0 8e3b ddbe 38be a229 443d 5490 a7bd
00000330: 4997 08be 8b2e 08bd 334a babd 8678 62bd
00000340: da6a 00bd 619e 383f dd57 993d 8d82 0fbc
00000350: f50f a23e c303 d63d 8e23 0dbe 121f 923d
00000360: f42a bf3c 2ba2 b83c d2a1 0f3c 0338 52bd
00000370: c8f0 21be efdd 523d 7197 c4bc 0861 4a3c
00000380: 8e7e 203d a2df 21be 5c0c 0d3d 5d6d b9bb
00000390: 5f16 a53d b55e 82bd 931e 6ebb da88 80bd
000003a0: cea6 6a3e 22c7 4abc 11e0 fe3c 1959 ecbd
000003b0: b1f1 153d 9b14 cf3b a2fb 0cbd cf22 b1be
000003c0: e628 76bf 970a e9ba f3f7 8ebe 8b2e 75bd
000003d0: 02c2 843c 540c 173d ab51 dd3e 7b57 86bc
000003e0: cc15 5d3e 54c0 97bd 4147 2bbd 26b4 e33b
000003f0: 4a3b db3d 8041 f7be 6395 acbd 6173 a0bd

bias f4 [100]
0.7864872 0.8465199 1.165972 0.30843487 1.0154462 1.2450981 -3.7791336 -1.2045311
0.7091665 1.8593918 4.21169 3.0191174 -2.1176229 3.6928973 -1.4284352 2.18456
0.15256737 0.9384905 7.563607 1.2462837 2.3155415 3.574814 2.5075855 0.2666112
0.50462633 0.7792391 1.1515558 0.71007246 1.0339072 1.3609862 1.9312088 0.11002615
-1.5021026 1.0561622 -2.0384328 1.441088 -1.2716999 -1.1720798 0.7751877 5.8299637
-0.12238774 0.2346748 3.5706804 6.073078 1.6958739 0.7975905 2.1163087 1.4465747
1.1095542 0.8483262 2.2528472 0.60595685 3.1016467 -0.9457658 0.7451043 1.1619198
-4.991545 0.76553214 7.385139 2.9370258 -0.21745436 0.94725996 -0.7246922 -1.7647121
1.3025157 0.666726 1.2534336 4.1831903 -2.6467676 0.092611134 -0.14947891 0.30531085
-2.3647757 1.5122489 1.0829349 -2.360704 -0.022713961 1.0589643 0.1422371 3.5014038
0.22652337 5.4652643 -0.48994476 2.623505 -0.055825673 2.0381498 2.8620307 4.557217
1.1449195 0.34677306 1.0216836 10.659813 0.99730563 -0.63743865 4.2736835 -1.5359755
-0.28782576 -2.5010552 0.49226087 1.2206466
00000000: 3a57 493f 87b5 583f 923e 953f 2deb 9d3e
00000010: 24fa 813f 605f 9f3f 53dd 71c0 132e 9abf
00000020: f08b 353f 8d00 ee3f 2ac6 8640 3839 4140
00000030: 2287 07c0 6e58 6c40 f7d6 b6bf d5cf 0b40
00000040: 9f3a 1c3e ea40 703f 1209 f240 3986 9f3f
00000050: d531 1440 c1c9 6440 487c 2040 4381 883e
00000060: 312f 013f 377c 473f 2e66 933f 4fc7 353f
00000070: 1257 843f cc34 ae3f da31 f73f 6455 e13d
00000080: e644 c0bf 5330 873f af75 02c0 9275 b83f
00000090: 10c7 a2bf b606 96bf b372 463f 108f ba40
000000a0: 6ca6 fabd 974e 703e 0786 6440 a856 c240
000000b0: 6512 d93f e42e 4c3f 9a71 0740 5c29 b93f
000000c0: df05 8e3f e82b 593f a62e 1040 fd1f 1b3f
000000d0: 6181 4640 b51d 72bf 28bf 3e3f cab9 943f
000000e0: bdba 9fc0 eaf9 433f 0f53 ec40 3bf8 3b40
000000f0: 5bac 5ebe a17f 723f 6e85 39bf 16e2 e1bf
00000100: d6b8 a63f 8eae 2a3f 8370 a03f b2dc 8540
00000110: a464 29c0 e8aa bd3d 0011 19be b451 9c3e
00000120: 7c58 17c0 5f91 c13f 9c9d 8a3f c615 17c0
00000130: a112 babc 248c 873f 9aa6 113e 0017 6040
00000140: bef5 673e 72e3 ae40 0ada fabe 82e7 2740
00000150: 76a9 64bd 0c71 0240 832b 3740 b9d4 9140
00000160: b98c 923f 3d8c b13e 87c6 823f 988e 2a41
00000170: 6c4f 7f3f 2e2f 23bf 04c2 8840 d89a c4bf
00000180: e65d 93be 4a11 20c0 9e09 fc3e 263e 9c3f

weight f4 [14, 100]
-1.2949983 0.07729017 1.1434513 -0.21426402 -0.7780268 -0.22148035 0.1331793 -0.00860181
0.001230381 -0.03857384 0.22480232 0.04172642 -0.5813708 -0.041538592 0.22549137 0.48270494
-0.018052103 2.715304 -0.07063035 -0.068779424 0.04415405 0.017043306 -0.080751374 0.28879964
-0.07172462 -1.9551404 0.029664636 -2.5515428 -0.13508004 0.15002617 0.0050041666 0.07807992
0.022965817 0.05262127 0.005892767 -0.03810205 -0.3694248 0.0021634717 0.012182854 0.38498616
-0.13713397 0.102930464 -0.03849833 0.14225398 0.0034637451 -0.056501918 9.645771e-05 -0.35405874
-0.0320449 -0.35561237 0.40365583 0.76949537 -0.2891369 0.0043963376 -0.13814 -0.50213987
-0.1518093 0.17122822 0.012558413 -0.12827678 -0.032784868 -0.054918945 0.0042970567 -0.12655345
2.3698912 0.11436641 0.011516861 0.047094304 0.075451925 -1.8408226 0.40863237 -0.38207093
-0.046752393 0.0123064555 -1.9748849 -0.0060694693 -0.26060098 -0.30209574 0.60382634 0.062145423
0.0014195864 -0.13055891 -0.012185995 -0.15295985 0.059051186 -0.068334386 -0.064677 0.01170204
-0.15495455 0.44688526 -0.040887676 0.046272278 -0.43649262 -0.01404239 -0.01857343 0.17860392
-0.86747444 0.074770115 -0.13006943 -0.03196882 -2.7458594 0.92401487 -0.03093002 -9.323494
0.5043684 -0.32089996 -0.049315736 -0.023200681 0.04566211 -0.03256407 0.11107933 0.15119141
-0.04699319 0.08338672 0.010534739 0.06821876 0.02215786 -0.010566863 0.009284535 0.035550497
-0.050518937 0.24323991 -0.16937734 1.1932098 0.087345205 0.72894764 0.387158 2.0552595
-0.1887717 -2.794946 -0.008977129 0.08072611 0.06302747 0.059423544 -0.033708565 0.91161025
-0.075034015 -0.034889545 -0.0037736688 0.025818171 -0.016623244 0.07555676 -0.11060173 0.13028617
0.3146942 -0.100297116 -0.25681603 -0.30805048 -0.28138894 -0.3418241 0.020725086 0.4217304
-0.31282738 -0.032355964 -0.08434956 -0.55783343 -0.18921731 -0.012346169 0.06847155 0.00588378
0.094539754 0.5279953 -0.007857683 0.0937445 6.5708165 -0.015217474 -0.0058868644 0.03030308
0.08680913 -3.8622253 -1.552162 -0.6489972 -0.06174566 0.019230437 -1.3054761 -0.09024311
0.07143001 -0.06846611 0.86708 0.029570144 -0.16586551 -0.10668062 -0.02645576 -0.50247735
0.065547615 -0.13917378 -0.16461673 0.00058042834 -0.22299244 3.0677607 0.45836237 0.016325723
-0.41608894 -0.011266239 -0.02764526 0.022479225 -1.0463684 0.20346758 -0.071671665 0.032664333
-3.1959918 -0.2512958 -0.014007693 7.508877 -0.031439815 -0.94494885 0.11712292 -0.16086513
-0.039701525 0.022413038 0.030789709 0.23119138 -0.12399599 0.03526417 0.06339842 0.09207809
-0.053284235 -0.034765575 -0.0147595545 0.063667126 0.04557467 -0.51663846 -0.15648457 2.4882393
-0.069755144 -0.94924515 0.05191868 -2.9495528 -0.087455586 0.95128393 0.17198673 -0.025032014
-0.069778636 0.021660233 0.013429177 -1.3133394 0.00028785458 -0.036807165 -0.028552437 0.10774351
0.018494414 -0.0039477814 0.07045447 0.037210397 0.31061763 0.14291447 0.04152401 -0.40899098
-0.07638581 -0.53220165 -0.042557057 -0.08174657 -0.26346147 -0.028947912 0.020193877 -0.4831401
00000000: 81c2 a5bf 4f4a 9e3d 9d5c 923f 0768 5bbe
00000010: c42c 47bf bfcb 62be 2860 083e 9bee 0cbc
00000020: bc44 a13a 9aff 1dbd 9432 663e 53e9 2a3d
00000030: b7d4 14bf 5f24 2abd 36e7 663e 1a25 f73e
00000040: 01e2 93bc 8ac7 2d40 a5a6 90bd 3adc 8cbd
00000050: e1da 343d 679e 8b3c fa60 a5bd 8cdd 933e
00000060: 5ce4 92bd 0a42 fabf 4003 f33c 7a4c 23c0
00000070: 6c52 0abe 76a0 193e fef9 a33b 5de8 9f3d
00000080: cf22 bc3c 6789 573d 1d18 c13b e510 1cbd
00000090: 3f25 bdbe 08c9 0d3b 989a 473c e81c c53e
000000a0: d96c 0cbe 35cd d23d 6db0 1dbd 07ab 113e
000000b0: 0000 633b 8e6e 67bd 5749 ca38 3047 b5be
000000c0: 8341 03bd d312 b6be faab ce3e a6fd 443f
000000d0: c009 94be 270f 903b 9274 0dbe 3d8c 00bf
000000e0: e673 1bbe 7356 2f3e cdc1 4d3c fd5a 03be
000000f0: 6d49 06bd b0f2 60bd 53ce 8c3b 3a97 01be
00000100: 4cac 1740 f038 ea3d 37b1 3c3c f5e5 403d
00000110: 8a86 9a3d 13a0 ebbf 4338 d13e cd9e c3be
00000120: 707f 3fbd 04a1 493c 07c9 fcbf 66e2 c6bb
00000130: 7e6d 85be 4bac 9abe 5d94 1a3f 338c 7e3d
00000140: 6a11 ba3a 3cb1 05be c4a7 47bc 82a1 1cbe
00000150: a8df 713d e6f2 8bbd 6075 84bd eab9 3f3c
00000160: 68ac 1ebe 25ce e43e d679 27bd 0088 3d3d
00000170: f67b dfbe 0d12 66bc 4e27 98bc f2e3 363e
00000180: ce12 5ebf 1321 993d ec30 05be bdf1 02bd
00000190: 29bc 2fc0 3d8c 6c3f f460 fdbc 082d 15c1
000001a0: 4a1e 013f 004d a4be 4cff 49bd 5b0f bebc
000001b0: 3108 3b3d e761 05bd 8f7d e33d ecd1 1a3e
000001c0: ee7b 40bd a8c6 aa3d e699 2c3c 47b6 8b3d
000001d0: 6784 b53c a320 2dbc 2a1e 183c 669d 113d
000001e0: f2ec 4ebd e213 793e 4171 2dbe 19bb 983f
000001f0: 0be2 b23d 509c 3a3f 9339 c63e 5f89 0340
00000200: 5e4d 41be 65e0 32c0 cf14 13bc bb53 a53d
00000210: 8c14 813d 1a66 733d fe11 0abd 4a5f 693f
00000220: 6fab 99bd 57e8 0ebd a84f 77bb a180 d33c
00000230: 782d 88bc 81bd 9a3d 2983 e2bd bd69 053e
00000240: 991f a13e 9368 cdbd 647d 83be cbb8 9dbe
00000250: 3612 90be 9203 afbe a8c7 a93c 0ced d73e
00000260: e92a a0be b087 04bd 76bf acbd 2cce 0ebf
00000270: 2fc2 41be 9647 4abc d03a 8c3d b9cc c03b
00000280: 0f9e c13d b32a 073f 83bd 00bc 1efd bf3d
00000290: 2144 d240 b652 79bc 99e6 c0bb 2a3e f83c
000002a0: fcc8 b13d b32e 77c0 3fad c6bf ae24 26bf
000002b0: 04e9 7cbd 2689 9d3c d719 a7bf 61d1 b8bd
000002c0: e649 923d f637 8cbd f4f8 5d3f 163d f23c
000002d0: a6d8 29be 5e7b dabd c0b9 d8bc 5ba2 00bf
000002e0: d43d 863d 9283 0ebe 4a91 28be e327 183a
000002f0: 2158 64be 3156 4440 79ae ea3e 86bd 853c
00000300: 9c09 d5be 0896 38bc 5078 e2bc 5a26 b83c
00000310: 66ef 85bf ce59 503e 98c8 92bd 09cb 053d
00000320: 218b 4cc0 d8a9 80be 8680 65bc b848 f040
00000330: 09c7 00bd 2be8 71bf 24de ef3d d4b9 24be
00000340: 119e 22bd 8c9b b73c b33a fc3c 6fbd 6c3e
00000350: 9cf1 fdbd 2a71 103d 08d7 813d 7093 bc3d
00000360: 9240 5abd 5966 0ebd 0fd2 71bc e963 823d
00000370: 81ac 3a3d 6b42 04bf 7e3d 20be 503f 1f40
00000380: c9db 8ebd bb01 73bf afa8 543d 79c5 3cc0
00000390: ea1b b3bd 5887 733f 4a1d 303e f00f cdbc
000003a0: 1ae8 8ebd cd70 b13c 0d06 5c3c 811b a8bf
000003b0: 30eb 9639 1cc3 16bd cde6 e9bc a1a8 dc3d
000003c0: 9981 973c 645c 81bb 6f4a 903d ee69 183d
000003d0: 4609 9f3e 2c58 123e 1515 2a3d 4467 d1be
000003e0: 2a70 9cbd 5e3e 08bf 4f50 2ebd bf6a a7bd
000003f0: 6ce4 86be 2c24 edbc a16d a53c 245e f7be

bias f4 [14]
-2.347876 -2.1908865 -0.53977525 0.68708885 1.7297986 0.504293 -2.530599 -2.47254
0.15665522 -1.2173675 -0.80831563 -0.694489 0.48928595 -1.4573307
00000000: 9a43 16c0 7c37 0cc0 b62e 0abf 0ee5 2f3f
00000010: 0a6a dd3f 5919 013f 56f5 21c0 183e 1ec0
00000020: 3a6a 203e b3d2 9bbf c6ed 4ebf 08ca 31bf
00000030: b083 fa3e d089 babf
