trainingOnSyntheticData/results/20230907_170446_train/model_training_set_size_2000000_hidden_neurons_200_n_batches_500.pt (torch, 336735 bytes, 6 tensors)

weight f4 [200, 200]
000000 b1 df a1 3b f4 11 a4 bd e5 e8 8e bd 9b fb 5f 3b
       0.004939996 -0.08011237 -0.06978015 0.0034177068
000010 e7 2f 5f 3c 41 45 cb bd 0c c9 2d be f7 87 4b be
       0.013622261 -0.099253185 -0.16971225 -0.19876085
000020 9e 44 33 bd d1 df 13 3c 25 cc 52 be 10 05 0d be
       -0.04376661 0.00902553 -0.20585687 -0.13771462
000030 d5 17 37 be 1a 39 60 be 15 19 c9 3c 12 cf 89 bd
       -0.17880185 -0.21896783 0.024548093 -0.06728949
000040 f2 d1 90 be 5e fc 52 be 1a eb 35 be ac 2d 35 bd
       -0.28285176 -0.20604083 -0.17765465 -0.04423301
000050 1c b2 c5 3d 91 e0 91 bd 46 f4 e5 bd 95 4b bc bd
       0.09653112 -0.07122911 -0.11228232 -0.09194104
000060 96 22 93 bc 1a e7 1d 3e 47 af 49 3c fd 31 7d bb
       -0.017960828 0.1542019 0.012309856 -0.0038634532
000070 86 37 29 3e 82 80 93 3e 2f 05 33 3e 56 10 4a bb
       0.16525087 0.2880898 0.17482446 -0.003083249
000080 6f da 5f 3d c1 f1 a4 3e a6 6d 7f 3e 4d 0f ab 3e
       0.054651674 0.32215694 0.24944171 0.3341011
000090 e2 c4 6c 3e ec 2b 90 3e ca ae 37 3e d9 6a 83 3e
       0.2312198 0.2815851 0.1793777 0.25667456
0000a0 85 26 bb 3e 09 81 e2 3e 01 1b 00 3f a0 c8 85 3e
       0.36552826 0.4423907 0.50041205 0.26129627
0000b0 b8 4c b0 3e f3 a7 7b 3e 49 57 0e 3e 76 e6 e6 3e
       0.34433532 0.24575786 0.13900484 0.45097703
0000c0 47 6f b2 3e 31 ef c4 3e e2 eb ce 3d e2 3b 0b 3e
       0.34850523 0.3846374 0.10103585 0.13597062
0000d0 56 02 9c 3e 2e fe 21 3e 23 d8 c2 3e b8 e6 8c be
       0.30470532 0.15819618 0.38055524 -0.27519774
0000e0 c3 35 83 3d d7 64 07 bd 3e 9b 45 3e 35 81 a5 be
       0.064067386 -0.033055153 0.19297501 -0.3232514
0000f0 61 e5 b2 bd b0 db a8 bd 2b 60 f8 bd a0 72 9a be
       -0.08735157 -0.08245027 -0.121277176 -0.30165577
000100 28 bc 66 be 39 a4 45 bf 29 58 7d be f4 7e cb be
       -0.22532713 -0.7720371 -0.24740662 -0.39745295
000110 9b 32 ff be e0 f4 02 bf 6d 3e 2e bf b7 35 45 bf
       -0.49843296 -0.511549 -0.68064004 -0.7703509
000120 8d da 47 be 42 df 9b be f6 3f 93 bf 1b 0d bf 3e
       -0.19516964 -0.3044377 -1.1503894 0.37314686
000130 f2 fd 5b bf cc e8 63 be cb bc 7c bd 93 61 de be
       -0.85934365 -0.22256774 -0.061703485 -0.43433818
000140 70 5c f8 bd 60 b0 11 3b d8 38 b8 bc 72 d8 3f 3e
       -0.12127006 0.0022230372 -0.022488043 0.18734911
000150 f7 e3 09 bf 4b 02 ff 3d fb af f1 3e 64 08 7f 3e
       -0.5386347 0.12451609 0.47204575 0.24905545
000160 c8 38 5a bc 07 c2 20 bf 37 25 a6 bd 6a 7e a1 3f
       -0.013319202 -0.6279606 -0.08112567 1.2616704
000170 97 59 9e 3f 39 56 14 be 0d ac 2a bf 5f 39 b3 3d
       1.2371091 -0.14486016 -0.6666878 0.08751177
000180 b8 24 6b 3f 87 06 7d 3f 65 62 02 bd 24 19 ea be
       0.91852903 0.98838085 -0.031832118 -0.45722306
000190 d0 fb 41 bf 40 a2 b6 3d b2 12 43 3f 54 75 51 3f
       -0.7577486 0.089176655 0.762004 0.81819654
0001a0 13 70 a1 3e 5b cd b9 bf 92 47 39 bf 69 68 96 3f
       0.31530818 -1.4515795 -0.7237483 1.1750613
0001b0 22 8d cc 3f 31 2e 53 be 7b e0 9b bf 5b de 54 bf
       1.598057 -0.2062309 -1.2177881 -0.8315179
0001c0 be f9 87 3d aa a3 4f 3f 52 b0 c2 be 66 87 df be
       0.066394314 0.81109107 -0.38025147 -0.43657988
0001d0 bd 23 57 3e 14 06 d1 be b2 b1 30 3f 5c 85 46 bf
       0.21009727 -0.4082495 0.6902114 -0.7754724
0001e0 67 f6 3a be 9f 2c de 3e 7b c2 32 be e2 06 0f bf
       -0.18258058 0.43393418 -0.17457001 -0.5586988
0001f0 6f 9d 8a 3b c9 78 41 bd 9d b9 d4 be 1e 00 4f be
       0.0042301933 -0.04723433 -0.41547862 -0.20214888
000200 ee 3a 63 be 3a 5d 36 be d7 41 c2 be 42 1d fa 3d
       -0.22190449 -0.17809 -0.37940857 0.12212612
000210 6e 95 cc be 0f f7 8b be 96 f8 ac be fa ba 0c 3e
       -0.39957756 -0.27336928 -0.33783406 0.13743201
000220 33 2e 94 be 95 b3 03 bf dc ef c2 bd d3 a9 c5 be
       -0.28941497 -0.51445895 -0.09518406 -0.38606128
000230 15 2d 4e 3a a5 cc 13 be 49 21 48 be e1 eb 8d bd
       0.0007864994 -0.14433534 -0.19543947 -0.06929756
000240 a1 f1 81 be 7f b0 1a 3e c1 d2 f3 3c af 03 08 3e
       -0.2537966 0.1510639 0.029763581 0.13282655
000250 2b 1d 44 bd 23 8b 0c 3e 54 ec 2f 3e 20 37 30 bd
       -0.04787938 0.13724951 0.17179996 -0.04302132
000260 f3 ab 6a 3e 23 9e 09 bc 09 ad a7 3e 1c 07 0f 3e
       0.22917156 -0.008399519 0.32749203 0.13967556
000270 74 de 50 3e c1 11 89 3e 34 ac 2a 3e c4 d0 86 3e
       0.20397359 0.26771358 0.16667253 0.2633115
000280 b7 be 83 3e 36 5e 7b 3e b8 55 c1 3d 35 c6 b2 3e
       0.2573144 0.24547657 0.09440178 0.34916845
000290 ef 1b be 3e 2f 1a a6 3e 7a 8f 02 3e 90 93 04 3c
       0.37130687 0.32441851 0.12750044 0.008091822
0002a0 e1 de 97 3e 37 a9 b4 3e 43 cd 9b 3d 61 f2 b9 3d
       0.2966223 0.3528535 0.0760751 0.09079433
0002b0 59 ee 10 3e fd 67 8f 3e aa 05 6d 3e 8f 30 26 3d
       0.14153422 0.28009024 0.23146692 0.040573653
0002c0 e6 02 83 bd b4 bd a3 3d 80 b7 f1 3d 22 ac 00 bd
       -0.06397037 0.079951674 0.11802578 -0.03141416
0002d0 90 98 49 be 0a bb a2 3d 5e 30 06 bd 14 9a 37 bc
       -0.19687104 0.07945831 -0.03276097 -0.011206169
0002e0 99 6f db bb 14 36 55 be 83 5a 45 be 2f 98 b9 3d
       -0.006696653 -0.2082141 -0.19272809 0.0906223
0002f0 ff a6 07 be 57 2c 75 bd 84 99 01 bd d8 79 91 be
       -0.13247298 -0.05985674 -0.031640545 -0.28413272
000300 e9 84 7a be 54 76 46 bd a2 0b 9e bd 21 6f 3a bd
       -0.24464764 -0.04845269 -0.077170625 -0.045516137
000310 16 56 51 be 03 1f ba 3c 61 2f 11 be 55 e1 4f be
       -0.20442995 0.022719866 -0.1417823 -0.20300801
000320 a8 50 f1 be b1 cb 41 3f 6f db 04 3f 36 b7 e4 be
       -0.47131848 0.75701433 0.5189733 -0.4467103
000330 b2 fb 3b 3f 1e 77 f2 bd 3b ac 61 3e d4 d3 bd bd
       0.7343093 -0.11839126 0.22038357 -0.09268919
000340 a1 7c f4 bd 88 27 49 3f b2 67 d0 3e a6 77 71 be
       -0.119378336 0.78575945 0.40704113 -0.23580799
000350 94 87 cf be 4b 75 b2 be a9 c9 9b be d0 db 3b be
       -0.40533125 -0.34855112 -0.30427292 -0.1834557
000360 7e a2 7c be cd a2 89 be da 4b 00 be e0 9c f3 bc
       -0.24671361 -0.2688202 -0.12528935 -0.02973789
000370 65 71 f1 3e 21 25 c3 3d 0a b8 84 3e 4a 39 82 be
       0.47156826 0.09528566 0.2592166 -0.25434333
000380 9d f1 da bb 5e 3a 19 3e ec e9 25 be 48 78 d9 bd
       -0.0066816346 0.14963672 -0.16202515 -0.10618645
000390 3a 1f 2b be 7d 48 ae bd 84 06 ea bd 86 6a 3b 3e
       -0.1671113 -0.0850992 -0.11427024 0.18302354
0003a0 a7 e8 4f 3e 35 54 ca 3c ee f9 1d be 6c fe 92 bd
       0.20303594 0.024698356 -0.15427372 -0.07177433
0003b0 ed 64 e1 bc cb cf d7 bd 9e 91 2f 3d 3a 3c 53 3e
       -0.027513945 -0.1053768 0.04286348 0.20628443
0003c0 30 fa e6 3d 21 bd df 3d 31 d6 16 be ff da be bd
       0.11278188 0.10924745 -0.14730145 -0.09319114
0003d0 35 fa 99 be 96 7c 65 bd 36 38 1d 3e 44 d7 10 bd
       -0.30073705 -0.056027018 0.15353474 -0.035361543
0003e0 0d dc 44 be e2 70 04 3e 4d 41 94 bd 6a 14 b3 3c
       -0.19224568 0.12933686 -0.07239018 0.02186032
0003f0 ff 5e 3a bc 71 44 87 3e 70 91 01 be 4a 4e 51 3e
       -0.011375188 0.26419404 -0.12653136 0.20440021

bias f4 [200]
000000 71 cd 9f 3a 89 f4 42 b9 21 33 ea be ae 51 2f bc
       0.0012191964 -0.00018592378 -0.45742133 -0.010700626
000010 81 e0 38 3d 80 f9 49 3c 49 22 e3 bb ee df 5a c0
       0.04513598 0.012327552 -0.0069315773 -3.4199176
000020 49 aa 93 bd 84 f7 35 bc a3 a6 2e bb f8 59 7b ba
       -0.07210214 -0.011106376 -0.0026649616 -0.00095882965
000030 95 43 67 ba b5 67 a0 bb 08 b7 31 bd 3a 3b 03 bf
       -0.0008822021 -0.0048951753 -0.043387443 -0.5126225
000040 a3 ff 17 bb 5c b5 03 bd ff 98 b2 bc f6 d0 1e bd
       -0.0023193143 -0.03215538 -0.02180147 -0.0387735
000050 62 a4 5a bb be 07 65 39 e7 d8 b4 b9 f1 7f 0f bb
       -0.003336214 0.00021842026 -0.0003449388 -0.0021896327
000060 c9 32 d9 bc b0 49 c0 3a 03 1c 87 bd 88 57 a2 37
       -0.026513474 0.0014670398 -0.0659714 1.9352665e-05
000070 d8 b0 35 bb f6 07 14 39 8e 90 38 3f 42 43 38 bc
       -0.0027723815 0.00014117346 0.7209557 -0.011246504
000080 ae 17 8d bb 73 ff c5 c1 bc 07 66 be 8b fb 9c c0
       -0.0043058014 -24.749731 -0.22463888 -4.905706
000090 8e 6d 64 bd ca 4a 9f bc 4b 74 d1 c1 2e 7e 39 bd
       -0.055768542 -0.019444842 -26.181784 -0.04528635
0000a0 50 cb b5 bd 91 49 a5 ba 5c 35 b1 bc cf d6 33 3e
       -0.088766694 -0.0012610425 -0.021631889 0.17562412
0000b0 79 a4 7e c1 45 3c 6c 3c 3f 42 88 bc 2b 5f 3d 3d
       -15.915154 0.014418666 -0.016633151 0.046233337
0000c0 1f 88 c0 3f b2 59 ef 3d 4d e9 46 ba aa 0f 25 bc
       1.5041541 0.1168703 -0.0007587865 -0.010074535
0000d0 d0 e4 47 bd 66 8a 8f bb b2 3a be bb ed 15 05 3f
       -0.048802197 -0.004380512 -0.005805337 0.5198658
0000e0 81 1a 2a bd d8 9c 9b bb a4 3a b6 ba f8 98 83 39
       -0.041529182 -0.004748922 -0.0013902974 0.00025100238
0000f0 73 81 46 bb 6d ce 86 bd f9 46 cd bd 27 b5 95 ba
       -0.003028956 -0.06582341 -0.100233026 -0.0011421785
000100 75 d4 9a bc 4f a6 a1 be 41 8b 14 39 2c 58 87 bd
       -0.018900136 -0.31572196 0.00014166256 -0.06608614
000110 00 28 13 bc 0d d3 bc bc e5 f8 fb b9 6a 38 12 bd
       -0.008981705 -0.023049856 -0.00048059892 -0.035698332
000120 85 e5 fc bd fd 35 a7 be 62 6a 38 3a 8d 2f 23 c0
       -0.12348465 -0.32658377 0.0007034895 -2.5497773
000130 f8 5e 41 c0 7a dd 31 3d b4 ff 5a c0 46 d6 5b ba
       -3.0214214 0.043424107 -3.4218569 -0.0008386116
000140 e5 1e 00 ba ec 47 98 3c d2 4e 20 bd b0 57 f1 bc
       -0.0004887416 0.018588983 -0.03913767 -0.029460758
000150 c1 c1 b7 bb 95 8d 48 be 28 f1 41 be b5 55 5e bd
       -0.005607814 -0.1958526 -0.1893965 -0.054280955
000160 04 7d b1 ba 68 a8 8d 39 f7 9f 35 bd 7a d3 f1 b8
       -0.0013541286 0.00027019088 -0.044342007 -0.00011531166
000170 57 c0 9a be cc 99 f0 b8 a5 ca 1a b7 d5 34 40 bb
       -0.3022487 -0.00011472739 -9.226297e-06 -0.0029328365
000180 cb 65 ea b9 bd 31 3f bd 0a 5d 6e bd b2 a8 1b 38
       -0.000447078 -0.046678293 -0.058194198 3.711199e-05
000190 e4 09 fa c0 36 2e 96 bb a7 2a cf be bc 55 0e bd
       -7.8137074 -0.0045831455 -0.4046223 -0.03474973
0001a0 e6 5b 22 c0 a7 5c 68 b9 ca 4e 2e c1 78 f4 52 bd
       -2.536859 -0.0002215976 -10.894236 -0.051502675
0001b0 60 0f b2 ba 4b 4f 0b 3d b9 67 09 bc 21 17 a4 3c
       -0.0013584904 0.034011167 -0.008386546 0.02003056
0001c0 b9 16 8a bc dc 21 2b 3e 7e 52 bc b8 a9 3a ab ba
       -0.016856538 0.16712135 -8.979904e-05 -0.0013063747
0001d0 9f 3f 8f bc b1 80 15 bd f1 81 4d bd e1 41 b5 bb
       -0.017486392 -0.036499683 -0.05017275 -0.005531535
0001e0 e1 e7 26 bc 30 10 1a 40 98 ee 9c b6 b1 de 77 3a
       -0.01018712 2.407238 -4.6769383e-06 0.0009455486
0001f0 f4 b4 31 bb bf 08 92 bd e9 97 ad 3e 12 18 9c b9
       -0.0027115913 -0.071305744 0.3390496 -0.00029772572
000200 93 2d 7d 3b bd 31 8e 38 2b 13 82 bc 56 4a 95 be
       0.00386319 6.780352e-05 -0.01587828 -0.29158276
000210 4b e6 fc bf 72 84 3b bf f4 ac ef bf 9c da 0b be
       -1.975778 -0.7324897 -1.8724656 -0.13657612
000220 23 33 8f bb e2 fb 89 bd 65 7e d5 b8 c4 69 24 bc
       -0.0043701096 -0.06737496 -0.00010180174 -0.010034982
000230 40 b9 b6 c0 3a 67 42 bf b0 c5 91 3f a2 59 12 bc
       -5.7101135 -0.7593876 1.1388454 -0.008932503
000240 cb d9 12 40 5f 55 40 be 6f 92 8b 39 7e 76 01 c0
       2.294543 -0.18782566 0.00026621248 -2.0228572
000250 5d b2 6d b9 03 a9 cb bf 78 d3 22 bc 64 df 2f bd
       -0.00022668527 -1.5910953 -0.009938113 -0.04293765
000260 f8 2a c5 bd db 92 1d bf 34 2c 5f bd 70 c1 6e bb
       -0.09627336 -0.6155221 -0.054485515 -0.0036431216
000270 27 f7 8b bb c4 61 32 ba 8d ec 3c c1 b9 e9 17 3f
       -0.004271406 -0.00068047293 -11.807752 0.5934101
000280 96 c1 38 ba 11 5a 3b bb a8 1d aa 39 03 9c 03 bf
       -0.00070478895 -0.002858762 0.00032447022 -0.5140993
000290 43 a6 0b 39 70 fd 51 bc 44 48 b3 bd 06 52 3d bc
       0.0001331801 -0.012816772 -0.08754018 -0.0115552
0002a0 7a db a2 bc c4 9b e0 ba 98 33 07 bd 1e 3f 5f bd
       -0.019880045 -0.0017136266 -0.033008188 -0.054503553
0002b0 59 a9 47 3a 0d d8 93 b9 d9 c0 2f 41 9b 01 87 bd
       0.00076164823 -0.00028198995 10.984582 -0.06592103
0002c0 7e 97 17 41 b5 60 0f 3e 80 47 d2 bb 22 a7 20 bd
       9.474485 0.14001735 -0.006417215 -0.03922189
0002d0 28 c7 d5 ba 2d fc 91 bc 91 fe 8b 3e e8 a9 16 c1
       -0.0016309964 -0.017820442 0.27342656 -9.416481
0002e0 84 60 01 bd a5 72 51 be db cc b6 bc f1 da 87 bb
       -0.031586185 -0.2045389 -0.02231448 -0.004145973
0002f0 02 78 6b bd 09 cd e8 bd 41 ba 23 b9 09 6a fb 3c
       -0.057487495 -0.11367232 -0.00015614276 0.03069021
000300 ee 4b d4 bd a5 3f 02 c1 d9 67 de c1 c4 c0 76 bd
       -0.10366045 -8.140538 -27.800707 -0.06024243
000310 b9 b8 02 b9 af a5 2d c1 e4 97 99 39 bd ec 31 bd
       -0.0001246658 -10.85295 0.000292956 -0.04343866

weight f4 [200, 200]
000000 71 de bd 3c 10 4f d2 bc bf 38 a1 3c 5a 4f b9 be
       0.023177357 -0.025672466 0.019680379 -0.36193353
000010 aa 27 ae 3f 45 a0 8d 3c eb f9 d2 3d ad 8a 39 be
       1.3605855 0.017288337 0.10301574 -0.18119307
000020 fa 9b f6 3d 18 99 00 3d f9 b7 e9 bd 3a 73 3d bd
       0.12041469 0.031396 -0.11412043 -0.046252467
000030 19 23 28 bd 42 26 51 be f3 8f 20 3e ba 88 5c bd
       -0.041049097 -0.2042475 0.15679912 -0.05384133
000040 1d c8 19 bd c3 06 9e c0 2d 3b 83 3c a8 2c 36 3e
       -0.03754436 -4.9383254 0.016019428 0.17790473
000050 fb ce 69 bd b3 80 56 3e 83 03 55 3d 67 48 35 3c
       -0.057082158 0.20947532 0.052005302 0.011064625
000060 a1 b7 c4 3d b1 d4 de 3c 14 93 91 3d 13 82 fe bc
       0.09605337 0.027201029 0.07108131 -0.031067884
000070 e0 e2 89 3e 81 d7 15 c1 c3 b9 e6 bd e2 14 e9 c0
       0.26930904 -9.365113 -0.112659 -7.283799
000080 98 14 c7 3d 67 c2 00 bf 64 6a 44 3c 6b 0f 15 be
       0.09720725 -0.50296634 0.011988256 -0.14556663
000090 c0 b3 de 3d c9 33 51 3d ab 4d 60 be fc 6b d2 3d
       0.10874128 0.051074777 -0.21904628 0.10274503
0000a0 ce db 5d 3e 40 fa 1e c1 11 63 70 c0 d9 a6 fc ba
       0.2166588 -9.936096 -3.7560465 -0.0019275799
0000b0 cc c3 f0 be 74 3c 71 3c 46 ff 83 c0 d7 64 28 3c
       -0.4702438 0.014723886 -4.1249113 0.010277948
0000c0 82 5a 7b be 63 b0 2d 3e 2a 6c 46 bf c5 08 a0 3c
       -0.24546245 0.16961817 -0.77508795 0.019535432
0000d0 ff 65 5f 3d a0 9f 98 3d 3e cc 30 bf 07 4e f0 3d
       0.05454063 0.07452321 -0.6906165 0.117336325
0000e0 9d 1e b1 3c ed e3 1f bd 01 10 3e be a9 b3 d0 bc
       0.021621043 -0.039035726 -0.18560793 -0.025476294
0000f0 b3 86 71 3f 03 a9 83 bd 29 1b 8f be 18 11 95 3d
       0.9434616 -0.06428721 -0.2795041 0.07278651
000100 70 77 50 3d 6d de 32 be e9 11 c3 3d 01 1f 06 bd
       0.050895154 -0.17467661 0.095249005 -0.03274441
000110 dd 22 b2 bc 4b 74 e9 3d 47 8b 83 3d 5c 15 4c 3c
       -0.02174514 0.11399134 0.064230494 0.012456264
000120 1c e0 5a bc 7f 84 f1 3d d4 a9 38 bc 61 00 9b bd
       -0.013359096 0.1179285 -0.011270959 -0.07568432
000130 e7 93 90 be 0a 00 d4 3d 28 c4 de bc 18 57 ef 3b
       -0.2823784 0.1035157 -0.027193144 0.0073040836
000140 0a bd 87 3d fb 63 ac ba 68 24 dd 3d b0 2b a5 3c
       0.06627853 -0.0013152355 0.107979596 0.020162433
000150 84 a3 9d 3d d5 9c 30 be df 44 08 3e 43 16 ce bf
       0.07697204 -0.17247327 0.13307522 -1.6100544
000160 25 ac 92 3d 96 61 80 bf f5 77 9b 3d 15 94 b3 3d
       0.0716174 -1.0029781 0.07591239 0.08768479
000170 71 8e 28 bf 9d 1b 83 bc 7a f8 13 3e d1 e2 b9 3c
       -0.6584235 -0.016004378 0.14450255 0.022691162
000180 ec a0 55 bb ca 97 c9 3d 46 f1 88 3d 83 fd 12 3e
       -0.0032597138 0.098434046 0.06686644 0.1435452
000190 f1 e9 98 bd fe a6 85 be 86 0a 42 3d fd a1 ad c0
       -0.07466496 -0.26103967 0.047373317 -5.426024
0001a0 71 be 73 bf ae 68 a5 3e 33 99 37 bf ca 17 4c 3d
       -0.95212466 0.32306427 -0.7171814 0.049827375
0001b0 e9 7c 5e 3b ec b0 4c 3e b2 04 6e 40 59 b9 88 bd
       0.0033948964 0.19989365 3.7190366 -0.06675977
0001c0 62 bb 94 3e 2c f7 15 3e 13 4d 99 3d ce dc dc c1
       0.29049212 0.1464507 0.07485404 -27.607815
0001d0 e4 ec b0 3d 13 9e 38 3e 94 b0 29 be f4 b9 de 3c
       0.08638933 0.1802905 -0.16571265 0.027188279
0001e0 b0 78 9b 3d b5 fb 5a be 70 43 3a 3d 65 1f 27 3e
       0.07591379 -0.21385081 0.04547447 0.1632057
0001f0 ba f2 2a 3d f7 10 59 bd bb 2f b2 3d 6c 83 de 3b
       0.04173539 -0.052994695 0.0870051 0.006790569
000200 4b 7b 99 3d 9f a1 8f bd f8 ab c4 c0 63 c4 26 be
       0.074942194 -0.07013249 -6.1459923 -0.16285853
000210 01 40 40 be fd a7 e7 3c db c7 75 bc e6 fc 8c 3d
       -0.18774416 0.028278345 -0.015001263 0.06884174
000220 cd d1 2b c1 20 22 6c be 56 86 24 bc 01 a3 a1 bd
       -10.738721 -0.23059893 -0.010041794 -0.07892419
000230 7c 82 82 bd 9c 1a 50 bd 4d 69 a8 bd 72 76 17 3e
       -0.06372544 -0.050806627 -0.082232095 0.14791277
000240 18 d5 d1 bd 34 1c ce bd b8 57 00 bd 16 ba 0a bd
       -0.102457225 -0.10063973 -0.031333655 -0.03386887
000250 46 73 82 3d 25 02 06 bf 8d 77 13 bb 2b 73 d4 3d
       0.06369643 -0.5234702 -0.0022501678 0.10373529
000260 b9 c0 41 bd 08 cb f7 bd cd ad 68 be 1c 8a d9 3d
       -0.047302935 -0.12099272 -0.2272255 0.106220454
000270 45 36 c7 be ef 87 64 3e 4a b7 56 bf ae dd 59 bd
       -0.38908592 0.2231748 -0.83873427 -0.053189926
000280 0e 87 35 ba d4 81 5b be f7 c0 08 3e 79 59 75 3c
       -0.0006924727 -0.21436244 0.1335486 0.014974945
000290 7e 56 2b 3e f2 94 b6 bc fc d6 db bd a0 c2 30 3e
       0.16732213 -0.02228782 -0.107343644 0.17261744
0002a0 a5 48 75 3d d5 b9 c2 3c 6b 05 33 3e 31 04 a6 3d
       0.059883732 0.023770252 0.17482536 0.08106268
0002b0 c2 d6 b9 3d be cf 6e bd 92 ac 27 bd 8c 9b 10 3c
       0.09074165 -0.058303587 -0.04093606 0.008826148
0002c0 8c 88 fa be 3c 6a a0 bd f7 8d b3 bd 9e 30 84 3e
       -0.48932302 -0.078327626 -0.08767312 0.25818342
0002d0 1f 4c b9 3b 44 62 31 3e 4e 3e ee 3c 22 35 b8 bd
       0.0056548263 0.17322642 0.029082444 -0.08994509
0002e0 b4 5a f4 3c 67 d7 08 3d f5 fa eb 3d 05 ee 97 bd
       0.029828407 0.03340855 0.11522476 -0.074184455
0002f0 fa a6 23 3d f4 fe bc 3c 93 1a 25 3e 4d 8e dd 3d
       0.039954163 0.02307079 0.16123419 0.10818157
000300 7f 76 1f 3e 0f 56 c0 bd 4e dc 3d be a8 c2 dd bd
       0.15572546 -0.093914144 -0.18541071 -0.10828143
000310 3e 10 5d be bc 47 e0 bd 31 44 63 bd f2 ee 5b c0
       -0.21588227 -0.10951182 -0.055484954 -3.436459
000320 a5 e5 b3 be 8d 71 c7 3d 0e d7 15 3c 1a 61 c2 3e
       -0.35136142 0.09738455 0.009145511 0.37964708
000330 f8 2b 83 3f 29 43 e6 bd 7e 11 60 3e 6e 89 bc be
       1.0247793 -0.112432785 0.21881673 -0.368236
000340 b2 a7 07 3e 2c aa 3e be 8a b8 16 be bd ff 13 be
       0.13247564 -0.18619603 -0.14718834 -0.14453025
000350 9f 5f 8d bd 80 b6 55 be ab da 05 3f 01 fd 4f be
       -0.06903004 -0.208704 0.52286786 -0.20311357
000360 70 36 44 be c9 a4 cb be 34 f5 15 bd 34 1c 00 3f
       -0.19161391 -0.3977416 -0.036610797 0.50043035
000370 5b 12 fb bd b3 39 58 3e c9 c4 84 3d 62 ec a6 3a
       -0.122593604 0.2111576 0.06482846 0.0012735242
000380 02 60 35 be 7c 79 21 be bd 66 a7 3f 94 b5 01 bd
       -0.17712405 -0.15768999 1.3078228 -0.031667307
000390 f4 2c fb 3d 34 fd 0b c0 dd 43 c2 3b 85 f5 8b bf
       0.122644335 -2.1873293 0.0059285 -1.0934302
0003a0 44 a9 91 3d ea 99 08 bd 07 79 19 3d cb 06 bf bd
       0.07112363 -0.03334991 0.037468936 -0.093274675
0003b0 1b f3 14 3f 0e 27 c7 bc 72 83 52 be 08 d5 c5 3e
       0.5818345 -0.024310615 -0.20557955 0.38639092
0003c0 33 8b 95 3d 4b 3c 4f 3e ef 99 fc be 01 d8 15 be
       0.07301941 0.20237844 -0.49336192 -0.1463318
0003d0 c6 66 a0 3d 1d d4 85 bd 43 63 e1 be a6 f1 c7 3c
       0.078321025 -0.06534598 -0.44021043 0.02440722
0003e0 e6 d2 c8 bd 74 ea c4 3d 40 3b 93 be f7 4d 27 3e
       -0.09805851 0.09615031 -0.28756142 0.16338335
0003f0 13 8a 9e bd 37 03 5e bd 50 c0 90 be b4 2f 83 bd
       -0.07741179 -0.054202285 -0.28271723 -0.06405583

bias f4 [200]
000000 2d c2 0b 41 c4 f5 ff bf bc f0 98 c0 24 b4 cc 3f
       8.734906 -1.9996877 -4.7793865 1.5992475
000010 bf 10 e3 3f be a8 9b 40 d0 08 55 40 bd 58 df 40
       1.7739486 4.8643484 3.3286629 6.9795823
000020 d7 48 9b 40 25 07 c2 3f f6 16 cb 40 74 da 5a 41
       4.8526416 1.515843 6.346553 13.678333
000030 bf d9 b1 40 32 2c 91 bf fc f8 05 bf e9 71 86 40
       5.5578303 -1.1341612 -0.52333045 4.201405
000040 b3 83 c7 be d8 e7 a3 40 12 e6 02 c1 e3 43 bf 3f
       -0.38967666 5.1220512 -8.1811695 1.4942592
000050 fc 4f 32 c0 13 98 96 40 4f c8 96 c0 70 47 32 40
       -2.7861319 4.7060637 -4.7119517 2.7856102
000060 59 ff dc 40 66 d7 18 40 e6 f8 03 41 70 20 99 bf
       6.9061704 2.3881469 8.248266 -1.1963024
000070 00 24 6f bf a5 81 84 40 3f 97 a4 40 64 a7 91 40
       -0.93414307 4.1408257 5.1434627 4.5516834
000080 04 8f b0 40 f2 f2 ec be 68 a7 e9 3f f2 7d 16 3f
       5.517458 -0.46279103 1.8254213 0.5878593
000090 91 12 10 bc fa 84 82 c0 fc 95 73 3f d6 dc 15 40
       -0.008793489 -4.0787325 0.95150733 2.3416038
0000a0 ba 83 8a 40 ff b7 4e c0 f4 e4 a8 3f c3 3a 65 c0
       4.32858 -3.2299802 1.3194871 -3.5817115
0000b0 bf a0 36 bf b9 98 9d 40 73 1d db 3f 29 ae 20 c0
       -0.7133903 4.924893 1.7118362 -2.51063
0000c0 5d c0 b6 40 a7 52 0d c0 7d d2 d8 be 29 5f 5f c1
       5.710982 -2.2081697 -0.4234809 -13.960732
0000d0 ef 11 c2 40 51 16 c2 40 d0 07 cb be 52 e5 5e 40
       6.064689 6.065224 -0.39654398 3.4827466
0000e0 ba f1 35 41 06 f2 34 40 cb cb 4d 40 48 77 a5 3d
       11.371515 2.827272 3.2155635 0.08079392
0000f0 7a 87 85 40 f2 10 c8 40 66 31 e6 40 d7 81 3a 3f
       4.1727877 6.2520685 7.19353 0.7285437
000100 3c 63 57 3f dc e2 2f bf 94 fe 19 c0 4d 86 82 41
       0.84135795 -0.68705535 -2.4061632 16.315577
000110 a8 2e a5 c1 0d 67 d7 c0 d4 e1 80 3f a5 90 bc 40
       -20.647781 -6.7313294 1.0068917 5.892657
000120 8b b9 1d 41 98 84 82 41 3d 8d f1 40 87 04 ad 3f
       9.857799 16.314743 7.548491 1.3517007
000130 fc f2 fb 3d 3e 48 8a be 8a 3f 18 40 44 62 b6 40
       0.12302205 -0.2700824 2.378878 5.6994953
000140 63 dc 85 40 df 6e 4e 40 fe 23 3d 41 cc 02 35 41
       4.1831527 3.225517 11.821287 11.313183
000150 78 48 55 c0 42 3e 00 41 5f b4 3d 40 0a 3a 8f be
       -3.3325481 8.0152 2.964134 -0.27973968
000160 4b f7 c8 41 1f 75 51 40 46 82 0d 40 86 2d 13 40
       25.120749 3.2727735 2.2110763 2.2996535
000170 c8 bd 34 3f 2e 45 1c 40 d7 b6 d1 40 07 e2 bc c0
       0.70602083 2.4417224 6.5535693 -5.902591
000180 b2 ef 1e bf 73 2a 99 bf 9f e3 85 40 a5 c4 78 c0
       -0.62084496 -1.196608 4.184036 -3.8870022
000190 07 6c 81 40 a9 67 b7 40 98 e9 18 bf c1 f5 ff 3f
       4.044437 5.731404 -0.59731436 1.9996873
0001a0 2b 94 9b 3f 17 0f 52 40 25 57 7e 40 1a 2d 03 c0
       1.2154592 3.282171 3.9740689 -2.0496278
0001b0 15 e5 2d 41 b5 2b c3 3f 31 1c 64 3f a3 8e 35 40
       10.868428 1.5247713 0.89105517 2.8368309
0001c0 85 98 87 bc 8b ba be 3f 2b fa 30 40 f5 3a 08 40
       -0.01655222 1.4900678 2.765269 2.1285985
0001d0 4f e2 d2 bf df fd 6b 40 a8 d1 50 be 56 e7 da 3f
       -1.6475314 3.68737 -0.20392478 1.7101848
0001e0 89 55 68 40 0f cd 3f 40 a7 b3 68 c0 85 1b 1f c0
       3.6302207 2.9968908 -3.635965 -2.4860547
0001f0 2c 0a 99 bf 4d bc 66 41 41 6f cf 40 06 bc bb 40
       -1.1956229 14.420972 6.482331 5.866702
000200 63 07 5b 3f bb 21 5f 40 c8 95 a2 3f 35 41 0c 40
       0.85558146 3.4864337 1.270196 2.19148
000210 75 08 e1 bf a8 51 19 c1 dd 12 49 3e a6 b4 f7 3f
       -1.7580706 -9.582436 0.19636102 1.9352005
000220 dd 68 35 3f 7f 40 96 3f 4b bf 20 41 5f a5 c9 be
       0.70863134 1.1738433 10.046702 -0.3938398
000230 2c c2 86 40 cc 10 63 41 87 a3 00 40 71 e4 33 40
       4.2112026 14.191601 2.009981 2.810818
000240 2c 33 18 bf e6 d4 a2 3f 64 41 3c 41 b4 8d d0 3f
       -0.5945308 1.2721221 11.7659645 1.6293244
000250 4d ff f4 c0 dd bf e0 40 bc 41 64 41 fe b6 b2 be
       -7.6561646 7.023421 14.266048 -0.34905237
000260 1a 9a a5 40 ac 56 58 41 ed 67 c6 40 36 d1 ba bf
       5.175061 13.52116 6.2001863 -1.4595096
000270 b2 1f cb 3f 23 e4 0f 40 e7 32 f7 40 c3 31 28 bf
       1.5869048 2.2482994 7.7249637 -0.6570093
000280 ee 0b 8a 3f c6 29 b9 39 d3 87 09 40 2d 2e 1a 3c
       1.0784891 0.00035317073 2.148915 0.009410423
000290 20 19 c6 40 46 e6 ca 40 a3 85 5c 41 16 c7 c3 40
       6.190567 6.3406096 13.782626 6.1180525
0002a0 a0 f8 86 40 d9 34 04 40 d5 cf c4 40 86 57 da be
       4.2178497 2.0657256 6.15037 -0.426449
0002b0 e6 7e 88 40 54 3a 81 40 a8 7d 9e 3f 50 be ca 40
       4.2654905 4.03837 1.2382097 6.3357315
0002c0 f9 6a 3d 40 ea ae ea 40 4d 36 84 41 8f 8a 4a 3f
       2.959654 7.333852 16.526514 0.79117674
0002d0 72 d0 1d c0 ae 96 ff 3f df 12 5d 3f d1 24 c8 40
       -2.4658475 1.9967859 0.8635692 6.254494
0002e0 af 2a 1f 41 76 f4 78 41 1e a4 d0 40 bf b9 8f c0
       9.947921 15.559683 6.520034 -4.491424
0002f0 04 a1 7e 3f 0b 70 8f 3f bc 04 07 41 6d 2b 99 3f
       0.9946444 1.1206068 8.438656 1.1966377
000300 6b 1d 32 3f 46 32 16 41 fe 75 80 c0 07 95 13 3e
       0.6957614 9.387274 -4.0144033 0.14412318
000310 14 ea 62 40 4e 6b 24 41 b4 0c 3f c0 61 5b 9c 40
       3.545537 10.276197 -2.9851503 4.8861547

weight f4 [14, 200]
000000 b1 7c 6c bc 62 a9 83 3a f5 ca 0a bd 08 ea cc 3c
       -0.014434026 0.0010044987 -0.03388496 0.025013939
000010 fe 89 d5 bb 98 be 5e 3c f6 6c 16 bc 5d 38 88 3c
       -0.006516694 0.013595246 -0.009181252 0.016628439
000020 99 55 95 3d 17 cf 7f bf 3e 72 a0 3d 32 b3 1e bc
       0.07291717 -0.9992537 0.0783429 -0.009686278
000030 f7 72 6e bc 2c b6 77 3d 3a 6d 14 be b6 4a 96 bd
       -0.014553777 0.060476467 -0.14494792 -0.07338469
000040 24 cf d6 3b b9 7d 6b bd b9 c5 ee bb 74 30 48 3d
       0.006555455 -0.057492945 -0.007286754 0.048874334
000050 b0 92 57 3c 87 fd 63 3b ed 0e 3c 3a 71 3e 67 bd
       0.013157532 0.0034788565 0.0007173855 -0.056456033
000060 97 82 0f bd 45 87 e7 3d 8d 4f 8e 3c 33 5f a6 b9
       -0.03503665 0.113050975 0.017371917 -0.00031732916
000070 3d 5d 9a 3e 09 77 fb bc 69 fc 1f 3d 13 d7 f1 3b
       0.3014926 -0.030696409 0.039059076 0.007380375
000080 09 2d a6 bd 45 c2 30 3c d7 87 5f bd 60 3b 3d bd
       -0.081140585 0.010788505 -0.054572906 -0.046199203
000090 26 86 a4 b9 41 42 07 bc 94 d0 cd 3e e6 22 c7 ba
       -0.00031380466 -0.008255542 0.40198195 -0.0015192896
0000a0 0c 4a 5e bc 27 b5 ab 3b 16 4a dc bd b0 20 4c b9
       -0.013567459 0.005240101 -0.10756318 -0.00019467133
0000b0 ee f8 c0 3b 95 87 9c 3c 12 80 cb bc de 80 87 bd
       0.0058890497 0.01910762 -0.024841342 -0.06616376
0000c0 79 51 14 3c 1a 5d fc bc 21 ae 23 bc c4 54 02 3c
       0.009052628 -0.030806113 -0.009990246 0.00795478
0000d0 3b b0 37 bb 83 54 84 bd a2 ef 8f bb 6d 0a a3 bf
       -0.0028028626 -0.06461432 -0.00439258 -1.2737557
0000e0 98 3c 25 be 82 40 e7 bc 28 ba d6 3b 0e 42 e4 3c
       -0.16136396 -0.028229002 0.0065529533 0.027863529
0000f0 50 1b 9b 3c dd 6a 99 bd 0e b9 06 bd 97 39 19 3d
       0.018933922 -0.07491086 -0.032891326 0.037408438
000100 8a 5d 9d be fa 1b f5 3b 6e a1 0e 3c 03 4d 56 bc
       -0.30735427 0.0074801417 0.00870548 -0.013079884
000110 6b 44 fa 3b ff e0 27 3b cd d5 96 3b b4 f6 5f bc
       0.0076375506 0.0025616286 0.0046031238 -0.013669658
000120 bf 0a 89 3e 9d 95 27 3d cb fd 16 3b b7 c7 74 3b
       0.2676601 0.040914167 0.0023039456 0.0037350485
000130 8c 35 2d bd 1d 8b 8b bc 91 db a3 be 18 b9 2e bc
       -0.042287394 -0.017034108 -0.32003453 -0.010664247
000140 0c 18 af bc e7 8a 18 ba 51 a6 a3 3c ed bf a8 3d
       -0.021373771 -0.0005819038 0.019976767 0.08239732
000150 08 d1 5a 3d a7 bb 08 bc d5 0d 69 ba 7e 5b a8 3b
       0.053422004 -0.008345521 -0.0008890306 0.00513786
000160 1a 30 24 bd 4b 4f 16 3c 19 e9 04 be 51 e7 98 bd
       -0.040084936 0.009174178 -0.12979545 -0.07465995
000170 42 8a d3 bc 0f 59 e4 be fe 18 d6 3c 20 b8 da 3c
       -0.025822762 -0.44599196 0.026134964 0.026699126
000180 4f 2f 2a bd ba fb 43 bd e9 4a 40 bd 3e 13 13 bd
       -0.041549023 -0.047847487 -0.04694644 -0.035907023
000190 82 e5 93 bb 41 89 72 bc c7 1c f4 bb d2 27 d7 bd
       -0.0045134434 -0.014803232 -0.0074497196 -0.10505642
0001a0 9f 07 6c be b4 9a ae 3b f1 56 c5 3e 05 55 ce bb
       -0.23049782 0.0053285006 0.38542894 -0.006296756
0001b0 3f 53 8a bd 34 8e ce 3e 9d 07 2a 3c 20 f3 fd be
       -0.06754159 0.40342867 0.010377792 -0.49599552
0001c0 d4 96 18 3c 7d 35 d5 3d 6d f1 1c 3c 68 ef 37 3c
       0.009313304 0.10410593 0.009579045 0.0112265125
0001d0 fe 1b d6 3b 52 04 91 bc e1 53 03 3a c6 0c 3c ba
       0.0065340986 -0.017702255 0.00050097523 -0.0007173534
0001e0 f0 48 36 bd 52 eb c0 bc 29 9f 01 bc 6a de 8e bc
       -0.044503152 -0.02354971 -0.007911482 -0.01744004
0001f0 7f f8 57 3c d3 2f ef 3b a9 62 87 bd dc 24 eb bc
       0.013181805 0.0072994023 -0.06610615 -0.0287041
000200 6c d2 16 3e 8c 2c 28 bc 88 0a 89 bf 64 a0 a9 bd
       0.14728707 -0.010264527 -1.0706339 -0.08282545
000210 61 2c 4f 3b 20 c9 81 3c a3 c3 0d bc bc 77 ac bd
       0.0031612145 0.015842974 -0.0086526 -0.08421275
000220 a5 66 35 c0 04 2b ce 3e ab df 3b 3c 62 2a 80 3e
       -2.83439 0.40267193 0.011466901 0.25032336
000230 90 09 e4 bb 28 22 3e 3c 21 b3 69 bf 22 80 29 3c
       -0.0069591478 0.011604823 -0.91288954 0.010345491
000240 c1 08 2b bc 09 3d 9c be 28 db 6d 3c 4c 23 91 3c
       -0.010439099 -0.30515316 0.014517583 0.017717026
000250 2c 8c ec 3a da c1 76 bc 97 60 ee bb 64 72 6f bc
       0.0018047146 -0.015060866 -0.007274698 -0.014614675
000260 bd 56 01 3c aa 20 74 3d 73 2d 15 3c 2d 25 13 3c
       0.007894215 0.059601463 0.009105074 0.008981031
000270 bc ac c7 3e d1 17 84 bc 32 93 e3 bb 03 7a 1b be
       0.38998973 -0.016124638 -0.0069450373 -0.15183263
000280 1a 29 0b c0 95 b1 48 3c 14 39 e9 3d ee c6 c9 bc
       -2.1743836 0.01224937 0.1138784 -0.02463099
000290 38 ab ba 3b 00 a7 f4 bb 28 af d6 3c f7 0c 0b 3b
       0.0056966804 -0.007466197 0.026206568 0.0021217444
0002a0 da 46 de bb 28 1f fb bd 22 32 25 bd ab 50 6a ba
       -0.0067833485 -0.12261802 -0.040331014 -0.0008938412
0002b0 62 46 89 bb 64 dc 82 3e 12 59 b4 be 4c f7 c2 bb
       -0.0041892985 0.2555877 -0.35224205 -0.0059498902
0002c0 4b e5 f0 bd 8c 1d c5 3b 88 96 cc 3c 62 fc 02 3f
       -0.11762484 0.006015485 0.024974123 0.51166356
0002d0 66 15 38 bd ae b5 4c bc 88 62 0d 3d 9f aa 89 be
       -0.044942282 -0.012494488 0.034517795 -0.26887986
0002e0 0e bc ec bc c5 51 75 3c e2 76 97 bc 8e 3c d7 bd
       -0.028898265 0.014973109 -0.018489305 -0.10509597
0002f0 d4 c6 51 bb 13 cc 6d bb d9 76 05 bd 24 dc 95 be
       -0.003200938 -0.0036284968 -0.032584045 -0.29269516
000300 10 87 2b 3c 38 99 bf bc e9 a0 44 3d 5e b2 40 bf
       0.010469213 -0.02338849 0.04800502 -0.75272167
000310 fe 8e 40 3d f2 33 70 bb b3 cd 37 bb 43 a3 8e 3c
       0.047011368 -0.0036652056 -0.002804619 0.017411834
000320 cd 1d 54 bd 20 ae e1 3c 92 39 10 bd 5e 3e 8d bc
       -0.051786233 0.02754885 -0.035211153 -0.017241653
000330 bb cb dd bb ac e4 68 3b 11 85 ed 3b 94 2f f6 3c
       -0.0067686713 0.003553669 0.007248529 0.030051984
000340 df a6 b3 3e 98 6b ad bf 7e d8 cf b9 99 f6 9b bd
       0.3508825 -1.354846 -0.00039643416 -0.07615394
000350 89 f9 e0 bc 5e 88 ca 3b c4 f6 24 be 42 d0 96 bd
       -0.027462738 0.006180807 -0.16109759 -0.07363941
000360 92 17 18 bc a0 1a d4 bd 27 58 57 3c ae d6 4f 3b
       -0.009282963 -0.10356641 0.013143576 0.0031713652
000370 eb 03 46 bc 51 7d c1 3a d6 48 8e 3b 64 88 8b be
       -0.012085895 0.0014762079 0.004342179 -0.27252495
000380 b8 7e ee bc 59 73 4d 3f fd 85 42 ba e3 7a 84 3a
       -0.029113159 0.8025413 -0.00074204785 0.0010107424
000390 44 d5 bc 3d a5 50 ec bb 28 ad 27 3e 07 1b 02 3e
       0.09220365 -0.007211762 0.16374648 0.12705623
0003a0 85 23 00 3d 6f 13 34 bc 6b 4e 45 bd 14 fb e6 bc
       0.031283874 -0.010990961 -0.04817049 -0.028195895
0003b0 0b 71 23 bb 4d 89 99 bd 4b 2f ef 3e d5 d4 36 bc
       -0.0024939205 -0.07496891 0.4671577 -0.011159142
0003c0 60 2f 27 3a d5 98 2e bb 86 7b 32 3f 6f d8 b3 ba
       0.0006377604 -0.0026641388 0.6971973 -0.0013721118
0003d0 09 2f c0 3b fd b3 5f bd ef de 97 bd cb ee dd be
       0.005864982 -0.05461501 -0.07415568 -0.43346247
0003e0 fb c0 f3 3d c3 a3 0f bd 30 9d 12 bc 67 d1 ef bb
       0.119020425 -0.035068285 -0.008948609 -0.007318664
0003f0 fb 4a 16 bc 1c d7 a2 bd 0b 76 5a 3c f0 f9 60 bf
       -0.00917315 -0.07951185 0.013333808 -0.87881374

bias f4 [14]
000000 6b 67 59 3f b5 9e b9 3d f0 c6 6c bd 22 cc a2 bf
       0.8492343 0.09063474 -0.05780691 -1.2718546
000010 a8 37 e7 bf 19 d5 91 3f 94 4d d8 bf b1 2c 22 c0
       -1.806386 1.1393157 -1.6898675 -2.5339777
000020 ab 79 90 be 9f 2a 62 be 6e ee a2 bf 3d 34 8f bf
       -0.28217825 -0.22086571 -1.2729013 -1.1187817
000030 7a da 70 bf d7 7e 45 c0
       -0.9408337 -3.0858667
