trainingOnSyntheticData/results/20230807_213046_train/model_training_set_size_2000000_hidden_neurons_200_n_batches_100.pt (torch, 336735 bytes, 6 tensors)

weight f4 [200, 200]
0	0xbd09d572	-0.033650823
1	0xbd6d4547	-0.057927396
2	0x3db53f95	0.08850018
3	0x3bdcdfaf	0.0067405323
4	0x3dcc5c59	0.099785514
5	0xba9aabd4	-0.0011800476
6	0xbe233779	-0.1593913
7	0x3db2f623	0.08738353
8	0x3dda9874	0.106736094
9	0xbe3bcae2	-0.18339112
10	0xbd06ba16	-0.03289231
11	0x3de196ab	0.11015066
12	0x3d816a54	0.063191086
13	0xbc729ac0	-0.014807403
14	0xbd326c1c	-0.043560132
15	0x3d953156	0.07284801
16	0xbddc0d15	-0.10744683
17	0xbcd8999b	-0.026440432
18	0xbc9f98f3	-0.019482112
19	0xbdf99247	-0.12186103
20	0x3d910ce7	0.07082539
21	0xbc88505e	-0.016639885
22	0x3deeea4e	0.11665784
23	0x3d454aaa	0.04816691
24	0xbd7ffaa3	-0.062494885
25	0xbdac1fe8	-0.08404523
26	0x3db0cd63	0.086329244
27	0xbd607db5	-0.054807384
28	0xbd7d17a6	-0.06179013
29	0x3dfe195e	0.12407182
30	0x3ca81efc	0.020522587
31	0x3c98cc33	0.018652057
32	0x3dc9b372	0.098486796
33	0x3ca7f1fc	0.02050113
34	0xbd0fccad	-0.035107303
35	0xbda54d6d	-0.080714084
36	0xbd32e6a9	-0.043677006
37	0x3df2f113	0.118623875
38	0xbe393085	-0.18084915
39	0x3c518380	0.0127877
40	0x3dd0bfea	0.10192855
41	0xbda13b70	-0.07872665
42	0xbbf5b26c	-0.007498076
43	0xbce2d9fe	-0.027691837
44	0xbc9e7599	-0.019343184
45	0xbdd56081	-0.10418797
46	0x3d11e351	0.035617176
47	0x3d8891db	0.06668445
48	0xba974409	-0.0011540662
49	0x3d07ff56	0.03320249
50	0x3d2e8b9f	0.04261362
51	0xbc872703	-0.016498094
52	0x3d13739d	0.03599893
53	0x3d9603b4	0.07324925
54	0xbc5871f6	-0.013210764
55	0xbd01546b	-0.031574648
56	0x3a2bf519	0.0006559655
57	0x3d97de23	0.07415416
58	0x3c8a0d00	0.016851902
59	0xbd67aae8	-0.056559473
60	0xbd3618ed	-0.044457365
61	0xbb0f9a24	-0.0021911943
62	0xbd6bea87	-0.05759671
63	0xbcc96fd8	-0.024589464
64	0xbce7672d	-0.02824744
65	0x3bf71fc8	0.0075416304
66	0x3d073b55	0.033015568
67	0x3bebc3dd	0.0071949796
68	0xbd594c2f	-0.05305117
69	0x3cec2bed	0.02882954
70	0x3cb11411	0.021616014
71	0x3d22938e	0.0396915
72	0x3c9f5f1c	0.019454531
73	0xbc4ca0e3	-0.01248953
74	0xbc9879b2	-0.018612716
75	0x3d03b558	0.032155365
76	0x3d3c86d6	0.046027027
77	0x3ce873c9	0.028375523
78	0xbc80d32c	-0.015725695
79	0xbcb69ee0	-0.022292554
80	0xbcd1c5b7	-0.025606973
81	0x3c0052e3	0.007832262
82	0xbcf2b7b6	-0.029628616
83	0xbcc5e0f4	-0.024155118
84	0xbce9e151	-0.028549822
85	0xbd2d00d2	-0.04223711
86	0x3b418738	0.002953006
87	0x3d84ec9e	0.06490444
88	0xbcf3fb10	-0.029782802
89	0xbcdd4706	-0.027011406
90	0x3d4a6e98	0.049421877
91	0xbd5bd900	-0.053673744
92	0x3d27d32d	0.040972877
93	0xbc311dd9	-0.010810339
94	0x3da54f25	0.08071736
95	0x3cb18137	0.02166806
96	0xbd75c740	-0.060004473
97	0x3d10b4ff	0.03532886
98	0x3d7f63c3	0.062351
99	0xbd3cc7d7	-0.04608902
100	0xbbcae58c	-0.006191915
101	0xbcc58d66	-0.024115276
102	0x3d14ef51	0.036361042
103	0x3c6bd3bb	0.014393742
104	0xbd1ab096	-0.03776606
105	0xbd7a51da	-0.061113216
106	0x3c28879a	0.010286236
107	0xb9886094	-0.00026011898
108	0xbc9e70ad	-0.019340837
109	0xbc17ece4	-0.009272788
110	0xbb006642	-0.00195922
111	0x3d2ab457	0.04167589
112	0x3c50e8ed	0.012750846
113	0xbd2c8b79	-0.0421252
114	0xbc8f49b1	-0.017491193
115	0x3ccce760	0.025012672
116	0x3c128916	0.008943817
117	0x3d14964d	0.03627615
118	0x3d23b06c	0.03996317
119	0xbce39a79	-0.02778362
120	0x3bd15770	0.006388597
121	0x3d6fe73c	0.05857013
122	0x3c6f9cd2	0.014624791
123	0xbd464686	-0.0484071
124	0xbd5e8e7c	-0.054335102
125	0xbc83dc30	-0.016096205
126	0x3c81cb9c	0.015844159
127	0x3c82368f	0.015895156
128	0xbd14c027	-0.036316063
129	0xbca3bd72	-0.019987796
130	0xbc15bc65	-0.009139155
131	0xbcfc02a8	-0.030762985
132	0x3d7b671a	0.061377622
133	0xbc176cdb	-0.009242262
134	0xbcd63b6a	-0.026151378
135	0x3bc70b34	0.0060743336
136	0x3d00564a	0.03133229
137	0x3c71fcdf	0.014769762
138	0x3d6178c8	0.055046827
139	0xbc43b788	-0.011945613
140	0x3ce533ed	0.027978862
141	0x3db10637	0.086437635
142	0xbd038251	-0.0321067
143	0xbdc324ad	-0.0952848
144	0x3c72b52b	0.014813702
145	0x3d398e02	0.045301445
146	0x3b2e909b	0.0026636485
147	0xbd9cc22c	-0.07654223
148	0xbd292af9	-0.041300748
149	0x3c9ce336	0.019151311
150	0xbcc56eca	-0.02410068
151	0xbd12fb75	-0.03588434
152	0xbb67fe55	-0.0035399396
153	0xbd8b42ef	-0.06799876
154	0xbcb05706	-0.021525871
155	0x3dd7118c	0.10501394
156	0x3c9d45f5	0.019198397
157	0x3c154497	0.009110591
158	0x3ba8b5c2	0.0051486203
159	0x3db567d3	0.088576935
160	0xbdd98372	-0.10620774
161	0xbc28e959	-0.010309541
162	0x3e3c1517	0.1836742
163	0xbdfbf04d	-0.12301693
164	0x3d212828	0.039344937
165	0x3d88c3e3	0.066779874
166	0x3d22bc64	0.039730445
167	0xbd1674f2	-0.03673262
168	0xbdd4f80a	-0.10398872
169	0x3c1a4298	0.009415291
170	0xbcd9f687	-0.026606811
171	0xbe0451f3	-0.12921886
172	0x3d6d07ec	0.057868883
173	0x3d969784	0.07353118
174	0xbdc1e22e	-0.094669685
175	0x3d9d85a7	0.07691508
176	0x3d6669c1	0.0562532
177	0xbd1d28e4	-0.038369074
178	0xbdfa414d	-0.122194864
179	0x3c0b6618	0.008508228
180	0xbd5c1c2f	-0.053737815
181	0x3e09b503	0.13447957
182	0x3cc88dd4	0.024481691
183	0x3c78359b	0.015149499
184	0x3ddb157b	0.106974564
185	0xbd9288bd	-0.07154987
186	0x3cf209a5	0.029545614
187	0x3c8f7407	0.01751138
188	0xbd73bc07	-0.05950549
189	0xbdcab2ac	-0.0989736
190	0x3c753bd5	0.014967878
191	0x3e3864d5	0.18007214
192	0xbdde86a7	-0.10865527
193	0xbd8089aa	-0.06276257
194	0x3e190287	0.1494237
195	0xbca6dded	-0.020369494
196	0xbd9896e5	-0.07450656
197	0x3c5bdbd4	0.01341911
198	0xbd8fae96	-0.070157215
199	0x3d53c6f3	0.051703405
200	0x3c6c8f8c	0.014438521
201	0xbc676b71	-0.014124737
202	0xbcfe63e1	-0.031053485
203	0x3c20a451	0.009804801
204	0x3d53611a	0.051606275
205	0x3d30eede	0.04319655
206	0x3d8842a0	0.06653333
207	0xbd17e2de	-0.03708159
208	0x3cbc01a9	0.02295001
209	0xbd199218	-0.03749284
210	0x3da89432	0.08231391
211	0x3d5babd4	0.053630665
212	0xbc77b08a	-0.015117774
213	0xbc1e98d5	-0.009679993
214	0x3cf216fa	0.029551972
215	0x3da2dbf0	0.07952106
216	0x3d1f2b92	0.03885991
217	0x3d4e475b	0.05036102
218	0x3d512ec7	0.05107
219	0xbd67027b	-0.05639885
220	0x3c30c878	0.010789983
221	0x3c7b95d9	0.015355551
222	0x3c941b92	0.018079553
223	0x3c25a1d0	0.01010938
224	0x3ca384cc	0.019960783
225	0x3cbb1e97	0.022841735
226	0xbd649eca	-0.055815496
227	0x3b4654ba	0.0030262903
228	0xbd6ce83e	-0.05783867
229	0x3d338210	0.04382521
230	0x3cf9a808	0.030475631
231	0x3d0df2b0	0.034655273
232	0x3c573062	0.013134094
233	0x3bc9a439	0.00615361
234	0xbca0669c	-0.019580178
235	0xbd93dfe0	-0.07220435
236	0xbda53491	-0.08066667
237	0xbdab3e0e	-0.08361445
238	0xbcf80561	-0.030276002
239	0x3d1e2b94	0.038615778
240	0x3a868df5	0.0010265695
241	0xbcc0bf5d	-0.02352875
242	0xbc84b656	-0.016200226
243	0xbd90e630	-0.07075155
244	0xbb882deb	-0.0041558645
245	0x3c50fcfb	0.012755628
246	0x3dc30fe2	0.09524514
247	0x3daefbce	0.08544122
248	0x3d50e1bc	0.050996527
249	0x3caaa117	0.020828767
250	0x3cc8baeb	0.024503192
251	0xbd08db3c	-0.033412203
252	0xbdb6e723	-0.089308046
253	0xba0e12ea	-0.00054196885
254	0x3c6ec157	0.014572463
255	0x3d195f4d	0.0374444

bias f4 [200]
0	0xba7b1724	-0.00095783384
1	0xc05282b3	-3.2892272
2	0xb9e3c1f3	-0.00043441317
3	0x3c0803be	0.008301673
4	0xc0f96023	-7.7929854
5	0xbe1c7109	-0.15277494
6	0xbb873034	-0.0041256193
7	0xbe00d17c	-0.12579912
8	0xbd6503ce	-0.05591183
9	0xc050ff38	-3.2655773
10	0xb9b04ee0	-0.00033628102
11	0x39b649c2	0.000347687
12	0xbb060bdb	-0.0020453844
13	0xbd0e4586	-0.03473427
14	0xbbd40ad6	-0.0064710183
15	0x3c40eb68	0.011774875
16	0x3e8516ed	0.25994053
17	0xbb814dae	-0.0039460277
18	0xb98b009f	-0.0002651261
19	0x40252c6a	2.5808358
20	0xb90aa6d4	-0.00013222854
21	0xbabcc1c6	-0.0014401011
22	0xba2b99ce	-0.0006546051
23	0xbc04d81d	-0.008108166
24	0x3f2c1cf9	0.6723171
25	0xbca862b7	-0.020554883
26	0xba0eb05b	-0.0005443149
27	0xba6a0b03	-0.00089280325
28	0xbfc64b22	-1.5491679
29	0xbc0f3eec	-0.008743029
30	0x3d94b06f	0.072602145
31	0xba1120ad	-0.000553618
32	0xbaba19e8	-0.0014198394
33	0xba34884f	-0.00068867666
34	0xc06632d0	-3.5968513
35	0xba70bc43	-0.00091833266
36	0xbc5f8046	-0.013641423
37	0xbc62f4d8	-0.013852321
38	0xbc99d8a1	-0.018780055
39	0xc12e59fb	-10.896968
40	0x3d5a8fe1	0.05335987
41	0xbc8c9e60	-0.017165363
42	0x3e11c2a9	0.14234413
43	0xbbb11209	-0.0054037613
44	0x3ce51186	0.027962457
45	0xc07349d7	-3.8013818
46	0x3b53334d	0.0032226623
47	0xbb5dd96b	-0.0033851515
48	0x3ffbd938	1.9675665
49	0xbe4013eb	-0.18757598
50	0xb9aa316e	-0.00032461755
51	0xc0151de8	-2.3299503
52	0xb832de43	-4.2645504e-05
53	0xb9d7604a	-0.00041079737
54	0xba9ed1c4	-0.0012116958
55	0xb89392f2	-7.036877e-05
56	0x39707362	0.00022931167
57	0xbaacff7c	-0.0013198699
58	0xbcfe2dda	-0.031027723
59	0xbbcce191	-0.0062524755
60	0xbfe55e88	-1.7919474
61	0xbd27cc2d	-0.0409662
62	0xbb8096e8	-0.0039242394
63	0xbc85cb6c	-0.01633235
64	0xbc0ccd1e	-0.008593826
65	0xba8f5299	-0.001093465
66	0xbc5370b1	-0.012905286
67	0xc0873eef	-4.2264323
68	0xbfa9cec0	-1.326622
69	0xbee563ae	-0.44802612
70	0xb79aff8a	-1.8477225e-05
71	0xbcce7c42	-0.025205735
72	0xbc398771	-0.011323796
73	0xbef80a44	-0.48445332
74	0x3b63bddc	0.0034750616
75	0x3c6e7a10	0.014555469
76	0xbb05821c	-0.002037174
77	0xbc57b6fd	-0.013166186
78	0x38c8a1ac	9.566857e-05
79	0xbebdc37d	-0.37063208
80	0x391454ce	0.00014145972
81	0xbdb79997	-0.08964842
82	0xbc1d7e13	-0.009612578
83	0xbe7063d1	-0.23475577
84	0xbb0e523c	-0.0021716496
85	0x3b22facb	0.0024868723
86	0x3e5d9b0a	0.21641174
87	0x3fc64f2a	1.5492909
88	0xba230fde	-0.0006220321
89	0xbd08fa8a	-0.033442058
90	0xbc24d5e9	-0.010060766
91	0xbbb7662c	-0.0055968966
92	0xbceb88a8	-0.028751686
93	0x3e54280e	0.20718405
94	0xc0cc56d4	-6.385599
95	0xbdaaabe2	-0.08333565
96	0xbbb7b82b	-0.0056066713
97	0xba998ed5	-0.0011715541
98	0xbb24e2b4	-0.002515954
99	0xbd775b0a	-0.060389556
100	0xbcc08467	-0.023500634
101	0xb9896d10	-0.00026211934
102	0x3db4bf2d	0.088255264
103	0xbe549f05	-0.20763786
104	0xbb0bbc3f	-0.002132192
105	0x38b7cd15	8.7643195e-05
106	0x3d3d283d	0.046180952
107	0x3b1b8893	0.0023732528
108	0xbf6c55a3	-0.9231817
109	0xbc185684	-0.009297971
110	0xba9078f3	-0.0011022374
111	0x390ed96b	0.0001362317
112	0x3d3937c4	0.045219198
113	0xba083ca7	-0.0005197026
114	0xbcdfdf36	-0.027328115
115	0xba96b341	-0.0011497514
116	0xbb57a80f	-0.0032906567
117	0xbd3c08b5	-0.04590674
118	0xbd86b392	-0.06577219
119	0xba854311	-0.0010167082
120	0xbd10cbb6	-0.035350524
121	0xb6a8adaf	-5.0270096e-06
122	0xb9ced584	-0.00039450463
123	0xb7c87040	-2.3894128e-05
124	0xbc477441	-0.012173713
125	0xbc4a9df0	-0.012366757
126	0xbb0115e7	-0.0019696893
127	0xbcb523de	-0.02211183
128	0xbb05fdc1	-0.0020445439
129	0x3b9be73d	0.0047577904
130	0xbe0072ae	-0.12543747
131	0xbe2f9490	-0.17146516
132	0xba52cd22	-0.00080414314
133	0xbd4c3c66	-0.049862288
134	0xbb93d903	-0.004511954
135	0xbc04b36e	-0.00809942
136	0x3e19be0f	0.15013908
137	0xba9d71f0	-0.0012012105
138	0x40d59446	6.67435
139	0xb831b35c	-4.236713e-05
140	0xbd974567	-0.07386284
141	0xbce5c5ad	-0.02804836
142	0xbb53b29a	-0.00323025
143	0xc1350af6	-11.315176
144	0xb9630857	-0.00021651514
145	0x38f5f3bc	0.000117279094
146	0xbb963796	-0.004584263
147	0xbb62386c	-0.0034518493
148	0xc0d2f6cd	-6.592627
149	0xbcb1f88b	-0.02172496
150	0x382dbea0	4.1423948e-05
151	0xb9898f16	-0.00026237284
152	0xbb07640a	-0.0020658993
153	0xbc2eb92b	-0.010664265
154	0xb9a1663e	-0.0003078449
155	0xbad2e873	-0.0016091004
156	0x373cd496	1.125517e-05
157	0xbaf76a0e	-0.0018876211
158	0x3a5171bf	0.0007989667
159	0xc01404a8	-2.3127842
160	0xbe3282a6	-0.17432651
161	0xbe35152e	-0.1768386
162	0xbaa4ad49	-0.001256385
163	0xbadf1b57	-0.0017021698
164	0xbea8776c	-0.32903612
165	0xbb5a7cf6	-0.0033338643
166	0x4047802d	3.1171982
167	0xb7d5309e	-2.5414218e-05
168	0xb9cbfa1a	-0.00038905517
169	0x3990cd77	0.00027618904
170	0xbf9abdf6	-1.2089221
171	0x3d7e99bc	0.06215833
172	0xba2898e6	-0.0006431475
173	0xb95a0257	-0.00020790972
174	0xbb2223cf	-0.0024740582
175	0xbf8550ba	-1.0415261
176	0xbd74cfc4	-0.059768453
177	0xbd01c0d3	-0.031678032
178	0xbd238fa5	-0.039931912
179	0xb9ba0f3e	-0.0003548804
180	0x3f836bc7	1.0267266
181	0xbd6a05ce	-0.057134442
182	0xbc1c9e20	-0.009559184
183	0x3acc757c	0.0015598978
184	0xbb16d748	-0.0023016501
185	0xbe4466e5	-0.19179876
186	0xbbb49565	-0.0055109733
187	0xbc482dc0	-0.012217939
188	0xbf442974	-0.7662575
189	0xbdf64188	-0.12024218
190	0xbc046edb	-0.008083071
191	0xc028675b	-2.6313083
192	0xb6c36bbd	-5.8239953e-06
193	0x39f81fc5	0.00047325916
194	0xbb485425	-0.0030567732
195	0x3e3802bb	0.17969792
196	0xbd6280c9	-0.0552986
197	0xbbbaa0c6	-0.005695435
198	0xba2ac8c5	-0.00065149023
199	0xba304e23	-0.00067255105

weight f4 [200, 200]
0	0x3d29702d	0.041366745
1	0xbe162168	-0.14661181
2	0x3d8a6bc8	0.06758839
3	0x3cbe32f9	0.023217665
4	0xbe9c1782	-0.30486685
5	0x3cbe4dda	0.023230482
6	0x3d72f87d	0.05931901
7	0xbca074e9	-0.019586997
8	0xbd02d396	-0.031940065
9	0xbe59de07	-0.21276103
10	0x3d4a1292	0.049334116
11	0xbf84fdeb	-1.038999
12	0x3d85ad67	0.065272145
13	0xbf6c3090	-0.922616
14	0xbf61d8b3	-0.8822128
15	0x3d439fbd	0.04775976
16	0x3b788b05	0.003792466
17	0x3e5a5c1e	0.21324202
18	0xbfaed396	-1.3658321
19	0xbdeaf98e	-0.1147338
20	0xbd7ae859	-0.06125674
21	0xbd82177f	-0.06352138
22	0x3d85c6ec	0.06532082
23	0xbd7c790e	-0.061638884
24	0xbd088527	-0.03333011
25	0xbf9cc92a	-1.224889
26	0xbf88bd46	-1.0682762
27	0xbf98aa70	-1.1927013
28	0xbd47ff7b	-0.04882763
29	0x3c557c61	0.0130301425
30	0xbd448337	-0.0479767
31	0xba5cfec7	-0.0008430299
32	0xbdd2edb5	-0.10299245
33	0x3d0c35fe	0.03423118
34	0xbdcd037f	-0.100104325
35	0xbeaf0790	-0.34185457
36	0xbd3a122f	-0.045427497
37	0x3dde3968	0.10850793
38	0xbfc8e99c	-1.5696292
39	0xbe1f5c47	-0.15562545
40	0xbe2e6a30	-0.17032695
41	0xbc611bfe	-0.013739584
42	0xbc8c4a1e	-0.017125186
43	0x3a6ab660	0.00089535676
44	0x3bd08fd3	0.0063648014
45	0xbea279c5	-0.31733528
46	0x3d7c7bdc	0.06164156
47	0xbda03c0f	-0.07823955
48	0xbd887b98	-0.06664199
49	0xbd3f1287	-0.04664853
50	0x3d9f38ac	0.07774481
51	0xbe937d73	-0.28806648
52	0x3c6b64f2	0.014367329
53	0xbdbd335a	-0.0923831
54	0x3dff1dc7	0.124568515
55	0x3e1035ca	0.14083019
56	0xbc990367	-0.01867838
57	0xc03d73fb	-2.960204
58	0xbf6680c0	-0.90040207
59	0xb96d8c06	-0.00022654244
60	0xbd2cdf0c	-0.0422049
61	0xbd30c2f1	-0.04315466
62	0xc0bc8062	-5.8906717
63	0xbe2381f7	-0.15967546
64	0x3c31c9ef	0.010851367
65	0x3dcd50ab	0.10025152
66	0xbf843ce6	-1.0331085
67	0xbf2f1459	-0.68390423
68	0xbd1b5754	-0.03792508
69	0xbb5fef30	-0.0034169666
70	0xbfad08a7	-1.3518265
71	0xbf86f915	-1.0544764
72	0xc05bc6bc	-3.4340048
73	0xbda4d3fc	-0.08048245
74	0x3cf5ee4e	0.03002086
75	0x3c821e74	0.015883662
76	0xbe925145	-0.2857763
77	0x3c1d07f8	0.009584419
78	0xbe468e49	-0.19390215
79	0x3cc21891	0.023693355
80	0x3d59b9d9	0.053155754
81	0xbe9121d0	-0.2834611
82	0xbe3c654a	-0.18398014
83	0x3bda81f9	0.006668326
84	0x3d792b8c	0.060832545
85	0xbe22b9bd	-0.15891166
86	0xbd175bec	-0.036952898
87	0xbdb647e0	-0.08900428
88	0xbe24760e	-0.1606066
89	0x3da07f3d	0.07836769
90	0x3d3800f8	0.0449228
91	0x3cf6b5cb	0.030115983
92	0xbed8d4e7	-0.42349932
93	0xbd443d17	-0.047909822
94	0xbe4cd514	-0.20003158
95	0x3ca725eb	0.020403823
96	0x3e1c1ab3	0.1524456
97	0xbe6603eb	-0.22462432
98	0x3eefb960	0.46821117
99	0xbca33aaf	-0.019925443
100	0xbf0a55ab	-0.5403697
101	0xbe28c2f7	-0.16480623
102	0x3d0b2136	0.03396722
103	0x3c9a859d	0.01886254
104	0xbdd867aa	-0.10566647
105	0xbee01151	-0.4376321
106	0xbd15a5ac	-0.03653495
107	0xbf35b908	-0.7098546
108	0xbdda21d2	-0.10650982
109	0xc0f8644f	-7.7622447
110	0xbe73a424	-0.23793083
111	0x3d23f80b	0.040031474
112	0x3dc272e8	0.09494573
113	0xbd52939f	-0.051410314
114	0xbd9c19ea	-0.0762213
115	0x3d964b32	0.07338561
116	0xbdb96326	-0.09052114
117	0xbdf7adb6	-0.120936796
118	0xbe7d0003	-0.24707036
119	0xbca0d921	-0.019634785
120	0xbd783b1e	-0.060603254
121	0xbd750294	-0.05981691
122	0xbea33997	-0.31879875
123	0x3e37c75a	0.1794714
124	0x3d986dfe	0.07442854
125	0xbe217ba2	-0.15769818
126	0xbf372f2e	-0.71556365
127	0xbd37b666	-0.044851683
128	0xbe70ecb9	-0.23527803
129	0x3d866860	0.06562877
130	0xbdde3621	-0.10850168
131	0x3ce04214	0.027375259
132	0xbe0bd5c3	-0.13655762
133	0xbd10871b	-0.035285097
134	0xbe4a7e38	-0.19774711
135	0xbf5efb5a	-0.8710228
136	0x3e463fe8	0.19360316
137	0x3e321cf3	0.17393856
138	0x3b7360a9	0.0037136471
139	0xbda130ef	-0.078706615
140	0xbec85655	-0.39128366
141	0xbf72a22b	-0.947787
142	0xc0b3a901	-5.6143804
143	0xbe106f5b	-0.14104979
144	0xbcf242a8	-0.0295728
145	0xbc4f0488	-0.012635358
146	0x3d2e492e	0.04255026
147	0xbf08b9ce	-0.53408515
148	0xbe14ae65	-0.14519651
149	0x3e8f8fff	0.28039548
150	0xbe47f888	-0.19528401
151	0x3d05b1da	0.032640316
152	0x3b6f3816	0.0036501936
153	0xbe614346	-0.21998319
154	0x3e99d54b	0.30045542
155	0xbd61535e	-0.055011146
156	0xbf347492	-0.7049037
157	0xbf8d3a08	-1.1033335
158	0x3d0bcbf2	0.034130044
159	0xbde1fa49	-0.11034066
160	0xbbd4eb59	-0.006497782
161	0xbe202b9b	-0.15641634
162	0xbeb7080f	-0.35748336
163	0xbf5a90aa	-0.8537699
164	0xbd44115c	-0.047868118
165	0xbcb25c52	-0.021772537
166	0xbe2d1e80	-0.16906166
167	0xc01b6dc0	-2.4285736
168	0xbe13a320	-0.14417696
169	0x3abd6118	0.0014448492
170	0xbe3f43fd	-0.18678279
171	0xbdbff4e3	-0.0937288
172	0xc05fe44e	-3.4983096
173	0x3d588b3c	0.05286716
174	0x3cb7d585	0.022440681
175	0xbdc841de	-0.09778188
176	0xbc9ada34	-0.018902875
177	0xbfdd7b27	-1.7303208
178	0xbe833e31	-0.25633386
179	0xbc79cba6	-0.0152463075
180	0xbeeaeb38	-0.45882583
181	0x3d3b8fac	0.045791313
182	0xbf801c1d	-1.000858
183	0x3d6431ab	0.05571143
184	0xbeac4ee4	-0.3365394
185	0xbd069a53	-0.03286202
186	0xbed6f9cc	-0.41987455
187	0x3c4129e6	0.0117897745
188	0x3ce52dca	0.027975935
189	0xbe805f22	-0.2507258
190	0xbd64bf20	-0.055846334
191	0x3d219e1b	0.03945742
192	0x3f456f4a	0.7712294
193	0xbe38775c	-0.18014282
194	0xbed2960a	-0.41130096
195	0xbe030a24	-0.12796837
196	0xbf510757	-0.81651825
197	0x3df2b46e	0.118508205
198	0x3dd6c491	0.10486711
199	0x3c5842c7	0.013199515
200	0x3e0fe603	0.14052586
201	0xbccddacd	-0.025128746
202	0x3dbbef7d	0.09176538
203	0xbe85b253	-0.26112613
204	0xbc1a7336	-0.0094268825
205	0xbd4ec97c	-0.05048512
206	0x3db0c08a	0.08630474
207	0x3d972d48	0.073816836
208	0x3e0d47c3	0.13796906
209	0xbd9c1800	-0.07621765
210	0xbd67dae1	-0.056605224
211	0x3ce671cf	0.02813044
212	0x3e8afbdb	0.27145275
213	0xbf659892	-0.8968593
214	0xc0030afd	-2.0475457
215	0xbd0ca562	-0.03433741
216	0xbe85ae18	-0.26109385
217	0xbfcbf749	-1.593484
218	0xbf061716	-0.52378976
219	0xbdc3e581	-0.09565259
220	0xbd980a9d	-0.07423899
221	0xbe788895	-0.24270852
222	0x3e3339c5	0.17502506
223	0xbe97b862	-0.2963286
224	0xbcf5e955	-0.030018488
225	0xc0c8f58f	-6.2799754
226	0xbf1bd561	-0.60872465
227	0xbf111d21	-0.5668507
228	0xbbee90d9	-0.007280451
229	0xbd890d60	-0.06692004
230	0xbcd2decc	-0.025741003
231	0xbe544b75	-0.2073191
232	0x3e11ace5	0.1422611
233	0x3d39120b	0.045183223
234	0xbdf2502e	-0.11831699
235	0x3d1f2249	0.038851056
236	0x3e318c8e	0.17338774
237	0xc02e3715	-2.722112
238	0xbf25b9f4	-0.64736867
239	0xbea604b8	-0.32425475
240	0xbe309713	-0.1724513
241	0xbeabe875	-0.33575788
242	0x3d6f8d08	0.058484107
243	0x3e2544da	0.16139546
244	0xbdca5b68	-0.098807156
245	0xbe585a10	-0.21128106
246	0xbd898360	-0.06714511
247	0xbd96dc16	-0.07366197
248	0xbd0b99c2	-0.03408218
249	0xbd29654a	-0.041356362
250	0xbdc9c541	-0.09852076
251	0xbdc7b942	-0.09752132
252	0xbce5686d	-0.028003896
253	0xbd6d403b	-0.057922583
254	0xc12fe4fd	-10.993405
255	0xbca8185b	-0.020519426

bias f4 [200]
0	0x3fe60099	1.7968932
1	0x3f8899f3	1.0671982
2	0x400a4346	2.160356
3	0x3fc6342a	1.5484669
4	0xc017025f	-2.3595197
5	0xc02a7b97	-2.6637933
6	0x4030ddb9	2.7635329
7	0xc09b2c92	-4.8491907
8	0x4031236a	2.7677865
9	0xc04e95f1	-3.2279017
10	0x3ffca3de	1.9737508
11	0xbf9ff68b	-1.2497114
12	0x4010deec	2.263606
13	0x3fc94e0c	1.5726943
14	0x3fa53258	1.2905989
15	0x3fba07a0	1.4533577
16	0x3fe2624f	1.7686251
17	0x3f3c71d8	0.7361121
18	0xc087d462	-4.2446756
19	0x4008b721	2.1361773
20	0xbecb1432	-0.39663845
21	0x3f68d319	0.9094711
22	0x3f199853	0.59998053
23	0x4049cde3	3.1531913
24	0x3fd02988	1.6262674
25	0x3fa0f610	1.2575092
26	0x3f685475	0.9075387
27	0x3f5d9811	0.8656016
28	0x4081442e	4.0395727
29	0xbf738457	-0.9512381
30	0xbf2cfb42	-0.6757089
31	0x404104fc	3.0159292
32	0x40391fe4	2.8925714
33	0x3fec746f	1.8473033
34	0x3ea923bd	0.3303508
35	0x406ad473	3.6692169
36	0x3fd53cfa	1.6659234
37	0x4059825d	3.3985817
38	0x40d5194c	6.659338
39	0xbf28f0e7	-0.6599259
40	0x3fbd2af7	1.4778737
41	0x405ecc35	3.4812138
42	0x400573a0	2.0851822
43	0x3f279143	0.65456027
44	0x3f07cc1f	0.5304584
45	0x3fc26216	1.5186183
46	0x3f2e8fe4	0.6818831
47	0x4097b108	4.7403603
48	0x3f953223	1.1655926
49	0xc11bb527	-9.731727
50	0x3fa5c8c1	1.295189
51	0x404106cc	3.0160398
52	0x3c1b3a37	0.009474329
53	0x406ab8ef	3.6675375
54	0x40be83b0	5.953575
55	0xbe231b99	-0.15928496
56	0x3fa9704c	1.3237395
57	0x4063118c	3.547946
58	0x3fa42319	1.2823211
59	0x3ee0150c	0.43766057
60	0xc00cbfb2	-2.1992002
61	0xbdce10eb	-0.100618206
62	0xc03c027d	-2.9376519
63	0x3f5c56c3	0.8606989
64	0x3e87aa1f	0.2649698
65	0x3fd7adbc	1.6849895
66	0x3f868743	1.0510029
67	0x408db492	4.4282923
68	0x40af3a01	5.4758306
69	0x3ffa29f9	1.9544059
70	0x4090d021	4.5254064
71	0x3f99a0c0	1.2002182
72	0x402d41e4	2.7071466
73	0xbf34aa92	-0.7057277
74	0x3f52a0a6	0.8227638
75	0x4094fe75	4.6560616
76	0x40312d2a	2.7683816
77	0x4020a3db	2.510001
78	0xbf923879	-1.1423484
79	0x3fc578c9	1.5427486
80	0x3eea3f9f	0.45751664
81	0xc00c142a	-2.1887307
82	0x3f986836	1.1906803
83	0x3feb9d22	1.8407328
84	0x3fb93720	1.4469948
85	0x4027240c	2.6115751
86	0x3f679409	0.9046026
87	0x3fbf88bb	1.4963602
88	0xbf9588e2	-1.1682398
89	0x4054ca9e	3.3248668
90	0x3d198f6e	0.0374903
91	0x3fe50d44	1.7894673
92	0x3f8bec02	1.0931399
93	0x3d9951e2	0.07486321
94	0x40e40dee	7.1267004
95	0xc08b64b8	-4.356045
96	0x41048de9	8.284646
97	0x40563b1b	3.3473575
98	0xc05e2d77	-3.471525
99	0xbfe0d6d7	-1.7565564
100	0x3eb2409f	0.34814927
101	0x40837f71	4.109307
102	0x3f99cf67	1.2016419
103	0x3fc2cb20	1.5218239
104	0x405c596c	3.4429579
105	0xc0282ee7	-2.6278627
106	0x4033eafd	2.8112175
107	0x40081d2a	2.12678
108	0xbf9e1dd1	-1.2352849
109	0xc0520ee2	-3.2821584
110	0x3faf627a	1.3701928
111	0xbfae0b15	-1.3597132
112	0x3f4e4c3d	0.8058508
113	0x3f247639	0.64242893
114	0x3f4d3de1	0.80172545
115	0xbed4fa93	-0.41597423
116	0x40095f19	2.1464293
117	0x3faaaf10	1.3334675
118	0x3f295170	0.6613989
119	0xbeb34b90	-0.35018587
120	0x404fcf18	3.247015
121	0x403018d0	2.7515144
122	0x3fe6820c	1.8008437
123	0x3dfdd9cd	0.12395058
124	0x3fa9c761	1.3263971
125	0x40a87eed	5.265494
126	0x3f9b7cb5	1.2147433
127	0x3f47ba12	0.78018296
128	0x3f5f6b7d	0.8727339
129	0x3e1c84b1	0.15284993
130	0x3e7b48e7	0.24539529
131	0x3f7ff0e3	0.9997694
132	0xbf1fbe6f	-0.62399954
133	0x4004e712	2.0766034
134	0x4049a8df	3.150932
135	0xbd81fba5	-0.063468255
136	0x40074924	2.1138391
137	0xbf53b632	-0.82699883
138	0x3f1d5491	0.61457163
139	0x4018ad3d	2.3855736
140	0x3e93b94c	0.28852308
141	0xc0109ed4	-2.259694
142	0x3f84065c	1.0314441
143	0x40cb201a	6.3476686
144	0x3f70c2f1	0.94047457
145	0x3f8b6ede	1.0893209
146	0x40169d62	2.353356
147	0x400409d8	2.0631008
148	0x3f34714e	0.7048539
149	0x3fb7ee9e	1.4369695
150	0xbedd7bc3	-0.43258485
151	0xc0119e83	-2.2752998
152	0xbf4801ba	-0.78127635
153	0x4070d1da	3.7628083
154	0x3f252871	0.64514834
155	0x3f99f520	1.2027931
156	0x3f75e261	0.9604855
157	0xbeaf6176	-0.34254044
158	0x3fde2f2a	1.7358143
159	0x3f1d9c12	0.6156627
160	0x40697fa2	3.648415
161	0xbca54344	-0.020173676
162	0x3f0c0a74	0.5470345
163	0x3f6828d5	0.90687305
164	0x40667201	3.6007082
165	0xbf61e6a7	-0.8824257
166	0x3eb9d0d3	0.36292133
167	0xbeddd3f4	-0.4332577
168	0xbe8f5ed5	-0.2800204
169	0x3f92f4e5	1.1480986
170	0x3f7cc5be	0.9873923
171	0x40770ddc	3.860221
172	0x3f53eefa	0.82786524
173	0x40436414	3.0529833
174	0xbffd4f94	-1.978991
175	0x3e02f069	0.12787022
176	0x404e0548	3.2190723
177	0x3daff5f6	0.08591835
178	0x3f996572	1.1984084
179	0x40469ff1	3.103512
180	0xbffc6e28	-1.9721117
181	0xbf94fe5e	-1.1640127
182	0x400e86d9	2.2269804
183	0x3e172070	0.14758468
184	0x3f39b686	0.72544134
185	0x40322165	2.7832882
186	0x402315d6	2.5482078
187	0xbe73ab37	-0.23795782
188	0x400f42ac	2.2384443
189	0x402393dc	2.5558996
190	0x408b1f4e	4.3475714
191	0x3fbfa2de	1.4971578
192	0x402ccaff	2.69989
193	0xc022586b	-2.5366466
194	0xbf78c97f	-0.9718246
195	0x409327bc	4.5986004
196	0x4027d5f8	2.6224346
197	0x3fa58771	1.2931958
198	0x402ed0b9	2.7314894
199	0xc020c820	-2.5122147

weight f4 [14, 200]
0	0xbe3d94c7	-0.18513785
1	0xc0205d79	-2.505705
2	0xbbc24bfb	-0.0059294677
3	0x3d72c113	0.05926616
4	0xbd4542e4	-0.048159495
5	0xbb13789d	-0.002250231
6	0xbe4c8581	-0.19972803
7	0x3d888066	0.06665115
8	0xbdbc16e3	-0.09184053
9	0xbbd8be45	-0.006614479
10	0x3c268b93	0.010165113
11	0xbc9da4d7	-0.01924364
12	0xbbf09384	-0.007341804
13	0xbf1ba43b	-0.6079747
14	0xbcda74d9	-0.026667045
15	0xbec040e5	-0.3754951
16	0xbc477a57	-0.012175164
17	0xbc5b667d	-0.013391134
18	0x3da37df4	0.07983008
19	0x3e63dee7	0.22252999
20	0xbdbe4c38	-0.09291881
21	0xbaed66b7	-0.0018112276
22	0x3d95e298	0.0731861
23	0xbd7ef8e1	-0.06224907
24	0xbc4327a1	-0.011911304
25	0xbf634805	-0.8878177
26	0xbdaa7462	-0.083229795
27	0x3a4fd352	0.00079279125
28	0x3e6b9e43	0.23009591
29	0xbe96414e	-0.293467
30	0x3c95c749	0.018283503
31	0x3b4995ee	0.003075953
32	0xbc7cf2ff	-0.015438794
33	0x3b995609	0.0046794456
34	0xbf774096	-0.96582925
35	0x3df2798e	0.11839591
36	0x3a6cc44b	0.00090319355
37	0x3f29d055	0.66333514
38	0x3de9243d	0.11383865
39	0xbd209f38	-0.039214343
40	0xbc4af195	-0.012386699
41	0xbf5d4cad	-0.8644512
42	0xbc0b99a9	-0.008520522
43	0xbf8ab8de	-1.0837667
44	0x3cec7d5d	0.028868372
45	0xbf891e9d	-1.0712467
46	0xbf06f94b	-0.5272414
47	0x3d4ee896	0.05051478
48	0x3e3c8b20	0.18412447
49	0x3b008ba3	0.001961448
50	0xbcc3f080	-0.02391839
51	0xbb106f9a	-0.0022039176
52	0x3ca1cb5f	0.019750295
53	0xbd757879	-0.059929345
54	0x3e2b2b5b	0.16715758
55	0xbc36c40c	-0.01115514
56	0xbf61ed44	-0.88252664
57	0x3ccdd008	0.025123611
58	0xbd133adf	-0.035944816
59	0x3e08d536	0.13362584
60	0x3c7575d9	0.01498171
61	0xbc6ebc64	-0.014571283
62	0x3daee695	0.08540074
63	0x3fb87744	1.4411397
64	0x3d0138d8	0.03154835
65	0x3d43bc61	0.047787074
66	0x3bf84ab2	0.0075772638
67	0xbba7db75	-0.005122597
68	0xbde28ab3	-0.11061611
69	0xbcc1f065	-0.0236742
70	0xbc5ed8b2	-0.013601469
71	0x40199402	2.3996587
72	0xbf6c5461	-0.9231625
73	0xbdcc9a90	-0.09990418
74	0x3d837b49	0.06419999
75	0x3d50d28c	0.050982043
76	0xbd064ca9	-0.032787953
77	0xbe50e129	-0.20398392
78	0xbc66f343	-0.014096084
79	0x3b7cd67f	0.0038579998
80	0xbcea037d	-0.028566116
81	0x3cc44f4e	0.023963597
82	0x3fe2f4b7	1.7730931
83	0xbc6d9d85	-0.014502888
84	0xbc4227f9	-0.011850351
85	0x3cc361e5	0.02385039
86	0xbcd6d3a0	-0.026223958
87	0x3d665fe9	0.05624381
88	0x3dc18191	0.09448541
89	0x391515b7	0.00014217837
90	0xbba07beb	-0.0048975847
91	0x3ad136ff	0.0015961825
92	0x3bd2987e	0.00642687
93	0xc0512304	-3.2677622
94	0xbdb3bf27	-0.08776694
95	0x3a5b7e3f	0.0008372999
96	0xbe212b8c	-0.15739268
97	0xbd283d06	-0.04107382
98	0xbd2263ca	-0.039645948
99	0xbc744291	-0.014908449
100	0xbebb37bb	-0.36565956
101	0xbd4c0cf5	-0.049817044
102	0xbdf2298f	-0.11824333
103	0x3d62bd13	0.055356096
104	0x3d2c0283	0.041994583
105	0xbd462a78	-0.048380345
106	0xbe872dea	-0.26402217
107	0xbd00bd9a	-0.03143082
108	0xbdb5cd9e	-0.08877109
109	0x3cf4bb4f	0.029874472
110	0xbe92fd84	-0.28709042
111	0xbd76175b	-0.060080867
112	0x3dde3e42	0.108517185
113	0x3d5b327d	0.053514946
114	0x3f3071c9	0.6892362
115	0x3d83254d	0.06403599
116	0xbdce8538	-0.10084003
117	0xbdf24946	-0.11830382
118	0x3cb7a21d	0.022416169
119	0x3d806c46	0.062706515
120	0xba9260c8	-0.0011167759
121	0x3e9185ee	0.28422493
122	0x3cac3e34	0.021025755
123	0x3cbc4cd2	0.02298585
124	0xbe59bcf3	-0.21263485
125	0xbd0a5609	-0.033773456
126	0xb9b7c54b	-0.00035051475
127	0xbea18ff4	-0.3155514
128	0xbd3fd1c8	-0.046830922
129	0xbd4ef7d3	-0.050529312
130	0x3c838579	0.016054856
131	0xbe1c8c2f	-0.15287851
132	0x3d19393c	0.0374081
133	0x3d3d3daf	0.046201404
134	0xbaa7608e	-0.0012769864
135	0xbd131cf6	-0.03591629
136	0xbe383655	-0.17989476
137	0x3beb67be	0.007183998
138	0xbe981dad	-0.2971014
139	0xbdae404c	-0.085083574
140	0x3bdf58db	0.0068160123
141	0x3d9dc2b1	0.0770315
142	0x3f4a3e73	0.7900154
143	0x3b68d703	0.0035528548
144	0xbdc4f536	-0.09617083
145	0x3f01f3d9	0.50762707
146	0x3efa4688	0.48881936
147	0x4046b223	3.1046226
148	0xc0af9e20	-5.4880524
149	0xbbe45a8f	-0.0069688032
150	0x3bc16983	0.0059024706
151	0xbea33d63	-0.31882772
152	0x3e404bd6	0.18778929
153	0xbc1f3307	-0.009716756
154	0xbe9bf201	-0.30458072
155	0xbb2ca7d9	-0.0026345162
156	0x3c71c650	0.014756754
157	0xbd3ebce5	-0.046566863
158	0xbd1cf710	-0.038321555
159	0xbec50ecc	-0.38487852
160	0x3dbbf631	0.09177817
161	0x3b951658	0.0045497827
162	0xbfb8df94	-1.4443231
163	0xbcd8a0c0	-0.02644384
164	0xbdad7301	-0.08469201
165	0xbd33cc86	-0.04389622
166	0xbfa14a36	-1.2600772
167	0x3c510dff	0.012759685
168	0xbe8808c7	-0.26569197
169	0xbc2fe786	-0.010736352
170	0x3d4e1370	0.050311506
171	0x3cae1a6a	0.02125283
172	0xbff7780a	-1.9333508
173	0xbb30551d	-0.00269062
174	0xbd816768	-0.06318551
175	0xbd35b592	-0.044362612
176	0x3e6f788e	0.23385832
177	0x3ca884bf	0.02057111
178	0x3db9cdf5	0.09072486
179	0xbc4d6a1a	-0.012537504
180	0xbcbc5b01	-0.022992613
181	0x3b94ff0a	0.0045470046
182	0x3ed28843	0.41119584
183	0xc0d0535c	-6.5101757
184	0xb9ae1204	-0.0003320129
185	0xbdb9321e	-0.09042762
186	0xbd14ec51	-0.03635818
187	0x3c06ea32	0.008234547
188	0xbe25db7f	-0.16197012
189	0xbafab94c	-0.0019128709
190	0x3cb955db	0.022623947
191	0xbd4bd7fa	-0.04976652
192	0xbe1f5be0	-0.15562391
193	0xbda680f3	-0.08130064
194	0x3cdc9978	0.026928648
195	0x3ce16d83	0.02751804
196	0x3bdd4196	0.006752203
197	0xc00f1b01	-2.2360232
198	0xbc4e4da3	-0.012591752
199	0x3cd72da7	0.026266886
200	0xbe4f09a5	-0.20218523
201	0xbe192090	-0.14953828
202	0x3c28d34f	0.010304286
203	0x3f0052e0	0.5012646
204	0xbd07d193	-0.03315885
205	0xbe166b15	-0.14689286
206	0xbe0f23b1	-0.13978459
207	0x3dbdf643	0.09275486
208	0xbdfb7dc9	-0.12279851
209	0xbb84d2a8	-0.0040534325
210	0x3ec9edf3	0.39439353
211	0xbd5e0085	-0.054199714
212	0xbc07c117	-0.008285782
213	0x3f0b8ec1	0.545147
214	0xbcee3f3c	-0.029082887
215	0x3e2dacef	0.169605
216	0x3e0bdb57	0.1365789
217	0x3c85a382	0.016313318
218	0x3d47a348	0.0487397
219	0x3db0a1d7	0.086246185
220	0x3bbf4259	0.0058367667
221	0x3d21c514	0.03949459
222	0xc0aff442	-5.4985666
223	0xbe6899c0	-0.22714901
224	0xbcf5a941	-0.029987933
225	0xbf8bfeb9	-1.093711
226	0x3e8abc96	0.27097005
227	0x3bab1412	0.0052208984
228	0xbd05c5d9	-0.032659385
229	0x3d075bda	0.03304658
230	0xbbb39b4c	-0.0054811593
231	0x3d21a375	0.039462525
232	0xbe32448b	-0.1740896
233	0x3c41d22f	0.011829897
234	0xbfd1afe1	-1.6381799
235	0x3cde4593	0.027132785
236	0xbd682677	-0.056677308
237	0x3e45fe5f	0.19335316
238	0xbcf5f318	-0.030023143
239	0xbd4115e9	-0.047140036
240	0xbe95a1c9	-0.29224995
241	0xbd62507c	-0.055252537
242	0xbda0b547	-0.07847076
243	0xbfb78f4f	-1.4340609
244	0x3c53948c	0.012913834
245	0xbf959932	-1.1687376
246	0xbec9c605	-0.3940889
247	0x3e8a094c	0.26960218
248	0x3e9810d3	0.29700336
249	0x3cf248e5	0.029575774
250	0x3d2bddab	0.041959446
251	0xbc0ed723	-0.008718285
252	0x3ced0076	0.028930884
253	0x3d5157a4	0.05110897
254	0xbc2f89e3	-0.010714027
255	0x3c8094a6	0.015695881

bias f4 [14]
0	0x3d317e93	0.0433336
1	0xbf430d44	-0.76192117
2	0x3c4c7b52	0.012480574
3	0x3cab109f	0.020881949
4	0x3dcebe73	0.10094919
5	0x3fa04bde	1.2523153
6	0xbe5e76bf	-0.21724986
7	0xbfbf3701	-1.4938661
8	0xbf14de9c	-0.58152175
9	0x3e7fbf85	0.24975403
10	0xbfa5d4d0	-1.295557
11	0xbfdbb1b1	-1.7163602
12	0xc00df937	-2.2183359
13	0xc034184b	-2.8139827
