trainingOnSyntheticData/results/20230807_213046_train/model_training_set_size_2000000_hidden_neurons_200_n_batches_500.pt (torch, 336735 bytes, 6 tensors)

weight f4 [200, 200]
-0.09615842 -0.17194901 -0.20405611 -0.23557451 -0.16172267 -0.13275062 -0.15435605 -0.18004851
-0.0024177707 -0.044417277 -0.07228753 -0.1940093 -0.16266192 -0.2255788 -0.10774711 -0.06291085
-0.03128701 -0.08076218 -0.1649527 -0.15129691 -0.17545393 -0.15769404 -0.10491329 -0.047324035
0.018589787 0.042750727 -0.0548975 0.051251814 0.076421134 -0.02012812 -0.019119093 0.016798789
0.109591216 0.09863225 0.08854638 0.11914146 -0.009968572 0.09796333 0.11148007 0.054347295
0.1967231 0.15037592 0.11922904 0.06615063 0.055310346 0.20140767 0.20051457 0.21540444
0.20129824 0.100041926 0.23439653 0.1168578 0.2905564 0.16048013 0.13564466 0.1971865
0.15795913 0.10651607 0.14000554 0.18663678 0.15399979 0.089558914 0.15829578 0.06541831
0.10624473 0.031710796 0.18168129 0.0553367 0.09785345 -0.04709877 0.12717663 0.12592727
-0.08281293 0.1623068 0.036039576 0.00043966895 0.16338108 -0.041898794 0.10036936 0.08843052
0.046262916 0.008239487 0.12175754 0.009263072 0.08858254 0.07360326 0.10240418 0.02483952
0.093901925 0.07031301 0.07298597 -0.034218475 0.1354963 0.116143905 0.02723645 0.16611177
0.4641736 0.5318776 -0.05159121 -1.8459437 -5.479106 -1.5956973 -0.013799705 0.4200349
0.27269447 0.22155465 0.08842587 0.16212516 0.11767312 -0.010803303 0.060223226 0.011491564
0.12465317 0.07248272 0.06280127 0.054060224 0.09466969 0.11459096 -0.090961605 0.10667206
0.13015921 0.07803287 -0.06360452 0.024620501 0.1650463 0.11896107 0.011777827 0.091258116
0.019070784 -0.0001292894 0.06931587 0.0551858 0.07626681 0.09631321 0.043540016 0.07722896
0.13497394 0.1318902 0.04996025 0.056700762 0.18714793 0.058414992 0.21949203 0.13225053
0.16473535 0.15914331 0.28862005 0.21692011 0.18130228 0.18382177 0.29887185 0.21422732
0.1326337 0.09238217 0.05434447 0.15976052 0.22302152 0.075808845 0.10802366 0.17480673
0.12462578 0.06428149 0.04145962 0.14538835 0.115469396 0.054729473 0.033535365 0.02618785
0.043095835 -0.02186158 0.08678446 0.11773361 0.12644868 0.06408119 0.06823387 -0.026607016
-0.016854981 -0.050704427 0.028275168 -0.12978667 -0.13743086 -0.11709067 -0.19411005 -0.21342076
-0.1116068 -0.16353571 -0.025724888 -0.25725114 -0.21951151 -0.17320062 -0.10115665 -0.06736998
-0.02621293 -0.20128563 -0.15633796 -0.20353757 -0.18589884 -0.12960677 -0.09840285 -0.2772395
-0.09756682 0.0739817 0.21737772 -0.4407949 0.18082523 -0.20224907 -0.04289971 -0.17665288
0.2100131 0.0023905076 -0.41033113 0.2851152 0.008647755 0.21732561 0.24869138 -0.24959423
-0.034520585 -0.31933916 0.50288904 0.33960003 -0.1003508 -0.09142669 -0.20546815 0.24832466
-0.09857065 -0.0152694825 -0.13668135 0.23440523 0.14516765 -0.05355958 -0.16886458 -0.06103555
0.17066419 -0.19604732 -0.05538188 0.013879298 -0.052365452 -0.28168568 0.34871033 -0.040830813
0.07495362 -0.010614495 -0.23922361 -0.18135129 0.30643234 0.2556355 0.0669947 -0.14008507
0.055167228 -0.062111594 -0.18680201 -0.11681471 0.41578597 -0.057519745 -0.19039544 -0.09775014
00000000: b5ee c4bd 6713 30be 16f4 50be 723a 71be
00000010: a19a 25be c7ef 07be 830f 1ebe a35e 38be
00000020: 7673 1ebb e4ee 35bd 7c0b 94bd 60aa 46be
00000030: d990 26be 21fe 66be 84aa dcbd 67d7 80bd
00000040: cf26 00bd a466 a5bd 5ce9 28be 94ed 1abe
00000050: 32aa 33be 8c7a 21be c7dc d6bd d9d6 41bd
00000060: 9c49 983c 631b 2f3d 33dc 60bd 6ced 513d
00000070: af82 9c3d bae3 a4bc a59f 9cbc 9d9d 893c
00000080: 5c71 e03d b5ff c93d ce57 b53d 7000 f43d
00000090: 3953 23bc 00a1 c83d aa4f e43d 459b 5e3d
000000a0: c871 493e 25fc 193e 5b2e f43d fb79 873d
000000b0: 1a8d 623d d03d 4e3e b153 4d3e fb92 5c3e
000000c0: 2021 4e3e c8e2 cc3d a505 703e 2453 ef3d
000000d0: cfc3 943e e754 243e 6fe6 0a3e 42eb 493e
000000e0: 0ac0 213e 1925 da3d 9d5d 0f3e b61d 3f3e
000000f0: 1fb2 1d3e aa6a b73d 4a18 223e 09fa 853d
00000100: d696 d93d 2ee3 013d a90a 3a3e bca8 623d
00000110: 6467 c83d a4ea 40bd 973a 023e 14f3 003e
00000120: d399 a9bd c133 263e 3c9e 133d 5e83 e639
00000130: 5f4d 273e 129e 2bbd 738e cd3d 0f1b b53d
00000140: 2f7e 3d3d eafe 063c 045c f93d 24c4 173c
00000150: c36a b53d 4ebd 963d 48b9 d13d 407c cb3c
00000160: a74f c03d 4400 903d ab79 953d ac28 0cbd
00000170: 8bbf 0a3e dbdc ed3d fa1e df3c 3419 2a3e
00000180: 29a8 ed3e 2129 083f 4e51 53bd e247 ecbf
00000190: d654 afc0 cf3f ccbf 2818 62bc d00e d73e
000001a0: 9c9e 8b3e 39df 623e 9f18 b53d 2304 263e
000001b0: 9bfe f03d 5600 31bc a1ac 763d 1d47 3c3c
000001c0: 294a ff3d d271 943d f49d 803d 416e 5d3d
000001d0: 2fe2 c13d aaae ea3d 144a babd e276 da3d
000001e0: 7548 053e b3cf 9f3d 1643 82bd efb0 c93c
000001f0: e601 293e dda1 f33d c9f7 403c 89e5 ba3d
00000200: 553a 9c3c dc91 07b9 7bf5 8d3d 810a 623d
00000210: c631 9c3d dc3f c53d 0457 323d 382a 9e3d
00000220: 9c36 0a3e 390e 073e 1ea3 4c3d 0f3f 683d
00000230: b5a3 3f3e 8f44 6f3d 85c2 603e af6c 073e
00000240: 62b0 283e 77f6 223e 02c6 933e 4e20 5e3e
00000250: 4ea7 393e c63b 3c3e bb05 993e 685e 5b3e
00000260: 21d1 073e dd32 bd3d 4f98 5e3d 4398 233e
00000270: c15f 643e ab41 9b3d 823b dd3d 8900 333e
00000280: cd3b ff3d 04a6 833d 90d1 293d afe0 143e
00000290: 387b ec3d 032c 603d 615c 093d e787 d63c
000002a0: 4285 303d 0e17 b3bc 0dbc b13d 521e f13d
000002b0: c37b 013e 003d 833d 33be 8b3d f5f6 d9bc
000002c0: 7513 8abc 72af 4fbd 53a1 e73c cce6 04be
000002d0: adba 0cbe 3ccd efbd c9c4 46be f98a 5abe
000002e0: 1b92 e4bd e875 27be 00bd d2bc 6cb6 83be
000002f0: a0c7 60be 815b 31be 382b cfbd 46f9 89bd
00000300: 80bc d6bc d21d 4ebe 0f17 20be 276c 50be
00000310: 445c 3ebe a3b7 04be 6f87 c9bd 56f2 8dbe
00000320: 1dd1 c7bd b883 973d 4498 5e3e deaf e1be
00000330: 402a 393e 611a 4fbe 9bb7 2fbd 7ee4 34be
00000340: ad0d 573e 10aa 1c3b ec16 d2be 9ffa 913e
00000350: 50af 0d3c 9b8a 5e3e f4a8 7e3e a195 7fbe
00000360: 7565 0dbd 6c80 a3be 56bd 003f 0ee0 ad3e
00000370: b884 cdbd eb3d bbbd 3e66 52be d248 7e3e
00000380: 69df c9bd da2c 7abc 32f6 0bbe ed07 703e
00000390: d4a6 143e 4a61 5bbd d6ea 2cbe 6a00 7abd
000003a0: 98c2 2e3e a1c0 48be 1cd8 62bd ff65 633c
000003b0: 287d 56bd 1b39 90be 298a b23e 363e 27bd
000003c0: 4981 993d 6be8 2dbc 09f7 74be 27b4 39be
000003d0: b3e4 9c3e a8e2 823e 8434 893d 7672 0fbe
000003e0: 08f7 613d ba68 7ebd 0749 3fbe 8d3c efbd
000003f0: e6e1 d43e d399 6bbd 06f7 42be 3a31 c8bd

bias f4 [200]
-0.062057264 0.011565519 -0.001291613 7.647769 0.0004263466 -0.1321645 -0.0050480836 0.98613495
0.0016747719 -0.021046657 -0.04039833 -0.061232097 -0.0030494512 -0.004429772 2.2395744 -0.00070498633
-0.036349766 -0.042696383 -0.06205383 -0.07145499 3.2417746 -0.00020870026 -0.0007027838 -0.045611653
-0.014040337 -3.6987014 -0.0075938217 -0.02131957 0.051717103 -0.028233906 -7.118246 0.07922177
-0.0011383657 -0.9361561 -4.6638923 1.2680169 -0.008053399 0.16464838 -0.0023139538 -0.0058398107
-0.00026842966 -15.635023 -0.054412927 -0.0004420858 1.4099185 0.028143164 0.30608743 -0.07570605
-0.008532625 -0.026511298 0.0014507744 -0.033256806 -0.0629151 -0.00012045496 -0.0004505647 -4.5936546
-0.020715902 -0.012510735 -0.038761627 -0.006720102 -0.0075174477 -0.0007577084 6.110504 -0.0058372985
-0.020930016 -0.07774756 -0.01331843 -0.051519856 0.00052872684 -0.0036771125 -0.013441328 0.0035436465
-0.0020581838 -0.024177384 2.7679691 -0.043264534 -0.005742227 -0.0007690944 -5.75975e-06 0.00092686823
-0.028244674 -0.003997124 -0.040095188 -0.00076458487 -0.048674993 -0.82050776 -0.03223572 -0.002663575
-1.9926714e-05 -0.0074867047 -0.014391805 0.0019934992 -0.03294775 0.13770415 -0.007337088 0.093184695
0.002489777 0.55060023 0.0031169588 -0.0017542682 -0.0011034657 -2.2109067 -0.0020533612 0.0011431186
-1.1519395 -0.027652845 -0.0071627772 -27.725332 -0.014128976 -1.5411512 -0.11398906 -0.0053579705
0.00016984886 -0.019644955 0.65782523 -0.02870043 0.024296142 -0.011437327 -0.046466824 -0.000741137
-0.013340725 -0.026615843 -0.0020017058 0.006918541 -0.09215935 -0.0020141385 -0.7510824 -0.009066453
-0.0146102 -0.18232708 -0.03996489 -0.054245032 -6.683458 -0.005410416 -0.0053441734 0.19027716
-0.0006812483 -0.030839046 0.0017626418 0.3593963 -2.0116577 -0.0074448446 -0.016774848 -0.20671557
-0.047116503 6.80464 -0.19063985 -0.0014784122 -16.423246 0.301197 -0.3768841 0.0014926506
-0.033690717 0.042273257 -0.061939027 -0.00713613 -0.05051461 0.058617692 0.81498706 -0.005641911
-0.0031650765 -0.0032612951 -0.030318543 -0.004904724 0.07144784 -0.015880553 -0.03938055 -0.0036403856
-0.0062215617 -0.048273224 -0.047374133 0.0040186145 0.11647396 -1.8254083 0.24105357 -0.00052481866
0.03673759 -0.0024678584 0.0019243328 -0.01412816 -0.007059571 -0.00018319412 1.0448587 0.032147564
-0.81583893 -0.11922236 -0.039304793 -0.0066434895 -1.6486928 0.020147987 -0.16363713 -0.0039701248
-0.092956975 -0.0005359095 -0.0018146011 -5.1907244 -3.9478395 6.597777e-05 -0.040269066 -26.490896
00000000: c22f 7ebd 4d7d 3d3c 574b a9ba 86ba f440
00000010: 4687 df39 2156 07be 656a a5bb 5773 7c3f
00000020: 0584 db3a 0a6a acbc b878 25bd 82ce 7abd
00000030: 4dd9 47bb 9f27 91bb 3055 0f40 d5ce 38ba
00000040: 7ee3 14bd 67e2 2ebd 282c 7ebd fe56 92bd
00000050: 3c79 4f40 8dd6 5ab9 063b 38ba 49d3 3abd
00000060: 7109 66bc 86b7 6cc0 98d5 f8bb 61a6 aebc
00000070: 50d5 533d cb4a e7bc acc8 e3c0 063f a23d
00000080: 3735 95ba eda7 6fbf 9b3e 95c0 614e a23f
00000090: 67f2 03bc 9699 283e b4a5 17bb e25b bfbb
000000a0: 05bc 8cb9 0e29 7ac1 17e0 5ebd c0c7 e7b9
000000b0: 3678 b43f 7e8c e63c 7eb7 9c3e c60b 9bbd
000000c0: 6ccc 0bbc 392e d9bc e927 be3a 4a38 08bd
000000d0: a2d9 80bd c49c fcb8 c539 ecb9 38ff 92c0
000000e0: 65b4 a9bc d3f9 4cbc 83c4 1ebd 4d34 dcbb
000000f0: ec54 f6bb f3a0 46ba 4089 c340 cf46 bfbb
00000100: 6d75 abbc 1d3a 9fbd 8b35 5abc 7c06 53bd
00000110: 429a 0a3a b6fb 70bb 0439 5cbc 863c 683b
00000120: 98e2 06bb a60f c6bc 6826 3140 2736 31bd
00000130: 4b29 bcbb 0d9d 49ba e043 c1b6 13f9 723a
00000140: 6061 e7bc 4efa 82bb da3a 24bd 6c6e 48ba
00000150: 6e5f 47bd cc0c 52bf 9a09 04bd 608f 2ebb
00000160: 4b28 a7b7 0853 f5bb 9bcb 6bbc 5ea5 023b
00000170: 38f4 06bd 5102 0d3e f56b f0bb 9ed7 be3d
00000180: 872b 233b 23f4 0c3f e445 4c3b 79ef e5ba
00000190: 2aa2 90ba 7f7f 0dc0 af91 06bb b2d4 953a
000001a0: c172 93bf 3888 e2bc bbb5 eabb 7bcd ddc1
000001b0: 387d 67bc 7144 c5bf 1973 e9bd ea91 afbb
000001c0: 7519 3239 75ee a0bc 3c67 283f 2a1d ebbc
000001d0: b408 c73c a063 3bbc ff53 3ebd dd48 42ba
000001e0: 0e93 5abc 7809 dabc 0d2f 03bb eeb4 e23b
000001f0: 0bbe bcbd a3ff 03bb f046 40bf 768b 14bc
00000200: 9f5f 6fbc f3b3 3abe 39b2 23bd 0a30 5ebd
00000210: e3de d5c0 dc49 b1bb 2d1e afbb 04d8 423e
00000220: cd95 32ba 2ba2 fcbc 7208 e73a cb02 b83e
00000230: 00bf 00c0 e2f3 f3bb 686b 89bc 3fad 53be
00000240: 3cfd 40bd 9cbf d940 1837 43be 48c7 c1ba
00000250: cf62 83c1 7e36 9a3e f4f6 c0be 0ba5 c33a
00000260: 47ff 09bd b926 2d3d c7b3 7dbd 32d6 e9bb
00000270: 68e8 4ebd 1b19 703d fea2 503f c8df b8bb
00000280: 2c6d 4fbb 74bb 55bb 985e f8bc cfb7 a0bb
00000290: 3f53 923d ef17 82bc 804d 21bd 8993 6ebb
000002a0: 3ede cbbb 25ba 45bd 610b 42bd 95ae 833b
000002b0: e689 ee3d fba6 e9bf bfd6 763e fc93 09ba
000002c0: 287a 163d cbbb 21bb e539 fc3a cc79 67bc
000002d0: f953 e7bb cc17 40b9 eebd 853f 2aad 033d
000002e0: d2da 50bf da2a f4bd 10fe 20bd a1b1 d9bb
000002f0: 5e08 d3bf 640d a53c 7e90 27be d217 82bb
00000300: 3a60 bebd 477c 0cba e9d7 edba 6a1a a6c0
00000310: 67a9 7cc0 8c5d 8a38 2df1 24bd 5bed d3c1

weight f4 [200, 200]
-0.24144916 0.024671894 0.06291821 -0.52484 -0.29465833 -0.052719437 0.41775632 0.16291955
0.49404258 0.2057727 -0.2294852 0.26618177 0.38604242 -0.19963266 -0.046462193 -0.47500658
-0.022796484 0.3400068 0.09184349 -0.0076533705 -0.24235031 -2.2713177 0.2542886 -0.14113845
0.24659166 0.09263939 0.71384764 0.09033363 -0.10680851 0.23592158 1.2032287 0.06996244
-0.010017801 -0.18098128 -0.076950334 0.109072804 -0.06689224 -0.0824799 0.09048589 -0.047923513
-0.053635832 0.0079956725 -0.028622506 0.33380994 -0.9062303 0.18757546 0.042526837 0.17914234
0.080489 -0.084463716 0.16072838 -0.020965612 0.12113431 -0.05769436 0.0828657 -0.008414017
0.13466452 -0.11564443 -0.10765936 0.28245133 0.3812591 -1.2756743 0.12507182 0.19739509
-0.041776802 0.38543254 0.056727223 -0.16041484 -0.034898177 -0.059914533 -0.09173409 -0.042781204
-0.1261698 -0.17998064 -0.21285939 0.15922925 -0.41037738 -0.085886985 -0.079034746 -0.08625462
0.4382184 -0.11098119 -0.12767124 0.122281015 0.0067907185 0.33355388 0.47330353 0.26454327
0.17250639 -0.0995237 0.16044126 -0.113270886 -0.23175362 0.1557219 1.5333021 -0.077884145
0.27988487 -0.18802471 -0.0928542 -0.01170583 -0.08975005 0.13045762 0.22621912 0.08583567
-0.028930757 -0.018585501 -0.053400997 -0.060540117 -0.9240576 -0.14022642 0.06577459 0.012221445
-0.41486385 0.09015065 -0.20889586 -0.15014507 0.03883528 -0.05511238 0.18642592 0.18391481
0.0649138 -0.057652898 -0.07501888 0.03881125 0.021398403 -0.030581776 0.11291844 0.29753646
0.26712903 0.12607351 0.07621366 0.042104997 -0.50883764 -0.0059015006 0.42869273 0.11849304
-0.062079262 0.109838225 0.13150278 -0.3110058 0.07888085 0.10831277 0.066225216 -0.2244446
-0.13424493 0.08692361 0.16046189 0.15756965 -0.016201004 -0.06535516 0.0149134295 0.09588985
0.47696674 -0.05915774 0.26540232 0.24012832 0.007022193 -0.11588045 0.19158924 0.057322912
-0.07128673 -0.10253856 -0.005141333 0.11836391 1.289809 -0.09733152 -0.010249044 0.045118604
-0.12435473 -0.090454176 0.34285194 -0.16090506 0.04702221 -0.11846888 -0.27999377 -0.012950881
0.15399149 0.09271308 -0.12493208 0.17085306 0.14606048 0.035971954 0.11664451 -0.03486431
-0.045549564 0.07362723 0.05452543 0.20265932 0.13885766 -0.21267213 -0.16030663 0.0422176
0.03443435 -0.08522599 0.12345352 -0.360506 -0.19593494 0.045199297 0.17717314 -0.15641543
0.046034012 -0.07331891 0.15230921 1.2548229 -0.08199073 -0.07920321 0.13371529 -0.08778791
0.03313968 -0.01957393 -0.3215444 0.06728309 0.07314094 0.18554506 -0.25743115 -0.3200783
0.048644856 0.13785706 0.13891652 0.29587528 -0.13635488 -1.6468971 0.05278956 -0.18398441
0.0796476 0.07699603 0.46837384 0.11056695 0.026293542 -0.014745945 1.3860576 0.032183226
-0.24607743 -0.033828195 0.13064644 0.0020860133 0.072162494 -0.07066675 0.12240536 -0.023019426
0.12207343 -0.09947165 0.18448368 0.43230155 0.41647258 0.12707534 -0.062021784 0.060046475
-0.048078712 0.060906168 0.07773578 -0.0059468346 0.36662334 -0.0010665949 0.020567076 -0.29791078
00000000: 733e 77be b61c ca3c 43db 803d ea5b 06bf
00000010: 75dd 96be 56f0 57bd 28e4 d53e 62d4 263e
00000020: 26f3 fc3e 14b6 523e 2bfe 6abe fa48 883e
00000030: 5aa7 c53e 816c 4cbe 244f 3ebd 1034 f3be
00000040: b1bf babc 5f15 ae3e 7118 bc3d 20c9 fabb
00000050: ae2a 78be 455d 11c0 1e32 823e 9986 10be
00000060: 8682 7c3e b8b9 bd3d b8be 363f d700 b93d
00000070: 6cbe dabd 6d95 713e 6603 9a3f 7848 8f3d
00000080: b421 24bc 2853 39be 2398 9dbd 9061 df3d
00000090: ccfe 88bd 39eb a8bd ab50 b93d 724b 44bd
000000a0: 3fb1 5bbd 4800 033c bf79 eabc 23e9 aa3e
000000b0: b5fe 67bf c813 403e 9f30 2e3d 1771 373e
000000c0: 6bd7 a43d 50fb acbd fb95 243e 13c0 abbc
000000d0: 4415 f83d ec50 6cbd 7eb5 a93d f2da 09bc
000000e0: 7fe5 093e fdd6 ecbd 837c dcbd 769d 903e
000000f0: 6534 c33e 4c49 a3bf d412 003e f021 4a3e
00000100: 271e 2bbd 6a57 c53e ce5a 683d ca43 24be
00000110: 64f1 0ebd f168 75bd 15df bbbd 583b 2fbd
00000120: a832 01be d84c 38be d0f7 59be fe0c 233e
00000130: fc1c d2be 84e5 afbd f8dc a1bd 43a6 b0bd
00000140: 2a5e e03e 1b4a e3bd 40bc 02be 786e fa3d
00000150: ad84 de3b 93c7 aa3e d754 f23e 3772 873e
00000160: 84a5 303e 15d3 cbbd b74a 243e 91fa e7bd
00000170: d250 6dbe 9075 1f3e 3e43 c43f b981 9fbd
00000180: 124d 8f3e 8d89 40be 582a bebd cfc9 3fbc
00000190: e0ce b7bd af96 053e fca5 673e 9dca af3d
000001a0: 3200 edbc 9f40 98bc 01bb 5abd eaf8 77bd
000001b0: 0a8f 6cbf 8497 0fbe d4b4 863d 753c 483c
000001c0: 0969 d4be e7a0 b83d cce8 55be a1bf 19be
000001d0: be11 1f3d 85bd 61bd 70e6 3e3e 2a54 3c3e
000001e0: 87f1 843d 7225 6cbd 80a3 99bd 8cf8 1e3d
000001f0: b44b af3c a286 fabc c841 e73d b356 983e
00000200: 23c5 883e 6a19 013e e815 9c3d 4a76 2c3d
00000210: 2f43 02bf 6061 c1bb 9d7d db3e 7bac f23d
00000220: d346 7ebd ddf2 e03d aaa8 063e 273c 9fbe
00000230: 488c a13d 16d3 dd3d 16a1 873d ced4 65be
00000240: 8177 09be 0105 b23d 1f50 243e f059 213e
00000250: f8b7 84bc edd8 85bd 7557 743c e661 c43d
00000260: fc34 f43e 634f 72bd d0e2 873e 33e4 753e
00000270: 6d1a e63b bb52 edbd f82f 443e 6ecb 6a3d
00000280: c7fe 91bd bdff d1bd a178 a8bb c768 f23d
00000290: 7618 a53f bf55 c7bd 9beb 27bc 49ce 383d
000002a0: b1ad febd 0a40 b9bd 4a8a af3e 4cc4 24be
000002b0: 5c9a 403d d09f f2bd 585b 8fbe ef2f 54bc
000002c0: f2af 1d3e 5be0 bd3d 64dc ffbd 1bf4 2e3e
000002d0: e190 153e 5457 133d 51e3 ee3d e1cd 0ebd
000002e0: 2e92 3abd e0c9 963d 0f56 5f3d ed85 4f3e
000002f0: b430 0e3e b9c6 59be 6c27 24be 5dec 2c3d
00000300: 080b 0d3d f78a aebd 33d5 fc3d 3e94 b8be
00000310: 2ba3 48be e622 393d e06c 353e 5e2b 20be
00000320: 298e 3c3d 3a28 96bd f2f6 1b3e 099e a03f
00000330: c1ea a7bd 4b35 a2bd a9ec 083e 26ca b3bd
00000340: 79bd 073d 8259 a0bc 78a1 a4be b7cb 893d
00000350: ebca 953d 86ff 3d3e 04ce 83be 4ee1 a3be
00000360: d43f 473d 672a 0d3e 2240 0e3e f77c 973e
00000370: 9da0 0bbe 86cd d2bf de39 583d 6966 3cbe
00000380: 481e a33d 18b0 9d3d b2ce ef3e ed70 e23d
00000390: 8e65 d73c fa98 71bc 566a b13f 8fd2 033d
000003a0: b9fb 7bbe 6f8f 0abd 2ec8 053e 7fb5 083b
000003b0: eec9 933d bbb9 90bd a9af fa3d 3c93 bcbc
000003c0: a201 fa3d cbb7 cbbd 4ae9 3c3e a156 dd3e
000003d0: e53b d53e 0a20 023e 8e0a 7ebd 4bf3 753d
000003e0: 2fee 44bd bf78 793d f033 9f3d aadd c2bb
000003f0: 0eb6 bb3e fccc 8bba 497c a83c c387 98be

bias f4 [200]
-2.4242773 -7.873612 -1.3923109 3.7895975 2.4651203 0.73132 4.1811333 -0.74289453
-4.3639646 -0.87108004 0.11419554 5.1388836 -2.42618 16.198307 5.0708914 -0.1387659
0.5793423 2.2750545 3.4191618 1.8476431 -4.9861546 2.3616264 -0.7401032 6.5136805
-0.59101206 5.800658 0.5317451 8.830308 1.2520174 2.9618545 10.243214 1.5428482
2.3226223 1.7362257 10.433141 5.0987797 13.96519 1.769634 9.057276 3.9937367
-7.9354763 3.6032293 4.0401654 2.5291069 0.28812292 -5.044193 1.9180262 -0.2881605
0.49413517 -1.5768629 1.1530517 3.9928982 0.5540007 -1.2227776 -0.6444989 -7.4669065
3.1647952 -1.9424878 4.5963545 -0.7154035 2.2542427 4.1673174 6.5946436 4.271134
4.006376 4.44604 6.9401393 6.40837 4.208347 2.0700397 4.3202887 4.703188
-2.5148644 -0.07743859 1.0800614 -0.7808306 -0.16469936 -0.98117584 0.8663716 13.390663
7.843893 12.7433815 -0.3874587 2.4323545 -2.2972295 2.485877 5.201402 7.461928
2.9971254 -2.7745922 2.0136225 -5.941687 6.3632426 5.8411846 13.101054 -2.2896464
0.68175024 -0.72157514 11.242299 5.1407695 -4.4563656 6.526251 18.130219 0.38994396
1.2692558 1.4643879 -0.3541574 6.835073 2.4126377 5.614145 10.390596 5.243845
0.80963093 8.722749 -0.5199308 -8.352815 13.736975 -3.0624835 0.10559592 10.697076
1.7748158 4.276291 11.969395 -5.5393553 -2.5991123 5.4936337 4.1117187 3.3682232
10.300526 5.42317 3.4368129 3.3504739 4.341178 12.080554 6.75455 -3.796575
9.482845 4.112433 -0.1025621 0.8010448 0.7346509 2.3885608 4.585228 3.589715
1.6113545 -12.306294 -0.008680932 -1.4907508 2.084768 2.8225815 -2.2095923 2.0188968
3.577385 1.2222531 0.4415426 -1.643152 1.7042981 6.0183764 -0.5937279 12.113909
0.92878306 15.90666 5.9199 4.697162 3.4928505 2.9443083 8.868748 3.526949
-5.784077 4.1853437 2.2344751 0.28604078 3.6549368 1.0109813 5.620426 -1.904528
8.2352495 0.4314728 2.526382 3.2475436 12.788151 3.0053914 -19.19835 6.5593266
-4.1437 1.2719226 4.4041247 5.8436284 11.133267 -5.3173785 21.0234 0.10513137
0.8366519 13.114919 2.0605855 -3.2136295 2.5470076 4.1567116 -5.784994 2.0296159
00000000: 5c27 1bc0 a1f4 fbc0 3e37 b2bf c488 7240
00000010: 88c4 1d40 ca37 3b3f d8cb 8540 562e 3ebf
00000020: 99a5 8bc0 1aff 5ebf 5adf e93d bc71 a440
00000030: 8846 1bc0 2296 8141 be44 a240 a618 0ebe
00000040: c74f 143f 7e9a 1140 8cd3 5a40 927f ec3f
00000050: 948e 9fc0 e324 1740 6777 3dbf 1270 d040
00000060: 914c 17bf fe9e b940 7220 083f f148 0d41
00000070: 1b42 a03f 068f 3d40 34e4 2341 0d7c c53f
00000080: d8a5 1440 a53c de3f 25ee 2641 3429 a340
00000090: 6b71 5f41 5e83 e23f 9aea 1041 6299 7f40
000000a0: 6cef fdc0 4f9b 6640 0949 8140 e3dc 2140
000000b0: d984 933e 076a a1c0 e281 f53f c689 93be
000000c0: 49ff fc3e a5d6 c9bf 3397 933f a58b 7f40
000000d0: fdd2 0d3f fa83 9cbf e1fd 24bf e6f0 eec0
000000e0: 018c 4a40 71a3 f8bf 5615 9340 af24 37bf
000000f0: 8345 1040 aa5a 8540 5207 d340 21ad 8840
00000100: 3b34 8040 f645 8e40 9f15 de40 5e11 cd40
00000110: c7aa 8640 887b 0440 ce3f 8a40 8480 9640
00000120: 8af3 20c0 2098 9ebd 743f 8a3f 84e4 47bf
00000130: f3a6 28be 572e 7bbf 87ca 5d3f 2840 5641
00000140: 2c01 fb40 e4e4 4b41 fd60 c6be b2ab 1b40
00000150: cf05 13c0 9c18 1f40 e371 a640 1dc8 ee40
00000160: e7d0 3f40 eb92 31c0 31df 0040 4d22 bec0
00000170: af9f cb40 fcea ba40 eb9d 5141 9189 12c0
00000180: 2f87 2e3f 26b9 38bf 75e0 3341 2f81 a440
00000190: 8c9a 8ec0 0cd7 d040 b00a 9141 bca6 c73e
000001a0: f976 a23f 1071 bb3f 1e54 b5be ebb8 da40
000001b0: a868 1a40 13a7 b340 e23f 2641 94cd a740
000001c0: f943 4f3f 6190 0b41 2f1a 05bf 21a5 05c1
000001d0: a6ca 5b41 bbff 43c0 ac42 d83d 3927 2b41
000001e0: 2a2d e33f 60d7 8840 a482 3f41 6642 b1c0
000001f0: db57 26c0 d9cb af40 3393 8340 f890 5740
00000200: f4ce 2441 9c8a ad40 bef4 5b40 2a6e 5640
00000210: eeea 8a40 f349 4141 4625 d840 16fb 72c0
00000220: bcb9 1741 0d99 8340 140c d2bd 4611 4d3f
00000230: 1512 3c3f 2ede 1840 30ba 9240 e4bd 6540
00000240: dd40 ce3f 95e6 44c1 783a 0ebc ecd0 bebf
00000250: d76c 0540 2da5 3440 f669 0dc0 9b35 0140
00000260: e0f3 6440 ca72 9c3f df11 e23e ce52 d2bf
00000270: 7126 da3f 8a96 c040 8dfe 17bf 92d2 4141
00000280: bac4 6d3f ae81 7e41 d26f bd40 274f 9640
00000290: dd8a 5f40 8c6f 3c40 64e6 0d41 88b9 6140
000002a0: 2917 b9c0 56ee 8540 a401 0f40 f073 923e
000002b0: 7cea 6940 d667 813f 88da b340 93c7 f3bf
000002c0: 95c3 0341 01ea dc3e 3eb0 2140 c1d7 4f40
000002d0: 449c 4c41 5558 4040 3996 99c1 01e6 d140
000002e0: 3199 84c0 5cce a23f 97ee 8c40 01ff ba40
000002f0: dd21 3241 f727 aac0 ec2f a841 1e4f d73d
00000300: d22e 563f b5d6 5141 a2e0 0340 1bac 4dc0
00000310: 2c02 2340 c803 8540 ac1e b9c0 3ae5 0140

weight f4 [14, 200]
0.018673945 -0.009509419 0.0001919654 -0.046402715 -0.002890224 -0.012963816 0.01026199 0.006023716
0.004299174 -0.017841078 -0.29799044 -0.16557617 0.011029909 -0.029329915 -0.0883905 0.0130135175
-0.2669259 -0.0058683474 0.012154137 -0.16585869 0.018669482 -0.046554282 -0.00037622885 0.0056533534
-0.17604615 0.14525539 -0.034960456 0.01573833 0.10819297 0.019279368 0.018300254 0.00441533
-0.24105437 0.19536808 -0.016842438 -0.011980747 0.007581119 0.0033937471 -0.0025033848 -0.01726473
-0.009363523 -0.014666244 -0.05212949 0.0019307062 -0.060080763 -0.003520232 -0.25171602 0.0112192305
-0.00027794213 0.0140935425 0.060449816 0.040502243 0.008339356 0.04044891 -0.006592263 0.004812428
-0.012366276 -0.09502354 0.052226923 0.096782655 -0.08038669 -0.41850683 0.061961837 0.030948007
0.37575138 0.0023855388 -0.038010996 -0.040494904 0.014760037 0.1932428 0.007610132 -0.1142934
-0.030759418 -0.054254387 0.1332202 -0.04360734 0.01593548 -0.0100802 -0.010049659 0.055391856
-0.028841939 0.06499092 -0.00039684374 -0.7431794 0.006959945 -0.0051431963 0.02111935 0.0022948722
0.11169907 -0.010858405 -0.0052712522 -0.026619524 0.2135027 -0.0014363358 0.41949096 0.22751805
-0.2355529 0.0055569345 0.007071587 -0.015357391 0.0044467547 -0.01317943 -0.048043758 -1.3978512
-0.19459237 0.0007397605 -0.15932791 0.09688494 -0.21185438 0.015610046 -0.07565532 -0.01891286
-0.017772295 0.0004042817 -0.01607455 0.017714966 0.0049895705 0.00936495 0.0021235088 -0.24189867
-0.0371568 -0.0069232476 0.026275 0.005581523 0.003718627 -0.23904814 -0.0050298935 -0.2294835
0.3045997 0.009876439 -0.11573896 -0.007721783 -0.0682002 0.029030696 0.0010398616 -0.0046737036
0.060620148 -0.01909395 -0.42632198 -0.071228415 -0.028638897 0.31073236 -0.05903088 -0.23162079
-3.6056025 0.007569849 0.036563236 -0.02728829 -0.083807416 -0.0050708717 0.0073660603 -0.004669147
-0.011410611 -0.6969221 0.5468176 -0.0057538413 -0.037365545 0.014323485 -0.14065227 -0.005635223
-0.00080922496 -0.026163599 0.01052467 -0.034984607 -0.011976578 0.48472658 -0.0051085977 0.04646708
0.008974742 -0.030202052 -1.5887393 -1.4094169 -0.38479173 0.016946314 -0.057302788 0.00025153492
-0.018515337 -0.21896023 0.004437184 0.9098036 -0.0029172474 -0.008908398 -0.00089978566 -0.0074759293
-0.0012942336 0.00626977 0.01280739 0.0067918776 -0.00016424528 0.0025322472 -0.03818599 0.14311567
0.0073388284 0.020930195 -0.38664672 -0.003328149 0.0025569755 -0.029308405 -0.046594903 -0.00347546
0.009927058 0.008694272 0.025055086 -0.030670105 -0.0052570747 -0.0030497825 0.11465685 0.03405
0.0052929814 -0.071122035 -0.3322843 -0.090760626 -8.657109e-05 -0.0062720124 -0.07791891 -0.0056878896
-0.36934814 -0.00785031 -0.0013626005 -0.23450054 0.013812643 -0.051383592 0.011831014 0.009530241
-0.013077263 -0.008564988 0.00587978 -0.008924777 0.75578415 0.11694217 0.05000318 0.006303533
-0.3708895 0.061505362 -0.052242693 -0.008904874 -0.0032793556 0.012186696 -0.016222468 -0.004341861
0.042603433 -0.025289917 -0.09517904 0.097339824 0.074110694 0.0029638775 -0.24806124 -3.9110248
0.0028328751 -0.013518823 0.38466892 0.011032007 -0.01067069 -0.019373694 -0.0057130414 0.009801315
00000000: 1afa 983c 65cd 1bbc 524a 4939 c610 3ebd
00000010: ea69 3dbb 2f66 54bc e821 283c 9862 c53b
00000020: 16e0 8c3b 7427 92bc 3492 98be cd8c 29be
00000030: cbb6 343c 4a45 f0bc 1406 b5bd a636 553c
00000040: 83aa 88be 444b c0bb 2522 473c dcd6 29be
00000050: bef0 983c b4af 3ebd 9540 c5b9 c43f b93b
00000060: 7145 34be d4bd 143e b232 0fbd aced 803c
00000070: 4794 dd3d c4ef 9d3c 6aea 953c 79ae 903b
00000080: f5d6 76be 920e 483e 27f9 89bc e54a 44bc
00000090: 096b f83b a169 5e3b d40f 24bb c36e 8dbc
000000a0: 7669 19bc b04a 70bc bb85 55bd c00f fd3a
000000b0: 3f17 76bd b1b3 66bb ece0 80be ddd0 373c
000000c0: c3b8 91b9 9ae8 663c 3a9a 773d aee5 253d
000000d0: cba1 083c c2ad 253d e903 d8bb 92b1 9d3b
000000e0: ec9b 4abc b49b c2bd e6eb 553d fc35 c63d
000000f0: c7a1 a4bd 8746 d6be b2cb 7d3d ad86 fd3c
00000100: 7c62 c03e b356 1c3b 6bb1 1bbd fcdd 25bd
00000110: 15d4 713c 71e1 453e 6a5e f93b a812 eabd
00000120: 2dfb fbbc d939 5ebd e06a 083e 9c9d 32bd
00000130: 208b 823c 6c27 25bc 53a7 24bc 92e2 623d
00000140: ee45 ecbc f619 853d 770f d0b9 0141 3ebf
00000150: 4010 e43b 4288 a8bb 7d02 ad3c 9165 163b
00000160: 7bc2 e43d 74e7 31bc 78ba acbb 3011 dabc
00000170: 74a0 5a3e 6f43 bcba 85c7 d63e 7efa 683e
00000180: c834 71be f216 b63b c5b8 e73b 919d 7bbc
00000190: 15b6 913b 89ee 57bc 88c9 44bd caec b2bf
000001a0: 3943 47be 7dec 413a db26 23be 9d6b c63d
000001b0: 5bf0 58be 47c1 7f3c 2df1 9abd 24ef 9abc
000001c0: 3497 91bc c5f5 d339 c6ae 83bc fa1e 913c
000001d0: 8d7f a33b 726f 193c 912a 0b3b 49b4 77be
000001e0: bb31 18bd 69dc e2bb ab3e d73c 35e5 b63b
000001f0: 35b4 733b 09c9 74be ced1 a4bb b9fd 6abe
00000200: 7ef4 9b3e cad0 213c 8c08 edbd 0307 fdbb
00000210: 8cac 8bbd c8d1 ed3c f74b 883a de25 99bb
00000220: d54c 783d ea6a 9cbc e046 dabe 34e0 91bd
00000230: 1f9c eabc 5018 9f3e 5dca 71bd 002e 6dbe
00000240: 31c2 66c0 7f0c f83b 55c3 153d b18b dfbc
00000250: 39a3 abbd 8e29 a6bb fe5e f13b a5ff 98bb
00000260: 92f3 3abc 7d69 32bf 3dfc 0b3f b88a bcbb
00000270: 9d0c 19bd 0dad 6a3c 2607 10be ada7 b8bb
00000280: 2b22 54ba 0b55 d6bc aa6f 2c3c 054c 0fbd
00000290: 6939 44bc 152e f83e 0666 a7bb 4454 3e3d
000002a0: cc0a 133c 4b6a f7bc cf5b cbbf c667 b4bf
000002b0: 6c03 c5be ffd2 8a3c 54b6 6abd 72e0 8339
000002c0: 7aad 97bc 1c37 60be cc65 913b e4e8 683f
000002d0: 4a2f 3fbb 88f4 11bc 98df 6bba a4f8 f4bb
000002e0: 46a3 a9ba a572 cd3b 16d6 513c 668e de3b
000002f0: 4239 2cb9 0ff4 253b ea68 1cbd ea8c 123e
00000300: 8e7a f03b cd75 ab3c 8ff6 c5be 131d 5abb
00000310: ee92 273b 2e18 f0bc 4cda 3ebd 8bc4 63bb
00000320: 19a5 223c 6b72 0e3c 5340 cd3c df3f fbbc
00000330: 8a43 acbb dcde 47bb 36d1 ea3d 0378 0b3d
00000340: bf70 ad3b 6ea8 91bd 2b21 aabe b5e0 b9bd
00000350: 808d b5b8 7485 cdbb f393 9fbd 7a61 babb
00000360: 331b bdbe 969e 00bc 4999 b2ba e920 70be
00000370: 6c4e 623c 9a77 52bd dfd6 413c ba24 1c3c
00000380: 0442 56bc 2a54 0cbc 2bab c03b 3a39 12bc
00000390: 127b 413f 607f ef3d 22d0 4c3d de8d ce3b
000003a0: 3be5 bdbe 0ced 7b3d 6ffc 55bd c0e5 11bc
000003b0: 75ea 56bb b5aa 473c fbe4 84bc 2b46 8ebb
000003c0: f080 2e3d cd2c cfbc 3bed c2bd 1a5a c73d
000003d0: 59c7 973d 9d3d 423b c403 7ebe 3b4e 7ac0
000003e0: c2a7 393b 0e7e 5dbc 53f3 c43e 97bf 343c
000003f0: 1ed4 2ebc 95b5 9ebc 7734 bbbb b295 203c

bias f4 [14]
0.07726343 -1.83038 -0.07250287 0.8106966 -0.11791813 0.9210138 -2.1243997 -2.3506014
-0.32943568 -1.1724337 -0.7352971 0.5155674 -0.9921772 -3.3303208
00000000: 4a3c 9e3d e449 eabf 627c 94bd d089 4f3f
00000010: 0f7f f1bd 8fc7 6b3f 2af6 07c0 4170 16c0
00000020: cbab a8be 4f12 96bf 6e3c 3cbf 3afc 033f
00000030: 53ff 7dbf fa23 55c0
