trainingOnSyntheticData/results/20230807_213046_train/model_training_set_size_2000000_hidden_neurons_100_n_batches_500.pt (torch, 130399 bytes, 6 tensors)

weight f4 [100, 200]
00000000: 0eca c13c d38c 7c3d 280d ab3d 1dd2 9d3d
00000010: 3cdd 873d acc9 893d ff46 943d c6b9 463d
00000020: 24bf bb3d 51c4 f13d 0f91 f03d 5db3 0e3e
00000030: a11f 063e faeb 1b3e 10c2 0b3e 6bc8 073e
00000040: 34ae 273e 5ad0 273e eb61 393e ac5b 263e
00000050: 3f4d 1e3e 225f 343e 98b7 2d3e 7d93 513e
00000060: 98ba 253e 5f71 073e aebb 213e 101b 333e
00000070: 05c4 2a3e 5949 e13d 8558 293e 01b5 373e
00000080: 2669 1c3e 2a5a 143e 482e 013e 7664 e43d
00000090: cd2c cd3d 0bb7 023e ba00 a93d 1178 533d
000000a0: de0b 043d e740 d9ba ecad d43c c605 b6bc
000000b0: 7929 c1bb fc78 04bd c3a7 47bd 4dd2 d1bd
000000c0: b18d d0bd 5ab1 f3bd e18d 0dbe cecd edbd
000000d0: 612f 23be dacd 3ebe abb5 5dbe 7571 82be
000000e0: b398 66be a165 71be abc7 7fbe 7fc0 9abe
000000f0: 2b6a aabe 802c aabe d591 94be 0119 8abe
00000100: 3993 c5be ef6a b4be 0fbb aabe cdf2 d9be
00000110: 025e abbe 1d70 a0be ba45 d2be b26d b1be
00000120: 5271 f3be 7bff a0be 72dc 01bf 9e73 a4be
00000130: 9f38 e1be 73f4 cabe 29ea b8be 52fd aebe
00000140: ba9e cdbe a544 4abe 4f1a 31bf e5aa 10be
00000150: 81ff d7be 61d9 7abe f9e0 01bf 1593 96be
00000160: bc5b 15be f244 c7be 4ddd e6be 8688 87be
00000170: ad08 64bd 3f9f 50be bdad 12bd 1169 16bf
00000180: 2ad5 6bbe e37d e33e 37d8 8bbc 6b50 80bf
00000190: beb0 ad3f b0d1 e8be d655 c3bd 624f 96be
000001a0: 6587 bf3e 9056 033f 8a5c 333e afbb c43d
000001b0: e2a4 813e 0744 cc3d a3d9 d03e 450a 983e
000001c0: 1cc8 9b3e 6952 2d3e 7d9f bc3e b25f ac3e
000001d0: bd8f bd3e 311a 8e3e 4ac5 273f fb84 5a3e
000001e0: 8c49 d03e be88 a93e ca85 d93e 000d 943e
000001f0: a335 003f 8fc6 ab3e e2cf d43e 78e5 d83e
00000200: 53a4 c53e e907 b13e e80a b13e fb9d d93e
00000210: 4487 b23e 5fdf ca3e 9054 ad3e 12b3 af3e
00000220: c3ce a93e bbe1 ba3e c27a b13e 3457 9a3e
00000230: fa7a 8f3e 130c 713e 9cb1 803e 43a9 823e
00000240: 277c 793e 9b29 803e 8754 383e 8b0f 313e
00000250: 3bc0 483e 9fd7 183e b10f 283e cda7 a33d
00000260: 1f9e 8c3d d95c e33d 0f98 8f3d 54e6 0d3d
00000270: 6410 3fbc f898 e83c a02b 3bba e9b7 843a
00000280: 9cce 2bbd 9518 c7bd 3bfb b5bd 413c eebd
00000290: 4f4e a9bd de9e bebd 8044 09be a736 04be
000002a0: 5d92 27be ec71 26be 4ffd 25be 3416 20be
000002b0: e5bf 26be bb05 1cbe 2275 2ebe 7757 20be
000002c0: 1d19 2dbe 8f8c 39be f0e7 1dbe 9169 28be
000002d0: 24f9 3bbe 7cbc 18be 9038 36be 0ef1 3abe
000002e0: fc4d 18be c895 09be 457e 06be 0699 1bbe
000002f0: dace 02be 2f65 febd 7674 01be 1adb d7bd
00000300: f7cb dabd 9a41 5dbd c9e8 b0bd e2d4 6ebd
00000310: 66b5 acbd 0e53 4dbd feda 94bd e9a3 c8bd
00000320: d06e 95ba 0e49 273e af5a 213e 617e 11bf
00000330: 1715 1e3e 3e2c de3e 5bb2 64be bb85 51be
00000340: 8f0c 2bbe 161c 033e 289c 10bc 92e9 c8bb
00000350: 4747 a53d 0e84 15be a31d 803d cacb eb3d
00000360: c639 ee3d 3bf5 1c3e b3cd 34be 0c6e dc3c
00000370: 6f11 423d d981 873c e6bf 1cbe 0189 26bc
00000380: b1f2 14be a33b 883d 9586 57bd a8df 34bc
00000390: 943d b03d 2c85 b2bc 7d94 2a3e b1d1 0abc
000003a0: 3265 1fbd 756f b93d a094 983d 0576 e1bd
000003b0: ddb4 38be d812 0a3e fa20 783d 4e93 71be
000003c0: f1fb fa3d 04e7 8f3c e85e ffbb 2418 03bd
000003d0: b2c4 073e f18f 45bd 359e 88bd 91c2 1e3e
000003e0: b4e5 1ebe 62e2 57bd 9c36 d9bc b281 093e
000003f0: 8cf2 abbd ca04 e63c 2a91 40bd f46b acbc
0.023655917 0.061657738 0.08352119 0.077060916 0.06633994 0.06727919 0.07240104 0.04851701
0.091673166 0.118050225 0.11746418 0.13935609 0.13098003 0.15226737 0.13648248 0.13260047
0.16375047 0.16388074 0.18103759 0.16245908 0.15459155 0.17614415 0.16964567 0.20466419
0.16184461 0.13226841 0.1579425 0.17490792 0.16676338 0.11000318 0.16537674 0.17940141
0.15274486 0.1448752 0.12615311 0.11151974 0.10018311 0.12765138 0.08252092 0.051628176
0.03223788 -0.0016575129 0.025961839 -0.02221955 -0.0058948365 -0.032341942 -0.048743974 -0.1024519
-0.101832755 -0.118990615 -0.13823654 -0.1161152 -0.15936042 -0.18633214 -0.21651332 -0.25477186
-0.22519188 -0.23573925 -0.24978511 -0.30224988 -0.33284125 -0.33237076 -0.2901751 -0.269722
-0.38588884 -0.35237834 -0.3334584 -0.42568055 -0.3347016 -0.31335536 -0.41068822 -0.34654003
-0.47547394 -0.31444916 -0.50727 -0.3211946 -0.4398851 -0.39639625 -0.3611615 -0.34177643
-0.4016016 -0.19752748 -0.6918077 -0.14127691 -0.42187122 -0.24496986 -0.50733906 -0.2940909
-0.14585775 -0.3891979 -0.45090714 -0.26471347 -0.055672336 -0.20373248 -0.03581022 -0.5875407
-0.23030534 0.4443198 -0.017070873 -1.0024542 1.3569562 -0.4547248 -0.09537856 -0.2935744
0.37407985 0.5130396 0.1751577 0.0960611 0.25321108 0.09973913 0.40791044 0.29695335
0.3042611 0.16925968 0.3684043 0.3366676 0.37023726 0.27754357 0.65535414 0.2133979
0.40681112 0.33112139 0.42484885 0.28916168 0.50081843 0.33549926 0.41564852 0.4236257
0.38601932 0.34576347 0.34578633 0.42503342 0.34868824 0.39623544 0.3385358 0.34316307
0.3316556 0.36500344 0.3466397 0.30144656 0.2802351 0.23539762 0.25135505 0.2551976
0.24363767 0.25031742 0.18000995 0.17291085 0.1960458 0.14926003 0.16412236 0.0799099
0.06866097 0.11101694 0.07011425 0.034643486 -0.011661623 0.028393254 -0.00071399845 0.001012561
-0.041945085 -0.097214855 -0.08885809 -0.11632586 -0.08266889 -0.09307645 -0.13405037 -0.12911473
-0.16364427 -0.16254395 -0.16209911 -0.1563347 -0.1628414 -0.15236561 -0.1703687 -0.15658365
-0.16904111 -0.18120025 -0.15420508 -0.1644652 -0.18356758 -0.14915651 -0.17795014 -0.18256018
-0.14873499 -0.13436043 -0.13134106 -0.15195093 -0.1277422 -0.12421643 -0.12642083 -0.10539837
-0.106834345 -0.05401764 -0.0863815 -0.05830849 -0.084330365 -0.050128035 -0.07268332 -0.097968884
-0.0011400823 0.16336462 0.1575725 -0.56833464 0.15437733 0.4339313 -0.22333662 -0.2046117
-0.1670401 0.12803683 -0.008826293 -0.0061313594 0.08070236 -0.14601156 0.06255653 0.11513479
0.11632113 0.15327923 -0.17656593 0.026907943 0.047379907 0.016541408 -0.15307578 -0.0101645
-0.14545704 0.06652 -0.05261858 -0.011039652 0.08605495 -0.021792017 0.16658206 -0.008472846
-0.038914867 0.09054462 0.07450223 -0.110088386 -0.18037744 0.13483751 0.060578324 -0.23591349
0.12255085 0.017566212 -0.007793296 -0.032005444 0.13258627 -0.048232976 -0.066708006 0.15503909
-0.15517312 -0.05270613 -0.026515298 0.13428381 -0.083958715 0.028078455 -0.04701344 -0.02104757

bias f4 [100]
00000000: e1b3 83be 21d9 a5bc c222 5abc 0bdf 13be
00000010: 2ba4 e5bc 62b6 b8bd 7f5a 2ebd dfa3 1e41
00000020: d09e 1e3c 5291 9f3a ac47 c9bc ac15 93bc
00000030: fbc6 eabb eb1d 41bb 2b98 f9bc 2dd2 4fbc
00000040: 443e c2bd 42e6 e2c0 5c92 fcbd ca2e 28ba
00000050: 5a4b c13e cd1d a8bb 76cc a63c 6ae8 2640
00000060: b655 1abd e237 9b3d e613 a9bb a465 9636
00000070: 5e74 91bb 82ce 14bc d095 10bc 8b2c 0d3d
00000080: a828 0fbb 2f1f 79be 4988 20c0 99f7 eebb
00000090: 136d 0abd 89c4 e13c 0f83 43bd 0e15 9cc1
000000a0: 9a7b 20bc dc63 47bb ef49 55ba 1c2a a8c0
000000b0: 459e 65ba 4be6 65bb e69a 6dbd da5d 22bb
000000c0: 4a88 43bd e4d7 24bd 6f9c 37c1 e86d 8c39
000000d0: cddc e7ba 1129 bd3d 5b4d 993d 8e29 aaba
000000e0: 34b6 bdbd e0b7 13bb c86b 80b7 4747 28bd
000000f0: 7fec 1e3c 4f59 dbba c959 58bb c414 ecbc
00000100: c67f 43b9 ef7a 46ba 74d2 88ba 86ce 3a3d
00000110: cfd3 c8bb 6d90 18bd 6f96 a9b9 338c 3340
00000120: 5ed6 15bf 846f 3d3e 6ae1 14c0 ea46 76b9
00000130: e2e9 c93b 0734 e1ba ad63 8b3f 81ce 1fbd
00000140: 23e8 d3bc 5de7 d0bc 350e 4abd 1d1a c538
00000150: ec80 74ba 82e4 a0c1 c954 c939 925a 51bc
00000160: 2896 43ba d693 88b8 8372 863d 02ec 26bc
00000170: 5489 96bc 53a3 ccbd d293 cabb fb10 de3c
00000180: 8d83 c2bd 083d e2bc 2841 edb9 3dd3 a43a
-0.25723174 -0.020245137 -0.013313951 -0.14440553 -0.028032383 -0.09019162 -0.042566773 9.915008
0.009681419 0.0012174046 -0.024570309 -0.01795467 -0.0071648336 -0.0029467295 -0.030468067 -0.012684387
-0.094845325 -7.0906076 -0.12332603 -0.00064156635 0.377528 -0.0051305057 0.020361166 2.6079354
-0.037679397 0.07579018 -0.005159843 4.482181e-06 -0.004438921 -0.009082438 -0.008824781 0.034466308
-0.0021844301 -0.24328302 -2.5083182 -0.0072926995 -0.033795428 0.027559536 -0.04773241 -19.51028
-0.009795094 -0.003042451 -0.0008136322 -5.2551403 -0.0008759241 -0.0035079892 -0.05800905 -0.0024775178
-0.047737397 -0.04024495 -11.475692 0.00026784767 -0.0017689705 0.092363484 0.074854575 -0.0012982355
-0.09263268 -0.0022540018 -1.5308979e-05 -0.0410836 0.00969994 -0.001673499 -0.00330125 -0.028818496
-0.00018644248 -0.0007571419 -0.0010438696 0.045607112 -0.006128765 -0.03724711 -0.00032346274 2.805432
-0.58530223 0.18499571 -2.3262582 -0.00023486806 0.006161914 -0.0017181643 1.0889794 -0.039015297
-0.025867527 -0.025500948 -0.049329955 9.398556e-05 -0.0009327072 -20.111576 0.00038400877 -0.012777941
-0.00074610347 -6.512522e-05 0.0656481 -0.010188105 -0.01837603 -0.09992089 -0.0061821723 0.027107706
-0.094977476 -0.027616993 -0.00045252708 0.0012575161

weight f4 [100, 100]
00000000: 6964 41bf 953a a1bf a303 a03e 1f44 bb3d
00000010: 3ec8 49bd 2473 8fbc 0772 b73c 7737 1e3d
00000020: 0bd9 09bd 6bc5 47be dc37 63bd b2fb 24bd
00000030: a379 34bd 9d7e 1cbc 944a aebd 0335 9bbc
00000040: 6ac8 f73c daf0 903d abdc 9c3f 5aca 0fbe
00000050: a52f 40be 8cfd 193f bd29 113e cc04 a1bc
00000060: 3b27 3e3e 791d f83d e26c 73bd 2514 c53b
00000070: daf0 ef3d edc3 25be dd25 51bf d114 1dbe
00000080: eb15 d53d 88bc 793e cdc0 5ec0 fad0 5b3f
00000090: 4bbf bbbd 5c78 143e 2028 a53d 04a4 9bbc
000000a0: 06b9 953d 2897 c63b 82c2 81bd 9738 80be
000000b0: 1dd1 cfbe 68a2 cd3b bac1 523d c3c8 c6bf
000000c0: 3b53 d6bf 24ae dbbf 0497 02bd 2cf5 92bd
000000d0: 2d96 ba3d 6018 503d 4e01 393e b67e 8ac0
000000e0: 2bbf 49bf 3b68 3b3f 6343 aa3d 689e bf3c
000000f0: 52d6 04c0 b2fb 0c3e 8e0b c7bc 3e13 2d3d
00000100: 38cb 593e 21e1 22bf c095 833e 2928 18be
00000110: 5e58 493f b5d3 f3bf e273 0ebe 48ef 3d3d
00000120: b87c dc3c 3962 41bd 8bf5 71bc 533c 193c
00000130: 7e62 d0bd a205 863d 855d cb3d b348 e4bd
00000140: e42d 7b3c f523 eb3d a543 b13b 48d2 863d
00000150: fdb0 4abf 9c70 0ebf 5d3c db3e af60 67bd
00000160: d4f5 223f e0ed 843d 6f97 20bd cdd1 02be
00000170: c32a c83f e274 bdbd 8e37 db3d 5c8e b9bc
00000180: 17f1 bec0 3b2b 80bf 761d f7bd 3555 d1bc
00000190: 4a9d f53c b78a dec0 2333 6ebe 82f7 293e
000001a0: 1fba b3bf 465d 8dbf bb0c cabc 7ce3 51be
000001b0: ca51 f6bd 5b7f b93e e237 e3bf 5742 6ec0
000001c0: f9fd 8cc0 a13c b0bc da07 d9bd 8fef a13d
000001d0: c39f 213e 2b56 04bf da01 7d3d 37b3 fa3c
000001e0: 0a74 e1bd 8ad2 b93e 6c32 c73d b6b8 39be
000001f0: 9d97 d23e 5a2d acbd f15a 61c0 ef72 9c3d
00000200: e714 5e3e 7ae9 843d 5b24 2c3e 69ed 413e
00000210: e82d 363f 89d6 273e 3f99 9fbd c2c5 87be
00000220: 0cac 9abe f71e 163f 7615 713e 82e4 f7bd
00000230: c5c8 c7bd 374a 433e 4d5d e2bf 362a 12bd
00000240: 5457 663e 9cf4 443e 12b6 4c3d ea2f b8c0
00000250: f1f8 bfc0 9369 48c1 a541 7abe d4fb 8d3d
00000260: ca40 ddbd 9a79 e6be 0e1c 0b3e 7276 0ebf
00000270: 2f5b ffbe 04f3 f23e 64e4 d13e ec60 e73d
00000280: 1049 adbb 449f 4d3f 28df 9fbe a5de 6e3e
00000290: cc91 bd3c e329 c1be 6cc6 8c3f ed9f d63c
000002a0: e8a9 1c3d a2ee c8c0 1d59 1e3e 645a 8ebe
000002b0: 9512 95bc c073 01be 6465 0fbe 91ec cabe
000002c0: 852f 3d3d 5beb 1bbf 40c5 9f3d e50c 7d3e
000002d0: f3b8 94be 2767 bbbe a7c0 cd3d 2840 1cbe
000002e0: a3b4 043d 3a32 56be c874 a23e 6578 e2bd
000002f0: 832d 9b3e d331 003e 0156 c23d ed15 933d
00000300: 2343 ec3f ed0a 473e 6571 bc3e 4372 153e
00000310: 00ca 38bd 5702 89bf 90a3 043e a9a5 603e
00000320: bd5f e8bd 6f6f 67c0 db9f 1fbe f756 3d3e
00000330: a4cd bc3e 981e 8dbf c178 6ec1 8923 393d
00000340: 56d0 6d3f 7960 023e e281 053f 5d3e 013e
00000350: a1e9 e23e c49b 74bd b438 05be 3a8c d0bd
00000360: 53c5 ff3d 72c5 30be ab6f 9a3e e206 abbd
00000370: 1c35 173e cd9a 22be 9e4a 73bc 0162 d6bd
00000380: ae23 b73e ed2f 39be 1b68 763e 3555 fe3b
00000390: f519 ac3e 0419 02bd b873 093b dab8 353d
000003a0: 2c0f 07c1 9e22 86be 2c0f 623e 243c 92bd
000003b0: 6c34 e8bd 721b 353d 52d5 cec1 d6fc a1bc
000003c0: 2558 4a3e 190d 723d e991 e13e 1414 babd
000003d0: b65b eebc 26e8 08bd c757 023e bf70 bec0
000003e0: 15d5 d7c0 3b75 2bbf d509 013e 1cec e6bd
000003f0: 790f bfc0 a9fc 01bd 4c08 b53d 4b38 173e
-0.7554384 -1.2596003 0.31252775 0.091438524 -0.04926323 -0.017510958 0.02239324 0.038627114
-0.033654254 -0.19508903 -0.055473194 -0.040279098 -0.044061314 -0.009551671 -0.085103184 -0.018946176
0.030246932 0.07077189 1.2254843 -0.14042035 -0.18768175 0.60152507 0.14176078 -0.019655608
0.18569653 0.121149965 -0.05943001 0.0060143643 0.11715861 -0.16188021 -0.816984 -0.15339972
0.10404571 0.24388325 -3.4805176 0.8586575 -0.091673456 0.14499038 0.08064294 -0.018999107
0.07310681 0.0060604997 -0.063359275 -0.25043175 -0.40589228 0.006275464 0.051454283 -1.5530018
-1.674415 -1.7162519 -0.0318823 -0.07175669 0.09110675 0.050804496 0.18066904 -4.3279676
-0.78807324 0.7320592 0.08313634 0.023390964 -2.075581 0.13767889 -0.024297502 0.04225468
0.21268928 -0.6362477 0.25700188 -0.1485907 0.7865046 -1.9048983 -0.13911393 0.046370775
0.02691494 -0.047212813 -0.014768015 0.009352761 -0.10175036 0.06544043 0.09929947 -0.11146679
0.015330765 0.11481468 0.005409675 0.06583077 -0.7917631 -0.5564058 0.4281949 -0.05648869
0.63656354 0.064906836 -0.03920692 -0.12775345 1.563805 -0.09250809 0.107039556 -0.02265089
-5.96693 -1.0013193 -0.12066166 -0.025553325 0.029982228 -6.954433 -0.23261695 0.16598323
-1.4041175 -1.104409 -0.024664273 -0.20496935 -0.12027319 0.36229977 -1.7751429 -3.722799
-4.4060025 -0.021513285 -0.10597201 0.0790702 0.157836 -0.5169398 0.061769344 0.030603034
-0.11008461 0.3629344 0.09726414 -0.18136868 0.41131297 -0.084070876 -3.5211756 0.07639109
0.21687661 0.064898446 0.16810744 0.18938221 0.711638 0.16390432 -0.07792901 -0.26518065
-0.30209386 0.58641 0.23543343 -0.12104131 -0.097550906 0.1907128 -1.7684723 -0.035684787
0.2249425 0.19233936 0.049978323 -5.755849 -5.9991384 -12.525775 -0.24439104 0.06932798
-0.10803373 -0.4501465 0.13584921 -0.55649483 -0.49874255 0.4745103 0.4099456 0.11297783
-0.0052882507 0.80321145 -0.31224942 0.2332712 0.02314081 -0.3772727 1.0998054 0.026199305
0.038247973 -6.27913 0.15463682 -0.27803338 -0.018197337 -0.12641811 -0.14003521 -0.3963361
0.046187896 -0.60906 0.07801294 0.2471195 -0.29047355 -0.36602136 0.10046511 -0.15258849
0.03239883 -0.20917597 0.31729722 -0.1105812 0.3030816 0.12519006 0.0948906 0.071819164
1.8457989 0.19437762 0.36805263 0.14594369 -0.045114517 -1.0703839 0.12953019 0.21938194
-0.11346386 -3.6161764 -0.15588324 0.18490206 0.3687564 -1.1024961 -14.904481 0.045199905
0.9289602 0.12732114 0.5215131 0.12621446 0.4431887 -0.059718862 -0.13009912 -0.10182996
0.124888085 -0.1726282 0.3016332 -0.08350922 0.14766353 -0.15879364 -0.014849333 -0.104679115
0.3576941 -0.18084688 0.2406315 0.0077616223 0.33613554 -0.031762138 0.0020973515 0.04436574
-8.441204 -0.26198286 0.220761 -0.07140377 -0.11338124 0.044215627 -25.85416 -0.019773882
0.19760187 0.059094522 0.44056633 -0.09085861 -0.029096466 -0.03342452 0.12728797 -5.951263
-6.744761 -0.66975754 0.12601407 -0.11275503 -5.9706388 -0.031735096 0.08839473 0.14767568

bias f4 [100]
00000000: 2788 2840 dc35 cc40 f879 2d41 323d e940
00000010: 73e3 9840 82b3 a03e de7f 5bbf 07f4 4f40
00000020: 96b7 0441 577b ee40 6ea8 0b40 c3ea 2641
00000030: 2061 2741 c308 1541 c8a0 383f de86 3040
00000040: 7b41 723e e6dc b540 6367 de40 d5e5 aebe
00000050: 9f3d da3f d8c9 e6c0 4762 6741 a0f8 4e40
00000060: b587 b43f ac82 2b41 938f a53f 0515 20be
00000070: a016 7340 0c38 8d40 d1f0 32c0 5bd2 f440
00000080: 1c90 8440 d031 da40 f397 a1c0 6302 c13f
00000090: e73c 71c1 1506 4040 8181 8c40 0450 2a40
000000a0: 125e e33f feab 3bc0 abbf 593f e372 1c41
000000b0: 71fe f640 08d2 00c0 d8d1 1dc0 577a 1841
000000c0: f052 0041 f3cd c141 647e 4a41 c4da 3d40
000000d0: 6435 2d41 fac9 b340 2e4c 2540 6c21 8b40
000000e0: efb0 1741 15f0 e93f 3a07 eb3f bcd1 863f
000000f0: 3530 3a3f 7338 4141 09b5 563e 2920 56c0
00000100: a497 83c0 d97d b340 6fbf a741 4c7d a9bf
00000110: 044f 7ebf 4812 5b41 e673 57c0 2cf8 e23f
00000120: f5e3 dac0 2850 233d 0831 5c40 30da 5c3f
00000130: 6c3c 9640 594e 5240 60a0 2841 201f ec3f
00000140: 6316 2ac1 6d1b 8e41 1e8f 1f40 c63e a540
00000150: f5f9 0e41 187f 3541 0b10 4740 8ccf 2d40
00000160: 7fb5 0fc0 e6c1 c440 af84 9440 9b06 b13f
00000170: a38c 4740 1a61 45c1 e1c2 4040 5a42 af40
00000180: ecff 3a3f 9e41 d23f fe19 823f 71a5 c4c0
2.63331 6.3815746 10.842278 7.28872 4.777765 0.31386954 -0.85741985 3.2492692
8.294821 7.452556 2.1821551 10.432315 10.461212 9.314639 0.7212033 2.7582316
0.23657791 5.683215 6.9501204 -0.34159723 1.7050055 -7.212139 14.4614935 3.2339249
1.4103914 10.719402 1.293444 -0.15633018 3.798256 4.4130917 -2.7959483 7.650678
4.1425915 6.8185806 -5.0497985 1.5078853 -15.077369 3.0003712 4.3908086 2.6611338
1.7763083 -2.9323726 0.8505809 9.7780485 7.7185597 -2.0128193 -2.4659328 9.529868
8.020248 24.225561 12.655857 2.9664774 10.825535 5.6184053 2.5827746 4.34783
9.480697 1.8276392 1.836158 1.0532756 0.7272981 12.076282 0.20967497 -3.345713
-4.112261 5.6091123 20.968473 -1.3241363 -0.9933932 13.691963 -3.3664489 1.7731986
-6.840327 0.039871365 3.4404926 0.8627043 4.6948757 3.286032 10.539154 1.8446999
-10.6304655 17.763391 2.4931102 5.163913 8.936025 11.343529 3.1103542 2.7157927
-2.2454526 6.1486692 4.6411967 1.3830141 3.1179588 -12.336206 3.0118945 5.4768496
0.73046756 1.6426275 1.0164182 -6.1451955

weight f4 [14, 100]
00000000: f2e0 e1bc 102e 82bc 6985 66bb 9787 9fbd
00000010: 22c8 babc d400 eaba 0904 e93b a16c 30bf
00000020: fd93 8bbd 9b58 afbb c21a 53be 8836 ca3b
00000030: 9a9e d53c 386c 28bc 88fa 1d3f f172 e8be
00000040: c13c e03c 4b4e 03bc e965 ee3c 992a 523e
00000050: 1190 a9bd c20d 03bc 1c29 613e b5c9 9cbd
00000060: 9e1f 2bbf 7a4e dbbd 9549 81be f2f9 74bc
00000070: ee10 9abd c2f2 28bc 7db2 8f3e 79a5 0ebe
00000080: b2ee ca3a a676 593f a8f9 cbbd 5c9e 1b3e
00000090: d175 7f3d 03f7 84be d37f e5be 5085 c7bf
000000a0: eb4e afbe a29a bc3d 66f0 77bb 36a4 f23c
000000b0: 5466 b53c 53cb 47bb b5ef 33bc 9b84 c63d
000000c0: 307e 98bf b1d8 9abd 6695 04be b48d e7bd
000000d0: b08a 00bc 736c 00bd 26f6 9dbc 3898 22be
000000e0: c26a 53bc 9045 86bd 3750 1c3f 1c8b 4abb
000000f0: d9fb 243d 5f9b c6bc de9a 873c 2a4c 0fbb
00000100: 72d2 75be 840a 493e b712 91bc 27dc 7bb9
00000110: d735 013e 18a2 ae3c 5e6f 44bd 903e 58be
00000120: 7eec f239 1122 fdbd 4a69 06bf c895 c0be
00000130: 083c 1cbb 1f02 27bc 13ec 1abc 9e1a 80be
00000140: 4a47 38bc dbe5 05bd 5286 b13e 20ab 8f3d
00000150: 6b79 4abd 257c 163c 6ae1 d23a 54ca e7bc
00000160: 4cbc 1e39 d249 04bf 5274 47be 4c38 cbbd
00000170: 9216 b13b af09 6d3d 3b70 f1bc d7d7 e2bd
00000180: 75e0 483c 087d af3e c369 b8bd ca3a d93c
00000190: 3f50 c7bc 8ca2 a4bd f2bc b03d 56d4 5cbd
000001a0: 2b9d 303c a7c5 32bc 9015 7cbc 78f9 e8be
000001b0: 3ebb 81bd 63ab 87be 868a 2940 f055 7a3d
000001c0: 4cd4 d43c faff aabd 8224 9e3f 46a2 2cbf
000001d0: c582 b9bc 6180 2b3e 55c3 ce3c 7f14 bf3c
000001e0: 5d15 6cbd 42df b63c b526 0a3c 63a8 36be
000001f0: e8d9 90bf 9582 c0bb a8a3 46bd 405f 073c
00000200: 2c9b 9dbd 075f d5ba e049 803d 04fa e3bd
00000210: 5b5e 733e 45fa 37be e830 3ebe bbab efbf
00000220: 8038 443c 8386 ebbe 74ec 09bf be64 cebf
00000230: ed63 953e c90e 4ebd e032 b0bc f271 85bd
00000240: e089 c0bb 909f c4bc c6e7 4bbd 5e90 0c3d
00000250: a4ee 3bbf cd33 0dbb 752f 4c3b 9718 4fbe
00000260: 0573 6bbc 202e 58bc b1d6 a33b 08a0 49be
00000270: ad42 f1bc 4c2e 96bd 26eb 793f 69e9 1b3c
00000280: e768 bc3c 7d40 043d 2bcc 8fc0 b69a abb9
00000290: 11c8 1dbd a3bb 9f3e 0a22 fbbc dfda 203d
000002a0: 4f2b 623c f9a9 ba3c fe4c a6bd 1083 abbe
000002b0: 76c8 3c3c 4c04 533d 9bef 22bf 6045 1abe
000002c0: 6fb6 0e3c 628b abbc b772 b0bd 35fd abbe
000002d0: bcaf 31bc 0907 b6ba 72f3 1cbf e38e 463e
000002e0: c3c2 a8bc 90c9 b53b 8d1a 16bd e304 053d
000002f0: 45a6 b6ba 98dd fb3b 1781 213b d85f 593f
00000300: fd3e ef3c ebcc f23b 0790 9d3d 6e7a aabd
00000310: 470a 7abc 52f3 30be a23f 7a3d 9638 b33d
00000320: 5ea3 cc3c 83b3 da3b 75d4 0ebe a06e 18bd
00000330: d7a4 d3bb 2568 ac41 0c7a ba3c 3f49 de3d
00000340: 79be 8cbd a5ec 053e 754a 73be caa2 513c
00000350: 6029 4a3c e208 163a 9bdd b63e 0d23 06bf
00000360: 1dbd a93c 5dfb 06be efc9 883d 00e9 3ebd
00000370: d60f 5fbd e645 44bc 4384 143d b1d7 8cbd
00000380: 94d5 87bf ad72 b6bc b019 0b3c a3d9 773c
00000390: 1c26 13be c086 8bbb 41b7 a1bc 9905 89bd
000003a0: 1cb2 1cbe 12a8 dd3e 2ab6 c5bd f328 143f
000003b0: c4f6 27bc 567f 68be b715 fdbe b082 a9bf
000003c0: bab7 043e b319 bb3d ac65 7a3c 3d88 1f3d
000003d0: b7d1 a0bd 2363 993c ae9c b43d d9d0 f03c
000003e0: 1216 7a3f eb38 35bc dc34 703a 5dfc 3ebd
000003f0: 1118 363c 3720 3dbb 7677 c9bc edb8 20be
-0.027573083 -0.015891105 -0.0035174733 -0.077895336 -0.022800509 -0.001785303 0.0071110767 -0.68915755
-0.06815336 -0.0053511388 -0.20615676 0.0061710514 0.026076604 -0.010279708 0.61710405 -0.45400193
0.02737272 -0.008014272 0.029101329 0.20524062 -0.082794316 -0.007998886 0.21988338 -0.0765566
-0.6684512 -0.107083276 -0.2525145 -0.01495217 -0.0752276 -0.010311784 0.28065863 -0.1393031
0.0015482514 0.8494667 -0.099597275 0.15197128 0.062368218 -0.25969705 -0.44824085 -1.5587559
-0.34239897 0.09209181 -0.0037832498 0.029619318 0.02214352 -0.003048618 -0.010982444 0.09693261
-1.1913509 -0.07560862 -0.12947616 -0.113063246 -0.007845566 -0.031353425 -0.019282412 -0.1587838
-0.012903871 -0.06556237 0.610599 -0.003090567 0.040279243 -0.024244009 0.016553339 -0.0021865466
-0.2400606 0.19632918 -0.01770912 -0.00024019238 0.12618195 0.021317527 -0.04795777 -0.21117616
0.00046334037 -0.12360013 -0.5250441 -0.37614274 -0.0023839492 -0.010193377 -0.009455699 -0.25020307
-0.011247465 -0.03268991 0.3467279 0.070150614 -0.0494322 0.009184872 0.0016088907 -0.02829472
0.000151382 -0.5167514 -0.19477966 -0.09922847 0.005404302 0.057870563 -0.029472461 -0.110763244
0.012260546 0.3427508 -0.090045474 0.02651729 -0.024330257 -0.08038816 0.086297885 -0.053913437
0.010779659 -0.010911382 -0.015386 -0.4550283 -0.06334542 -0.26497945 2.6490798 0.061117113
0.025980137 -0.08349605 1.2354891 -0.6743511 -0.022645364 0.16748191 0.025239626 0.023325203
-0.05763756 0.022323254 0.00843208 -0.17837672 -1.13165 -0.0058749416 -0.04849592 0.008262455
-0.07695612 -0.0016278931 0.062640905 -0.11131671 0.23766463 -0.17966564 -0.18573344 -1.8724283
0.011976361 -0.46001062 -0.53876424 -1.6124494 0.291778 -0.05030707 -0.021508634 -0.06515874
-0.005875811 -0.024001867 -0.049781583 0.034317367 -0.7341101 -0.0021545768 0.0031156216 -0.20224224
-0.0143706845 -0.013194591 0.0049999584 -0.19689953 -0.029450739 -0.07333049 0.97624433 0.009516099
0.02299924 0.032288063 -4.493673 -0.0003273093 -0.038520876 0.31197843 -0.03065588 0.03927123
0.013804271 0.022786127 -0.08120154 -0.3349843 0.011522403 0.05151777 -0.6364686 -0.15065527
0.008710488 -0.020940486 -0.0861563 -0.3359162 -0.010845121 -0.0013887595 -0.6130897 0.19390444
-0.020600682 0.0055477098 -0.036646415 0.032475363 -0.001393505 0.007686328 0.0024643594 0.8491187
0.02920484 0.007409682 0.07693487 -0.08324133 -0.015261239 -0.1728032 0.06109584 0.08751027
0.024980243 0.0066742315 -0.13948233 -0.037214875 -0.0064588594 21.550852 0.022763275 0.10853814
-0.06872267 0.13078554 -0.23758872 0.01279516 0.012338966 0.00057233695 0.35715947 -0.52397233
0.020720059 -0.13181825 0.06679141 -0.046608925 -0.05445846 -0.011979556 0.036258947 -0.06877077
-1.0612054 -0.022271479 0.008490011 0.015127572 -0.14370006 -0.004258007 -0.019740703 -0.06690521
-0.15302318 0.4329229 -0.09653886 0.57874984 -0.010251705 -0.22704825 -0.4943063 -1.3243008
0.12960711 0.09135761 0.0152830295 0.038948286 -0.078525 0.01872403 0.08818947 0.029396461
0.97689927 -0.011060934 0.000916315 -0.04662739 0.011114136 -0.0028858313 -0.024593096 -0.15695544

bias f4 [14]
00000000: 5637 8340 af23 be3e c255 373c 2a54 0c3f
00000010: 2cc5 b9be edc2 3bbe 60da 16c0 512e f9bf
00000020: 4faf 21bf f0e4 23c0 85ca 2fc0 7166 8bbe
00000030: 64cd 3dbf 541b c7c0
4.100505 0.371366 0.01118988 0.54815924 -0.36283243 -0.18336077 -2.3570786 -1.946726
-0.63158125 -2.5608482 -2.7467358 -0.27226594 -0.74141526 -6.222086
