trainingOnSyntheticData/results/20230807_175747_train/model_training_set_size_2000000_hidden_neurons_100_n_batches_100.pt (torch, 131167 bytes, 6 tensors)

weight f4 [100, 200]
000000 de 73 f8 3c 32 6b 7f 3d ea 77 1d 3c 71 3e b9 3d
       0.030328687 0.06235809 0.009611109 0.09045113
000010 cb c6 5f bb 64 34 05 3d ad 6a f5 3d 17 96 9c 3d
       -0.003414559 0.032520667 0.119832374 0.07645815
000020 44 b8 7f 3d 1b 0f 75 3d 9a d6 c2 3d 5d ac 90 3d
       0.06243159 0.05982886 0.09513588 0.07064126
000030 3e b1 28 bc 1b cb 85 3d 5c e9 11 bd 2c 25 ce 3c
       -0.010296164 0.0653288 -0.03562294 0.02516421
000040 45 8f 3e bd e6 36 d1 3c 63 49 7c 3d cb 50 e7 3c
       -0.04652335 0.025538873 0.061593425 0.028236767
000050 4e e8 b3 3b 02 b8 9e 3c 31 19 d9 3c 9b 7a 04 bd
       0.0054903394 0.019374851 0.02650127 -0.03234349
000060 f9 39 8c 3d 68 3e cf 3c a2 5c d1 3c 6c e8 f2 3b
       0.06846995 0.025298312 0.025556866 0.0074129608
000070 e2 dc 6c 3c 83 52 55 bc 4b 78 3a 3c 22 32 47 3d
       0.014456959 -0.013020161 0.011381219 0.048631795
000080 33 d5 5d 3d 84 09 c9 bb 44 b4 2f 3d b2 e2 df ba
       0.0541584 -0.0061351676 0.042896524 -0.001708111
000090 97 58 42 3d ec e1 4f bd 31 ed 67 3d 78 96 ae bc
       0.047447767 -0.050752565 0.056622688 -0.021311983
0000a0 63 27 5a 3d 68 9f 8a bc bf be 8d bd a3 cf 7a bd
       0.05326022 -0.016921714 -0.069211476 -0.061233174
0000b0 da 61 0b 3b ff 19 8a bd 36 5e 99 bd ed bb 0d be
       0.002126804 -0.067432396 -0.074886724 -0.13841219
0000c0 0a 24 1a be 7e dc 97 be c5 25 81 be ae 90 01 be
       -0.1505281 -0.2966041 -0.25224128 -0.12652847
0000d0 15 65 d2 bd f6 52 21 be 3c 65 a5 be 44 db a2 be
       -0.10273186 -0.15754303 -0.32303798 -0.3180791
0000e0 eb 77 89 be 99 72 2a be db fa 43 be 3f de 80 be
       -0.26849303 -0.16645278 -0.19138663 -0.2516956
0000f0 8c 90 8e be b5 07 11 be 17 c2 41 be 52 60 08 be
       -0.27844656 -0.14163096 -0.18921696 -0.13317993
000100 62 e9 a7 bd 45 80 0f be 58 79 24 be 9b 61 1a be
       -0.08198811 -0.14013775 -0.16061914 -0.15076296
000110 b6 6e 4c be a3 1d 98 be f8 47 ee be 79 28 0e bf
       -0.19964108 -0.2971011 -0.46539283 -0.55530506
000120 f2 b2 17 bf 27 5e e1 be 87 b3 46 be cd 6e 58 3e
       -0.59257424 -0.44017145 -0.19404422 0.21136017
000130 5d de f9 3e 86 a2 e2 3e 89 96 a6 3e ef 49 36 3e
       0.48802462 0.4426462 0.32536724 0.17801641
000140 a1 6e c1 3d 49 22 e7 3d 07 ae 81 3e cd 21 9e 3e
       0.09444929 0.11285836 0.25328085 0.30885163
000150 a2 a1 b7 3e 22 f1 38 3e e3 5c ce 3c c9 b0 91 be
       0.35865504 0.18060735 0.025190776 -0.2845519
000160 61 b3 8b be 9c e3 a0 3d 38 ac d5 3e ce 62 40 3f
       -0.27285293 0.07855913 0.41732955 0.75150764
000170 46 f8 67 3f ac 38 27 3f 43 f1 f4 3e 76 46 b5 3e
       0.9061321 0.6532085 0.47840318 0.3540532
000180 bb c0 b9 3e 2f a3 92 3e d4 af 81 3e fa bf a0 3e
       0.36279854 0.28640124 0.2532946 0.31396466
000190 0b 7d a6 bf 1d 88 20 3e 01 83 de 3e aa 6b 02 3f
       -1.300691 0.15676923 0.43459323 0.5094553
0001a0 19 af 53 3e 28 8c b2 3e 4a 0e e2 3e 52 9b 25 3f
       0.20672263 0.34872556 0.44151527 0.64690125
0001b0 e6 d7 65 3f 54 57 40 3f 6e ec cb 3e 63 90 51 bc
       0.8978256 0.7513325 0.3982882 -0.012790772
0001c0 51 a8 a6 be d2 77 8c be db 16 06 be 15 67 a5 3e
       -0.3255029 -0.27435166 -0.13094656 0.32305208
0001d0 91 c3 db 3e 52 3f e0 3e ff 4d 5f 3e 45 7a be 3c
       0.42922643 0.4379831 0.21807097 0.023251662
0001e0 1d 8d 2e 3d 12 34 29 3e 7e d2 90 3e 16 06 f7 3e
       0.042615045 0.1652377 0.28285593 0.4824683
0001f0 ee 86 c2 3e 0c 27 74 3e d8 02 2f be 35 54 07 bf
       0.37993568 0.2384302 -0.17090929 -0.52862865
000200 70 1b 07 bf 89 61 10 bf 76 42 e0 be b9 2e 58 be
       -0.5277624 -0.56398827 -0.43800706 -0.21111573
000210 0a 43 47 be 92 2c 64 be be 1d a9 bd e7 45 af bd
       -0.19459167 -0.22282627 -0.08257626 -0.08558255
000220 a6 3a 79 bd 8a 4d 2b be 22 e1 44 be 40 7b 63 be
       -0.060846947 -0.16728798 -0.19226506 -0.22214985
000230 d9 77 4f be 9e bd 1e be e2 3d 89 be 65 be a2 be
       -0.20260562 -0.1550202 -0.26805025 -0.31785884
000240 82 37 b3 be ff d2 48 be cb 32 46 be 58 68 21 be
       -0.35003287 -0.19611739 -0.19355313 -0.1576246
000250 ce b1 6c be 15 1a 53 be b7 6b 52 be 30 9f 1c be
       -0.23114702 -0.20615418 -0.20548902 -0.152951
000260 db 03 09 be 42 5a 60 be f8 b4 80 bd 9d 10 10 be
       -0.13380377 -0.2190943 -0.06284517 -0.14068837
000270 d0 46 07 3d 78 f8 a0 bc 36 ce 10 bc 5e 5a 19 bd
       0.033026516 -0.01964973 -0.008838227 -0.037439696
000280 0a 90 8c bc f1 c9 38 3c cd 67 95 3d fb 39 50 3c
       -0.017158527 0.011278615 0.07295189 0.012709136
000290 80 a6 4b 3d de 42 8d bc cb 2c a1 bb 49 c3 6d 3d
       0.049719334 -0.017243799 -0.00491867 0.058047567
0002a0 9b f2 2d 3c ab a6 6c 3d bd ba 62 3d ce 95 90 bc
       0.010616924 0.057776134 0.05535387 -0.017649557
0002b0 cf 93 3a bd 24 44 f0 3c 71 4f 2d 3d bd c4 78 bc
       -0.045551118 0.029329367 0.04231209 -0.015183625
0002c0 1c b6 43 3d e1 65 21 3d 16 29 d7 bc f6 84 cb bc
       0.047781095 0.0394038 -0.026264708 -0.024843674
0002d0 6a 35 99 3d e1 f3 ff 3c d5 b1 46 3d 4c df 79 bc
       0.07480891 0.03124422 0.048509438 -0.015250992
0002e0 b8 fd 4d 3d 74 c2 48 bd ce fa cd 3b ff be 48 3d
       0.050290793 -0.04901357 0.0062860018 0.049010273
0002f0 a7 81 5c 3d d3 24 90 3d c9 e9 9f 3d 7e f8 40 bc
       0.053834584 0.07038274 0.07808263 -0.011777995
000300 41 1c f5 3d e7 67 ef 3d 99 c3 94 3d 5f 00 9b 3d
       0.1196828 0.1168974 0.0726387 0.0756843
000310 27 a3 2f bd fb 35 ad 3c 34 2c a2 3d a0 8c 8b 3d
       -0.042880204 0.021143904 0.07918587 0.068139315
000320 e9 19 5b 3b 32 1d 4d 3d 3e 31 9a bb 26 85 16 bc
       0.0033432192 0.05007667 -0.004705577 -0.0091870185
000330 00 cf 40 bb f6 e3 24 3c 3a f0 60 3d 45 2c 2c bd
       -0.0029420257 0.010064116 0.054916598 -0.042034406
000340 ea 32 03 bd f4 d5 d5 39 18 88 3f bc a3 be 3d bc
       -0.032030977 0.00040785933 -0.011690162 -0.011581096
000350 68 95 18 3c 27 95 cd 3c d3 ac 00 bd 7f b3 23 bd
       0.009312965 0.025095535 -0.031414818 -0.039966103
000360 26 d3 56 3d 5e d1 2a bc ab 89 00 bd 39 57 05 3c
       0.05244746 -0.010425894 -0.03138129 0.008138471
000370 e8 40 37 3c d0 37 82 3c a1 b7 1c bd 20 c3 13 bd
       0.011184908 0.015895754 -0.03826106 -0.036074758
000380 a0 e7 23 3d 78 0d 93 bc 4e ab d4 3c 39 23 11 3c
       0.040015817 -0.017950758 0.02596059 0.008858495
000390 fa c8 f5 3c db 93 e4 3c c1 b4 d3 bc fb 99 3a 3d
       0.03000306 0.027902534 -0.025843026 0.045557003
0003a0 66 0c d9 3c 24 be 57 3c 12 5e d0 bc bb f7 19 bd
       0.02649517 0.013167892 -0.025435481 -0.03758977
0003b0 c7 ef aa 3c 5b 17 0a 3d 85 f8 a3 bc 86 21 21 bb
       0.020866288 0.03371368 -0.020015964 -0.0024586632
0003c0 6c 3e fb bc 6a 6d 56 3c be 17 1e bd 50 d5 2c bc
       -0.030669414 0.01308761 -0.03859686 -0.010548905
0003d0 ba 60 da bc c3 0e e9 3b 0f 98 b5 bc 34 3f 88 3c
       -0.026657451 0.0071123554 -0.022167234 0.0166317
0003e0 62 1a 63 3d 39 6a 7a 3d a6 c2 a7 3c 1f 30 75 3d
       0.055445082 0.061136458 0.020478558 0.059860345
0003f0 1b 6b d9 3b b1 05 24 bd a1 c7 e6 bc 64 9a f3 bd
       0.0066350824 -0.04004449 -0.028171362 -0.11894682

bias f4 [100]
000000 d5 4e e4 3d 26 8f e1 3a 64 e6 66 ba c5 87 ce 3c
       0.111478485 0.0017208799 -0.00088081346 0.025211224
000010 7f 83 71 bc d5 36 8a bd 64 41 04 bd 8e bd ec 3a
       -0.014740824 -0.0674874 -0.032288924 0.0018061863
000020 33 0e 63 c0 f3 f4 b0 ba bb 1e 61 40 9a 5e 96 bd
       -3.5477417 -0.0013500735 3.5175006 -0.073422626
000030 00 87 34 bd 44 97 f7 b9 e1 1c e5 bd 46 c2 d9 bc
       -0.04407406 -0.00047224213 -0.11187149 -0.026581895
000040 be 10 10 bc f2 eb 3a ba cf 6c 40 39 ea 09 be bb
       -0.008793054 -0.00071304955 0.00018351081 -0.0057995217
000050 f7 99 9d b9 da cb db 3b 29 7a 83 c1 1d 21 d2 3f
       -0.00030060086 0.0067076506 -16.434649 1.6416355
000060 cc 8c 89 3c 7c 0c 07 3c 25 ae 38 b9 d1 99 58 c1
       0.01679077 0.008242723 -0.00017612481 -13.537553
000070 aa a2 96 ba df 42 2e bf 66 7d e9 39 72 35 e2 3b
       -0.001149257 -0.6807079 0.00044534652 0.006903344
000080 63 f1 bd b9 6a 29 33 ba 14 49 7b bc 6b 36 e3 ba
       -0.00036228736 -0.0006834479 -0.015337247 -0.0017334943
000090 7d 43 75 ba 64 8a d6 3f f5 9c f5 b8 a8 39 1b bd
       -0.0009356065 1.6760983 -0.00011711746 -0.037896782
0000a0 00 cc 57 bf fb c6 cb c0 90 29 70 c1 3d 44 65 be
       -0.84295654 -6.3680396 -15.010147 -0.22389312
0000b0 b0 aa c1 ba 52 ce 88 bb 6e d9 94 39 94 a0 4c bb
       -0.00147756 -0.004174986 0.00028390758 -0.0031223642
0000c0 ed d8 1d bd 9d cc 66 bb 79 f8 ea bf dd 59 7d c0
       -0.038536955 -0.0035217174 -1.8357078 -3.9586098
0000d0 c2 fb f2 be 9e e3 ef 3f e3 47 71 bc 8e d1 b5 bb
       -0.474577 1.8741338 -0.014726612 -0.0055486625
0000e0 d0 27 d0 ba 94 50 d3 bd 24 0f 9d b9 43 12 2e be
       -0.0015881006 -0.103181034 -0.00029956654 -0.16999154
0000f0 3c 40 0f bd f8 cf ac ba 27 06 5a 3e 5e e7 43 3b
       -0.034973368 -0.0013184538 0.2129141 0.0029892544
000100 02 87 67 ba b2 3d c6 bb 83 fb 8b bb 1e e7 80 bb
       -0.00088320684 -0.006049835 -0.004271926 -0.0039338013
000110 bb 12 5f bc 00 13 1d b8 0c 78 fe 37 be 3e 46 bb
       -0.013615306 -3.7449412e-05 3.033506e-05 -0.00302498
000120 7f d0 87 ba e6 9f 22 3b 47 fc 30 bc 7f 07 3e c0
       -0.0010361819 0.0024814545 -0.010802335 -2.9692075
000130 f5 84 5b 3a b7 c1 00 b9 b7 72 50 bc 1d 53 e0 ba
       0.0008373999 -0.00012279196 -0.012722663 -0.0017114613
000140 25 83 b0 bc 10 99 e8 bb 31 41 bb bb 78 0c e7 ba
       -0.02154691 -0.0070983246 -0.0057145585 -0.0017627617
000150 94 79 99 bc 35 53 ca ba dc bc cc c0 a8 1d 8b ba
       -0.01873473 -0.0015436175 -6.398054 -0.0010613697
000160 84 3a c2 bd f9 f5 62 3c 79 4d 1a bc 96 31 df b9
       -0.09483817 0.01385259 -0.009417885 -0.0004257082
000170 8b 5c d9 39 3f d5 55 bb e6 8d cf bc 17 42 72 3a
       0.00041458415 -0.0032628325 -0.025336217 0.00092414155
000180 27 a6 59 bb b0 b2 8e b9 7c 81 86 bb 79 3e 28 3f
       -0.0033210607 -0.00027217483 -0.004104791 0.65720326

weight f4 [100, 100]
000000 45 69 f1 bc 36 3d 0a bf e8 08 25 bf c1 cc b5 3d
       -0.029469142 -0.5399965 -0.64466715 0.08876944
000010 af ac 48 bf 22 68 da be ff 40 4f bf 63 17 37 3e
       -0.78388494 -0.42657572 -0.8095855 0.17880015
000020 a5 21 4a 3c 23 51 8c bf d3 ae 72 bc 19 8b 8f 3d
       0.012337123 -1.0962261 -0.014812189 0.07008953
000030 99 f7 9b be 5c bb 30 3d c9 0e ef bb 7b 0a 94 bc
       -0.3046234 0.04314743 -0.0072954637 -0.018071404
000040 4d 0d 0a bd 55 93 29 3e 40 a3 cc 3d 7d 5f 07 bd
       -0.03370409 0.16560109 0.09992075 -0.03305005
000050 1f b5 d3 be ce e3 94 3d 01 b8 53 bc d7 78 80 bc
       -0.41349122 0.07270013 -0.012922288 -0.01568262
000060 99 d2 de 3d fb c8 51 be 7a ff 41 be d8 71 11 bc
       0.10880012 -0.20486824 -0.18945113 -0.00887724
000070 ad 4e f8 bd 72 c2 4c 3e 9a 91 83 3e 42 e1 5d 3d
       -0.12124381 0.1999605 0.25697023 0.0541699
000080 7d bd 06 bf 67 57 b3 3b ba 5b 41 3e ea e6 c1 3b
       -0.52632886 0.0054730657 0.18882647 0.0059174197
000090 dd 63 55 bf 0e ae 43 3b 08 80 e6 3d 8d 8f 29 bf
       -0.83355504 0.0029858383 0.11254889 -0.66234666
0000a0 c7 ff d1 3d 3c 26 6d bd 00 db 6c bc cb 5c 53 bd
       0.10253864 -0.05789779 -0.014456511 -0.051602166
0000b0 d4 66 1a 3e 1b 75 b1 3d 58 06 0f be 4b 36 2b 3e
       0.15078288 0.08664914 -0.13967264 0.1671993
0000c0 36 4e a8 be 7f f3 f5 3c 14 0e 86 bd b2 4c 2e 3c
       -0.3287217 0.030023335 -0.06545654 0.010638403
0000d0 3b ca 33 bf 64 71 9f ba a3 f8 da bd 35 6e 13 c0
       -0.70230454 -0.001216453 -0.10691955 -2.3036015
0000e0 cf dd 13 3c c4 51 d3 3c b4 55 a1 3b 9b d5 83 be
       0.009025051 0.025795825 0.0049235467 -0.25748906
0000f0 9c 77 67 bd 7e f2 6a c0 8f a7 57 3b 65 86 24 3e
       -0.056510553 -3.6710505 0.003290627 0.16066892
000100 c0 13 37 bf 1c 89 33 bd a4 9c 7f bb cf 56 78 bf
       -0.7151451 -0.04383193 -0.0039003277 -0.9700746
000110 df 20 94 3d 6d 82 a0 bd 9d 36 b5 3c 25 bb 8e be
       0.07232832 -0.07837377 0.022120768 -0.27877155
000120 dd 50 aa be 98 b8 94 3c 77 8e 2a bf 74 4e 82 bc
       -0.3326482 0.018154427 -0.66623634 -0.01590655
000130 55 69 cc bb 0f b0 21 3d 34 0c d4 3c 55 43 b0 be
       -0.0062381425 0.039474543 0.025884725 -0.3442637
000140 dc af c9 3d cc 96 05 3e d5 3b 43 bf 63 f3 98 3d
       0.09847996 0.13045806 -0.7626317 0.07468297
000150 25 67 69 bd a5 6d b2 bf f4 61 3e bd 24 a7 aa bc
       -0.056983132 -1.3939711 -0.046480134 -0.020831652
000160 19 bc 6b bf a7 ad a8 bd 84 5d 8e bf 6e 70 cd be
       -0.9208389 -0.082362466 -1.1122289 -0.4012484
000170 c1 95 8e bd 41 b7 d0 3c 1a 4b 31 3e ec 8c 8a 3d
       -0.06962157 0.025478007 0.17313805 0.0676516
000180 73 ac 2d be 55 a5 e4 bd 6e 4d 2c bc 49 eb dc 3c
       -0.16960315 -0.11164347 -0.010516508 0.026967661
000190 1f 85 0a bd 07 82 1a bb 57 36 23 3e bd c7 da 3c
       -0.03381836 -0.0023576037 0.15938698 0.02670657
0001a0 8d 37 0a 3c 4b 4e 6f bc 6a fc 73 3b 7d 05 e2 bd
       0.008436096 -0.014606069 0.0037229308 -0.11036203
0001b0 c2 c0 d2 3c 27 dd ed bf ea cf 3f be 9d 53 d5 bd
       0.02572668 -1.8583115 -0.18731657 -0.104163386
0001c0 89 5e fc be bb 92 1c bc b8 cb 27 ba 54 94 bc 3b
       -0.49290875 -0.009556468 -0.0006400901 0.005754987
0001d0 20 6a 69 bd b0 eb 1f ba 77 ee 16 3e c9 6e 2f 3c
       -0.056985974 -0.0006100489 0.14739405 0.010707566
0001e0 e4 1a e7 bc 10 a6 48 3d 57 a9 b4 bd ea ac 72 bd
       -0.028211065 0.048986495 -0.088213615 -0.059246935
0001f0 b7 01 96 bd eb 1c 89 3b c3 ae a7 bc f5 84 bd be
       -0.07324546 0.0041843555 -0.020469075 -0.370155
000200 e3 d5 f1 bb de 91 13 3d a5 54 a0 3c 3a e1 0b 3d
       -0.0073802336 0.03602778 0.019571612 0.03415034
000210 e7 af 75 bb 27 ee 3d ba ce cb e1 3d c3 70 4f bb
       -0.003748888 -0.00072452653 0.11025201 -0.0031652905
000220 16 df d7 bb df 92 cf bd 77 79 9d 3d 6c 73 ff 3d
       -0.006587873 -0.10135435 0.07689183 0.12473187
000230 60 ac 66 3d 81 79 b8 bd e9 ef 1a be dd 04 16 bd
       0.056316733 -0.0900755 -0.15130581 -0.03662573
000240 59 a8 49 c1 d9 00 00 be 28 c7 23 3c e8 40 62 c0
       -12.6036005 -0.12500323 0.009996213 -3.5352116
000250 08 46 46 3c 75 2c 49 be d6 6e 12 bc 69 b2 80 bd
       0.012101658 -0.19645865 -0.008937558 -0.06284029
000260 dc f7 5b bc 07 14 ea bb 51 cb db 3c c5 3f 84 3c
       -0.0134257935 -0.0071435007 0.026830347 0.016143689
000270 1b 75 40 bd bc 5f 1a 3d 66 96 fd 3a 1c 3c 49 3b
       -0.04698668 0.037688956 0.001934719 0.0030705994
000280 1d c7 c8 3d e4 f8 03 3e 06 0b ec 3d d9 8b 29 bc
       0.09803603 0.12887913 0.1152554 -0.010348284
000290 e3 c7 a6 bd c6 bc b8 3d bd 8a bd 3d 7b d1 ca 3c
       -0.08143594 0.09020381 0.09254978 0.024758091
0002a0 cf 89 3d 3d c8 ca 05 3d 56 55 0d bd 8b 63 7a 3d
       0.046274003 0.03266409 -0.03450521 0.061130088
0002b0 20 da 53 bc 04 8e 1d bc 1c 05 09 3e 0c 9d cd bc
       -0.012930423 -0.009616379 0.13380855 -0.0250993
0002c0 0a a0 77 3c 82 8f 9b bd 24 b7 32 3e 33 f9 6c 3c
       0.01511384 -0.07595731 0.17452675 0.014463711
0002d0 fb d6 61 c0 d0 ac f7 bc 29 fe 5e 3d b1 cc f7 3c
       -3.5287464 -0.03023377 0.054441605 0.030248972
0002e0 0f a9 e7 bd dc 2b ec bc 7e 23 ee bb 95 6b 47 bd
       -0.11311542 -0.028829508 -0.0072674146 -0.048686583
0002f0 ce 57 a1 bd df 86 39 bc 0e 0b 8f 3c 0f d3 de 3b
       -0.078780755 -0.01132366 0.017461326 0.0068000625
000300 9a 24 fe bc 55 5a fd 3d 4c 8a 05 bd 48 b4 bf 3d
       -0.031023312 0.12370745 -0.032602593 0.09360558
000310 ca e4 28 c1 4e 26 38 3d b0 96 44 3d 94 4e 35 3c
       -10.555857 0.044958405 0.04799527 0.011066098
000320 67 00 12 3d 68 14 97 3c f7 3c 9a bd fa d8 5c 3d
       0.035644915 0.018442348 -0.07531159 0.053917862
000330 da 0d 28 bf cc ff 83 3d e6 68 c0 3d ae 3d 31 be
       -0.65646136 0.06445274 0.09395008 -0.17308685
000340 27 26 76 be 04 0f 5a 3f 4a 49 f5 bc c5 d2 a2 3d
       -0.24037991 0.8517916 -0.029942174 0.07950357
000350 68 83 16 3d bb 8e fa 3d 71 11 0e bd 05 c0 3f 3c
       0.036746413 0.12234255 -0.034684602 0.011703496
000360 4b c3 a0 be fc a7 ab 3d 1d 1d 03 3c b9 0e 06 3e
       -0.31398997 0.0838165 0.008002547 0.13091554
000370 9b e0 55 bd 4a 21 26 bd ba 47 ad bd f9 50 e7 bc
       -0.052216154 -0.04055909 -0.084609464 -0.028236853
000380 b6 45 99 3d 32 f8 8b 3d 4c be c4 3e 59 d6 06 be
       0.074839994 0.06834449 0.38426435 -0.13167705
000390 c7 ef 04 bd af 86 63 bd 3b bf a8 3c 23 a2 8d bd
       -0.032455232 -0.055548366 0.020598998 -0.06915691
0003a0 77 82 9d 3c 14 dc 01 bd 6a c1 14 3f 14 2e 8b bd
       0.01922725 -0.031704023 0.58107626 -0.06795898
0003b0 ec a3 7a bd d7 9b 3f bd 4a f1 af bc 13 36 2e bd
       -0.061191484 -0.04677948 -0.02147736 -0.042532038
0003c0 c7 83 6b bd 99 4f 9a bd 1d ed 96 bd f0 ca 5d 3d
       -0.05749872 -0.07534713 -0.073694445 0.054148614
0003d0 5e 12 90 3e 58 eb 5f 3c 70 a6 26 be a5 c9 5a 3e
       0.28139013 0.01366695 -0.16274428 0.21365984
0003e0 81 68 1d 3c 92 30 13 3e 50 f6 3f be 2b 85 6e be
       0.009607435 0.14373997 -0.18746305 -0.23292987
0003f0 39 bd 52 bd 49 20 1a be 10 05 9d be d1 9c 12 be
       -0.051449988 -0.15051378 -0.30667925 -0.14317633

bias f4 [100]
000000 b0 b8 20 3e 23 7a eb 40 8d 65 79 41 af 0a 7d c0
       0.15695453 7.3586593 15.587293 -3.953777
000010 d5 73 e7 3f 8b 89 04 3f e2 e2 24 3f 3a c6 9a 40
       1.8082224 0.51772374 0.64408696 4.8366976
000020 6f c5 f5 40 68 bd ea 40 0a 97 85 bf d5 df 16 c1
       7.680351 7.335621 -1.0436718 -9.4296465
000030 0b a4 6d c0 bf c5 31 c1 33 bc bc 3f 62 3f dc 3e
       -3.7131374 -11.110778 1.4744934 0.43017107
000040 07 46 00 c1 74 99 e8 40 1e ad 00 40 f5 8d 8b c0
       -8.0170965 7.268732 2.0105662 -4.3610787
000050 bb 5e d7 bd 8d df 04 3f 8b 36 7c 40 7b 09 d4 3e
       -0.10516115 0.5190361 3.940829 0.41413483
000060 05 e9 ac 3f d5 80 a0 c0 74 e4 fd c0 a9 b0 03 41
       1.3508612 -5.0157266 -7.9341373 8.23063
000070 87 c2 69 3e e0 25 70 40 df 12 81 bf 02 58 92 3f
       0.22828113 3.7523117 -1.0083884 1.1433108
000080 7b d9 b9 40 7d 9d 74 40 06 b0 f5 c0 87 fa 90 3f
       5.807798 3.8221123 -7.677737 1.1326455
000090 3b 1a ed 40 f5 8d 5f 3f 79 97 33 41 5e 55 01 3f
       7.409452 0.87325984 11.224481 0.50520885
0000a0 c3 e6 f0 3f 7b db 10 c0 81 0e 1d 40 22 c8 1f 41
       1.8820423 -2.263396 2.4540102 9.986361
0000b0 fb a2 91 40 bf a0 32 3f 65 e6 29 40 25 d7 35 40
       4.551145 0.6977653 2.6546872 2.8412564
0000c0 ec 05 9f 3f ee 18 a6 3f f7 0d 44 40 00 b7 9e 40
       1.2423682 1.2976358 3.0633523 4.959839
0000d0 52 ad 91 c0 14 51 aa 40 d5 0c a3 40 4a a1 cd 3f
       -4.5524073 5.322397 5.0953164 1.6064847
0000e0 97 5b 8b 40 91 89 d9 3f 9e 92 57 c1 a0 aa 88 40
       4.3549304 1.6995107 -13.473295 4.2708282
0000f0 e2 49 5e 40 bc 36 e2 40 1b 82 a1 c0 46 73 94 3f
       3.4732594 7.0691814 -5.047132 1.1597679
000100 1b 87 1b c0 89 14 9b 40 c6 35 14 40 fa af aa 40
       -2.4301212 4.8462567 2.315782 5.3339815
000110 43 89 9f bf 22 d4 c4 40 ff 01 c6 3f b9 d2 ad c0
       -1.2463764 6.150895 1.5469359 -5.431973
000120 03 05 8b 3f f8 b9 d1 40 ac 53 3c bd 29 5c cd bf
       1.0860904 6.5539513 -0.045978233 -1.604375
000130 57 36 0b c0 60 5a 5d 3f b0 28 f7 bf 8f 0a ae 40
       -2.1751916 0.86466026 -1.9309292 5.438789
000140 4a dc 53 40 a7 d9 8a c0 a8 6a 7d 40 68 a2 d8 c0
       3.3103204 -4.339069 3.9596348 -6.769825
000150 1b 17 55 40 e5 83 ee 3f 93 1c 8e 40 08 dd ae 3f
       3.3295352 1.8634001 4.440988 1.3661203
000160 63 89 ca 40 c7 7a f8 40 36 a4 cd c0 64 8a e9 c0
       6.329271 7.7649875 -6.4262953 -7.2981434
000170 bd 64 2c c0 bd 57 67 40 6f 38 48 c0 92 ee c9 40
       -2.6936486 3.6147301 -3.1284444 6.3103724
000180 57 ef 82 c0 ca 17 c2 3f d5 88 e3 40 ea 32 c0 40
       -4.0917163 1.516351 7.110453 6.006215

weight f4 [16, 100]
000000 09 37 15 c0 4c 7b 8d bd 65 52 0b bc ce 28 09 3c
       -2.331484 -0.06908283 -0.008503531 0.008371545
000010 60 e6 30 3c ec 3e 89 bf 99 e2 14 3f 2f 23 4b be
       0.010797113 -1.0722327 0.5815826 -0.1983764
000020 47 64 ea bc 4a 67 fe 3a 11 a0 23 3e 3b ac 03 3d
       -0.02861227 0.0019409445 0.15979029 0.032146674
000030 11 2d 7b 3d 2f 53 48 3d e7 7e 91 be 5e 4f 45 bf
       0.061322276 0.048907455 -0.2841713 -0.7707423
000040 d0 64 96 bc 18 c7 42 3d c4 26 4f be a0 21 93 3c
       -0.018358618 0.04755315 -0.20229632 0.01796037
000050 3c 7c 7f bd b7 1e a8 c0 3e ec 52 3d 9e 4b 99 3d
       -0.06237434 -5.2537494 0.05149483 0.07485126
000060 f3 09 7f 3e 89 eb 8f 3c 9d 09 e6 ba a1 f0 d2 3c
       0.24906139 0.017568367 -0.0017550472 0.025749506
000070 7c ef c5 3c 9f b5 8d bd f0 1f 23 3d 97 e8 2d 3a
       0.024162047 -0.06919407 0.03982538 0.0006634085
000080 ba 15 90 bd af ad 48 3e 3e 28 58 bd 6e 91 38 3d
       -0.07035394 0.19597505 -0.052772753 0.045060568
000090 0d 52 a1 3c 4b 5e 05 40 4d 2e 22 3c d8 7e 7b bf
       0.019692445 2.0838802 0.009898734 -0.98240423
0000a0 7f 97 a2 3e ef 62 c7 bc 01 0f d7 3d 74 a6 d1 bc
       0.31756207 -0.024339167 0.10500909 -0.025592066
0000b0 cd 32 e2 3a b7 89 fb 3c 78 62 75 bd 13 30 92 3d
       0.0017257571 0.030705316 -0.05990836 0.07138076
0000c0 5b ad e8 41 34 46 29 bf d5 7b 90 bd 26 3b c6 3a
       29.084646 -0.66122746 -0.07054869 0.0015123829
0000d0 c9 58 a4 bc 5c 03 b1 bc dc 40 17 bd 71 93 59 bd
       -0.020061867 -0.021608047 -0.03692709 -0.053119127
0000e0 7d e4 48 bd d6 f0 ab bd 26 d2 0d 3c 78 ad 41 3d
       -0.04904603 -0.08395545 0.00865606 0.047284573
0000f0 31 81 b2 3e a6 ef fa 3c 16 a3 ba ba 26 09 07 bf
       0.3486419 0.030631851 -0.0014239277 -0.52748334
000100 f5 8b 59 bc 24 06 e4 bb 21 9b 63 bf b0 08 d7 3c
       -0.013277997 -0.00695874 -0.8890858 0.02624926
000110 70 5c 55 bc c7 58 49 be d4 5b 94 3f 8c 0c 7b 3c
       -0.013022527 -0.19662772 1.1590524 0.015322816
000120 a5 05 40 be c6 63 94 bc c7 e5 04 bb 16 33 b9 3b
       -0.18752153 -0.018113982 -0.002027856 0.005651842
000130 25 67 9b bc b5 cf 0f 3d f6 8b 90 bd fc 2a 2e 3c
       -0.018970082 0.035110194 -0.070579454 0.010630365
000140 44 30 ab be 1a 4e ea bc ad cc 70 be 9e 40 4f bc
       -0.3343526 -0.028601695 -0.23515578 -0.012649683
000150 39 9a 5b 3e e0 7e 54 3a cc ab d2 be 8f 10 2e c0
       0.2144555 0.0008106064 -0.41146696 -2.7197607
000160 a7 61 b2 bc 37 04 e4 bc 80 25 a5 3d 5b c1 89 bb
       -0.02177508 -0.027834041 0.08063793 -0.004203958
000170 02 4b 06 bc 72 1c 11 3e a5 23 27 bd b6 9e b0 bc
       -0.008196594 0.14171007 -0.040805478 -0.021560054
000180 65 d2 8a 3c cc eb e5 3c a9 b5 c6 3b 90 f5 63 3a
       0.016946027 0.028066538 0.006064136 0.00086959545
000190 75 c6 06 c1 f9 6b 98 bd 48 77 b8 bc ac fa 4e 3d
       -8.423451 -0.07442469 -0.022517815 0.050532028
0001a0 d6 69 42 3f 64 ba 8e bf 9f 03 c1 3f 02 4b 4b bd
       0.7594274 -1.1150632 1.507923 -0.04963208
0001b0 35 4e 44 be f5 bd c0 3c 9c c7 83 3d f9 5b 42 3d
       -0.19170459 0.023528079 0.06434557 0.047450993
0001c0 e0 a9 2e 3d 4b 24 5e 3d 03 6e f8 be 2a 81 75 3e
       0.042642474 0.05423383 -0.48521432 0.23975053
0001d0 77 27 85 bb c1 b5 4c bc 9c d5 ce 3b 50 c3 e8 bb
       -0.0040635425 -0.012494505 0.0063120853 -0.007103361
0001e0 3b e1 09 be 65 7e 0a c1 e2 8f df 3d 97 3b 21 be
       -0.13464825 -8.655858 0.10916115 -0.15745388
0001f0 75 7e 08 bf 04 fc 2b bc 6d da 09 3b a2 5b d5 3c
       -0.5331796 -0.010497097 0.0021034733 0.02604467
000200 f1 58 bb 3e 8d a4 88 bd 89 47 07 bd 84 e1 d4 bc
       0.36591294 -0.066720106 -0.033027206 -0.02598644
000210 22 f7 b3 bc f5 cc 8c 3d ea d9 1b bd 0c 1d a0 3d
       -0.021968428 0.0687503 -0.038049616 0.0781804
000220 25 de 43 bc 5b 10 3d 3f dc 32 ee 3b bd 76 55 3f
       -0.011954819 0.7385308 0.0072692465 0.83384305
000230 19 81 44 3f f6 92 5e bb cd 1f ce 3d e3 ad 45 ba
       0.7675949 -0.0033962107 0.10064659 -0.0007540865
000240 6f bf 56 3d e7 e0 e9 3d 5f 59 73 3e 86 78 1f be
       0.05242866 0.1141985 0.23764561 -0.1557332
000250 9f c4 db 41 e9 25 a5 3d 2f b8 8e bd 2c d0 85 bb
       27.471006 0.080638714 -0.06968724 -0.004083654
000260 59 8b 3d 3c 5e af 36 bd 5b 8b 5c bd 53 28 12 bd
       0.011568868 -0.044600837 -0.053843837 -0.035682987
000270 aa 6a 81 bd 91 2e 2d bd e4 f1 4e bc 91 f5 47 3c
       -0.06319173 -0.042280737 -0.012630913 0.012204544
000280 9d 04 3b bc 56 db 32 3d b2 fe 19 bd a0 5a b8 be
       -0.011414674 0.043666206 -0.037596412 -0.3600664
000290 d1 e9 df bc 2e e1 43 3d 25 54 12 bf 27 60 47 3d
       -0.027333172 0.04782217 -0.57159644 0.048675682
0002a0 48 22 4b 3c ac ab a9 bd cc a1 e9 3f 99 0f 2b 3d
       0.01239831 -0.08284697 1.8252501 0.041762922
0002b0 9a af d3 be 0b 95 4d ba 7d 61 8f bd dc ee 2b 3c
       -0.4134491 -0.00078423385 -0.07001016 0.01049396
0002c0 7c e2 bd 3b 78 96 94 bc f3 6a 23 bd 7b ce df bb
       0.0057948213 -0.018138155 -0.039896917 -0.0068300343
0002d0 3e a9 17 bf 83 72 56 bd fe 1c 1c bd f7 22 93 3c
       -0.5924262 -0.0523553 -0.038113587 0.017961008
0002e0 6e f9 33 3e e8 80 f1 3b 26 3f 25 be 2a 08 61 bf
       0.17575619 0.007370103 -0.1613737 -0.8790308
0002f0 93 f6 6c bd 92 da e5 bc 9e 5c 5a 3d ca a4 66 3d
       -0.05785234 -0.028058324 0.053310983 0.0563095
000300 e0 68 97 bd fa 8c 45 3d fc ac ec bc 31 4e 22 bd
       -0.0739305 0.04823015 -0.02889108 -0.03962535
000310 2f 05 8a 3c 55 4c 61 3c 99 ab 08 3d a2 68 b6 3c
       0.016848175 0.013751109 0.033366773 0.02226669
000320 b9 20 36 c0 ef 12 ea bd 08 55 f6 bb 75 5c 91 3b
       -2.8457472 -0.114293925 -0.0075174607 0.0044360706
000330 9a c7 ff bb 14 39 f7 3e 51 fa c5 bf f5 d0 49 3d
       -0.007805777 0.48285735 -1.5467016 0.049271543
000340 b5 f6 5f 3e 7a f7 e0 bb 69 da 06 be 2d 6b 9a bc
       0.21871455 -0.006865439 -0.13169254 -0.018849934
000350 08 ea 3c bd c6 af d5 3c f4 d1 4b be 3a 18 3a c0
       -0.046121627 0.026084792 -0.1990431 -2.9077287
000360 9f 6c e0 3c ff 24 49 be 52 0d 04 c0 3b 31 b4 bc
       0.027395545 -0.19643019 -2.063313 -0.021996131
000370 e1 89 51 3d b8 05 5f c0 e6 8b 2c ba 52 ff 20 bd
       0.051156882 -3.484724 -0.0006582126 -0.039305992
000380 1c e0 71 bf 4a 6c 99 bd 8d bc 8d b9 c8 5f d1 3c
       -0.9448259 -0.074913576 -0.00027034097 0.025558367
000390 31 8d 5c bf d9 11 7b 3c 9b e0 49 bd 89 49 b4 bc
       -0.8615294 0.015324079 -0.049286466 -0.02200772
0003a0 ac 16 04 bd 76 20 22 bd 97 96 27 bd b8 be 65 bd
       -0.032248184 -0.03958174 -0.040915098 -0.056090087
0003b0 20 e0 3e 3c 26 7c 8f bf 35 a7 77 bd 29 57 39 3f
       0.011650115 -1.1209762 -0.060462195 0.7239862
0003c0 30 3e 83 bf 15 c9 d1 3b 10 6e 04 be e9 c7 7d bc
       -1.0253353 0.0064021447 -0.1293261 -0.015489557
0003d0 d7 a6 53 3c 61 b8 ff 3d 48 70 3b 3e ae 76 50 be
       0.012918196 0.12486339 0.1830455 -0.20357773
0003e0 71 31 25 3c 7c f1 4a 3c b6 a5 a0 3c 03 86 39 3d
       0.0100825885 0.012386676 0.019610267 0.04529382
0003f0 52 b2 4e bb d0 43 07 3a f8 86 14 bc 85 e0 94 3c
       -0.0031539393 0.0005159946 -0.009065382 0.018173466

bias f4 [16]
000000 fd d5 d7 3f a9 13 b7 3f 96 6b 95 3f 38 c3 8d 3d
       1.6862179 1.4302875 1.1673458 0.06922001
000010 51 36 d2 bf 8c fb c0 bf fc 2a c6 bc 82 44 a1 be
       -1.6422826 -1.5076766 -0.024190418 -0.3149758
000020 33 b4 02 c0 48 aa 3e c0 76 f7 0b bf 27 c0 2c bf
       -2.0422485 -2.9791431 -0.5467447 -0.674807
000030 c8 d9 75 bf 3d 5a e6 bf 04 f7 dd bf 45 63 cc 3e
       -0.9603543 -1.7996289 -1.7341008 0.39919487
