trainingOnSyntheticData/results/20230802_174851_debug/model_training_set_size_100_hidden_neurons_50_n_batches_5.pt (torch, 56167 bytes, 6 tensors)

weight f4 [50, 200]
000000 0a eb b1 bd ed c6 47 bd ec 2a 96 bd f7 01 3a 3c
       -0.08687408 -0.048773695 -0.073324054 0.0113530075
000010 d3 bc 7c bd c1 a1 83 bd c5 57 e3 bc 5b 6c 34 bc
       -0.061703514 -0.064273365 -0.027751813 -0.011012162
000020 b6 c7 fc 3c 63 27 80 3b da 31 03 3d 6b b2 f7 bc
       0.030856948 0.0039109453 0.032029964 -0.030236444
000030 c5 14 8c bd 95 f5 8f bd ed 8f 13 3d 58 47 30 3c
       -0.06839899 -0.07029263 0.03602593 0.010759197
000040 cf 7d 92 bd 29 ec 57 3d b8 b0 80 3d 53 b4 91 3d
       -0.07152902 0.052715454 0.062837064 0.07114472
000050 67 be d7 bc 17 32 60 bd 60 e2 2b bc cf 77 c4 3c
       -0.026335908 -0.05473527 -0.010490984 0.02398291
000060 ed c2 a8 3c 13 59 a9 3d b0 34 de 3c 08 19 c9 3c
       0.02060076 0.08268943 0.027124733 0.024548069
000070 0b 5f 64 bd 04 2f a9 3d e8 93 68 bc ed a1 ae 3d
       -0.055754703 0.08260921 -0.01419542 0.08526979
000080 3d 4b b3 3c 25 2c bf ba 2d cb c0 3d 0f 71 96 3c
       0.021886462 -0.00145853 0.09413753 0.018364457
000090 7f 9a b3 bc a7 0c 4e 3c 11 ce 11 bc 28 18 2e 3c
       -0.021924255 0.012576259 -0.008899228 0.0106258765
0000a0 4c e7 4a 3d fa d2 df bc 9c 3a 57 bc 23 4e 70 3d
       0.04953699 -0.027322281 -0.013136532 0.058668267
0000b0 53 b8 8f 3d ee 52 e0 3d 37 cb 9e 3c 81 c5 84 3c
       0.07017579 0.109533176 0.01938401 0.016207458
0000c0 b0 64 2c 3d ed 99 a8 3c d8 7d ac 3d 32 55 ec bc
       0.04208821 0.02058121 0.0842244 -0.028849218
0000d0 0f 23 21 bd 87 44 5c bd 47 11 96 bc ff c1 ff 3c
       -0.039340075 -0.05377629 -0.018318785 0.031220434
0000e0 88 59 e7 3c 83 e3 bf 3d d7 9d 83 3d fe ec 2a 3d
       0.028240934 0.09369566 0.0642659 0.04172992
0000f0 d9 11 0b 3c 8c f3 8f 3d f4 fc 09 3d e4 92 b1 3d
       0.008488142 0.07028875 0.0336885 0.08670595
000100 8f 92 1f 3d 77 cc c7 3d 13 95 b9 3b d1 41 b7 bc
       0.03895813 0.097557954 0.005663523 -0.02237025
000110 d3 57 30 bd 09 b0 75 3d 0c cb 36 bd 0f ea 83 bd
       -0.043052506 0.059982333 -0.044627234 -0.064411275
000120 33 74 ff bc aa a1 51 bd 82 0b ea bd a9 b4 8e bd
       -0.031183338 -0.051179565 -0.11427976 -0.06968052
000130 1b b8 1b be 45 ea 4b be 2d ba 16 be 7f 20 0a be
       -0.1520695 -0.19913585 -0.14719458 -0.13488959
000140 cc 2d f6 bd 67 f6 4a be 02 92 17 be df fb e6 bc
       -0.12020454 -0.19820558 -0.14801791 -0.028196273
000150 64 b8 c1 bb dd 06 96 bc 96 a4 ec bc 28 eb 99 3b
       -0.0059118737 -0.01831382 -0.028887074 0.0046972223
000160 fc 10 63 3d 07 c6 d8 3d 11 02 cf 3d 5e ac 27 3e
       0.05543612 0.10584646 0.10107816 0.16374347
000170 fe d3 2e 3e 13 dc c2 3d c0 63 f8 3d e0 e2 0c 3e
       0.17073056 0.09514632 0.12128401 0.13758421
000180 05 04 1d 3c c8 1d 0c bc 94 e9 bc 3d 53 b9 77 bd
       0.009583478 -0.008552022 0.09224239 -0.060479473
000190 a4 f5 a7 bd f0 8e 33 bd b6 27 49 bc ea 2a 34 3d
       -0.08201149 -0.043837488 -0.012277534 0.04398624
0001a0 50 66 84 3d 97 fb 0e 3e 38 fb db 3d d3 c5 17 3e
       0.06464827 0.13963161 0.107412755 0.14821558
0001b0 89 a5 51 3e c6 4a 1a 3e 49 19 34 3e 78 7e 09 3e
       0.20473303 0.15067586 0.1758777 0.1342715
0001c0 bf 45 96 3d 77 89 d7 3d 7a 92 dc 3c 2f 71 39 3c
       0.07337522 0.10524266 0.026925314 0.011318489
0001d0 52 c3 a4 3d 93 97 89 3c 23 7c 9d 3d 1b 1d 92 3c
       0.08045067 0.016795909 0.07689693 0.017836144
0001e0 35 25 80 bd ec 47 b3 bd 2a c9 c6 bd f0 6e 49 bd
       -0.06257097 -0.087539524 -0.09706338 -0.049178064
0001f0 ec 91 d5 bd a0 e8 59 bd af ba a5 bc d8 9d 8b bc
       -0.10428223 -0.053200364 -0.02023062 -0.01704304
000200 98 d4 84 bd 75 a1 eb 3c 71 8f 0d 3b 49 d2 e9 bc
       -0.064858615 0.028763512 0.002160039 -0.028542655
000210 b7 fc 7a 3d c0 ad b1 3c bb 58 8d bc 4a 70 34 3d
       0.061276164 0.021689296 -0.017254224 0.0440524
000220 33 3d 86 3d 36 7f ab 3d 2a 90 a3 3d d1 67 68 bd
       0.065546416 0.08373873 0.079864815 -0.056739632
000230 5d 13 18 bc 51 95 12 bb b2 c7 09 bd a6 f7 f8 bb
       -0.00928196 -0.0022366832 -0.03363771 -0.0075978814
000240 fd d3 94 3d d6 07 4a 3c da 72 8b bd 97 5f c1 3b
       0.07266996 0.01233097 -0.068090156 0.005901288
000250 56 92 f5 3c 71 a3 62 3d f9 fe 77 bb 5d c1 60 3d
       0.029977005 0.05533165 -0.0037841185 0.054871906
000260 f4 d7 5d bc cb 7a 95 3d e0 1c 8f bc 4e 8e 57 3d
       -0.013540257 0.072988115 -0.017469823 0.052625947
000270 90 9d 37 3d e4 e5 79 bd 8c 82 e4 3b e6 fa 6e 3c
       0.044827998 -0.061010256 0.00697357 0.014586186
000280 8d 96 69 3d 8c 86 8a 3d b6 10 3f 3d 83 e0 97 3d
       0.057028342 0.06763944 0.046646796 0.07415869
000290 44 10 4a 3d 22 fb 4e 3d 27 73 b9 3b 93 fb b9 3d
       0.04933192 0.050532468 0.005659479 0.09081187
0002a0 1b 8f 79 3d b1 9f ab bc 26 0c 40 3c 55 75 54 3d
       0.06092749 -0.02095017 0.011721646 0.05186971
0002b0 e5 05 54 3d 7a ad 8a bc 27 11 5c bd 81 9a 0e bc
       0.051763434 -0.016928423 -0.053727295 -0.008703829
0002c0 e1 c7 08 3d 4d ba 03 3d c6 fc 41 bd 78 4c 29 3d
       0.033393744 0.032160092 -0.047360204 0.041332692
0002d0 6f 1c 9e bc f1 31 12 3d 45 f2 73 bd a3 46 5e 3d
       -0.019300668 0.03569216 -0.059557218 0.054266583
0002e0 7e 44 32 3d d0 6a 47 bd e1 cb cd bc 38 6a 1a bd
       0.04352235 -0.04868585 -0.025121631 -0.037698954
0002f0 ce 16 5d 3d 6e 3d fa bc 4b 7f 60 3d 9b e4 6b 3d
       0.053976826 -0.03054687 0.054808896 0.057591062
000300 de 52 47 bc c1 61 3d 3c 44 e6 cd bb 09 8b 74 bd
       -0.012165753 0.011558951 -0.0062835533 -0.059702907
000310 3a 16 3b bd 35 f3 93 bc 48 de 4f 3d 5e e9 be 3c
       -0.045675494 -0.018060306 0.050749093 0.023304638
000320 f2 0d 30 bd 95 c4 c4 bd e4 79 37 3a ef 9c 5a 3d
       -0.04298205 -0.096078075 0.0006999059 0.05337232
000330 58 5f 35 3d 34 29 90 3d 23 64 97 3d 09 6b 7f 3c
       0.04428038 0.07039109 0.073921464 0.015589484
000340 b4 dd 6b 3d be 13 f8 3c 8d 6f db 3c ef f0 41 bd
       0.05758448 0.030282851 0.02678659 -0.047348913
000350 a9 8e d1 bc 0a 8a 80 3d c9 1d 68 3c e0 47 28 bd
       -0.025580721 0.06276329 0.014167258 -0.04108417
000360 b2 47 da 3c 96 ef c1 bd 7b 20 89 bd 05 2f ad 3d
       0.026645515 -0.094695255 -0.06695648 0.08456234
000370 f2 48 99 bd 15 cf ce 3c a6 61 60 3d 91 8e 17 3d
       -0.07484616 0.025245229 0.054780625 0.037001196
000380 a4 67 68 3c 6e eb 40 3c e7 ba 00 be f3 55 30 3d
       0.014184866 0.011774881 -0.12571298 0.043050718
000390 51 ac 9e bc e9 3c 97 bc 55 a8 a1 bd 6d 12 6d bd
       -0.019369276 -0.018461661 -0.07893435 -0.0578789
0003a0 3b cc 66 3d 61 f9 d8 3c 60 84 32 3d 98 1d 23 bd
       0.056347113 0.0264861 0.043583274 -0.039823145
0003b0 53 8c b4 bc 50 7f 5d 3c d0 07 61 3d 66 e2 97 bc
       -0.022039568 0.013519123 0.05493909 -0.018540572
0003c0 2b 14 62 bd 7c dc aa bc 82 2d 06 bc 94 5b c1 3d
       -0.055195015 -0.020857088 -0.008189561 0.09441295
0003d0 f9 95 48 bd d2 26 ab bd 78 4d a7 bd de 70 da bc
       -0.04897115 -0.08357014 -0.08169073 -0.026665147
0003e0 86 6c 3a bd 17 a6 fc 3c 12 40 ca bd a1 13 0c 3d
       -0.045513652 0.030840917 -0.09875502 0.034198407
0003f0 87 95 d5 3c 32 f4 04 bd 57 a9 5c bd b3 d2 8e bd
       0.026072277 -0.032459445 -0.053872433 -0.069737814

bias f4 [50]
000000 33 47 c4 3e 61 7a 4d bd b7 a8 0f 3e 03 85 1d be
       0.3833557 -0.050165538 0.14029203 -0.15382771
000010 b4 c6 03 3d d6 e1 ec 3d 69 db a8 3a e0 4e 9f 3e
       0.03217192 0.11566512 0.0012882772 0.31114864
000020 92 d7 91 3e 96 82 14 3e f4 6a 99 3e 52 6b b1 3e
       0.2848478 0.1450294 0.2996441 0.3465219
000030 d9 86 82 3d 7f 85 ea 3c 2b 78 36 be 59 7e 51 3e
       0.063733764 0.028628109 -0.17819278 0.20458354
000040 c3 04 5b 3d d4 48 c2 3e c8 69 8f 3e ed 92 94 bd
       0.053471338 0.37946188 0.28010392 -0.07254586
000050 20 40 b8 3e 27 02 33 3e a6 71 71 3e a0 d0 75 ba
       0.35986423 0.1748129 0.2357851 -0.0009377096
000060 9c 40 13 3e 0d 93 73 3e cd 54 06 3e c9 db f3 b9
       0.14380115 0.23786564 0.13118286 -0.00046512324
000070 79 ce 27 3d 0f 5c 81 3e 0e b3 89 bd 9e c3 93 be
       0.040968392 0.25265548 -0.06723605 -0.28860182
000080 16 45 1d be 26 11 82 3e 9d bf 80 3e 06 81 91 3e
       -0.15358385 0.25403708 0.2514619 0.2841875
000090 08 d7 70 3e 76 77 8e bc aa 3f 40 bc 84 ee 0a be
       0.23519528 -0.017390948 -0.011733929 -0.13567549
0000a0 0d 6d 58 3e 51 2f fc 3d 82 87 56 3e 19 63 be 3e
       0.2113535 0.123137124 0.2095013 0.3718498
0000b0 62 4d 3f be 6a 6b 93 bc 47 72 98 3e 82 ac 0c 3d
       -0.18681863 -0.017995555 0.29774687 0.034344204
0000c0 7a e0 95 3e 89 b5 05 3e
       0.29272825 0.13057531

weight f4 [50, 50]
000000 be 24 dc 3d 4e 7c 8e bd cc 4b ba bd 68 71 84 3d
       0.107491955 -0.06957303 -0.09096488 0.06466943
000010 65 6f 93 3d e5 96 a5 3c 53 bf 24 bd 86 ac 3b be
       0.07198981 0.020213554 -0.040221523 -0.18327531
000020 2c cd 42 3e 67 ce ae bd fc b7 70 be 33 7c e8 3d
       0.1902358 -0.08535462 -0.23507684 0.11351814
000030 63 b9 bb 3d d9 61 08 be af a3 45 bd 6e d3 fc bd
       0.09166219 -0.13318576 -0.048251804 -0.123450145
000040 11 d5 38 3e f4 a7 f3 3d 98 75 22 3e 4f bf fc bd
       0.18050028 0.11897269 0.15865171 -0.12341177
000050 1b ac b1 3d 00 5e 05 be f0 ff de 3d e1 53 b8 3a
       0.08675405 -0.1302414 0.1088866 0.0014063084
000060 26 6a 57 bb d6 f1 8c 3d 1b 9b 94 3d 95 e3 e5 bd
       -0.0032869666 0.06882064 0.072561465 -0.112250485
000070 a8 d6 e2 3b 70 ea 9c 38 8e 35 28 bd 34 39 6c be
       0.0069225617 7.482327e-05 -0.0410667 -0.23068696
000080 57 1b 37 3c c4 15 83 3e 60 6f d7 bd 9f 60 0c 3e
       0.011175952 0.25602543 -0.1051929 0.13708733
000090 83 74 ac bd 2a 6b 36 3d 8f 39 64 be 07 09 27 be
       -0.0842066 0.044535793 -0.22287582 -0.16312037
0000a0 f3 65 a9 3d 3a 28 9c 3c 4a b9 c6 3d 1d 99 7d be
       0.082713984 0.01906215 0.0970331 -0.2476544
0000b0 14 1c 33 bd a6 da 42 be ce 41 e5 bc 1e e5 fe bc
       -0.04372795 -0.1902872 -0.02798548 -0.031115111
0000c0 00 60 49 bd 92 62 a3 bc 11 19 ec bc 72 84 91 bd
       -0.04916382 -0.019944463 -0.028820546 -0.0710534
0000d0 ea 93 d2 bd 25 9e b4 3d a5 fc 9e 3d 7f 48 17 3d
       -0.102821186 0.08819226 0.07763032 0.036934372
0000e0 92 c8 2d bd 56 e6 89 bd d0 7c 1f 3e e9 d3 e4 3d
       -0.042427607 -0.06733386 0.15574956 0.11173231
0000f0 07 8a d7 3d 7e 8f 0c be 07 29 28 3e 56 b0 93 bd
       0.105243735 -0.13726613 0.164219 -0.07211368
000100 39 85 d8 bd 33 6d 93 3d eb d5 3c 3e 85 be 4e 3d
       -0.10572285 0.071985625 0.18440978 0.050474662
000110 65 5d cb 3b 79 f2 1b be e8 b2 0d 3e da 75 62 3d
       0.006206202 -0.15229215 0.13837779 0.055288173
000120 9f 8e a7 bb 3d 75 be 3d 24 4f c9 bd a5 11 fb bb
       -0.0051134373 0.09299705 -0.09829548 -0.0076620155
000130 a8 32 21 be 2f 60 8f bb 9a 73 b5 3d 8a 0d 2a bc
       -0.1574198 -0.0043754796 0.0885994 -0.0103792045
000140 31 e5 31 3e d4 20 68 3e 75 79 d7 3d 47 ac 80 3e
       0.17372586 0.22668773 0.10521213 0.25131437
000150 c7 da ee bc 65 e5 84 bd 24 96 3e 3e d4 e2 83 3c
       -0.029157056 -0.06489066 0.18611962 0.016099371
000160 2c 79 5f bd 1d 02 57 bc 93 78 e2 bd a5 25 f6 bd
       -0.054558918 -0.013123062 -0.11058154 -0.12018899
000170 91 f3 1c 3d 04 f5 a4 3d 62 35 17 3e 90 bd 17 3c
       0.03831822 0.080545455 0.14766458 0.009261504
000180 7e b3 0d be 1a 40 bb 3d 29 e1 de bd d8 f5 36 3e
       -0.13838002 0.09143086 -0.1088279 0.1786722
000190 e7 a5 b3 3d c7 82 fc 3c 08 da e3 3d 1a 88 a6 3e
       0.08771878 0.030824078 0.111255705 0.32525712
0001a0 68 45 75 3c df 3a be 3d f4 da 34 3e 0a a4 80 bd
       0.014970161 0.092885725 0.17661649 -0.06281288
0001b0 75 5e 19 3d 0a da ed bc 06 bb 02 be c6 57 8f bd
       0.037443597 -0.029034633 -0.12766656 -0.06999163
0001c0 52 38 66 3e 86 f3 02 be 52 42 07 3d b9 6c 12 3d
       0.22482422 -0.1278821 0.033022232 0.035748217
0001d0 0a 8d a0 bd 0d 7e 19 bd dd af 22 3e 59 fe f9 bd
       -0.07839401 -0.037473727 0.15887399 -0.12206716
0001e0 d0 0f c4 3d 0e 5a b7 3d 43 40 2d 3d 20 92 08 be
       0.095733285 0.089527234 0.042297613 -0.13336992
0001f0 58 d7 01 bd 77 e3 a6 bd f1 06 01 be b3 1f 5a be
       -0.03169951 -0.08148854 -0.12600304 -0.21301155
000200 71 34 28 3e da be 00 3d 5c b8 b7 3d 28 be a2 be
       0.16426255 0.03143201 0.08970711 -0.31785703
000210 45 00 00 be 24 8d 20 be 73 8a bc 3b cb 09 21 3e
       -0.12500103 -0.15678841 0.005753809 0.15726392
000220 b6 36 2f bd 17 87 04 3e 4a 10 24 be 57 10 ce bd
       -0.042776786 0.12942158 -0.16021839 -0.1006171
000230 8e 85 01 bc 6c d1 4f 3d af 2b 6d ba 04 fa 43 bc
       -0.007905377 0.05073683 -0.0009047342 -0.011961464
000240 22 56 49 bd 6d a4 2a 3e b6 b1 68 bd a3 25 87 3c
       -0.04915441 0.16664286 -0.056810103 0.016497439
000250 ee 34 2f be b2 b4 0d 3e 41 4d 26 3d f5 e3 5c 3e
       -0.17110035 0.13838461 0.04060102 0.21571334
000260 de 53 0a bd 1e 3e 1f 3b 22 da 05 3e e7 c7 f5 bc
       -0.03377139 0.00242985 0.13071492 -0.030002547
000270 70 85 ff 3d fe 26 01 be b3 6d f0 bd c1 76 21 be
       0.12476623 -0.1261253 -0.117396735 -0.15767957
000280 95 b5 2e be c8 9c 11 3e 72 1e de bc f7 75 23 3e
       -0.17061456 0.14219964 -0.027114127 0.15962969
000290 9e 18 3f be 21 11 f5 3d cc 59 92 3d 44 68 e8 bd
       -0.18661734 0.11966158 0.07146034 -0.11348012
0002a0 9d 33 52 bd 22 ed df 3d 54 e7 bf bd da f2 00 be
       -0.051318754 0.10933901 -0.09370294 -0.1259264
0002b0 8a 06 9f bd f4 d5 64 bd 8e 90 02 be 16 a5 5e 3d
       -0.07764919 -0.055868104 -0.12750456 0.054356657
0002c0 93 f8 6d 3e be 65 c6 3d c6 df 91 bc 9e 53 8b 3d
       0.23239355 0.096873745 -0.017806899 0.06803058
0002d0 8b 3b 97 3d 48 74 33 3e 77 83 d9 bc 08 54 a5 3d
       0.07384404 0.17524827 -0.026551945 0.08072668
0002e0 15 cf c4 3d cd 26 ea bd c4 c7 df 3c cd 61 5e bd
       0.0960981 -0.11433182 0.027316935 -0.05429249
0002f0 3a 3a 60 3e ad f6 42 3e 2d 7d ff 3d 04 ee e0 bd
       0.21897212 0.19039412 0.12475047 -0.10982898
000300 ae ab 7d 3d c1 18 5d 3e 8a 40 db 3d 79 ab 8c 3e
       0.061931305 0.21591474 0.10705669 0.27474573
000310 72 35 a6 bd cd 3a bd bd 26 a1 0b 3e f9 af c6 3d
       -0.08115663 -0.09239731 0.13635692 0.09701533
000320 91 bf a3 3d 9c b5 9c bd 08 55 05 3e fb 34 ca bd
       0.07995523 -0.07651827 0.13020718 -0.098733865
000330 70 ee d3 3d c7 d9 0d bd ee fd 9c 3d 88 b7 ae bd
       0.10348213 -0.034631517 0.07665621 -0.085310996
000340 99 1e 0a 3e 51 cd c9 bd af ca e4 3c fe c1 f2 3d
       0.13488235 -0.09853614 0.027928678 0.11853407
000350 cc b5 64 3d 1a c2 48 3c bf c5 f1 3d c2 68 c3 bd
       0.055837438 0.012253309 0.11805295 -0.09541465
000360 c3 02 87 be 9d d3 ed 3d cc 74 a5 bd 8b 62 ff 3c
       -0.26369295 0.11612628 -0.08078918 0.031174919
000370 46 0f 30 be 4c ec 34 3d 9a a7 e0 3d 51 32 bc 3d
       -0.17193326 0.044170663 0.109694675 0.091892846
000380 43 cf a1 bd 7a b8 19 3e 9f d7 c4 3d 7a 4e d0 3c
       -0.0790086 0.15011778 0.09611439 0.025428046
000390 1b ba de 3c 46 25 1c bd 77 63 59 bc df 2e 25 3e
       0.027188351 -0.038121484 -0.013268343 0.16131161
0003a0 a5 46 38 3e 22 a4 99 be 51 a2 36 bd aa 00 88 bd
       0.17995699 -0.30008036 -0.04458839 -0.06640752
0003b0 6d a5 ad 3d 64 18 b0 3d d4 0c 1f 3e 27 a0 fb 3d
       0.08478818 0.08598402 0.15532237 0.12286406
0003c0 c8 f4 f3 bd e3 8f 41 bd 48 56 c6 3d b4 81 fd 3d
       -0.11911923 -0.04725636 0.096844256 0.123782545
0003d0 dc c6 18 3e c6 d5 9b 3e c4 16 2c 3e 78 e1 02 bd
       0.14919609 0.30436534 0.1680556 -0.031953305
0003e0 a7 ce b8 bd a0 45 03 3d b0 72 58 be 30 74 42 3d
       -0.09023791 0.03204882 -0.211375 0.047474086
0003f0 a0 45 8b 3c 07 ec 48 3e ea e7 50 bd 41 25 dc bd
       0.017000973 0.19621287 -0.05100242 -0.10749293

bias f4 [50]
000000 03 1e 8f 3e 6c 7c b4 3d 0a e5 fd 3b 33 c2 0c be
       0.27952585 0.08812794 0.007748251 -0.13745956
000010 f1 af 9c bd 5c 02 a2 3e 80 45 5a 3e 2f 70 97 3e
       -0.07650746 0.31642425 0.21315575 0.29577777
000020 53 38 7a bd 58 8c ba 3c af 69 47 3e 37 37 40 3c
       -0.06108887 0.022772 0.19473909 0.011731914
000030 32 65 d0 3d b0 81 da bb 4b 0a eb 3d 85 c8 63 be
       0.101755515 -0.006668292 0.114765726 -0.22244461
000040 a3 f0 92 3d c1 a0 df 3d 0a 2f 23 3e 89 e3 1b bd
       0.07174804 0.10919333 0.15935913 -0.03805879
000050 ff f0 5f be c4 37 46 bc 5d 14 81 3a 61 01 a7 3e
       -0.21869276 -0.0120982565 0.0009847988 0.3261824
000060 bc 90 c4 3c c5 c2 2e 3d 89 29 c9 3e fd 0c 3b 3e
       0.023994796 0.042666215 0.392895 0.18266673
000070 35 7d 7b be 3f a5 49 3d f3 91 8b 3e 55 97 88 be
       -0.24559481 0.049229857 0.27259788 -0.26677957
000080 9f 78 cc 3d 35 27 02 bd 97 d8 c9 3d 51 67 96 bd
       0.09983944 -0.031775672 0.09855764 -0.07343925
000090 64 53 7a 3e a0 38 5b be 0f 54 b1 3e e1 2d b5 3e
       0.24445873 -0.2140832 0.34634444 0.35386565
0000a0 9d 2c 62 3e db c7 bd 3e 2f 51 bb 3e d7 86 5d 3e
       0.22087331 0.3706654 0.36585376 0.21633469
0000b0 ba 95 67 3e fa bb f3 bd d0 51 c0 be fa ed cb bd
       0.2261571 -0.11901088 -0.37562418 -0.099575
0000c0 1d 01 ba bd 89 67 9c 3e
       -0.090822436 0.3054774

weight f4 [11, 50]
000000 b5 a2 5a bd 42 04 f3 bd e8 00 f1 3d 94 b2 81 3e
       -0.053377826 -0.118660465 0.11767751 0.25331557
000010 5e 18 49 3d 24 23 1a 3e a5 6a 0e bd d8 d0 3f be
       0.049095504 0.15052468 -0.034769673 -0.18732011
000020 66 8f 8b 3e 06 b6 a1 bd ab 41 c0 bd 4e 37 6b bc
       0.27257842 -0.07896046 -0.09387525 -0.014356447
000030 cd d7 5a 3e eb 94 43 be a7 fd b7 3d 17 3a f8 3e
       0.21371384 -0.19099776 0.08983927 0.4848182
000040 fe 5d 70 bd 27 78 30 be ab 1d 1c 3e e8 34 e8 bb
       -0.058683388 -0.17233334 0.15245692 -0.007086385
000050 a6 67 06 3e 7d 51 08 be ab 7d d9 3d 20 72 db bd
       0.13125476 -0.13312335 0.106196724 -0.10715127
000060 5d 0a 84 3d ba c0 f9 bc e5 a1 08 3e ee 90 26 be
       0.06447289 -0.030487407 0.13343008 -0.16266224
000070 06 98 ca 3d be 85 c8 bb 4a de 9c bd 3f 85 a9 bc
       0.098922774 -0.006119459 -0.07659586 -0.02069342
000080 43 ca 43 3d 2e 23 a3 3d c9 13 a4 3d 76 f7 00 3f
       0.047800314 0.07965694 0.08011586 0.50377595
000090 ff c7 35 3c 09 12 01 3d c7 4e d6 3c 06 e4 81 bd
       0.011095046 0.03151134 0.02616061 -0.0634232
0000a0 12 4a f6 bd 9a 3f 0f 3c 09 84 b5 3b 7b 24 db 3c
       -0.120258465 0.008743191 0.0055394215 0.026750794
0000b0 f2 ba 1a 3e 37 c1 98 be 8b 9b 83 3e 54 1a 75 3d
       0.15110376 -0.2983491 0.25704607 0.05983956
0000c0 5f c1 b6 3d d6 a6 ba bd 71 64 5c 3d c1 ab be 3d
       0.08923601 -0.09113853 0.053806726 0.09310103
0000d0 41 76 9c bc 1c 59 9e 3e b1 fe b1 bc be 58 bf 3d
       -0.019099357 0.3092736 -0.021727892 0.09343098
0000e0 25 34 6e be bb b1 c5 3d 10 a0 90 3e 4a ab bc bb
       -0.23262079 0.0965304 0.28247118 -0.005757724
0000f0 62 24 40 3d c5 69 e9 bd 27 29 01 3e c9 98 20 be
       0.046909697 -0.11397127 0.12613355 -0.15683283
000100 01 eb 19 be c0 35 bb 3e 5a 3b 98 3d f5 45 39 be
       -0.15031053 0.36564445 0.074331954 -0.18093093
000110 b3 eb 3f be d5 ff 67 3d 85 a3 1f 3e b0 3f 46 bd
       -0.18742256 0.056640465 0.15589722 -0.04840058
000120 07 e1 34 3e a2 ff 17 3e 3b d0 06 be d3 24 27 be
       0.17663966 0.1484361 -0.13165371 -0.16322641
000130 13 84 59 3e 0d e9 0f 3d d6 fb 82 3d 5d 84 be 3b
       0.21241789 0.035134364 0.0639569 0.005814119
000140 c8 1d 39 ba 79 75 ec 3d 02 b6 35 3e a6 b3 14 be
       -0.00070616277 0.11545844 0.17745212 -0.14521655
000150 0d e6 24 3e d8 21 9b 3e 87 3f 72 3d c0 dd fe 3d
       0.16103382 0.30299258 0.059142616 0.12444639
000160 99 73 ca 3e 4d 24 07 be 2c 21 1e bd 1d ae 20 be
       0.3954132 -0.13197441 -0.038605854 -0.15691419
000170 34 5e 0b be a0 ce 77 be b1 44 1d 3e 5d 37 1e 3e
       -0.13610154 -0.24199915 0.15358235 0.15450807
000180 77 97 25 3e fe 9a 51 3d d9 46 fe bd 84 ca 3c 3e
       0.1617106 0.051173203 -0.12415857 0.18436629
000190 ef 5d b3 be bd ea e0 3d c4 2a b6 bd 8f 11 91 3e
       -0.35032603 0.10982273 -0.08894876 0.2833371
0001a0 72 3a 58 bd 5d f3 b5 bd b1 63 c0 bd 6d 66 63 bd
       -0.052790113 -0.088843085 -0.093940146 -0.055517603
0001b0 1f 44 72 3e e3 08 09 3e f9 a8 5f 3c 04 18 22 be
       0.23658799 0.13382296 0.013651126 -0.15829474
0001c0 0e 90 b6 bd e5 d5 34 be ba 73 63 be bb df 77 3e
       -0.08914195 -0.1765972 -0.22212115 0.2420644
0001d0 d1 c7 bc bd f2 9a 07 3e 23 38 9c 3e ee 63 2a 3e
       -0.092177995 0.132427 0.3051158 0.16639683
0001e0 e1 d7 81 bd 4d c6 b4 bd d4 ae 03 bd 4f 9f 30 be
       -0.06340004 -0.08826885 -0.03214915 -0.17248271
0001f0 6e ed e8 3e 1e 17 1a bd f2 f9 ee 3d d5 97 10 3c
       0.45493644 -0.037619703 0.11668767 0.008825262
000200 53 2a c0 3c 67 11 f8 3c f9 b8 3d be c1 4e a1 3c
       0.023457682 0.030281736 -0.18527593 0.019690873
000210 20 77 8e bd 07 7b 11 3e 19 60 9d 3d af 87 54 3e
       -0.06956315 0.14207087 0.07684345 0.20754884
000220 b4 11 6e be 95 69 00 3e b9 ee 20 be 61 a5 86 3d
       -0.2324894 0.12540276 -0.15716065 0.06574512
000230 bc 70 77 bc 43 df cc 3d 33 45 9d 3d 76 78 00 be
       -0.015102562 0.10003521 0.07679214 -0.12545952
000240 e5 d5 df 3d fd 28 33 3e 45 cd a6 3d dd 27 b8 bd
       0.10929469 0.17496105 0.08144621 -0.08991978
000250 79 3f 4a 3d 85 6e ce 3e 64 78 ee 3e 47 be 47 3d
       0.04937694 0.40318695 0.46576226 0.048765447
000260 a4 84 29 3e a4 69 0e 3e 19 df 1c 3d 67 6e 2e 3c
       0.16554505 0.13907486 0.0382987 0.010646439
000270 7c 55 2f 3e 16 ae a3 bd d2 3e 3c bd 0c 1b cb bd
       0.17122453 -0.07992189 -0.045958348 -0.09917268
000280 6b f8 73 3d ff 36 d8 bc 16 ca 59 3e db ae 91 bd
       0.05956308 -0.026393412 0.21268496 -0.07113429
000290 6b 46 17 be 1d d3 9d 3e 33 9a 2b be e5 0f 0d be
       -0.14772956 0.3082513 -0.16758041 -0.13775595
0002a0 02 45 15 3e f8 be c8 3d 54 ba d8 bd 61 0c 87 be
       0.14577106 0.098020494 -0.10582414 -0.26376632
0002b0 4f 1c c1 bc ff 42 14 bd ec 10 10 bd 8c 76 95 bd
       -0.023573069 -0.036196705 -0.035172388 -0.07298002
0002c0 78 8b 42 be eb a3 21 be 8b ea 20 bd 7b c4 0a 3e
       -0.18998516 -0.15785186 -0.039286178 0.13551514
0002d0 3a f5 3e 3e b6 0c c7 bd ea b2 46 bd b8 cf fc bd
       0.18648234 -0.09719221 -0.04851047 -0.12344307
0002e0 6e 74 a3 3c 89 0a 67 bc 9b d1 65 3d be f4 87 3d
       0.019952979 -0.014101633 0.0561081 0.06638478
0002f0 f4 8b 0e 3e ca 45 c2 3b f1 97 d3 3c d2 13 4a be
       0.13920575 0.0059287297 0.025829287 -0.19734123
000300 2f 7f 1c 3e 16 93 e7 3d c6 8d 9d be 8b 14 cb bd
       0.15282892 0.11307351 -0.30772227 -0.09916028
000310 11 aa 80 bd 9b 0f 11 3e ae 18 b6 3d 7e 00 1c be
       -0.062824376 0.1416611 0.08891426 -0.15234563
000320 a3 08 30 3e 4d 7d 57 3d c4 2b 18 be 2f 35 88 be
       0.17190795 0.05260973 -0.14860445 -0.26603076
000330 19 1c a8 3d 91 9a a8 3d 40 1e 66 3c 44 cb a3 bd
       0.08208484 0.08232606 0.014045298 -0.07997754
000340 39 5d 9a 3e 8a ad 6f bd 08 25 34 3c 57 29 89 3d
       0.30149248 -0.05851511 0.010995157 0.06697338
000350 cd 0a 0d 3e 0f ad 02 3e df 2f 0f be 03 00 2e 3c
       0.13773651 0.12761329 -0.13983105 0.01062012
000360 b4 c4 4d bd 38 03 83 3c af 79 0a be e6 6a 8a 3d
       -0.05023642 0.015992746 -0.13522981 0.067586705
000370 68 76 24 be 77 fb cb bd eb 80 79 3d 24 70 19 be
       -0.16060793 -0.099600725 0.06091396 -0.14984185
000380 36 72 41 3d 20 81 ce bc 05 63 e2 be 56 0b 8c bd
       0.04722806 -0.025208056 -0.4421617 -0.068381
000390 1c ed 06 3e 61 0c 91 bd 49 9b b9 3e 85 c2 c5 3d
       0.13176388 -0.07082439 0.36251286 0.09656242
0003a0 94 63 2a 3e 46 c5 de bb 8e 7f 3b 3e 47 c0 5f 3d
       0.16639549 -0.006798419 0.18310377 0.05462673
0003b0 68 d4 b4 bd 93 6f 19 3d c5 86 94 3e 39 79 3a be
       -0.08829576 0.03745992 0.2900907 -0.18210305
0003c0 e8 7f 95 3d a2 14 81 3e 8f c5 17 3d 00 b2 32 bc
       0.07299787 0.25211054 0.03705364 -0.010906696
0003d0 03 69 79 bd e4 ed 53 be 7a 7d 6d 3e 0d 05 27 be
       -0.060891163 -0.20696217 0.23192397 -0.1631052
0003e0 b8 d9 b7 bd 38 30 ae be 07 e7 97 3e 47 37 85 3e
       -0.089770734 -0.34021163 0.29668447 0.26018736
0003f0 3b d1 80 3e be f8 de 3b 31 88 ff 3c 47 de 9e 3c
       0.2515963 0.0068045547 0.03119287 0.0193931

bias f4 [11]
000000 c1 cc 4c be 0d d8 1f be 04 b5 53 be 00 2a b0 bc
       -0.19999982 -0.1560976 -0.2067452 -0.021504402
000010 08 d0 f5 3d 4f c7 50 be fa 80 7a be 9c 49 1c be
       0.120025694 -0.2038853 -0.24463263 -0.15262455
000020 4b 9e 67 be e9 39 65 be e4 c0 96 be
       -0.22618978 -0.22385372 -0.2944404
