trainingOnSyntheticData/results/20230802_174851_debug/model_training_set_size_1000_hidden_neurons_50_n_batches_5.pt (torch, 56175 bytes, 6 tensors)

weight f4 [50, 200]
0	0x3cceab10	0.025228053
1	0xbb1bcf97	-0.0023774856
2	0xbc7b3884	-0.015333299
3	0xbd868978	-0.06569189
4	0x3d755133	0.05989189
5	0xbc81857b	-0.015810719
6	0x3d54d540	0.051961184
7	0xbd8a595f	-0.067553274
8	0xbb80664b	-0.0039184443
9	0xbd211f7d	-0.03933667
10	0xbcc25f64	-0.023727126
11	0xbb81af8d	-0.003957695
12	0x3da719b1	0.08159197
13	0xbd396e58	-0.045271248
14	0x3cfe3dfd	0.031035418
15	0xbd8cc733	-0.06873932
16	0xbcd06468	-0.025438502
17	0xbd6bad01	-0.057538036
18	0x3ca9d861	0.02073306
19	0x3d126429	0.03574005
20	0x3d39b706	0.04534056
21	0x3c80a94b	0.015705725
22	0xbba69ea9	-0.0050848317
23	0x3d0e5e2a	0.03475777
24	0xbd4f2fc4	-0.050582662
25	0xbd04e9f9	-0.032449696
26	0xbd42f092	-0.047592707
27	0xbd2e3ff9	-0.042541478
28	0x3cb595ae	0.0221661
29	0x3d1ee37e	0.038791172
30	0xbd20a054	-0.0392154
31	0xbd2ae617	-0.041723337
32	0xbd5da686	-0.054113887
33	0xbcbd207e	-0.023086783
34	0xbd9682b2	-0.07349147
35	0xbca2a3e9	-0.01985355
36	0xba2993bd	-0.0006468853
37	0xbd90d9a2	-0.0707276
38	0x3c1733d8	0.009228669
39	0xbd4266ff	-0.047461506
40	0x3b186270	0.0023252033
41	0xbb07c6ce	-0.0020717862
42	0xbde13894	-0.109971195
43	0xbcd0899b	-0.02545624
44	0xbd184ef8	-0.037184685
45	0xbd4a288d	-0.04935508
46	0x3cba47f1	0.022739382
47	0xbd36ca12	-0.044626303
48	0xbd924133	-0.07141342
49	0xbd4c63be	-0.04989981
50	0xbd51d607	-0.051229503
51	0xbd7aeda4	-0.061261788
52	0xbc7e9f0d	-0.01554085
53	0xbd97f4ba	-0.07419725
54	0xbd80eac9	-0.06294782
55	0xbd87ed4f	-0.0663706
56	0xbcd6a2ae	-0.026200619
57	0xbdd36eab	-0.103238426
58	0xbce13f93	-0.027496135
59	0xbd903f96	-0.07043378
60	0x3cfef209	0.03112127
61	0xbd162d5b	-0.036664348
62	0xbb26ca99	-0.0025450347
63	0xbda3bf59	-0.07995481
64	0xba7079ef	-0.0009173443
65	0x3cc67d0f	0.024229554
66	0x3d2627f4	0.040565446
67	0xbc90759b	-0.017634204
68	0xbd9a0158	-0.075197875
69	0xbd273bf3	-0.040828656
70	0xbce5d133	-0.028053856
71	0xbd3b0b72	-0.045665212
72	0xbd1e3fc1	-0.03863502
73	0xbd96a176	-0.07355015
74	0x3cd22866	0.02565403
75	0x3d00e60e	0.031469397
76	0xbd7fdef2	-0.062468477
77	0xbd473816	-0.048637472
78	0xbdc1e1c7	-0.09466892
79	0xbdea1047	-0.11428886
80	0xbdadb0e9	-0.084810086
81	0xbd4913dd	-0.04909121
82	0xbdbb7ad4	-0.09154287
83	0xbdca93c4	-0.09891465
84	0xbcaf68f2	-0.021412347
85	0xbd31a5a9	-0.043370876
86	0xbd33d02c	-0.0438997
87	0xbb9fecc7	-0.004880521
88	0xbd1d6e08	-0.038435012
89	0xbdf8d902	-0.12150766
90	0xbdee12de	-0.116246924
91	0xbcf777db	-0.030208519
92	0xbde45363	-0.11148717
93	0xbdc21665	-0.09476928
94	0xbd4e4420	-0.050357938
95	0xbdd97cfc	-0.10619542
96	0xbb361d64	-0.0027788514
97	0xbd12a8bb	-0.035805445
98	0xbcc42fc6	-0.023948561
99	0xbd3aec6e	-0.045635633
100	0x3dd7d42a	0.10538514
101	0xbdbf8073	-0.093506716
102	0xbdb7918e	-0.08963309
103	0xbdfca1c0	-0.12335539
104	0xbe06991a	-0.13144341
105	0xbd1b9c24	-0.037990704
106	0xbd55d2ca	-0.052202977
107	0xbcadacac	-0.0212005
108	0xbddb39a8	-0.107043564
109	0xbdf610fe	-0.1201496
110	0xbc89b4d7	-0.016809864
111	0xbdecf02b	-0.11569246
112	0xbd9b3c61	-0.07579876
113	0xbe20d4c6	-0.15706167
114	0xbd98954b	-0.074503504
115	0xbdba1d04	-0.090875655
116	0xbbaeff3f	-0.0053404863
117	0xbdc7cdff	-0.097560875
118	0xbdcdab4e	-0.100424394
119	0xbda35e51	-0.07976974
120	0xbdaa472a	-0.08314355
121	0xbd66c8dc	-0.0563439
122	0xbc52868a	-0.012849459
123	0x3d4c2900	0.04984379
124	0xbd0aa1e0	-0.033845782
125	0xbd5d81b8	-0.054078788
126	0x39bcdc7e	0.00036022434
127	0x3c94fa60	0.018185794
128	0x3d483cd4	0.048886135
129	0xbca949c7	-0.020665063
130	0xbd56a80b	-0.052406352
131	0xbd1a48c8	-0.037667066
132	0x3d702d00	0.058636665
133	0x3c40b99b	0.011763002
134	0x39ce125a	0.00039305055
135	0xbd83ede0	-0.064418554
136	0x3d300a6f	0.0429787
137	0x3d10b2bf	0.035326716
138	0xbcdb495b	-0.026768377
139	0xbd9aeb6e	-0.07564436
140	0xbd844f71	-0.06460465
141	0xbd3d3463	-0.046192538
142	0xbd0310b7	-0.031998362
143	0xbdc60e40	-0.09670687
144	0xbbf1552e	-0.0073648905
145	0xbcc4f8b1	-0.024044367
146	0xbd4c696e	-0.049905233
147	0xbd438bad	-0.047740627
148	0xbd49f1cc	-0.04930286
149	0x3d4e8c72	0.050426908
150	0xbd7707dc	-0.06031023
151	0xbc1c9289	-0.009556421
152	0xbdb242ab	-0.08704122
153	0x3bc2be08	0.0059430636
154	0x3cbba68d	0.022906566
155	0xbd344e3b	-0.04401992
156	0xbd7dbe95	-0.06194933
157	0xbc57926c	-0.013157468
158	0x3d04248d	0.03226142
159	0x3d6b9c4f	0.057522114
160	0x3d5d9618	0.05409822
161	0x3c114507	0.008866555
162	0xbd0dccb0	-0.034619033
163	0x3ced5227	0.028969837
164	0x3d0df54e	0.03465777
165	0x3c600585	0.013673191
166	0x3ca72bdf	0.020406662
167	0x3d208600	0.039190292
168	0x3d862e19	0.06551761
169	0x3cdcbe85	0.026946316
170	0xbd5a50b1	-0.05329961
171	0x3c69ccda	0.014270032
172	0x3d5703f6	0.05249401
173	0xbd103e6e	-0.035215788
174	0x3d4772ad	0.048693348
175	0xbc6a96b0	-0.014318153
176	0x3c290810	0.010316864
177	0xbd225282	-0.039629467
178	0x3bb94e0a	0.005655055
179	0x3b951f01	0.004550815
180	0xbc8d401a	-0.01724248
181	0x3c8505fa	0.016238201
182	0x3b63d891	0.0034766535
183	0xbbfc331f	-0.007696524
184	0xbb9955d7	-0.0046794224
185	0x3c35e4c2	0.011101903
186	0xbbcff62a	-0.0063464837
187	0x3da69cb2	0.08135356
188	0x3dc87fb9	0.09789986
189	0xbd50fcb3	-0.051022243
190	0x3daa1906	0.08305554
191	0xbcb6a018	-0.022293136
192	0xbc4d533f	-0.012532054
193	0x3d595e05	0.05306818
194	0x3d988c28	0.07448608
195	0x3db9c8de	0.090715155
196	0x3bfb071f	0.007660761
197	0x3c4eadc5	0.012614672
198	0xbbefe237	-0.007320668
199	0x3d576b44	0.05259253
200	0x3c4f8977	0.0126670515
201	0x3dece72d	0.11567531
202	0x3ce2bd09	0.02767803
203	0x3d185f1d	0.037200082
204	0x3d72e1c4	0.059297338
205	0xbd2351c5	-0.039872903
206	0x3c207d87	0.009795553
207	0x3ca222ad	0.019791925
208	0x3c30c94e	0.010790182
209	0x3d1f17a2	0.038840897
210	0x3d9c0a7f	0.076191895
211	0xbce31ca2	-0.027723614
212	0xbc3b5b8d	-0.011435402
213	0xbd0dd7bf	-0.03462958
214	0x3d93d04e	0.07217465
215	0xbd1c3d96	-0.03814467
216	0xbd645c1e	-0.055751912
217	0xbd3d6d67	-0.046246912
218	0x3d019e68	0.03164521
219	0xbd1488f3	-0.036263417
220	0xbc75701b	-0.014980341
221	0x3b62ef5f	0.003462754
222	0xbdb2fe2c	-0.08739886
223	0xbcfc92b0	-0.030831665
224	0xbd552974	-0.052041486
225	0xbc8ba8f0	-0.01704833
226	0x3bf57b7f	0.0074915285
227	0xbd50ce3e	-0.050977938
228	0x3d3ae862	0.045631774
229	0xbdade6f2	-0.08491315
230	0xbca03567	-0.019556714
231	0xbc919a5b	-0.017773798
232	0xbd60acd8	-0.054852337
233	0x3d30ebfd	0.043193806
234	0x3d0bb301	0.03410626
235	0x3cfb96f1	0.030711623
236	0xbdd7d180	-0.10538006
237	0xbd9e826b	-0.07739719
238	0x3b5a57ac	0.0033316417
239	0xbc03de87	-0.00804866
240	0x3c3ce9d4	0.011530358
241	0x3d2eecb9	0.042706225
242	0x3d77e5bf	0.060521837
243	0x3c40469f	0.011735587
244	0xbd8a3a8e	-0.0674945
245	0xbc1fb216	-0.009747049
246	0xbda34dc7	-0.07973819
247	0xbd477590	-0.0486961
248	0x3c88d2db	0.016702106
249	0x3d817ca0	0.063225985
250	0xbd859849	-0.06523187
251	0x3d98bdac	0.07458052
252	0x3d5beba6	0.05369153
253	0x3b9f3ee6	0.004859793
254	0x3d4c89d5	0.049936134
255	0xbd132122	-0.03592027

bias f4 [50]
0	0xbd1922ef	-0.03738683
1	0x3e40c047	0.18823348
2	0x3da27b9b	0.07933732
3	0xbc2bf7ee	-0.010496123
4	0x3eaa1048	0.33215547
5	0x3db17278	0.08664411
6	0x3d6d39f2	0.05791659
7	0x3d97ebe0	0.074180365
8	0x3e8a85ac	0.2705511
9	0xbdbca100	-0.09210396
10	0x3ebe7d10	0.3720479
11	0xbe1ba845	-0.15200908
12	0xbceca0d1	-0.028885277
13	0x3e0e0e61	0.13872673
14	0x3cd687b8	0.026187763
15	0x3ea30a32	0.31843716
16	0x3e9c51b2	0.3053108
17	0xbc2a7954	-0.010404903
18	0x3d3e1ba2	0.04641307
19	0x3e0ef59c	0.1396088
20	0x3e48e4cc	0.19618529
21	0x3ef8103c	0.48449886
22	0x3d86b5bb	0.06577631
23	0x3e5f1696	0.2178596
24	0x3e4425ef	0.19155096
25	0x3e750e03	0.23931126
26	0x3d8e8784	0.06959441
27	0x3ec71778	0.38885093
28	0xbc97c480	-0.018526316
29	0x3e41c0c1	0.18921186
30	0x3edff824	0.43744004
31	0x3deae048	0.114685595
32	0xbe0783e4	-0.13233906
33	0x3e952cc4	0.29135716
34	0x3e8f77d5	0.28021112
35	0x3e85f1cd	0.26161042
36	0x3d296ef5	0.041365582
37	0x3b51a5fa	0.00319898
38	0xbe3f6afd	-0.18693157
39	0x3d8e7b66	0.0695713
40	0xbe14b58c	-0.1452238
41	0xbd96b44c	-0.07358608
42	0x3ef238ff	0.4730911
43	0x3e929a46	0.28633326
44	0xbe535c49	-0.20640673
45	0x3eaf880b	0.3428348
46	0xbb84eec0	-0.0040567815
47	0x3cb90f4d	0.022590304
48	0xbd846d88	-0.06466204
49	0x3d1a0b59	0.03760848

weight f4 [50, 50]
0	0x3d640ff0	0.05567926
1	0xbe010a47	-0.12601577
2	0xbe34ca2a	-0.17655244
3	0x3db820e4	0.089906484
4	0x3e32ba45	0.17453869
5	0xbe7ca378	-0.24671733
6	0xbdb7f774	-0.08982745
7	0xbd98c409	-0.07459266
8	0xbe8f8e4a	-0.28038245
9	0x3d0a90fc	0.033829674
10	0xbdc63d1a	-0.09679623
11	0x3e3e2689	0.18569387
12	0x3e43974b	0.19100682
13	0xbe687ef1	-0.22704674
14	0x3cad28a9	0.021137552
15	0x3e045e14	0.12926513
16	0xbb0029f8	-0.0019556265
17	0x3d22c4eb	0.039738577
18	0xbdb7e27c	-0.08978745
19	0xbd225dc7	-0.039640214
20	0x3ddfceec	0.10928139
21	0x3dbfbe8d	0.093625166
22	0x3df30c56	0.11867587
23	0xbe646d6d	-0.22307368
24	0x3d934071	0.071900256
25	0xbe3511ff	-0.17682646
26	0xbd5f06f0	-0.054449975
27	0xbc36b440	-0.011151373
28	0xbd95bc05	-0.073112525
29	0x3d0ee29e	0.034884088
30	0x3e054032	0.1301277
31	0xbe1d2246	-0.15345106
32	0xbd25388e	-0.040337138
33	0x3c212d82	0.00983751
34	0xbe5fd0ce	-0.21856996
35	0x3dc55a1d	0.09636328
36	0x3d89c523	0.06727054
37	0x3c080f94	0.008304495
38	0xbe0a6a9c	-0.13517231
39	0xbdefcdc9	-0.11709172
40	0xbcf5db7e	-0.030011889
41	0x3e10ea86	0.14151964
42	0xbf0b599f	-0.54433626
43	0x3e2c3ced	0.16820116
44	0x3e311ba6	0.17295703
45	0x3e10d29e	0.14142844
46	0x3e64a2dd	0.22327752
47	0x3b9846a1	0.0046470915
48	0x3de30f8d	0.110869505
49	0x3d8b0cbd	0.06789539
50	0x3b9ffeff	0.004882693
51	0x3db747e2	0.089492574
52	0x3c798ce5	0.015231346
53	0x3e93ff12	0.2890554
54	0x3df43326	0.11923818
55	0xbd1eb740	-0.03874898
56	0xbcc3e447	-0.023912562
57	0xbbfe376f	-0.007758073
58	0x3e22e951	0.15909316
59	0xbd2c7065	-0.042099375
60	0x3c3f070c	0.011659395
61	0x3d7662a5	0.06015267
62	0xbac927c5	-0.0015346935
63	0x3e1130e0	0.141788
64	0x3de268f2	0.11055173
65	0x3da2b739	0.07945103
66	0xbdb019f2	-0.08598699
67	0x3e44b4a4	0.19209534
68	0x3dcc351e	0.09971069
69	0x3dfb03fc	0.12256619
70	0xbe144771	-0.14480378
71	0x3d31abbe	0.043376677
72	0x3e1ecd50	0.15508008
73	0xbd2e16e8	-0.042502314
74	0xbe11df64	-0.14245373
75	0xbd88d897	-0.06681936
76	0xbc3b4560	-0.0114301145
77	0x3e6c07aa	0.23049799
78	0xbdc6564c	-0.096844286
79	0xbe2d6a87	-0.16935168
80	0xbe05e7bb	-0.1307668
81	0x3debd906	0.11516003
82	0xbe02cfe3	-0.12774615
83	0x3c170117	0.009216568
84	0x3dd5b520	0.104349375
85	0xbd9596b0	-0.07304132
86	0x3e1a2610	0.15053582
87	0x3c338a6c	0.010958295
88	0x3c867aa7	0.016415907
89	0xbd3dd76b	-0.046348017
90	0x3db53afc	0.08849141
91	0xbda7a093	-0.08184924
92	0x3d91b6c5	0.07114939
93	0x3d483dc0	0.048887014
94	0x3e241506	0.16023645
95	0xbe004b94	-0.12528831
96	0x3ebe1796	0.3712737
97	0xbda1a0fa	-0.07892032
98	0x3c313751	0.010816411
99	0x3d7e5dd5	0.062101204
100	0x3d414d39	0.047192786
101	0xbdb3a8f9	-0.08772463
102	0xbbed1213	-0.0072348206
103	0x3e808586	0.2510187
104	0x3dc640bb	0.09680315
105	0xbcc06e0d	-0.023489976
106	0x3dd35b57	0.10320156
107	0x3e0af52f	0.13570093
108	0x3e3331c8	0.17499459
109	0x3dc60468	0.09668809
110	0x3d58935b	0.052874904
111	0x3db8c8e8	0.09022695
112	0x3d858cd0	0.065209985
113	0x3d872e5e	0.06600641
114	0x3dfb45ba	0.12269159
115	0x3b80ba08	0.0039284267
116	0xbe09d7a0	-0.1346116
117	0xbe113b18	-0.14182699
118	0xbd782aae	-0.060587578
119	0x3dac201e	0.08404563
120	0x3de0fa45	0.10985235
121	0x3afe4265	0.0019398449
122	0x3d4a85a1	0.049443845
123	0x3c24f7f6	0.010068884
124	0xbda0578a	-0.07829197
125	0x3dab42e4	0.08362368
126	0xbd7d6472	-0.06186337
127	0xbc991bfa	-0.018690098
128	0xbe0be2f7	-0.13660799
129	0x3d7914c4	0.06081082
130	0x3d103bf3	0.035213422
131	0xbc87190b	-0.016491434
132	0xbdf9487f	-0.12172031
133	0x3ce62f69	0.028098779
134	0xbd41f29f	-0.047350522
135	0x3c60f5e2	0.013730498
136	0xbdf188a0	-0.11793637
137	0x3e4e2513	0.2013133
138	0x3d74642e	0.05966585
139	0x3e1f1262	0.15534356
140	0xbe57ed76	-0.21086678
141	0x3e049bd0	0.12950063
142	0x3d5c188e	0.053734355
143	0x3df1ec6c	0.11812672
144	0xbcb01d23	-0.021498268
145	0xbd819ba5	-0.06328515
146	0x3e46e718	0.19424093
147	0xbe0bc616	-0.13649783
148	0xbe429934	-0.19003755
149	0x3e1782d6	0.14796004
150	0xbda9daf1	-0.08293713
151	0x3d4695f7	0.04848286
152	0xbe9145e0	-0.28373623
153	0x3dfad3d3	0.122474335
154	0x3e2069a6	0.15665302
155	0x3d9f2360	0.07770419
156	0xbdec1e96	-0.11529271
157	0xbe7a487a	-0.2444171
158	0x3e3dd0bd	0.18536659
159	0xbe18006b	-0.1484391
160	0xbd0edf55	-0.034880955
161	0x3cfb0b6c	0.030645095
162	0xbc91a0fa	-0.017776955
163	0xbce26aeb	-0.027638873
164	0xb94b79f7	-0.00019405024
165	0xbd77c016	-0.06048592
166	0xbe40eb85	-0.18839844
167	0xbd97f769	-0.074202366
168	0xbdabf253	-0.08395829
169	0xbcf52241	-0.02992356
170	0xbe4709fd	-0.19437404
171	0x3dbb0b2a	0.09132989
172	0xbe040ae7	-0.12894784
173	0x3e548fb3	0.20757942
174	0x3e09fdcd	0.13475724
175	0xbd85bc6f	-0.065300815
176	0x3b9538c3	0.0045538857
177	0xbd676418	-0.05649194
178	0x3da63202	0.08115007
179	0xbd096e16	-0.03355225
180	0xbc3069b8	-0.010767393
181	0x3d98d9b4	0.074633986
182	0xbe25d3f7	-0.1619414
183	0xbcd105fc	-0.025515549
184	0x3e664ef0	0.2249105
185	0x3e348ba1	0.17631389
186	0x3db22b5b	0.08699676
187	0xbde02691	-0.10944856
188	0xbe11aa42	-0.14225104
189	0xbd7a2d25	-0.06107821
190	0x3cf3869e	0.029727276
191	0x3d93a42c	0.07209048
192	0xbd19ce2f	-0.037550148
193	0x3e308753	0.17239122
194	0x3e885a29	0.26631287
195	0x3ca8e5e5	0.020617435
196	0xbe3aac7e	-0.18229863
197	0x3b93d313	0.004511246
198	0x3dd0d80d	0.101974584
199	0xbd8b7f2d	-0.06811366
200	0xbd9e3952	-0.07725777
201	0xbd31c8e6	-0.043404482
202	0x3dbf7f27	0.09350424
203	0xbc20a854	-0.009805758
204	0x3cf4da5d	0.02988928
205	0xbdce8919	-0.10084743
206	0x3d0ca290	0.03433472
207	0x3c86c687	0.016452087
208	0x3d74af67	0.05973759
209	0xbde4174b	-0.11137255
210	0xbd42f0cb	-0.04759292
211	0x3dc892b6	0.09793608
212	0x3e13aefd	0.14422221
213	0xbdc618ba	-0.09672685
214	0xbdd6c66b	-0.10487064
215	0xb9164718	-0.00014331599
216	0x3df8bfc7	0.121459536
217	0x3d07eed8	0.033186764
218	0xbdaf7328	-0.08566886
219	0xbbd27315	-0.0064224103
220	0x3c1aa70d	0.009439242
221	0xbda3e4a3	-0.08002593
222	0x3d08579b	0.033286672
223	0xbe056d85	-0.1303006
224	0x3d86deef	0.0658549
225	0x3d84ce83	0.064847015
226	0xbdbc64aa	-0.09198888
227	0x3d7491e3	0.05970944
228	0xbd64b621	-0.055837754
229	0x3d46e57e	0.048558705
230	0xbd31d654	-0.04341729
231	0xbd6a6e2b	-0.05723397
232	0x3e1f6e81	0.15569498
233	0x3e2fa5e3	0.17153125
234	0x3d8f2fb8	0.069915235
235	0x3e069ded	0.13146181
236	0x3ce88d2a	0.028387625
237	0xbe5230f9	-0.20526494
238	0x3d336bcf	0.043803986
239	0xbb10a0cd	-0.00220685
240	0xbbc62ab4	-0.006047571
241	0x3cad9efa	0.02119397
242	0x3d988771	0.074477084
243	0x3dc7e9cd	0.09761391
244	0xbddfc071	-0.10925377
245	0x3d413ccd	0.047177125
246	0x3d4d9d04	0.05019857
247	0x3e03df71	0.12878205
248	0x3e0693e1	0.13142349
249	0x3dc40150	0.09570563
250	0x3d8921b4	0.066958815
251	0x3de575cb	0.11204108
252	0xbda6c527	-0.081430726
253	0xbe36aeb8	-0.17840087
254	0xbe11cb47	-0.142377
255	0xbd20a481	-0.039219383

bias f4 [50]
0	0x3dcccfef	0.10000598
1	0xbefb6913	-0.49103603
2	0x3e648888	0.22317708
3	0xbd201214	-0.03907974
4	0xbe95d3f8	-0.29263282
5	0xbed7818e	-0.4209103
6	0xbc66928d	-0.014073026
7	0x3ad13afd	0.0015963014
8	0x3e90195f	0.28144357
9	0x3e854833	0.26031646
10	0x3df93b29	0.12169487
11	0x3c72df60	0.014823765
12	0xbe0c83a6	-0.13722095
13	0xbe0a63da	-0.13514653
14	0xbf054908	-0.5206456
15	0xbdc770be	-0.09738301
16	0x3e9b9021	0.303834
17	0x3f01ae1d	0.506563
18	0xbd7e551f	-0.062092897
19	0x3e82a2eb	0.25514922
20	0xbe516b1b	-0.20451014
21	0xbbbef9f8	-0.0058281384
22	0x3d465c6a	0.048427977
23	0x3e5d7b70	0.21629119
24	0x3eb898ca	0.3605407
25	0x3e160707	0.14651118
26	0xbd9b9259	-0.07596273
27	0x3eaba825	0.33526722
28	0x3efa16a0	0.48845387
29	0x3ecb978e	0.39764065
30	0x3e885012	0.2662359
31	0x3ec63ad5	0.3871676
32	0x3ea452a7	0.3209431
33	0xbbe22e7b	-0.0069025136
34	0x3d804bd6	0.062644646
35	0x3e9df2e5	0.30849376
36	0x3b772ced	0.0037715987
37	0xbe03f454	-0.12886173
38	0x3e80cc31	0.25155786
39	0x3e341330	0.17585444
40	0xbdb2e8d3	-0.08735814
41	0x3e7e3934	0.24826509
42	0x3e26c090	0.16284394
43	0xbcaae4f6	-0.02086113
44	0x3b436b56	0.0029818616
45	0x3dd1a525	0.10236577
46	0xbdccd47f	-0.10001468
47	0x3e504f61	0.2034278
48	0xbd91e6b9	-0.07124085
49	0x3e162b7e	0.14665028

weight f4 [11, 50]
0	0x3d660440	0.056156397
1	0x3d585143	0.052811872
2	0xbe00ce55	-0.1257871
3	0xbc76bfc9	-0.015060374
4	0x3d19289d	0.037392247
5	0x3c096165	0.008385037
6	0x3d748780	0.059699535
7	0x3e1c3e88	0.15258229
8	0xbd30b088	-0.043137103
9	0xbcf2b9b4	-0.029629566
10	0x3ecb744c	0.39737165
11	0x3d12cfd6	0.03584274
12	0x3d77c0c3	0.060486566
13	0x3e431f8a	0.19055
14	0xbd4b2950	-0.049599946
15	0x3db6b7c6	0.08921771
16	0xbd9c3e51	-0.076290734
17	0xbdc4163e	-0.09574555
18	0xbd804f43	-0.06265118
19	0xbe045644	-0.12923533
20	0x3dfc6fd0	0.12326014
21	0xbda27855	-0.07933108
22	0xbe0645aa	-0.13112512
23	0xbbf69d2c	-0.0075260606
24	0xbd8568ae	-0.06514107
25	0xbe0e94c8	-0.13923943
26	0x3d1d5d49	0.03841904
27	0x3ead3d67	0.3383591
28	0x3db5073e	0.08839272
29	0xbcf58271	-0.029969426
30	0xbe103896	-0.14084086
31	0xbd993864	-0.07481459
32	0xbc07c9d0	-0.008287862
33	0xbd5ab312	-0.05339343
34	0x3d3c23b4	0.045932487
35	0x3cae6f9f	0.02129346
36	0x3d66e6e8	0.056372553
37	0x3de6f79a	0.11277695
38	0x3d7a3fc5	0.06109597
39	0xbe1d4dd0	-0.15361714
40	0x3ea8c12e	0.32959884
41	0x3d53fba2	0.051753648
42	0x3da86b69	0.08223612
43	0x3da07de6	0.07836513
44	0xbd0231aa	-0.031785645
45	0xbd4a8099	-0.049439047
46	0x3d11f442	0.035633333
47	0xbe265099	-0.16241683
48	0x3de66c9b	0.112511836
49	0x3e2bdebe	0.16784188
50	0x3bbe82eb	0.0058139465
51	0xbb0b845d	-0.0021288611
52	0xbe014969	-0.1262566
53	0x3cc9d657	0.024638338
54	0x3e417d56	0.18895468
55	0x3df90638	0.12159389
56	0x3de91c04	0.11382297
57	0x3db1a8fa	0.08674808
58	0x3cd299b0	0.02570805
59	0xbd3d1024	-0.04615797
60	0x3e714d5b	0.23564665
61	0xbdf1f648	-0.118145525
62	0x3e558c66	0.20854339
63	0xbdbddb38	-0.09270328
64	0xbcce97bf	-0.025218843
65	0xbda95ead	-0.08270011
66	0xbc098bd8	-0.008395158
67	0xbe06274d	-0.1310093
68	0x3cc5460d	0.024081254
69	0xbdccd563	-0.10001638
70	0xbd668b03	-0.056284916
71	0xbe6a6b81	-0.22892572
72	0x3e17c80f	0.1482241
73	0xbe84d3ee	-0.2594294
74	0xbe0bc4e8	-0.13649333
75	0xbcfe07f6	-0.031009655
76	0x3e345542	0.17610648
77	0x3ec6a296	0.38795918
78	0xbc91b167	-0.017784787
79	0x3dac8caf	0.08425271
80	0x3e1cde05	0.15319069
81	0x3e9a2c9b	0.30112156
82	0xbd62a13d	-0.05532955
83	0xbdc485f6	-0.095958635
84	0xbd7477fe	-0.059684746
85	0xbde1603e	-0.11004685
86	0x3e02ea89	0.1278478
87	0x3de6f2b4	0.11276761
88	0xbdffb7ce	-0.1248623
89	0xbc2a0737	-0.010377697
90	0x3dba3ef5	0.09094039
91	0x3c107a58	0.0088182315
92	0x3b610a8f	0.0034338569
93	0x3d9bd791	0.076094754
94	0xbbacfd3c	-0.0052792113
95	0x3c0a9680	0.008458734
96	0xbbc9006e	-0.0061340844
97	0x3dbd1125	0.09231786
98	0xbd7873f8	-0.06065747
99	0x3e9dae57	0.30797073
100	0xbc8cc9df	-0.017186103
101	0xbd7ccd69	-0.061719332
102	0x3e12f819	0.14352454
103	0xbe818302	-0.25295264
104	0xbd2aea12	-0.041727133
105	0xbb06b905	-0.0020557058
106	0xbd9d57cf	-0.07682764
107	0xbdc78c5c	-0.09743568
108	0x3dbaa247	0.09112983
109	0xbe17624e	-0.14783594
110	0x3d1b058a	0.03784708
111	0x3df23b42	0.11827709
112	0xbe33cb77	-0.17558084
113	0x3d8941e9	0.067020245
114	0x3c38baca	0.011275003
115	0xbe0871bd	-0.13324638
116	0xbe260336	-0.16212162
117	0x3e0301a0	0.12793589
118	0xbdc3ad44	-0.09554532
119	0x3cda6aff	0.026662348
120	0x3da80d03	0.08205607
121	0x3f0947a4	0.5362494
122	0x3dad340a	0.08457191
123	0x3e9f0873	0.31061134
124	0x3e0e5de7	0.13903008
125	0xbcac8ab7	-0.021062238
126	0x3d9a0122	0.07519747
127	0x3d75cd5a	0.06001029
128	0xbddc6317	-0.107610874
129	0xbcb4dd72	-0.02207825
130	0xbdc6fddb	-0.09716388
131	0xbe6a9dfa	-0.22911826
132	0x3c072aae	0.008249922
133	0x3df48d81	0.11941052
134	0x3ca4932f	0.020089714
135	0x3e146980	0.1449337
136	0x3df1439a	0.11780472
137	0x3e23fb98	0.16013944
138	0xbdd8deb2	-0.10589351
139	0xbcaccbf9	-0.021093355
140	0x3ecd167c	0.40056217
141	0xbdd4b29d	-0.1038563
142	0xbd97bbfd	-0.07408903
143	0x3d621054	0.055191353
144	0xbd25a7ab	-0.040443104
145	0xbe1508d3	-0.14554147
146	0x3dd0184f	0.101608865
147	0xbe276b30	-0.16349483
148	0x3e5b97b6	0.21444592
149	0x3e6b0089	0.22949423
150	0x3bf584fa	0.0074926587
151	0x3c0f4a73	0.008745777
152	0xbe00163c	-0.12508482
153	0x3e07c41e	0.13258407
154	0x3db3c69c	0.08778116
155	0x3df89b78	0.12139028
156	0xbce68ba1	-0.028142752
157	0xbe0b4cd9	-0.13603534
158	0x3d58178a	0.052756824
159	0xbc1dfb6f	-0.009642466
160	0x3d378bf0	0.04481119
161	0x3e5ac2e7	0.21363412
162	0x3d0f8a16	0.0350438
163	0x3db17221	0.086643465
164	0xbd7bc6cf	-0.061468896
165	0x3e078c90	0.13237214
166	0xbe237b1f	-0.15964936
167	0xbe0676b9	-0.13131227
168	0x3d3a23b3	0.0454442
169	0x3de33a0a	0.110950544
170	0xbd2f9b8f	-0.04287296
171	0xbded9d6a	-0.1160229
172	0x3e81235c	0.2522229
173	0x3daacca8	0.08339816
174	0xbe4165ae	-0.18886444
175	0x3e5a4010	0.213135
176	0x3de12a73	0.10994425
177	0x3ddf808c	0.1091319
178	0xbeadcc83	-0.33945093
179	0x3dae852c	0.08521494
180	0x3c4fc2e9	0.012680748
181	0x3d88bbaa	0.06676419
182	0xbde5ebb9	-0.11226601
183	0xbdbfc9a9	-0.093646355
184	0x3dc1c885	0.09462074
185	0x3d3469b0	0.044046104
186	0xbdbc6511	-0.091989644
187	0x3dcc4c1b	0.099754535
188	0xbde5ef3d	-0.11227272
189	0x3e11a72e	0.1422393
190	0xbd33010b	-0.043702167
191	0xbdf370dd	-0.11886761
192	0xbe29c680	-0.16579628
193	0x3daf8291	0.085698254
194	0xbe160cd2	-0.14653328
195	0x3c6b8fb9	0.014377528
196	0x3e1286ee	0.14309284
197	0xbe0e0110	-0.13867593
198	0x3e0018a1	0.12509395
199	0xbc03ea9f	-0.0080515435
200	0x3e1371ee	0.1439893
201	0x3dc08d3b	0.094019376
202	0x3d608250	0.054811776
203	0x3d56da79	0.052454446
204	0x3dd4d9f0	0.10393131
205	0xbdec2ef6	-0.115323946
206	0xbb928876	-0.004471834
207	0xbd41c31d	-0.047305215
208	0x3db783d4	0.08960691
209	0x3cb87e76	0.022521239
210	0x3df4a19d	0.11944888
211	0x3dcfaec4	0.10140756
212	0xbdc1f27a	-0.09470077
213	0xbe1442b0	-0.14478564
214	0xbcab52da	-0.02091353
215	0xbda8a3b2	-0.082343474
216	0x3d7a5131	0.061112586
217	0xbe282d5a	-0.1642355
218	0xbccf5519	-0.025309132
219	0xbd71d25b	-0.0590385
220	0x3cb678fa	0.022274483
221	0xbeb1f72c	-0.3475889
222	0x3e9b4504	0.30326092
223	0x3eb02298	0.34401393
224	0xbea80b5a	-0.3282116
225	0x3e2cd03d	0.16876312
226	0xbdc9b2fe	-0.09848593
227	0x3ed134c8	0.4086058
228	0xbda6d8d8	-0.081468284
229	0xbe0f8ec3	-0.14019303
230	0x3e979562	0.29606158
231	0xbc685dcd	-0.01418252
232	0x3db83935	0.089952864
233	0x3dbae334	0.09125367
234	0x3d6ac3fc	0.05731581
235	0xbc4c2e61	-0.0124622295
236	0xbe1afec8	-0.15136254
237	0x3d84fd58	0.06493634
238	0xbd906b5a	-0.07051726
239	0x3d37bee6	0.04485979
240	0xbb7e0532	-0.003876042
241	0x3cff11bc	0.031136386
242	0xbda5a7ba	-0.08088632
243	0x3d75e6be	0.060034506
244	0x3cd7a77b	0.026324978
245	0x3df86ee6	0.12130527
246	0xbda0072a	-0.078138664
247	0xbcb0f556	-0.02160136
248	0x3d2ad0da	0.041703083
249	0xbd9abf59	-0.07556028
250	0x3ca1de95	0.019759456
251	0x3d14f62d	0.036367584
252	0xbe302e31	-0.1720512
253	0x3c4179c7	0.011808819
254	0x3d2af021	0.04173291
255	0x3e9049e4	0.28181374

bias f4 [11]
0	0xbeb40d16	-0.35166234
1	0x3bb9d9c8	0.0056717135
2	0xbdb9226d	-0.09039769
3	0xbe386aac	-0.18009442
4	0x3e1c9b76	0.15293679
5	0xbe0c6d1a	-0.13713494
6	0xbe60922e	-0.21930763
7	0xbe1fb6d9	-0.15597095
8	0xbe2b60cc	-0.16736144
9	0xbe4e74c7	-0.20161735
10	0xbe9bd784	-0.30437863
