trainingOnSyntheticData/results/20230802_175255_debug/model_training_set_size_100_hidden_neurons_50_n_batches_5.pt (torch, 56167 bytes, 6 tensors)

weight f4 [50, 200]
0	0xbd51a63a	-0.051183917
1	0x3ae3f4cd	0.0017391682
2	0xbc9a250b	-0.018816492
3	0x3c9a9b7e	0.018872973
4	0x3d8275a4	0.063700944
5	0x3cc0d7b7	0.02354036
6	0x3da8f318	0.082494915
7	0x3db1cdc7	0.08681827
8	0x3d057cea	0.03258983
9	0x3c9ad3e2	0.018899862
10	0xbd0c8837	-0.034309592
11	0xbaeefc8c	-0.0018233224
12	0xbd56d9cb	-0.052453797
13	0x3c3f9dcd	0.0116953375
14	0xbc533cb5	-0.012892892
15	0xbd32c1f3	-0.043641996
16	0xbd31bb88	-0.043391734
17	0x3cfb027a	0.03064083
18	0xbcf2a006	-0.02961732
19	0xbbc0f847	-0.005888972
20	0x3c5ade06	0.013358599
21	0x3c8a8e9a	0.0169137
22	0x3d241150	0.040055573
23	0xbd535e5e	-0.051603667
24	0xbbc7619c	-0.006084634
25	0xbd92981b	-0.07157918
26	0x3d6853ec	0.05672066
27	0xbca95a6b	-0.020672997
28	0x3d9ef633	0.077618025
29	0xbc987f4a	-0.018615384
30	0xbb584f83	-0.0033006377
31	0x3d7e009f	0.06201231
32	0x3c114895	0.008867403
33	0x3d99a53f	0.07502221
34	0x3c4ff003	0.012691501
35	0x3c5580de	0.013031213
36	0x3cc26d11	0.023733648
37	0x3dc1758e	0.0944625
38	0x3d7b3ab5	0.061335284
39	0xbd1faeb9	-0.038984988
40	0x3cfdeeaa	0.030997593
41	0xbb777c1e	-0.0037763189
42	0x3d0c5c51	0.034267727
43	0xbd1ccd8e	-0.03828197
44	0x3dac59d7	0.08415573
45	0xbcf00042	-0.029296998
46	0x3d6fad4a	0.05851487
47	0x3d423593	0.047414374
48	0x3a96e98a	0.0011513692
49	0x3d8a638c	0.06757268
50	0x3da28540	0.07935572
51	0x3cb835db	0.022486618
52	0x3d5a0e33	0.053236198
53	0x395274dd	0.00020070696
54	0x3cbf5182	0.023354296
55	0xbcae9aef	-0.021314112
56	0x3b45f22c	0.003020416
57	0x3d485864	0.04891242
58	0x3cda8cc1	0.026678445
59	0xbd43c4f6	-0.04779526
60	0x3d3d98c0	0.046288252
61	0xbc6cba58	-0.014448725
62	0xbcb8dee7	-0.022567226
63	0x3ca07f1e	0.019591864
64	0x3d49467c	0.049139485
65	0xbd9d0670	-0.076672435
66	0x3cef761d	0.029231125
67	0xbd6c7f07	-0.05773833
68	0xbd121bb7	-0.035670962
69	0xbc5a813e	-0.013336478
70	0x3c0609c1	0.008181036
71	0x3daf176a	0.08549388
72	0xbb5a8ad1	-0.0033346901
73	0x3c78869a	0.01516881
74	0x3e0222c9	0.12708582
75	0x3e156305	0.14588554
76	0x3de6254b	0.11237582
77	0x3d7ed2d6	0.062212788
78	0x3d92f256	0.07175128
79	0x3d828bfb	0.063743554
80	0x3d5c8104	0.053833976
81	0x3dbfd942	0.093676105
82	0x3dbea7ab	0.09309324
83	0x3ddf7450	0.10910857
84	0x3cedb72a	0.029018003
85	0x3dfd33aa	0.1236337
86	0x3e0e6209	0.13904585
87	0x3e3a7a9b	0.18210833
88	0x3e3b09be	0.18265435
89	0x3e0eef61	0.13958503
90	0x3e383b4b	0.17991368
91	0x3e899c4d	0.2687706
92	0x3e14b635	0.14522631
93	0x3e7c1704	0.24618155
94	0x3e843cf3	0.2582775
95	0x3e19c190	0.15015244
96	0x3e7bbf6d	0.24584742
97	0x3e0a819c	0.13526005
98	0x3df91a43	0.12163212
99	0x3dba903a	0.0910954
100	0x3da12a07	0.07869344
101	0x3dde08ec	0.108415455
102	0xbbd5bfff	-0.006523132
103	0x3d76af2c	0.06022565
104	0xbd001bb7	-0.03127643
105	0xbbc6235d	-0.006046696
106	0x3ca7e03e	0.02049267
107	0x3d036505	0.03207876
108	0x3d2e9cad	0.042629886
109	0x3e233c57	0.15940987
110	0x3e141e2e	0.14464638
111	0x3dc977c4	0.098372966
112	0x3e4627df	0.19351147
113	0x3e362a41	0.17789556
114	0x3df31786	0.11869721
115	0x3d892be8	0.066978276
116	0x3df266b9	0.11835999
117	0x3df702c2	0.12061073
118	0x3e07314b	0.13202398
119	0x3dbce165	0.09222678
120	0x3ca4ced9	0.020118164
121	0x3dc3dc73	0.09563532
122	0x3d93524e	0.07193433
123	0x3ced02ce	0.028932001
124	0xbca86bf1	-0.020559283
125	0x3d17c720	0.037055135
126	0x3dbf707a	0.09347625
127	0x3d870f8d	0.06594763
128	0x3c851c65	0.016248891
129	0x3d2a29ab	0.041543644
130	0x3b88e520	0.0041777045
131	0x3d8c36f9	0.06846423
132	0xbcc79b0d	-0.024365926
133	0x3d90b859	0.070664115
134	0x3d63ae90	0.055586398
135	0x3d692679	0.056921456
136	0xbd4ee598	-0.050511926
137	0xbd04939c	-0.032367334
138	0xbdae7831	-0.085190184
139	0xbd7413b2	-0.059589095
140	0xbd2a4e50	-0.04157859
141	0x3d268ae5	0.040659804
142	0x3ce58c72	0.028021071
143	0x3d4f791a	0.0506526
144	0xbcf99057	-0.030464334
145	0xbd81c555	-0.06336466
146	0xbc819550	-0.015818268
147	0x3cee4434	0.029085256
148	0xbcf68918	-0.030094668
149	0xbd75a311	-0.059969965
150	0xbd92df54	-0.07171503
151	0xbd92ebe2	-0.07173897
152	0xbd7a607e	-0.06112718
153	0xbd1c3458	-0.038135856
154	0xbac8f190	-0.001533078
155	0x3cd0f134	0.02550564
156	0x3c50775b	0.012723769
157	0x3d3ecd5c	0.046582565
158	0xbd3f4a2f	-0.046701606
159	0xbdbf7304	-0.09348109
160	0xbd1ac9cb	-0.0377901
161	0x3ca51756	0.020152729
162	0xbda10d44	-0.07863858
163	0x3d136def	0.035993513
164	0xbd3d0524	-0.04614748
165	0xbc8a91c4	-0.01691521
166	0xbcbb35eb	-0.022852859
167	0x3b3b3d91	0.0028570632
168	0xbd521a3e	-0.051294558
169	0xbcd67ff9	-0.026184069
170	0x3ce521ef	0.027970282
171	0x3b6a23fb	0.0035727012
172	0x3d2eed03	0.0427065
173	0x3d38adbb	0.045087557
174	0xbca00f72	-0.019538615
175	0xbcaa09af	-0.02075657
176	0x3c60f8fc	0.0137312375
177	0x3d195a50	0.037439644
178	0xbd88320f	-0.06650173
179	0x3d9dab90	0.076987386
180	0xbd2c6f87	-0.04209855
181	0x3db0afd3	0.08627286
182	0x3c256813	0.010095614
183	0xbcb1bb3d	-0.021695727
184	0x3da2aaf4	0.07942763
185	0x3bd69f8a	0.0065497803
186	0xbc954776	-0.018222552
187	0xbd48e05b	-0.049042087
188	0x3d21a74c	0.039466187
189	0x3d161f6f	0.03665107
190	0x3d724fb4	0.059158042
191	0x3d65eab7	0.056132045
192	0x3d71570e	0.058920912
193	0xbb751989	-0.0037399253
194	0x3d2d3fac	0.04229705
195	0x3a9a9e63	0.001179647
196	0xbb58c5ec	-0.0033076955
197	0x3dade174	0.084902674
198	0xbcfbec35	-0.03075228
199	0x3ce1e677	0.027575715
200	0xbcbcc3b1	-0.023042532
201	0x3d2d992a	0.042382397
202	0x3d48102a	0.04884354
203	0x3d17c670	0.03705448
204	0xbc8248eb	-0.01590391
205	0x3d186ef3	0.037215184
206	0x3ccdb051	0.025108488
207	0x3d5f2c6e	0.05448573
208	0x3d9652d3	0.07340016
209	0xbd33d286	-0.043901943
210	0xbc1ef57c	-0.009702083
211	0x3c83392c	0.016018473
212	0x3aa6031f	0.0012665725
213	0x3c6dcf68	0.014514782
214	0x3bc817e6	0.0061063645
215	0xbd34beb2	-0.044127174
216	0x3d4be177	0.049775567
217	0x3c8748ef	0.01651427
218	0x3d3ee586	0.04660561
219	0x3cd423c4	0.02589596
220	0x3cb2fb4a	0.02184834
221	0x3d8a620d	0.06756983
222	0x3d53b3e8	0.051685244
223	0x3cff7cc3	0.03118742
224	0x3d4471ec	0.047960207
225	0x3db306df	0.08741545
226	0x3d091a45	0.03347232
227	0x3d724dde	0.05915629
228	0x3d0df003	0.03465272
229	0x3d008d21	0.03138459
230	0x3cd33626	0.025782656
231	0x3c60bb17	0.013716481
232	0x3d5fa349	0.05459908
233	0x3d44436a	0.047915854
234	0x3c2ff54f	0.0107396385
235	0x3d875e4e	0.06609784
236	0x3d49c6ab	0.04926173
237	0x3d7538a3	0.059868466
238	0x3d9d52cf	0.0768181
239	0xbd3bd858	-0.04586062
240	0x3ced5b3b	0.028974166
241	0x3d3600e7	0.044434454
242	0xbc005b33	-0.007834244
243	0x3cfc838f	0.03082445
244	0xbd02b101	-0.031907085
245	0xbc9f25b8	-0.019427165
246	0xbd29fd7c	-0.041501507
247	0x3d966841	0.073441036
248	0x3aafc382	0.0013409706
249	0x3c92ed96	0.017935555
250	0xbc481783	-0.012212637
251	0xbc0000b6	-0.0078126695
252	0xbc72f76a	-0.014829496
253	0xbbe9e230	-0.0071375594
254	0x3d345658	0.044027656
255	0x3c08ea02	0.008356573

bias f4 [50]
0	0x3ea6bc14	0.32565367
1	0xbe58a26f	-0.21155713
2	0x38e496eb	0.00010899998
3	0xbde80dab	-0.11330732
4	0x3ef862f4	0.48512995
5	0x3eb0c8d7	0.3452823
6	0x3e9ddc73	0.30832252
7	0xbe1ffd64	-0.15624005
8	0x3dea20f3	0.11432066
9	0x3e752079	0.23938169
10	0x3e03860f	0.12844108
11	0x3e3c0e04	0.18364722
12	0x3a8c3140	0.001069583
13	0x3e53cd5f	0.20683812
14	0x3e3447ac	0.17605466
15	0x3e269628	0.16268218
16	0xbe0ae25e	-0.13562915
17	0xbcf2ac43	-0.029623156
18	0x3d929ed3	0.071591996
19	0x3e9304ac	0.28714502
20	0xbe2c819b	-0.16846316
21	0x3ea39b27	0.3195431
22	0x3d349eb7	0.044096675
23	0x3ce57a49	0.028012412
24	0x3ec50ce9	0.38486412
25	0x3e6560ba	0.2240018
26	0xbd8dff17	-0.0693342
27	0x3ece14a6	0.40250129
28	0x3e8ef58c	0.27921712
29	0xbbe59c70	-0.007007174
30	0x3ea28614	0.31742918
31	0x3c86bfaa	0.016448814
32	0xbc7d62aa	-0.015465418
33	0x3ea6e428	0.32595944
34	0x3ec3a30d	0.38210335
35	0x3e68fdd8	0.22753084
36	0x3e0fc78d	0.14040966
37	0xbe7547f1	-0.23953225
38	0x3d60f67b	0.054922562
39	0xbddf4cff	-0.10903358
40	0x3d6876d2	0.05675394
41	0x3e0b2346	0.13587674
42	0xbc2fd909	-0.010732898
43	0x3e74f943	0.23923211
44	0x3eb18338	0.34670424
45	0x3e9ca5af	0.30595157
46	0xbe5b8a0a	-0.21439376
47	0x3cb79db2	0.022414062
48	0x3ecf1cb5	0.4045159
49	0x3e926407	0.2859194

weight f4 [50, 50]
0	0xbe2c8e39	-0.16851129
1	0xbe0b2264	-0.13587338
2	0xbe057639	-0.1303338
3	0x3e09a871	0.13443162
4	0x3d116e3a	0.03550551
5	0xbd94b79f	-0.072615854
6	0xbcd3f486	-0.025873434
7	0xbdcbeb22	-0.099569574
8	0x3dfc04aa	0.12305577
9	0xbe15237a	-0.14564314
10	0x3db0cfa4	0.08633354
11	0x3d71e5a6	0.0590569
12	0x3d8cca62	0.06874539
13	0xbe01c368	-0.12672198
14	0xbc3ad4fe	-0.01140332
15	0xbe17962a	-0.14803377
16	0x3c830bdb	0.015996864
17	0x3e1b4f15	0.15166886
18	0x3e18fd36	0.14940342
19	0x3d6da070	0.058014333
20	0xbdc22f07	-0.09481626
21	0x3ca58853	0.020206606
22	0x3dcdaf61	0.100432165
23	0x3ca4e120	0.02012688
24	0x3e29affc	0.16571039
25	0x3b9935a4	0.004675584
26	0x3def171a	0.11674328
27	0x3e498dae	0.19682953
28	0x3d54a8d6	0.051918827
29	0x3d1c0ac8	0.03809622
30	0x3d2f8043	0.04284693
31	0x3e54de37	0.20787893
32	0x3de23fbd	0.11047313
33	0x3d5543e9	0.052066717
34	0xbde90d60	-0.11379504
35	0x3de832db	0.11337825
36	0xbd60f794	-0.05492361
37	0x3b8e47f1	0.004342072
38	0xbe330e28	-0.17485869
39	0xba9986e0	-0.001171317
40	0xbd4cf327	-0.050036576
41	0x3ddd9328	0.108190835
42	0x3e1f045e	0.1552901
43	0x3dd03d39	0.10167927
44	0xbcc4f3ae	-0.024041977
45	0x3dd0841f	0.1018145
46	0xbcfbd9d3	-0.030743515
47	0x3cf03fd7	0.029327316
48	0x3e17e77c	0.14834398
49	0xbde11af9	-0.10991473
50	0x3d28a941	0.041177038
51	0xbe30eafb	-0.17277138
52	0xbd236383	-0.039889824
53	0x3e387356	0.18012747
54	0xbe8deada	-0.2771824
55	0xbd9ab138	-0.07553333
56	0xbd8f08e4	-0.069841176
57	0x3e33d99b	0.17563479
58	0x3d4eb033	0.050461005
59	0x3e3224dc	0.17396873
60	0xbc81a624	-0.015826292
61	0x3e1ef77d	0.15524097
62	0x3ebe1423	0.37124738
63	0x3e12e671	0.14345719
64	0xbc460496	-0.012086054
65	0x3d145d4b	0.036221784
66	0xbc79cfa2	-0.015247257
67	0xbba3bcbf	-0.0049968655
68	0x3d8ec858	0.06971806
69	0x3d5f1bc6	0.054469846
70	0x3e1e61b9	0.15466966
71	0xbdc32f9c	-0.09530565
72	0xbd7f25c8	-0.06229189
73	0xbd2b68ec	-0.04184811
74	0xbe18a14f	-0.14905284
75	0xbe30ebf5	-0.1727751
76	0x3db3130a	0.08743866
77	0x3e0d5c71	0.13804795
78	0xbdbc652e	-0.09198986
79	0x3d0d9091	0.034561697
80	0x3e42da02	0.19028476
81	0xbe3eda8f	-0.18638061
82	0x3ddefea3	0.10888412
83	0xbce5a900	-0.028034687
84	0xbe48bc5a	-0.196031
85	0x3da3726a	0.07980807
86	0x3e1cdf61	0.15319587
87	0xbd3544f1	-0.0442552
88	0x3e089a66	0.13340148
89	0x3daf3f0e	0.085569486
90	0x3dd9870b	0.106214605
91	0x3e17fec5	0.1484328
92	0xbdc8e936	-0.098101065
93	0xbdbf9a70	-0.093556285
94	0x3b1d3121	0.0023985582
95	0xbe04ee6b	-0.12981574
96	0xbe29f4e5	-0.16597326
97	0x3e34c877	0.17654596
98	0xbda4c32b	-0.08045038
99	0x3da6f835	0.081528105
100	0x3e5de958	0.21671045
101	0xbe0b2bac	-0.13590878
102	0x3d0f7e1d	0.03503238
103	0xbd27d3cd	-0.040973473
104	0x3d6ad049	0.057327542
105	0xbe4b5422	-0.19856313
106	0xbd8ac871	-0.067765124
107	0x3dafe5bd	0.08588741
108	0xbb5cea9f	-0.003370918
109	0x3d1c5f69	0.038176928
110	0x3d2e3b44	0.04253699
111	0xbe27118b	-0.16315286
112	0x3d3fd92d	0.046837974
113	0xbd0d3cf3	-0.034481954
114	0xbe0de508	-0.138569
115	0xbcd13be9	-0.025541263
116	0x3c6d020b	0.014465819
117	0xbcd73d2d	-0.026274288
118	0x3c035c88	0.008017667
119	0xbd122b2c	-0.035685703
120	0x3dec2cdf	0.11531996
121	0x3e77cad8	0.24198472
122	0xbd940218	-0.07226962
123	0xbe327bad	-0.17429991
124	0xbd555761	-0.052085284
125	0xbd4d34b7	-0.0500991
126	0x3cd2c868	0.025730327
127	0xbe20340b	-0.15644853
128	0x3e00c713	0.12575941
129	0x3db81557	0.08988445
130	0x3dc772f3	0.09738722
131	0x3d482c90	0.048870623
132	0xbd6e4e7a	-0.05818031
133	0xbe64679a	-0.22305146
134	0xbd07b4ab	-0.033131283
135	0x3dce3bc2	0.10069992
136	0x3dc31c2e	0.09526859
137	0xbd8f58a4	-0.06999329
138	0xbd48bee5	-0.049010176
139	0xbd95af04	-0.07308772
140	0x3e3da622	0.18520406
141	0xbda4340c	-0.0801774
142	0x3dcf286c	0.10115132
143	0x3db20e35	0.08694116
144	0x3ccb6201	0.024827005
145	0xbd1ebb19	-0.03875265
146	0x3de8b5b8	0.11362785
147	0x3daaa077	0.083313875
148	0x3dd483e5	0.103767194
149	0x3c7af3ee	0.015316946
150	0x3a8c8168	0.0010719718
151	0xbe111f81	-0.14172174
152	0xbd87113b	-0.06595083
153	0xbec0bcea	-0.3764413
154	0x3dbec3c6	0.093146846
155	0x3d9c0a64	0.07619169
156	0x3e8a1222	0.2696696
157	0xbdc60b65	-0.09670142
158	0x3d40165e	0.04689633
159	0x3e802999	0.25031736
160	0x3ccd6ea1	0.025077166
161	0x3e3bc5bd	0.1833715
162	0xbc4fba42	-0.012678685
163	0x3e3c6fc1	0.18402006
164	0x3de0370b	0.109479986
165	0x3da89008	0.08230597
166	0xbde04617	-0.109508686
167	0xbd77af2a	-0.060469784
168	0xbc64cb5b	-0.013964499
169	0x3d3c6cd7	0.046002235
170	0xbd8b7130	-0.06808698
171	0x3e9b537a	0.30337125
172	0x3e3859bd	0.18002982
173	0x3d3ce430	0.046116054
174	0x3e0821da	0.13294163
175	0x3df48354	0.11939111
176	0xbe696422	-0.22792104
177	0x3d9dd412	0.07706465
178	0xbd7bd2ae	-0.061480217
179	0xbdca6834	-0.098831564
180	0x3c8a3bbd	0.016874189
181	0x3d1390ab	0.036026638
182	0x3cb74d80	0.022375822
183	0xbd77cde1	-0.060499076
184	0x3d365345	0.044513006
185	0xbe12ed43	-0.1434832
186	0x3d81fcd1	0.06347049
187	0xbe02da20	-0.1277852
188	0xbcec6e23	-0.028861111
189	0xbe3e9a99	-0.18613662
190	0xbdc6ef1a	-0.09713574
191	0x3e6b0b38	0.22953498
192	0xbdad0b6e	-0.08449446
193	0xbe5f837e	-0.21827504
194	0x3eaba9e4	0.33528054
195	0x3cd7c450	0.026338726
196	0x3d077968	0.033074766
197	0x3dabf43b	0.08396193
198	0x3e9dcda2	0.30820948
199	0x3daef590	0.08542931
200	0x3d9c2e91	0.07626069
201	0xbd005b1e	-0.031336896
202	0x3dc2e8fc	0.095170945
203	0x3df2cce3	0.11855485
204	0x3e1e557b	0.15462296
205	0xbcc090fb	-0.023506632
206	0xbdc0397d	-0.09385965
207	0x3e14ca70	0.14530349
208	0xbd65195e	-0.055932395
209	0xbe0aebf8	-0.13566577
210	0x3c509834	0.012731601
211	0x3b6975a7	0.0035623105
212	0xbe848811	-0.2588506
213	0x3e6ab449	0.22920336
214	0xbd8a096b	-0.067400776
215	0x3d5f2a51	0.054483715
216	0x3e25591a	0.16147271
217	0x3d9bf6bf	0.076154225
218	0xbe55f6a7	-0.20894872
219	0x3e37b04f	0.1793835
220	0xbd95f802	-0.07322694
221	0xbe033c31	-0.1281593
222	0xbd522920	-0.05130875
223	0xbda88001	-0.0822754
224	0xbdb17e8f	-0.08666717
225	0x3e23713f	0.15961169
226	0x3e034b94	0.128218
227	0xbd4c6eae	-0.04991024
228	0x3e2697a4	0.16268784
229	0xbdb1d273	-0.08682718
230	0xbdc50da4	-0.09621742
231	0xbe08c503	-0.13356404
232	0xbe088fab	-0.13336055
233	0x3c854f0b	0.016273042
234	0xbd632a14	-0.05546005
235	0xbc850a0f	-0.016240148
236	0x3e104f13	0.14092664
237	0x3d6adfb9	0.057342265
238	0x3d258d40	0.04041791
239	0x3d5e9f43	0.054351103
240	0xbdcfbb9d	-0.10143206
241	0x3ccd2177	0.025040371
242	0x3d956149	0.07293946
243	0x3d266308	0.040621787
244	0x3cd0c8d6	0.025486391
245	0xbd870c53	-0.065941475
246	0xbe1a3589	-0.15059485
247	0xbe2c5026	-0.16827449
248	0x3e2857b0	0.164397
249	0x3e03a45e	0.1285567
250	0x3d1aab64	0.037761107
251	0x3d8eabb2	0.06966342
252	0x3da7428c	0.0816699
253	0x3dcbe046	0.09954886
254	0x3dfb076c	0.12257275
255	0xbe155237	-0.14582144

bias f4 [50]
0	0x3e1a8d80	0.1509304
1	0xbe0f6e26	-0.14006862
2	0x3b6c0083	0.0036011047
3	0x3ed9213d	0.4240817
4	0x3e83840a	0.25686675
5	0x3d9f0673	0.07764902
6	0x3cb7263a	0.022357095
7	0xbe0bfef6	-0.13671479
8	0x3d67fff9	0.0566406
9	0x3eac6131	0.336679
10	0xbdd11dc6	-0.10210757
11	0xbdf601d5	-0.12012068
12	0xbe7029ec	-0.23453492
13	0x3de72d6d	0.11287961
14	0xbe5f1eee	-0.21789142
15	0x3e811183	0.25208673
16	0x3e80a80c	0.2512821
17	0x3eb0470b	0.344292
18	0x3e56e2a4	0.20984894
19	0x3e0bad53	0.13640337
20	0x3e188c35	0.14897235
21	0xbc98e293	-0.018662727
22	0x3dca278d	0.09870825
23	0xbd701d35	-0.058621604
24	0x3e217423	0.15766959
25	0x3e851632	0.25993496
26	0x3ea65a64	0.32490838
27	0x3e6c3100	0.23065567
28	0xbde20436	-0.110359594
29	0xbe2fb360	-0.1715827
30	0xbd7ced64	-0.06174983
31	0x3e03c5e8	0.12868464
32	0x3db58002	0.08862306
33	0xbec8f0ac	-0.39246118
34	0xbc94479e	-0.018100556
35	0x3ecf6903	0.40509805
36	0x3d9682aa	0.07349141
37	0xbe410af2	-0.18851832
38	0x3e36049d	0.17775197
39	0xbd4a6475	-0.04941221
40	0xbe037171	-0.12836243
41	0xbe9fd389	-0.31216076
42	0x3e0e7ce4	0.1391483
43	0x3ea55e64	0.32298577
44	0xbd6c0237	-0.0576193
45	0x3dc70a5f	0.09718775
46	0x3d103de6	0.03521528
47	0x3eac3404	0.33633435
48	0x3d9a23b7	0.07526343
49	0x3d206b89	0.039165054

weight f4 [11, 50]
0	0xbe03fe36	-0.12889943
1	0x3e645837	0.22299276
2	0xbc4c124e	-0.012455536
3	0x3e83f8f1	0.25775865
4	0xbe00069f	-0.12502526
5	0xbdaed984	-0.085375816
6	0x3d15664b	0.036474507
7	0x3e4ccf5c	0.20000976
8	0x3cabf9b0	0.020993084
9	0xbe2fda6c	-0.17173165
10	0x3d971e3e	0.07378815
11	0x3ec69132	0.3878265
12	0x3bce0e14	0.0062882993
13	0xbc3c541a	-0.011494661
14	0xbdae8ef8	-0.08523363
15	0xbb5f77a0	-0.0034098402
16	0xbe2474e6	-0.16060218
17	0xbd410bcc	-0.04713039
18	0x3ddfe695	0.10932652
19	0xbe19c780	-0.1501751
20	0x3dc7d241	0.097568996
21	0xbde9e524	-0.11420658
22	0x3e2becae	0.16789505
23	0xbdf5b082	-0.11996557
24	0x3dc167c2	0.09443618
25	0xbe0317f5	-0.12802108
26	0xbda40513	-0.0800878
27	0x3daa562d	0.08317218
28	0xbdd258e8	-0.10270864
29	0xbd4abfe9	-0.049499426
30	0x3e6a373f	0.22872637
31	0x39aeb30f	0.00033321275
32	0x3d95adc2	0.07308532
33	0x3e643286	0.22284898
34	0x3d6eecca	0.05833129
35	0xbe77778a	-0.24166694
36	0x3e4773da	0.19477788
37	0xbcb1b822	-0.021694247
38	0xbc6cce9b	-0.014453555
39	0x3e06946b	0.13142554
40	0x3e0fd6e5	0.1404682
41	0x3df1ed5c	0.11812851
42	0x3cb8c758	0.022555992
43	0xbde1ecfc	-0.11031529
44	0xbe195745	-0.14974697
45	0xbe39a060	-0.18127584
46	0x3cddbf47	0.027068747
47	0xbe0bdb9c	-0.13657993
48	0x3d6a01bf	0.05713057
49	0xbc3d03fc	-0.0115365945
50	0xbe181381	-0.1485119
51	0x3e3091f8	0.17243183
52	0xbe4ae168	-0.19812548
53	0x3e96e586	0.29471987
54	0x3df60eb7	0.120145254
55	0xbdc7720f	-0.09738552
56	0xbd4b74f5	-0.049672086
57	0x3d21727f	0.039415833
58	0xbd7595ed	-0.059957433
59	0xbe1e8a9f	-0.15482567
60	0xbdef4a32	-0.116840735
61	0x3db71b65	0.08940772
62	0xbd4101c0	-0.04712081
63	0x3e0693cf	0.13142322
64	0x3e2a0b85	0.16605957
65	0x3e04f048	0.12982285
66	0xbce91f6e	-0.02845737
67	0xbe7d7a83	-0.24753766
68	0x3ef0a688	0.47002053
69	0xbb20950e	-0.0024502906
70	0x3dc54ba8	0.09633571
71	0xbe08d6fd	-0.13363262
72	0xbd304ef1	-0.043044034
73	0x3d952875	0.07283107
74	0x3d7080f6	0.058716737
75	0xbea01b1b	-0.3127068
76	0x3e46867b	0.19387238
77	0x3caeb17c	0.021324866
78	0x3e2934e4	0.16524082
79	0xbe06192c	-0.1309554
80	0x3daf5ebf	0.08562993
81	0xbdd88e1b	-0.105739795
82	0xbde3e7fb	-0.11128231
83	0x3e0b34de	0.13594386
84	0xbcc4fd9c	-0.024046712
85	0xbdc884cf	-0.09790956
86	0xbe0c6e78	-0.13714015
87	0x3e20c4b2	0.15700033
88	0x3e3fac3d	0.18718047
89	0x3e5ab82c	0.21359318
90	0x3d962909	0.073320456
91	0x3d173f5b	0.036925655
92	0x3be66e8e	0.007032222
93	0x3e6e8253	0.23291902
94	0xbdeaaba3	-0.11458518
95	0xbe86a1c1	-0.26295283
96	0x3e23477c	0.15945238
97	0x3cc313f7	0.02381323
98	0xbe36383b	-0.17794888
99	0x3e5a6d76	0.21330819
100	0xbe13516c	-0.14386529
101	0x3e88128f	0.2657666
102	0x3d50488b	0.050850432
103	0xbd8628dc	-0.06550762
104	0x3dbfdb9f	0.09368061
105	0x3d602f56	0.054732643
106	0xbb9e54b0	-0.004831873
107	0xbd7ade43	-0.06124712
108	0xbe18f1d1	-0.14935996
109	0xbe69ba36	-0.2282494
110	0x3dff1020	0.124542475
111	0xbde779a0	-0.11302495
112	0x3d7ecde7	0.062208083
113	0xbcea21b4	-0.028580524
114	0x3d9d5c25	0.07683591
115	0xbe7a28c5	-0.24429615
116	0xbe22c3fe	-0.15895078
117	0x3ea6d939	0.32587603
118	0xbe266b50	-0.16251874
119	0x3dbabc43	0.09117939
120	0xbdad4c22	-0.08461787
121	0x3da7ec26	0.081993386
122	0x3e93b288	0.28847146
123	0x3c973513	0.018457925
124	0xbda4d7ab	-0.08048948
125	0xbd0c2822	-0.03421796
126	0x3e87f571	0.26554444
127	0xbdb3060c	-0.08741388
128	0x3e02be25	0.12767847
129	0x3daf2d51	0.08553565
130	0x3e3581a8	0.17725241
131	0x3e1334ca	0.14375606
132	0x3e535fce	0.20642015
133	0x3dd9bbe6	0.10631542
134	0xbdcf4b5a	-0.10121794
135	0x3db592f8	0.08865923
136	0x3e8ad2c1	0.27113917
137	0xbd61dd85	-0.055142898
138	0x3d88f4d9	0.06687326
139	0x3e57a7f5	0.21060164
140	0xbd5d5ba3	-0.05404247
141	0x3de42ec6	0.11141734
142	0xbe0c72e6	-0.13715705
143	0x3d6c13fd	0.05763625
144	0x3db16738	0.086622655
145	0xbdf2efd2	-0.11862148
146	0x3d84b089	0.06478984
147	0xbdcaf94a	-0.09910829
148	0xbe239f0b	-0.15978639
149	0xbe355b98	-0.17710721
150	0xbd344b4d	-0.044017125
151	0x3d6cb1df	0.05778682
152	0x3e145707	0.14486323
153	0xbe22dac7	-0.1590377
154	0xbdf89df9	-0.12139506
155	0x3e411b50	0.18858075
156	0x3dc78818	0.09742755
157	0x3dc52ceb	0.09627708
158	0x3dc7753a	0.09739156
159	0xbe3a6d32	-0.18205717
160	0x3cd8487d	0.026401753
161	0x3e93ec88	0.28891397
162	0x3e0d2606	0.13784036
163	0x3da22576	0.07917301
164	0x3df02052	0.117249146
165	0xbe7e38d4	-0.24826366
166	0xbd6708dd	-0.056404937
167	0xbedff44b	-0.43741068
168	0xbf01ce66	-0.50705564
169	0x3d827fe9	0.06372053
170	0x3e08dca5	0.13365419
171	0x3d5def2e	0.054183178
172	0xbd92aecd	-0.07162247
173	0xbdee7ff5	-0.116454996
174	0xbd051ae7	-0.03249636
175	0x3cd5b608	0.026087776
176	0xbe5103e0	-0.20411634
177	0x3dc66b1f	0.096884005
178	0xbde5ca3e	-0.11220215
179	0xbd2611ff	-0.040544506
180	0xbdf650cb	-0.12027129
181	0xbd9a756d	-0.075419284
182	0xbccdc1db	-0.025116852
183	0x38c9556f	9.60034e-05
184	0x3dd151dd	0.10220692
185	0xbe9dafab	-0.30798087
186	0x3db237c4	0.08702043
187	0xbc8d88e6	-0.017277192
188	0xbdb92193	-0.09039607
189	0x3d1bc6f5	0.038031537
190	0xbe00a25a	-0.12561932
191	0xbd11da4c	-0.035608575
192	0xbe18d25d	-0.14923997
193	0xbd923f07	-0.07140928
194	0x3d9681c4	0.073489696
195	0x3c66b151	0.014080361
196	0x3e501cdc	0.20323509
197	0x3ce226f4	0.027606465
198	0xbe1c15c1	-0.15242673
199	0xbe31e3f0	-0.17372108
200	0xbcbeec2e	-0.023305979
201	0x3e0e55d6	0.13899931
202	0x3da76adc	0.08174679
203	0xbcfe4c72	-0.031042311
204	0x3dd0cc67	0.10195237
205	0x3d84d1a8	0.06485301
206	0x3d6bd5cb	0.057576936
207	0x3d9fc9f0	0.078021884
208	0xbde6b5ee	-0.11265169
209	0xbe6318fc	-0.221775
210	0xbc282268	-0.010262109
211	0xbc8a777d	-0.01690268
212	0x3d3fc531	0.046818916
213	0x3e9b1481	0.3028908
214	0xbc812238	-0.015763387
215	0xbe3da6c3	-0.18520646
216	0x3e02793c	0.1274156
217	0xbe9f57f6	-0.31121796
218	0xbe82b716	-0.25530308
219	0x3e17c4b3	0.14821129
220	0xbd876fef	-0.066131465
221	0xbdd78b5b	-0.10524627
222	0xbce7370d	-0.028224492
223	0xbdaba925	-0.08381871
224	0xbdb6e871	-0.089310534
225	0x3e1e7593	0.15474539
226	0xbe83cc95	-0.2574202
227	0x3e3316e2	0.17489198
228	0x3c07354b	0.008252452
229	0xbd6fbe81	-0.058531288
230	0xbd13e302	-0.036105163
231	0x3e193b50	0.14964032
232	0xbe6ad9a3	-0.22934584
233	0xbdfc0354	-0.12305322
234	0x3e027b59	0.12742366
235	0x3ea884f0	0.32913923
236	0x3da79865	0.08183364
237	0xbe17c592	-0.14821461
238	0xbd2bee6d	-0.041975427
239	0xbd234c20	-0.03986752
240	0x3dbfcef0	0.09365642
241	0xbd190183	-0.037354957
242	0xbe14cdbe	-0.1453161
243	0xbe1ebab6	-0.15500912
244	0xbce696e9	-0.028148131
245	0x3d9e5ea9	0.07732899
246	0xbca09db1	-0.019606443
247	0x3d2d8de2	0.042371638
248	0xbd42900f	-0.047500666
249	0xbe086591	-0.13319995
250	0x3cb5ff61	0.0222165
251	0x3e9fc1cf	0.31202552
252	0xbe600a48	-0.21878922
253	0xbef88d0a	-0.48545104
254	0xbd32bbae	-0.043636017
255	0xbde7a2c8	-0.11310345

bias f4 [11]
0	0xbdf60817	-0.12013262
1	0xbafb3718	-0.00191662
2	0xbe65bd34	-0.22435457
3	0xbda152ab	-0.07877096
4	0xbd3cf179	-0.046128724
5	0xbdd5e536	-0.10444109
6	0xbd23ab2d	-0.039958168
7	0xbe3421d8	-0.17591035
8	0xbe527301	-0.20551683
9	0xbde63917	-0.11241358
10	0xbe3a1a7b	-0.18174164
