trainingOnSyntheticData/results/20230802_175255_debug/model_training_set_size_1000_hidden_neurons_50_n_batches_5.pt (torch, 56175 bytes, 6 tensors)

weight f4 [50, 200]
00000000: dfba c83c 771a fb3c 531b 4a3d 98fa f73b
00000010: f5f4 aabd 56f1 ba3c bb52 a3bc 48d9 ab3c
00000020: f21b 29bd 5cdb 183d c417 39bd f332 cbbb
00000030: 5082 40bd bbe3 87bd dac6 7d3c 7442 713d
00000040: e807 683d 9653 033d f4e0 1ebb 9981 d13d
00000050: 53c9 173d dae9 2bbd df83 9abd 0edb 49bd
00000060: 2b66 1cbd ab92 293d 3b13 b43d d1c2 11bb
00000070: d007 793d 5bda e03c 9d47 d23b c586 06bc
00000080: fe7e 0f3c 5487 a7bd 8ec5 8c3b cd14 dabc
00000090: e666 3dbd 8c2c 713d 1b44 85bc 5503 5c3c
000000a0: a83e 1c3d 92f0 96bc a0b0 6cbd b30b 7a3d
000000b0: 5c49 85bd f3df 473d e538 77bd a019 163c
000000c0: 47b4 5bbd b684 303d a42c 72bd 10f5 1cbd
000000d0: 30af 1abc c9a8 2b38 d9a6 a6bc 4dd2 af3c
000000e0: 6b9f 96bd 7adb 60bd 2900 12bd ce20 3dbd
000000f0: 57a8 2f3d cd12 623d 94d2 b43c 7975 b13d
00000100: 763d be3d 6429 f4bc 370e debb e17a c73c
00000110: c2e4 32bd d507 963d 9797 c63d a596 ce3c
00000120: c8ae b33d b49b a93c 4284 3d3d 86de 453d
00000130: f03e 073e 2da3 fd3c 7ca0 1f3c ae4a 2f3d
00000140: a301 28bd 73ae 543d 4c6f 93bc 9751 d93b
00000150: 90af 42bd 3c0e 3dbd be6e 2bbb 263a c43c
00000160: d558 073d 656c 0dbd 18b3 81bd eb1f 5abc
00000170: d5d8 71bd 341b 74bd 9192 4fbc d1be 4ebc
00000180: 870f c6bd 05d8 0abe a316 dbbd e9cb a7bd
00000190: a8f4 3ebc debb 90bd d579 463c 99ad e0bd
000001a0: a457 0dbe c52c c2bd fedf a0bd 75d5 47bc
000001b0: 300c 84bd 22bc 5cbd 250e b3bc f319 afbc
000001c0: 4db1 673c a88f 043d 5b6f 273d 4400 27bc
000001d0: f06f 8c3c 4ee7 99bd 7cf9 bbbd 7747 e93c
000001e0: 1d07 ec3c 3cb7 8ebd 61c1 c5b9 fb6c 11bc
000001f0: 1fe2 4ebc 2fe6 803d a00d 163d 141a a9bd
00000200: 5edb eebd d547 0cbe 7fb2 eb3a fa5f 3b3d
00000210: 14dc 2a3d b800 84bd 58e5 23bd afd7 61bd
00000220: b321 debc 76c0 c0bc 8e23 afbb 4823 97bd
00000230: dd40 8b3d 099d a93d 5989 483d 282b b43d
00000240: 77c4 a23c f2f4 afbd 6144 873d 7012 cb3c
00000250: b61b b9bd 67da 083d 8c3e 233d 254f 883d
00000260: 29b4 39bc 75b7 79bd afc2 9dbd 160a 8bbd
00000270: 9d5c 20bd 66d2 a13d 097a f03d 7a3b b03d
00000280: 4885 0e3d a570 d33c 8cb7 853c adb4 18bd
00000290: b5b1 4b3c f4a3 563d e5b5 583c 37bd 4a3c
000002a0: 0f45 7fbd 67a1 ac3c 8b4c 9dbd decd 243c
000002b0: 8d6f 153d 7743 f0bc 02a7 d3bc 058b 06bd
000002c0: cfa9 233d f80e 9c3d 1e24 433d b5ad 4d3d
000002d0: e195 8ebc e752 41bc b15e 90bc 33ff 35bc
000002e0: 2c83 823c 25b6 7bbd 95be 86bd fd98 f73c
000002f0: 9d00 fbbc cafb 23bc ffd0 253d f84a 5b3d
00000300: f145 ad3c bfd1 a33c 96c6 9d3d 3f68 6bbd
00000310: 83cb bdbc b2e7 973d c034 913b d7a2 21bd
00000320: 1723 28bc b1c1 4bbd 0f53 65bd 12e1 79bb
00000330: 15c9 7d3d babc 55bd e816 88bc ada0 5abc
00000340: 3c42 6d3d 4d4d 3dbd 3da0 d4bc c8a9 b33c
00000350: 34bf 3ebd c518 3e3d 9b58 f4bc 8240 213b
00000360: 140c 68bd d39c fdbc ae0c 5b3d 68a5 b7bc
00000370: b9d6 613d aac8 0a3d 0cdf 043b 84f5 193d
00000380: 23df f5bc 37a4 433d 6441 e3bc a005 a9bd
00000390: f430 9d3d decf 83bc 1a85 943d 803f 02bc
000003a0: 9e3e 0d3d df20 60bd c492 6b3b 9d50 803d
000003b0: 3d59 593d 1704 44bd 37ec fe3b dabd 96bd
000003c0: 0b46 66bd 272b c63d 046b 933d d894 22bd
000003d0: 666a b7bd ad4e c1ba 7497 ccbc 19e8 453d
000003e0: a7b1 92bc b8e1 5f3b 72a0 0dbd 88ce 523d
000003f0: 9571 893c 23ad c03d ac7f b9bb 3754 a3bd
0.02450317 0.030652268 0.049342465 0.007567715 -0.08347503 0.022820156 -0.01993691 0.020977631
-0.041286416 0.037318572 -0.04518868 -0.006201142 -0.046999276 -0.06635233 0.015489304 0.058901265
0.056648165 0.032062136 -0.002424297 0.10229797 0.037057232 -0.041971065 -0.07544684 -0.049281172
-0.038183372 0.04139964 0.087927304 -0.0022241364 0.060798466 0.02744787 0.0064172284 -0.0082108425
0.008758305 -0.08180109 0.0042960113 -0.026621247 -0.04624071 0.058880374 -0.016267827 0.013428529
0.03814569 -0.01842526 -0.05778563 0.061046313 -0.06508133 0.04879756 -0.060356993 0.009161383
-0.053638723 0.043095313 -0.059124604 -0.038319647 -0.009441182 4.092677e-05 -0.020343231 0.021462584
-0.07354625 -0.05489681 -0.035644684 -0.046173863 0.04288515 0.05519371 0.022073068 0.08664984
0.092890665 -0.029804893 -0.006776597 0.024350585 -0.04367519 0.073257126 0.09696882 0.025218317
0.08773571 0.020704128 0.04626871 0.048307918 0.13207603 0.030961597 0.009742852 0.04279583
-0.041017186 0.05192418 -0.017997406 0.0066320407 -0.04753071 -0.046156153 -0.0026158537 0.023953509
0.0330437 -0.0345272 -0.063329875 -0.013313274 -0.059044678 -0.059596255 -0.0126692215 -0.012618736
-0.0967093 -0.13558967 -0.10697677 -0.0819319 -0.01165501 -0.07067083 0.012114008 -0.10970611
-0.13802963 -0.09481195 -0.07855223 -0.012196888 -0.06447637 -0.053890355 -0.02185733 -0.021374678
0.014141393 0.032363564 0.04087768 -0.010192934 0.01714322 -0.07514821 -0.09178445 0.02847646
0.028811986 -0.06968543 -0.00037718847 -0.008876081 -0.012627154 0.06293904 0.036634088 -0.08256927
-0.11662935 -0.13699277 0.0017982273 0.045745827 0.04171379 -0.064454496 -0.04001364 -0.055137333
-0.027115678 -0.023529273 -0.0053448146 -0.07379776 0.06799481 0.08281905 0.04895911 0.08797294
0.019869072 -0.085916415 0.06604839 0.024789065 -0.090384886 0.03341141 0.03985457 0.066557206
-0.011334457 -0.060965974 -0.077031486 -0.06789033 -0.039150823 0.079014584 0.11742026 0.08605094
0.034795076 0.025810549 0.016322874 -0.03728168 0.012432505 0.05240245 0.013226961 0.012374214
-0.06232172 0.021073056 -0.07680615 0.010058848 0.036483336 -0.029329045 -0.025836471 -0.032847423
0.039956864 0.076200426 0.047641866 0.050214488 -0.017405452 -0.011799551 -0.017623277 -0.0111082075
0.015931688 -0.061453003 -0.065793194 0.030224318 -0.03063994 -0.010008762 0.040482517 0.053538293
0.021151515 0.019997476 0.07703893 -0.057472464 -0.023168331 0.07417239 0.004431337 -0.039461937
-0.010262272 -0.049745265 -0.055987414 -0.0038128537 0.061959345 -0.052181937 -0.016612485 -0.013343972
0.057924494 -0.046216298 -0.025955314 0.021931544 -0.046569064 0.04641034 -0.029827407 0.00246051
-0.056652144 -0.030958569 0.05347889 -0.022417739 0.055136416 0.033882774 0.0020274548 0.037587658
-0.030013626 0.04776403 -0.027741142 -0.08253026 0.07675353 -0.01609033 0.072519496 -0.00794971
0.034483545 -0.05471885 0.0035945633 0.06265376 0.05306362 -0.047855463 0.007779624 -0.0736043
-0.056219142 0.096761994 0.07198146 -0.03969273 -0.08955841 -0.0014748179 -0.024974562 0.04831705
-0.017906977 0.0034161638 -0.03457684 0.051466495 0.016777793 0.09408023 -0.0056609716 -0.07975047

bias f4 [50]
00000000: 5bae a13e ea9a 2d3d 5516 963b 8574 2dbd
00000010: b62b 343e 202e b73b 85de bf3e 3229 dbbd
00000020: 9958 463e 8712 c9bd 84ad 823e 7101 ac3e
00000030: aa67 033f 36d1 ecbd fd33 7b3c aa46 47bc
00000040: 2ac3 91bd 1b8b f63d f382 d13d c5a2 ffbd
00000050: 4aa0 ca3d eefe 5c3e 85ac 7bbd a2eb ce3e
00000060: 0826 cdbd 3398 2b3e 8c04 be3b 5fb4 d5bd
00000070: 4484 fb3d 9a4b c33d 232c 823e f6bf cf3d
00000080: f27a 673e 93e0 6f3e 53c3 c33e 75b7 2eba
00000090: 1a40 e03e 1f2d 873d dc05 9cbb a811 7dbd
000000a0: b43a 7abe cc3e 2dbc 3bdc b3be 199d 553e
000000b0: c96b 50bc 6166 4f3c 7cd3 d5bc 548a cb3c
000000c0: 7f9d 163e 425d 853e
0.31578335 0.042384066 0.004580299 -0.04234745 0.175948 0.0055902153 0.37474456 -0.10701217
0.19369735 -0.09817987 0.25523007 0.3359485 0.51330054 -0.11563341 0.015332219 -0.012162844
-0.07117303 0.12038251 0.10230055 -0.12482218 0.09893854 0.21581623 -0.061443824 0.4041415
-0.100170195 0.16757278 0.005798882 -0.10434794 0.12281087 0.09535904 0.254243 0.101440355
0.22605494 0.23425512 0.38234958 -0.00066649105 0.43798906 0.06600403 -0.0047614407 -0.061784416
-0.24436456 -0.010574054 -0.3512896 0.20860709 -0.0127210105 0.012658686 -0.02610182 0.024846233
0.14708517 0.26047713

weight f4 [50, 50]
00000000: 018b e1bd c9a2 df3c 45b1 093e 1fc9 f8bd
00000010: 1053 cebc 886f 3a3c a9c3 c3bb 6302 563d
00000020: 0393 92bd 470f f8bd f2f6 b7bc 9f93 3dbd
00000030: e449 553d 9444 873c fa62 91bd 3ca7 ebbb
00000040: 05f2 b33d 31eb d23c 97bf 943d 853c b53d
00000050: 2027 a6bd 9176 013e 0379 633d c4e4 233c
00000060: 4459 373d 3048 693d fbbd 563d a348 42bd
00000070: 8f7b d9bd c24e 08be d83f 2f3e bd6d ddbd
00000080: 7816 c43d 7862 263d 347a 403e 68cb a73e
00000090: e405 1fbe 9ea3 3c3e 4396 b83e 1958 b63d
000000a0: 72dd d33c 14c6 953e f24c 763d 3e6c 8cbc
000000b0: 06f6 91bc 7264 363e bead 85bd 3afa 8ebd
000000c0: bc85 4fbd 05c7 493d 090f 84bc de2f 64bc
000000d0: f791 27bd d1ae c3bd 7a3d debd 37db 4bbe
000000e0: 27a3 76bd b3fa 05bd b937 63bd 4c6b a13d
000000f0: 4139 d5ba fbb8 6d3d cf50 0ebe a578 afbd
00000100: 0727 9cbd 9bf5 6ebe 1928 93bd 3df5 d63d
00000110: cf13 123e fc2d 27bd c219 b53c e617 df3d
00000120: 21f3 bebc 33fb 0dbd cf87 87bd 9352 323e
00000130: ff2a 113e 6390 0e3d 40b2 923e 4583 59bd
00000140: 914e 413e 9cba 103e 48b2 253b 98fe 043e
00000150: bc22 eb3d 0738 063e 7c46 b5bd 87eb 9cbd
00000160: 23f6 073e 6bca f3bd 4678 853d c5a6 4f3e
00000170: 2184 dc3d da2a 4f3e fdf0 7f3d 0d12 2d3d
00000180: 1d04 0abe 6c5e 053e 4d1f f03d 24ca f43d
00000190: e85b a33d df40 7c3d 656d 9ebd 6dcc 39bd
000001a0: c3a6 873d 8e0e 24bd 5eb4 983d a722 043e
000001b0: f3d0 453e c482 1a3a fe2b cabc 120c 863e
000001c0: bde0 213e 5a39 d33d 0005 0abe e576 a63e
000001d0: becd 55be 308d 4dbe 6f62 c8bd b5d2 61be
000001e0: 42ff 683d 5fda f43d 5da8 8a3d ea4c 463e
000001f0: 369a 84be 7daf 08be 317a 933c eb36 a3bd
00000200: de16 223e 1ba4 d9bd 0853 0c3c 2783 30be
00000210: 04a1 b5bd 5be3 7a3e 0fe1 103d b1f5 493e
00000220: 59d8 74bd 1122 19be eea0 553d 5e76 1a3d
00000230: c7f8 4dbe f9ca 563d 62b0 debd 73dc 973d
00000240: f47f 7c3d 8efa aabc d526 263e 197a 14be
00000250: 46fa 1a3e 654c 603d 77ff 6f3e 8a54 1e3e
00000260: 4223 c73d 2232 99bc 5f2b eebd 4c05 fcbd
00000270: d4d6 083d 57fa f1bd 9a7e 383e babe c1bd
00000280: 2f7a f7bd f931 993c aca1 7c3e afe0 ed3d
00000290: 2bac 983d 48fc 62be d67a 0d3e 9f5d 303c
000002a0: ce5c 9c3d 1791 8cbd ef37 173e 73c4 1b3e
000002b0: ca67 683d c684 bc3c 628b 2d3d 54ef d8bd
000002c0: 2ac7 31be 2381 b7bd 333d 223c fcaf 90be
000002d0: a903 8b3e 6233 183e e135 4fbd ae29 6a3e
000002e0: cd1d 5c3e 635f f93d 6de1 07bd ee4b 5abd
000002f0: 3540 063e bc1c 273e 6e9c 013e 982a 5ebd
00000300: dba9 193e cce2 f63c 873a 27bc 7448 32be
00000310: ed5c e33d d168 ecba b615 713d 46d1 b3bd
00000320: 34f0 1dbe 1692 053e 8d8b 163e 3642 2dbe
00000330: fc71 df3d d1a7 263e 5605 053e 524e 4abd
00000340: 128c 25be 2f73 aebd f485 dfbb 6c44 3d3d
00000350: 7117 dd3d 66d6 053e 6743 693d 9b47 aabc
00000360: a0ab a7bd 5840 a73d 9ea6 53bd f16a 11bc
00000370: 61e9 223d ace5 24be a450 46be 7fd1 ad3d
00000380: 9914 cabd cb4d 623d 6917 253e b220 863a
00000390: 1a4b 31be 1a6f d7bd eb02 1b3e 93f5 1f3e
000003a0: 99b2 febd 6cf2 d13d d36a 293d edc2 40be
000003b0: 0e00 063c 562b c63d 98a9 e8be 6cd9 5cbe
000003c0: c669 6bbb 06d3 b8be 496b 4f3d 11f1 cebd
000003d0: 5943 c0bd e500 31be 517d fe3d 87a9 c03c
000003e0: 3a74 e83b a2b3 3cbd 5a84 073e 8c60 3abd
000003f0: 5866 74bc fd11 2dbe df25 583e 37f5 ef3d
-0.11012841 0.027299302 0.13446529 -0.12147736 -0.025186092 0.01137913 -0.0059742522 0.05224837
-0.071569465 -0.12112289 -0.02245662 -0.04628336 0.05207242 0.016512193 -0.070989564 -0.0071915668
0.08786396 0.025746914 0.07263105 0.08849434 -0.08112931 0.12642886 0.055535328 0.010003272
0.044762865 0.05695361 0.052427273 -0.047432553 -0.1061927 -0.13311294 0.17114198 -0.108119465
0.09574598 0.04062125 0.18796617 0.32772374 -0.15529591 0.1842179 0.3605214 0.08903522
0.02586243 0.29252684 0.060131975 -0.017141458 -0.017817508 0.17811754 -0.06527279 -0.06981321
-0.05066465 0.049262065 -0.01612045 -0.013927428 -0.040910687 -0.09554828 -0.108515695 -0.19907843
-0.060214188 -0.03270979 -0.055473063 0.078817934 -0.0016267673 0.05803774 -0.13898014 -0.08567933
-0.076246314 -0.23335879 -0.071853824 0.10495994 0.14265369 -0.04081534 0.022107009 0.1089323
-0.023309292 -0.03466339 -0.066177 0.17414312 0.14176558 0.034805667 0.2865162 -0.053103704
0.18877627 0.14133686 0.0025283266 0.12987745 0.114812344 0.1310731 -0.088513345 -0.07662111
0.13277487 -0.119038425 0.06517081 0.20278461 0.10767389 0.2023119 0.062485684 0.042253543
-0.13478132 0.130243 0.1172472 0.11952618 0.07976514 0.061585303 -0.07735709 -0.04536097
0.06623604 -0.040052943 0.07456277 0.12903844 0.19317989 0.00058941194 -0.02467918 0.26181084
0.15808387 0.10313673 -0.1347847 0.32512584 -0.20879266 -0.2007339 -0.097844 -0.22053035
0.056884058 0.119557135 0.06770394 0.19365278 -0.25898904 -0.13348193 0.018002601 -0.07969459
0.15829036 -0.10627004 0.008564718 -0.1723753 -0.08868602 0.24500792 0.035370883 0.1972263
-0.059776638 -0.14954402 0.052155428 0.03771054 -0.20114432 0.052439664 -0.10873486 0.07415094
0.061645463 -0.020871427 0.1622575 -0.14499702 0.15134534 0.054760356 0.23437296 0.15461937
0.09723522 -0.018700663 -0.11629366 -0.12305698 0.033408 -0.11815327 0.18017045 -0.09460206
-0.120838515 0.018700587 0.24671048 0.116151206 0.074547134 -0.2216655 0.1381639 0.0107645085
0.076348886 -0.06863611 0.1476743 0.15211658 0.056739606 0.02301253 0.042369254 -0.10592523
-0.17361131 -0.08960178 0.009902286 -0.28259265 0.2715123 0.14863351 -0.050588492 0.22867462
0.21495743 0.12176397 -0.033173967 -0.05329507 0.1311043 0.16319555 0.1265733 -0.05423984
0.15006201 0.030137442 -0.010206825 -0.17410451 0.111017086 -0.0018036609 0.058858596 -0.0878015
-0.15423661 0.13044009 0.14701672 -0.16919789 0.10910413 0.16274954 0.12990317 -0.0493911
-0.16166714 -0.08518063 -0.0068213884 0.04620783 0.10795487 0.13070068 0.056949046 -0.020786097
-0.08187032 0.081665695 -0.05167257 -0.0088755945 0.03977335 -0.16103238 -0.193667 0.08487224
-0.0986721 0.05524997 0.16122212 0.0010233133 -0.17313805 -0.10519238 0.15137832 0.15621023
-0.124364085 0.102513164 0.04136164 -0.18824358 0.008178724 0.096762344 -0.4544189 -0.21567315
-0.00359212 -0.36098498 0.050639424 -0.101045735 -0.093878455 -0.17285497 0.12426246 0.023518337
0.0070939334 -0.04606975 0.13234082 -0.04550223 -0.014916979 -0.16901393 0.21108197 0.11716693

bias f4 [50]
00000000: d4e2 7f3e 6931 843e 46fe b03e 8368 20be
00000010: 4d90 b23e e01e f93c 30cf 923d 9ebf 56be
00000020: 746e d93e b231 4a3e 0977 b43e bdb7 0a3d
00000030: c9c4 22be 39e8 21be 93f8 38be eb86 ee3e
00000040: 4f07 a33e 5737 8a3e 3c19 b53e 280d bd3e
00000050: ddec 46bd b07d 5a3d 82e1 7a3d 4e0e 893e
00000060: 7334 c53e 03b0 9f3c ffbb 3bbc 1611 87be
00000070: 5e9e 8dbe 2fe4 e3bd 393e b4be 71d1 b33e
00000080: 485f cf3e fedf 1cbc f3ca dd3e 5e5e 61be
00000090: 58cd e3bc 908f 553e 7e53 9a3e 4cdf 0e3e
000000a0: 3887 853e e074 3bbe 3520 6d3d 0d00 debd
000000b0: f5e9 16ba fcb4 ffbe a57c ab3c 2bc4 b43e
000000c0: 190b 963e 991b 233e
0.24988872 0.25818947 0.34568995 -0.15664868 0.34875718 0.03041023 0.07168424 -0.20971534
0.42467082 0.1974552 0.35247067 0.033866633 -0.1589538 -0.15811242 -0.18063574 0.4658731
0.31841514 0.26995346 0.35370815 0.369241 -0.048565734 0.05334252 0.061250217 0.26768726
0.38516578 0.019493109 -0.011458396 -0.26380223 -0.27659887 -0.11127507 -0.35203722 0.3512073
0.4050238 -0.009574888 0.433189 -0.22008654 -0.027807876 0.20855546 0.30141824 0.13952368
0.26079726 -0.18306303 0.057892043 -0.108398534 -0.0005756908 -0.49942768 0.020933459 0.35305914
0.29305342 0.15928496

weight f4 [11, 50]
00000000: 2da9 77bd 03c6 b0bc 376e 9b3e 6e35 273d
00000010: ee74 b0bd 4362 d9bc cf04 863d e329 483e
00000020: 3496 0abe 23f0 aab9 700a 123d c5aa 0d3e
00000030: a5e2 733d 441e 243e a6fe 1a3e 608e 29be
00000040: 77f3 813d 68e9 60be 905d 06be 51db a6b9
00000050: 28a0 9d3d 5b2c e33d 3719 01bf 321d e73d
00000060: 9ccc cabd f1f2 58be 8238 933d c487 29bd
00000070: 38ed dd3d d67a d73d ab06 f53c fa91 a0bd
00000080: a9ce b4be 031b 50be f57b ac3e 707d fb3d
00000090: 9b60 173e b074 16be c1ca 563d 3e0a 36bd
000000a0: deb2 00bd f3d9 083e 0994 a03c 6829 d6bd
000000b0: 3fe3 14be 7740 f0bc cdc2 d8bd 3cc0 3c3c
000000c0: a5de 1d3e 7579 8ebd 28ed 913d 90cd a93d
000000d0: d29f 913e 2333 6ebd 73a1 a6bd a908 80bd
000000e0: 6ccf c23d 8274 a53c 0834 8cbd 4b30 51bc
000000f0: 3f16 b13c 25de ca3d 6d1f 00bd bc04 dcbc
00000100: 215f 6e3d 838a 3fbe 2b4b 803d 319a 4cbd
00000110: 85d5 d13d 5667 8f3e 01d0 7dbc 6aad 04bd
00000120: bd8b 99be b39e 79be 0583 81be 6932 5fbe
00000130: 9f6f c73c 1348 1e3e 8b8a 0abe 61ae e1bb
00000140: da66 163e 5f71 323c 8351 69be 1d19 97bd
00000150: 0059 43be 5376 35be 34a7 d43e 0762 1f3d
00000160: 04ed 4e3e ea4a e9bc 1a5d 4c38 a1f7 11be
00000170: b112 8fbd c7e1 03be 32ac 613c 6758 643d
00000180: 9c97 f93d 7b4b dd3d 2528 c73d b179 133d
00000190: 797c 953d 3aa3 d23d 7803 123d c010 babb
000001a0: 7a17 1bbe faf1 1a3e e461 8f3c df3f 973e
000001b0: ca58 84bd 3e8d 41be ef6d 973e 13ce f0bc
000001c0: 588d f9bd 4727 ab3d 04a9 e23d 8dbe 3b3e
000001d0: d237 f4bd aec3 5c3d 3447 14be f252 0b3d
000001e0: 15b7 86bd fcb8 f7bd fb13 f83e c72e 913e
000001f0: 13fd c83e c9b5 6b3d 1a17 9c3d 116c 47bd
00000200: 224e 033e 0e3e cb3c 3447 b03d 6931 6bbd
00000210: b735 a53e 9d12 d4bd 6654 953e 865f 1d3e
00000220: 2820 c5bc 584f 2fbe 1837 2dbe d1da e93d
00000230: 9768 08be 7d19 0a3f f6f7 acbd 95b8 fbba
00000240: fbc3 41be e968 383e b808 07be 02d1 e33c
00000250: 95a1 943d 1e1b d2bd 5716 1abe a30e 15be
00000260: b67a 7bbd 1131 eebc 10e8 5ebb 5fc6 5e3e
00000270: 007b c83d aeea 4ebe 5189 bbbd c93d f6bd
00000280: cdbd 453e 2a8e dbbd 8588 dabc f587 c6bd
00000290: 1cc2 9d3d 86db 9b3d 2aa8 ab3d 4120 3b3e
000002a0: fac1 323d dec8 5fbe 2282 babd ab9d f13d
000002b0: 33a6 4bbb 4f00 a5be 932d 19be 90a8 92bd
000002c0: b97e 60bd eb5a a73c 699f 6c3c 0b7f eb3d
000002d0: d358 11be 8bd4 df3d 6be0 d9be 98a3 183c
000002e0: f54c 90be 7e33 a13d d572 1a3e 8ad4 3ebe
000002f0: 074d d8be b2b8 5e3d d989 243d e2d0 873e
00000300: acd0 2f3e df76 b7bd 961c 55bd 6144 633d
00000310: 0849 263e 09b5 e93d 120b 343d 0681 023e
00000320: 12d2 59bc 28b8 a53c ec2c 19bd 598c 57bd
00000330: f821 3b3e 086f 983e d573 ec3e d49a e0be
00000340: ecfe 823c c4d7 99bd 2329 9bbd 0ad0 ce3d
00000350: 77b2 da3c c8f0 bfbd 2c04 1ebe 1b4c ffbc
00000360: c3d5 13be e745 39bc 68f7 41bd f3de 68be
00000370: 92df 98bb 66ae e2bd a383 09be a299 3fbe
00000380: b632 483d bcd2 2f3c eb16 203e 7a5b adbd
00000390: 6af2 cc3d f91a 023e 1bb4 cfbd 7af7 d9bd
000003a0: 7a4e 583e 7a59 353c 14e2 bcbe f77a 2ebe
000003b0: 3771 943e dd6d 18be d64f 04bf 6cb4 0cbe
000003c0: 5316 483e 3b43 153e 5d92 c03e 2359 bdbd
000003d0: 45e6 143e 74eb 243d b8dd 643c 1b82 e4bd
000003e0: d83c ac3e aec8 423e 1fac b1bd d2fe f1bc
000003f0: 22c8 f93d 7f6d b53e 389c 54be f3c1 993d
-0.060464073 -0.021578794 0.30357525 0.04082244 -0.086160526 -0.026536113 0.06543886 0.19547229
-0.1353386 -0.00032603843 0.035654485 0.13834675 0.059542317 0.1602717 0.15136203 -0.16558218
0.06345265 -0.21964037 -0.13121629 -0.0003182539 0.07696563 0.110924445 -0.504291 0.112848654
-0.099023074 -0.21186425 0.071885124 -0.04138924 0.108362615 0.10521476 0.029910406 -0.07840343
-0.3531392 -0.20322804 0.33688322 0.12279785 0.14782946 -0.1469295 0.052439455 -0.04444336
-0.03142058 0.13364391 0.019601839 -0.10457116 -0.14539813 -0.029327614 -0.1058403 0.011520442
0.15416963 -0.0695676 0.07125312 0.08291161 0.28442246 -0.058154237 -0.08136263 -0.06251652
0.09512219 0.020197157 -0.06845862 -0.012767862 0.021617053 0.09905652 -0.03127997 -0.026857726
0.05819619 -0.18705182 0.06264337 -0.049951736 0.10245804 0.28008527 -0.0154914865 -0.032391943
-0.29989424 -0.24376945 -0.25295272 -0.21796574 0.024345217 0.15457182 -0.13529412 -0.0068872427
0.14687672 0.010891288 -0.22785 -0.07377837 -0.1907692 -0.17720918 0.41533816 0.038911846
0.20207602 -0.028478105 4.8724098e-05 -0.14254619 -0.06985987 -0.12879096 0.013773965 0.05574837
0.1218712 0.108054124 0.09724454 0.036004726 0.07299132 0.10285039 0.03564784 -0.0056782663
-0.15145674 0.15131369 0.017502733 0.29540917 -0.06462248 -0.18901536 0.2957606 -0.029395139
-0.12185162 0.08357101 0.110673934 0.18334408 -0.119247094 0.053897552 -0.14480287 0.03401465
-0.06577889 -0.1209583 0.48452744 0.28356 0.3925558 0.05754641 0.07621594 -0.048687045
0.12822774 0.024809863 0.08607331 -0.057420168 0.32267544 -0.10355113 0.29165953 0.1536847
-0.024063185 -0.17120111 -0.16915548 0.11418689 -0.13321148 0.5394514 -0.08445732 -0.001920479
-0.18922417 0.1800877 -0.1318692 0.027809624 0.07257382 -0.102590784 -0.15047584 -0.14556365
-0.061396323 -0.029076131 -0.0034012832 0.2175536 0.097890854 -0.2020671 -0.091570504 -0.12023503
0.19310685 -0.10720475 -0.026676426 -0.096939005 0.07703039 0.0761023 0.08381684 0.18274023
0.04364202 -0.21853969 -0.09106852 0.11797651 -0.0031074404 -0.32226798 -0.14958791 -0.07161057
-0.054808352 0.020429095 0.014442303 0.11498841 -0.1419404 0.10929211 -0.4255403 0.009316348
-0.28183714 0.078711495 0.15082867 -0.18635765 -0.42246267 0.054375358 0.040170524 0.26526552
0.17169446 -0.0895822 -0.052029215 0.055485133 0.16238797 0.11411483 0.04395587 0.12744531
-0.013294714 0.020229414 -0.037396356 -0.05262408 0.18274677 0.2977221 0.46182123 -0.43868124
0.015990697 -0.07511857 -0.075762056 0.10098274 0.026696427 -0.09372097 -0.15431279 -0.03116422
-0.14437012 -0.01130817 -0.047355086 -0.22741298 -0.0046653235 -0.1106842 -0.13429122 -0.1871095
0.048876487 0.010731395 0.15633743 -0.084647134 0.10007174 0.12705602 -0.10141774 -0.106429055
0.21123686 0.011068696 -0.36891234 -0.17039095 0.28992626 -0.1488566 -0.5168432 -0.137407
0.19539766 0.14576428 0.37611666 -0.09245517 0.14540966 0.040263608 0.0139688775 -0.11157628
0.3364017 0.19021866 -0.086754076 -0.029540453 0.121963754 0.354351 -0.20762718 0.07507696

bias f4 [11]
00000000: c8be 4bbe a3cf c03c 2068 88be 5bb5 43be
00000010: dc99 db3d 3784 75be d09f 2dbe 360b 49be
00000020: 0003 dcbe a87d 8fbd 1d3c 85be
-0.19896996 0.023536509 -0.2664194 -0.1911215 0.10722706 -0.23976217 -0.16955495 -0.19633183
-0.4297104 -0.07006389 -0.26022425
