trainingOnSyntheticData/results/20230802_174223_debug/model_training_set_size_1000_hidden_neurons_50_n_batches_5.pt (torch, 56559 bytes, 6 tensors)

weight f4 [50, 200]
000000 ff ea 81 3d f8 43 fb bd 9e 08 01 be f1 c0 61 3d
       0.0634365 -0.122688234 -0.12600943 0.055115644
000010 b9 8c 32 be 0e 6a 8d 3d 84 0d e0 bd 5f 2c 0b be
       -0.17436494 0.06904994 -0.10940078 -0.13591145
000020 13 dd 0e bd 4b 2f 69 bd 9c cd 4b be dd ff fa bd
       -0.0348788 -0.056929868 -0.19902653 -0.12255833
000030 72 f1 09 be a6 09 0d be 16 3d 9f 3d 0b 42 22 bd
       -0.1347101 -0.13773212 0.07775323 -0.039613765
000040 70 20 19 be 96 c7 be bd c4 60 c9 bd b8 94 e7 bd
       -0.1495378 -0.09315412 -0.0983291 -0.11307663
000050 63 bc fd bd 6b 0c 48 bd cf 8a 96 bd f9 b6 38 be
       -0.123894475 -0.048839968 -0.073506944 -0.18038549
000060 9e 55 a8 bd 48 44 b8 bd 09 a8 b8 bc d7 7c 73 bd
       -0.08219455 -0.089973986 -0.022541063 -0.05944523
000070 18 4a eb bd b2 10 8d bd 2e f2 9b bd e6 1b 66 3d
       -0.11488742 -0.0688795 -0.076145515 0.05617895
000080 4d 71 d7 bd 99 04 7f be 73 35 7d be 46 48 a4 bd
       -0.10519657 -0.24904098 -0.2472742 -0.080215976
000090 c6 91 9f 3d 81 43 27 bc d6 79 0b 3d 21 78 30 3d
       0.07791476 -0.010208965 0.03405174 0.043083314
0000a0 28 df d9 3d 7e 7a 06 be 18 22 21 3d e7 a6 e8 ba
       0.10638267 -0.13132665 0.039339155 -0.0017749936
0000b0 0c 1c a8 3d df 66 a5 bc ff 77 05 3e 18 58 1f 3d
       0.082084745 -0.020190654 0.13034056 0.038902372
0000c0 16 ee 94 bc ab b3 1b 3d d1 22 d8 3c 5e 5e e2 3d
       -0.018179934 0.03801314 0.02638379 0.11053155
0000d0 c3 f7 47 3d 1a 38 ad 3d e7 89 c2 3d 39 ca 2b bb
       0.04882027 0.08457966 0.09498959 -0.0026213063
0000e0 24 ec b1 3d 30 77 97 bd 1c 84 25 bd b7 d4 0a be
       0.086876184 -0.0739578 -0.040409192 -0.13557707
0000f0 aa 69 08 bd 8f 99 9a bb 1b 83 c1 bd b5 84 16 bd
       -0.033303894 -0.0047180126 -0.094488345 -0.036747653
000100 ff cf ff bc b3 9c 03 bd 7b 26 0f 3a 26 0d c2 bc
       -0.03122711 -0.032131862 0.0005460751 -0.02368791
000110 98 1d da bc 59 0b 8a bd de d0 3f bd b8 e1 65 bc
       -0.02662544 -0.06740446 -0.04683005 -0.014030866
000120 f6 0f 9a bc 70 c7 31 3d 7a 57 e4 bd f4 f0 a1 bc
       -0.018806439 0.04340309 -0.11149497 -0.019768216
000130 07 7e 01 be 37 27 b1 ba a8 9e b3 bd 9f 82 3a bd
       -0.12645732 -0.0013515715 -0.08770496 -0.045534726
000140 a6 27 37 bd 28 88 2d bd bb 22 35 3d b3 6c 2d bd
       -0.044715546 -0.042366177 0.044222575 -0.04233999
000150 2e 48 37 bd 21 33 1d 3d 18 a4 4d bd 38 80 26 bd
       -0.04474657 0.03837884 -0.05020532 -0.040649623
000160 aa 54 f7 bb ee 50 8c 3c 4d b0 05 3d 96 50 1d bc
       -0.0075479345 0.017128434 0.032638837 -0.009601733
000170 98 7b 95 bd 4c 64 8b bd 05 49 94 bd 77 5f 21 3d
       -0.07298964 -0.068062395 -0.0724049 0.039397683
000180 0e 49 f5 3c 50 f3 83 3d e7 63 be 3d 16 0c b3 3d
       0.029942062 0.064428926 0.092963986 0.087425396
000190 4a 08 dc 3d 26 00 99 3d 45 53 77 3d 67 de b0 3d
       0.107437685 0.074707314 0.060382146 0.0863617
0001a0 d8 d8 34 bd 8b 71 93 bc 43 be 39 3b 9d 65 3b bc
       -0.04415211 -0.017998477 0.0028342165 -0.011437801
0001b0 c6 0b 62 3c f2 9d 09 bc d5 80 53 bc 37 84 e4 3b
       0.013796752 -0.0083994735 -0.012909134 0.006973769
0001c0 f5 c2 ea 3d c4 46 ff 3d ee d1 5a 3d 49 02 76 3d
       0.11462966 0.12464669 0.05342286 0.060060773
0001d0 f9 05 33 3d 66 be dd 3d 24 e3 8c bd b4 63 00 bd
       0.043706868 0.10827331 -0.06879261 -0.031345084
0001e0 1c 2d de 3c 9c 5b 81 3d 4b 1d 4b 3e d8 53 00 3e
       0.02712112 0.06316301 0.19835393 0.12531984
0001f0 8c 81 12 3e f8 17 8a 3d a3 52 d9 3d 05 32 ae bd
       0.1430723 0.06742853 0.10611465 -0.08505634
000200 44 45 a9 bd 0d a5 8d bc 70 ff c3 bd c6 33 61 3d
       -0.082651645 -0.017290616 -0.09570205 0.054981016
000210 1d 05 24 bc 3b 11 e2 3d 3b 74 3d 3d 85 b6 cb 3c
       -0.010010985 0.11038443 0.046253424 0.024867306
000220 d3 23 49 3b 65 e5 c3 3d 1d 0b de 3d c8 89 a2 bc
       0.003069152 0.09565238 0.108419634 -0.01984109
000230 b4 7f 0d bd 43 0e 89 bd ba c0 66 bc f6 49 e2 3a
       -0.034545615 -0.06692173 -0.0140840355 0.0017264474
000240 45 70 22 be df 0c 0b be 71 2e 3a bd f3 7e 9e bd
       -0.1586314 -0.13579129 -0.045454446 -0.077390574
000250 ca 91 91 bb b5 47 86 bd f2 45 2f 3d e8 f7 ae bd
       -0.0044424282 -0.06556646 0.042791314 -0.08543378
000260 52 41 01 be b0 55 47 be 52 c1 b0 bd be 4f 84 be
       -0.12622574 -0.19466281 -0.08630623 -0.25842088
000270 a4 f9 17 be 95 87 9a 3b f0 5f 55 3b c3 55 df bd
       -0.14841324 0.0047158697 0.0032558404 -0.109050296
000280 1c 29 50 be 2e 53 c2 bd dc d3 0e be fb b7 21 3c
       -0.20328182 -0.094885215 -0.13948005 0.0098705245
000290 ba b2 f0 3c d2 9b d2 3d 1e 80 73 3d 4a d3 5e 3d
       0.029382098 0.102836266 0.059448354 0.05440072
0002a0 59 9c a3 bd 91 f1 29 bd bf 28 24 bd 0c b8 41 be
       -0.07988805 -0.04149014 -0.04007792 -0.18917865
0002b0 1b 7b 09 be a9 0e 71 be a8 a3 3f be 9e ed 1b 3c
       -0.13425867 -0.23540749 -0.18714774 0.009517102
0002c0 6c 49 9a bd 50 08 9f bd 71 8d 81 be df 86 41 bd
       -0.07533535 -0.07765257 -0.25303224 -0.047247764
0002d0 e7 9f 34 3d 67 cb 96 3c c6 9f 88 3a 46 eb c7 bd
       0.044097807 0.018407537 0.0010423593 -0.09761672
0002e0 cd ba ef 3d c5 ff 86 3d 44 fc c3 bd 4c 5f 92 bd
       0.11705551 0.06591753 -0.095696 -0.07147083
0002f0 67 72 8b bc 24 fd 8d bc 17 1a 17 3d 9e 56 6b 3d
       -0.017022325 -0.01733262 0.036890116 0.05745565
000300 4a 88 e9 bd a9 ec 99 bc 26 4c 2a bd 47 5c 35 bd
       -0.11402948 -0.018789606 -0.041576527 -0.044277456
000310 2c c1 de 3d 7b b6 16 3e 62 0b 84 3c 52 bb d3 bc
       0.10876688 0.14718048 0.016118709 -0.025846157
000320 40 70 86 bc 6c e0 8e be 49 57 cd 3d f4 57 fd 3d
       -0.016410947 -0.27905595 0.10026414 0.12370291
000330 3d 65 9c bd 21 0e 10 bd 80 fb e2 3d 08 36 8b bc
       -0.07636497 -0.035169724 0.11083126 -0.016993538
000340 02 10 63 be a7 39 d6 bd 18 60 9f bd a3 14 b1 bd
       -0.22174075 -0.10460215 -0.07782 -0.08646514
000350 b7 0a 51 bb a2 19 b6 3c 4f a5 65 3c c6 63 01 bd
       -0.0031897256 0.02222902 0.014016463 -0.031589292
000360 67 9b 0f bd 11 67 75 be 65 8f 8f be 5d f1 88 bd
       -0.035060313 -0.23965098 -0.2803909 -0.066866614
000370 79 ea 97 bd d3 6d 6c bd 63 74 41 3d 12 b8 b7 3c
       -0.07417769 -0.057721924 0.047230136 0.022426639
000380 f7 0a 27 3d da bf 05 3d 2e 44 34 3d 2a 60 cb 3c
       0.04078194 0.032653667 0.044010334 0.024826128
000390 a6 c8 bd bb 56 78 e8 3d 79 09 05 3e 8b 73 e7 3d
       -0.0057917414 0.11351077 0.12991895 0.11301335
0003a0 71 c7 ec bc d2 74 36 3c 8a c2 74 bd 7e dc 69 bd
       -0.028903695 0.011136251 -0.05975584 -0.057095043
0003b0 06 67 5f bd d2 e4 05 3d d6 f9 30 3e 28 6d 55 3d
       -0.05454161 0.032688923 0.17282805 0.052106053
0003c0 67 82 1f be 18 eb 38 3d 3d 4a 14 bb 10 ea 8e bd
       -0.15577088 0.045146078 -0.0022627257 -0.06978238
0003d0 71 e0 95 3d 2b 01 9d bd a2 0a 5e bd 9c d1 9b bc
       0.073181994 -0.076662384 -0.05420936 -0.019020848
0003e0 d3 66 bd bc e3 14 ad bd 21 6d 92 bd 60 35 b6 3d
       -0.02312032 -0.084512495 -0.07149721 0.08896899
0003f0 0e de 2b 3e fc f7 b3 3d 1d 19 2d be 21 b9 11 be
       0.16783926 0.08787534 -0.16904111 -0.14230777

bias f4 [50]
000000 dd 0b 16 bd fa 12 bc 3d fa 17 82 bd 4f 6f cb 3e
       -0.036632407 0.09183307 -0.063522294 0.3973336
000010 23 d0 79 3e 6c b5 af 3e fc bf 6e 3e 71 20 8f 3e
       0.24395804 0.343181 0.23315424 0.27954438
000020 cc cf 66 3e c2 8d 6a 3e c6 cb c2 3d ee b2 b9 3d
       0.22540206 0.22905639 0.09511523 0.09067331
000030 19 5c 72 3e a3 25 8e 3e e2 5f 61 be 43 9b 05 3e
       0.23667945 0.2776309 -0.22009233 0.13047509
000040 19 6a 77 bc ca 02 74 3e 7e e5 ba 3e 84 08 6e 3e
       -0.015100979 0.23829189 0.36503214 0.23245436
000050 09 6c f3 bc 94 09 91 3e 7e 40 c2 3c 02 12 83 bc
       -0.029714601 0.2832762 0.023712393 -0.015999798
000060 1f 33 18 3e b4 53 b4 bd e8 26 09 be 48 20 20 bd
       0.14863251 -0.088050276 -0.13393748 -0.039093286
000070 90 d9 6f 3e a1 83 a4 bc 71 29 37 3e b0 8e 0e 3e
       0.23422837 -0.020082297 0.17886902 0.13921618
000080 10 c2 36 be 17 44 b3 3d 58 4f d5 3e c0 e3 1e 3e
       -0.17847466 0.087532215 0.41662097 0.15516567
000090 6f 36 3d 3e 76 69 79 3d 3f 9a 7c 3e 11 0c 8a 3e
       0.18477796 0.06089159 0.24668215 0.2696233
0000a0 f4 31 fa bd b5 b3 bf 3d 41 e9 19 3d 18 03 41 3e
       -0.12216559 0.09360448 0.037575964 0.18848836
0000b0 dc 25 1a 3a 7f 17 8f 3e ea 67 c3 3e 5c 93 81 3e
       0.0005880275 0.27947614 0.38165218 0.2530774
0000c0 3a 71 02 be 64 aa 89 bc
       -0.12738505 -0.016804881

weight f4 [50, 50]
000000 1f 67 c2 bc 61 ae ef 3d 19 7c 85 bc 45 f1 80 bd
       -0.023730813 0.11703182 -0.016294526 -0.062960185
000010 12 a4 89 3d 76 4d 8c 3d cd d4 35 3e e2 9a d2 3d
       0.06720747 0.06850712 0.17756958 0.10283448
000020 8d f6 3e 3d 42 90 96 3e e6 b2 95 bc a0 80 86 be
       0.046621848 0.29406935 -0.018273782 -0.26270008
000030 e5 45 a2 3d e8 44 42 be 72 aa b9 be a4 48 f8 bd
       0.079234876 -0.18971598 -0.36262852 -0.1212323
000040 29 f6 a6 3d e9 ad 66 3e 31 65 9a bc 1e 7c 24 3d
       0.0815242 0.22527279 -0.01884708 0.04015743
000050 85 ec 7c be 89 53 97 bd f0 ec b1 be 60 6c 02 3e
       -0.246996 -0.0738898 -0.3475108 0.12736654
000060 74 6d 81 3e 50 8b 23 bd c8 e5 b9 3d 1a 14 83 3d
       0.2527882 -0.03992778 0.090770304 0.064003184
000070 b4 ba 7c bc 08 2c 6b be c2 d3 80 3d fa e1 01 3e
       -0.015425373 -0.22966015 0.062903896 0.1268386
000080 db 14 dd bd 0a 4a 19 be 70 9e 78 3e 53 c3 8a 3e
       -0.107949935 -0.1496965 0.24279189 0.27102146
000090 c5 e9 3a be 7b 25 52 3d 85 06 35 3e 9f 51 01 be
       -0.18253238 0.051305275 0.17678268 -0.12628792
0000a0 a6 c3 a0 be 34 d5 4b 3e 6d a6 ad 3e 9e 5f a5 3d
       -0.31399268 0.1990555 0.33916035 0.08074878
0000b0 ce 01 4d be 1b 3f 42 3e bb 5d 3f 3e 24 e3 ca 3d
       -0.2002022 0.18969385 0.18688099 0.09906605
0000c0 bb eb 6c be eb 97 17 3e 58 77 60 be 73 54 56 3d
       -0.23136799 0.14804046 -0.21920526 0.05232663
0000d0 7a 5f a0 bd 2b 11 2b 3e 1a 4d 1b 3d 31 83 65 3d
       -0.07830711 0.16705768 0.037915327 0.056033317
0000e0 f4 21 c3 3c 09 8c 49 3e 54 7e 17 3e 02 53 28 3e
       0.023819901 0.19682325 0.14794284 0.16437915
0000f0 d1 b9 93 3e 45 6a e9 3b 29 14 e3 3d 95 e2 f5 3d
       0.28852704 0.007123264 0.110878296 0.12006108
000100 e5 19 54 bd f2 8b 4d 3d 27 e8 a4 bc dd f9 59 3e
       -0.051782507 0.05018229 -0.02013023 0.21286722
000110 5b 89 85 be b2 99 3d 3d bc df 9c bd 33 4f 25 3e
       -0.26081356 0.046289153 -0.076598614 0.16143493
000120 97 19 3d 3e 7d 50 60 bc 5d bb a5 3d b0 a2 78 be
       0.18466793 -0.013691065 0.08092377 -0.2428081
000130 f4 ae 78 be 47 f0 b5 be 79 e1 10 3e bb f3 01 3e
       -0.2428549 -0.3553488 0.14148511 0.12690632
000140 6f 40 34 3e b1 d8 47 3d a8 20 6b 3d 0c e2 35 be
       0.17602704 0.048790637 0.05740419 -0.17762011
000150 9d a1 75 be 4a f8 37 3d 31 45 df bd 24 8e 16 3d
       -0.23987432 0.04491452 -0.10901869 0.03675665
000160 d8 ba 43 3e 21 b7 d8 3e 6d 9d 04 3e ab 19 a2 3d
       0.19114244 0.42327216 0.12950678 0.07915052
000170 9c 04 93 3d d0 02 06 3e 83 33 05 bd 71 c9 79 3d
       0.071786135 0.1308701 -0.03251983 0.060983125
000180 6f c4 ff 3d 8e bd 67 be 40 10 14 3d 7c 4b 1d be
       0.124886386 -0.22630903 0.03614831 -0.15360826
000190 8f b4 0c be 7b d0 f3 bd 6a 5f 35 3c 67 3b 71 3d
       -0.13740753 -0.11904999 0.011070112 0.05889454
0001a0 f9 37 44 3e d3 b8 36 be 84 53 d7 3d be 2f 1d be
       0.19161977 -0.17843942 0.10513976 -0.15350243
0001b0 09 cb 96 bd 76 05 28 be bd f9 7e 3e ff d0 ff 3d
       -0.07362945 -0.16408333 0.24899955 0.12491035
0001c0 ed 6b 72 3e 70 ac 42 3e 74 2f a1 bd 82 c2 6c 3d
       0.23673983 0.19011092 -0.07870379 0.057802685
0001d0 f2 65 f0 3d 6e 6e 9a 3e 22 bc 90 be 73 85 0b 3e
       0.117381945 0.30162376 -0.28268534 0.13625126
0001e0 e5 99 95 3e c6 1c 3d be 07 1c 4a 3e 2c bd e8 3d
       0.29218975 -0.18468007 0.19737254 0.11364207
0001f0 9c 3d 88 3e e5 03 0f be e9 e8 c4 3e b3 77 aa 3e
       0.26609504 -0.1396633 0.38458946 0.33294448
000200 ff 1b d2 3e 80 67 f6 3d fc 56 95 3e 8c 86 c2 3e
       0.41036984 0.1203146 0.29167926 0.37993276
000210 e2 a4 96 3c e3 09 3f bb e1 7f 79 3b 0e ab 21 bd
       0.01838917 -0.002915018 0.0038070607 -0.03946977
000220 a2 93 96 be 47 bc 2d be a5 5d 01 3e 40 d6 a4 3e
       -0.2940951 -0.16966353 0.12633379 0.3219471
000230 32 f0 e3 3e 60 db 7f be 23 64 45 be e4 bb c2 3d
       0.44519192 -0.24986029 -0.1927648 0.095084935
000240 e3 91 a4 3d e2 94 c4 be d5 aa 75 3e b4 b6 44 be
       0.08035638 -0.3839484 0.23990948 -0.1921032
000250 41 93 f5 3d a8 89 7b bc fc d5 9e bb 4c f2 25 3c
       0.11990977 -0.015352644 -0.0048472863 0.010128569
000260 ae b9 10 be 75 a3 9a 3e 90 24 5f be 35 20 09 be
       -0.14133331 0.30202833 -0.21791291 -0.13391192
000270 ee ac 9b bd 9d c5 d5 3d b4 47 f6 bc a9 22 a0 3e
       -0.07601343 0.10438082 -0.030063488 0.31276444
000280 69 7f 1f be 0b 78 8f 3e 8b 64 6d 3e 5f a8 f4 3d
       -0.15575947 0.28021273 0.23182885 0.11946177
000290 cb 9e 2a 3e 73 c1 9e 3e 5e 95 26 3d fb 9d 6b be
       0.16662137 0.31006965 0.04066979 -0.23009484
0002a0 6e 28 88 3e fb ec 0a 3e 2d cf ad be 96 ea aa be
       0.26593345 0.13566963 -0.33947125 -0.333821
0002b0 84 d1 82 3e 8b 1a b2 3d b6 27 10 bd 12 cc 9d be
       0.25550473 0.08696469 -0.03519412 -0.30819756
0002c0 77 85 a3 bc 02 0e 5f be a5 39 39 3e d5 10 e4 3d
       -0.019961102 -0.21782687 0.18088396 0.11136023
0002d0 af 0f 86 bc c7 93 8d bd 31 21 9a 3d ac cc 88 3d
       -0.0163649 -0.06912952 0.07525862 0.06679663
0002e0 96 20 a2 be a0 f6 95 3d 5a a4 16 3e 2e d4 68 bd
       -0.31665486 0.073224306 0.14711133 -0.056842975
0002f0 ae 57 95 be 2a f2 07 3e b4 03 09 3e 8f c2 89 bd
       -0.29168457 0.13275972 0.13380319 -0.06726562
000300 8c 36 e7 bd 50 46 d9 3c 58 0b 80 be 27 a8 cd 3d
       -0.11289701 0.026522785 -0.25008655 0.10041838
000310 71 e7 cf be 9a 4c 05 be cb d7 bc 3d 8d 94 5b 3e
       -0.40606263 -0.13017502 0.09220847 0.21443386
000320 bb c4 d8 3d 86 7c a3 bd fd d0 4b 3c 71 00 28 3c
       0.10584398 -0.07982735 0.012439963 0.0102540115
000330 9f fe 91 be dc 1e bc bd 3b af 15 3d 28 ee 9c 3e
       -0.28514573 -0.091855735 0.036544066 0.3065045
000340 78 70 20 3e 0e ff 91 3e 3f fc bb bd 90 f0 69 3e
       0.15667903 0.28514904 -0.091789715 0.22845674
000350 41 64 ff 3c 80 9e c3 bd 2b 80 d9 3d d6 32 92 3e
       0.031175734 -0.09551716 0.10620149 0.2855441
000360 bf 88 92 3d 8f 0f 91 bd 51 74 02 3e d5 9a 0e 3e
       0.071549885 -0.07083046 0.12739684 0.13926251
000370 04 92 41 3e 27 9f 3a 3e 29 5b a3 bc eb 81 42 bd
       0.18903357 0.18224774 -0.01994093 -0.04748718
000380 12 72 f5 3d 39 58 63 3e 78 63 0b be 2d c7 23 be
       0.11984648 0.22201623 -0.13612163 -0.15993948
000390 34 23 0b be 3e 54 8e 3d 7e 84 67 be f5 0c 44 3e
       -0.13587648 0.06949662 -0.22609136 0.19145568
0003a0 6b cd 08 bd 10 56 2a 3e bb 72 a7 be 4c 04 0a 3d
       -0.033399027 0.16634393 -0.3270472 0.033695504
0003b0 20 99 89 bd 58 16 b3 bd 2f 38 cd bd 50 0a ab 3c
       -0.067186594 -0.08744496 -0.10020482 0.02087894
0003c0 c7 ff 69 be a6 58 4f 3e 2d 5c 3f 3e a9 36 5f 3d
       -0.22851478 0.2024866 0.18687506 0.054495487
0003d0 66 ec 70 3d 5f 98 f7 3d 23 42 00 be bf d1 7f 3d
       0.058819197 0.12089609 -0.12525229 0.06245589
0003e0 1d 83 95 be e4 37 91 be 6c bb d8 bb 79 84 93 3e
       -0.29201594 -0.28362954 -0.0066141393 0.28812006
0003f0 82 af 7a bc 0e 4a aa 3e b8 23 e6 3d af 69 af bb
       -0.015300633 0.33259624 0.112372816 -0.0053531746

bias f4 [50]
000000 f1 44 6b 3e 67 f1 da 3e a8 d8 3a 3e 5a db f7 3d
       0.22975518 0.427623 0.1824671 0.12102385
000010 5f 2b 61 3e 92 6b 6c be 21 9b 9a 3d a9 8d 84 3e
       0.21989201 -0.2308791 0.0754912 0.25889328
000020 6c dd 7c 3e 8b 79 97 3b 7b 8f 4d be 9d 93 fd bd
       0.2469384 0.0046226433 -0.20074265 -0.123816706
000030 4d 16 bd 3d 11 9c 28 3e ba dd 66 3d a7 b3 12 be
       0.09232769 0.16465785 0.0563638 -0.14326344
000040 ad 3e dc 3d c6 6e 90 3d 82 44 b0 3e d8 b3 a1 bd
       0.10754142 0.07052378 0.34427267 -0.078956306
000050 58 08 f0 3e c9 5a bf 3e c9 10 31 3e 56 89 60 3d
       0.46881366 0.3737395 0.1729156 0.054818474
000060 41 24 8c 3d cc 42 6d be e7 c8 f9 3d 55 bd 03 3e
       0.068428524 -0.23170012 0.12196522 0.12865193
000070 9b 83 fc 3d fc b5 ef 3d 1e 95 73 3e 41 e0 9e 3e
       0.12329789 0.11704633 0.23787352 0.31030467
000080 8a eb b4 3d 6c d7 8b 3d 9c b5 b4 be d9 ac a5 3e
       0.08833988 0.06828198 -0.35294807 0.32358435
000090 55 92 36 3d 61 71 39 be e0 e1 93 3e 9e aa c9 3e
       0.044573147 -0.18109657 0.28883266 0.39387983
0000a0 2a 29 1c bd 89 b5 3a be f3 7d 4b 3e d3 7f 9c 3e
       -0.038125195 -0.18233313 0.19872265 0.30566272
0000b0 29 26 49 bd c8 17 c6 bd 08 b2 96 3e e3 25 7f bd
       -0.049108658 -0.09672505 0.29432702 -0.06229199
0000c0 49 84 9d 3e 7c af 9b 3e
       0.30764988 0.3040732

weight f4 [13, 50]
000000 84 07 83 3e 7e 93 40 be 8f 6f de 3c 2c 4f fd 3d
       0.2559167 -0.18806264 0.027152805 0.123686165
000010 52 03 86 be 67 0a 44 3d 96 fc 6c ba 99 68 f3 bc
       -0.26174408 0.047861483 -0.0009040324 -0.029712962
000020 00 5c 0a bc ea c7 32 be 3c 42 02 3e 93 70 db bd
       -0.008444786 -0.17459074 0.12720579 -0.10714831
000030 12 c3 23 be 7c 1e d6 3c fd 80 f3 3d 18 fb ab 3e
       -0.15992382 0.026137583 0.11889837 0.33590007
000040 38 ca 4c 3d b9 63 41 be b6 4d 90 bd 63 b8 f9 bc
       0.04999754 -0.18885697 -0.07046072 -0.03048343
000050 fd f2 59 be 70 a4 f6 bd 79 8a 81 3d 1f 44 88 be
       -0.21284099 -0.12043083 0.0632524 -0.26614472
000060 b2 88 97 be 64 ef 5c 3e e1 0b e8 3d 51 55 79 3e
       -0.29596478 0.21575695 0.11330391 0.24348952
000070 9f ba 8c 3d b3 9f 4e be 30 8c bc 3e 47 a7 b8 be
       0.06871533 -0.20178108 0.36825705 -0.36065122
000080 e8 65 a5 bd ec 25 09 be ad 64 d3 3d 5e 19 36 bd
       -0.08076078 -0.13393372 0.10321937 -0.044457786
000090 07 7f 27 be 99 da 0f be b4 af 82 be 5b c6 21 3e
       -0.16357051 -0.14048232 -0.25524676 0.15798323
0000a0 8a a7 a7 3e 8d d2 9f 3d 57 49 c9 3d df d3 1b 3e
       0.3274501 0.07803831 0.098284416 0.15217541
0000b0 66 90 84 3e 5a b6 01 3e ce 94 4e be 7a 89 8f 3d
       0.25891417 0.12667218 -0.20173952 0.070086434
0000c0 df 47 af 3e f7 d1 ce 3e db 60 d2 3e 11 1e 9e be
       0.3423452 0.40394565 0.4108952 -0.30882314
0000d0 c0 e4 a6 be bc af 58 be b5 84 f9 bc 2f ea 56 be
       -0.32596397 -0.21160787 -0.030458787 -0.20987771
0000e0 a4 2d 94 3e 08 ea 63 3e 38 74 9d 3c 12 5f 1d bc
       0.2894107 0.22257245 0.019220456 -0.009605186
0000f0 1a 48 73 bd 5e 99 8f 3e 75 e1 38 bd af c9 45 be
       -0.059394933 0.28046697 -0.045136888 -0.19315217
000100 3e bd 37 be 99 ab 1c 3d bd 63 83 3e 50 06 8f 3d
       -0.17943284 0.038249586 0.25662032 0.06983626
000110 28 62 79 3e 39 bb 11 be 33 0f 10 be c9 04 ae bd
       0.2435385 -0.14231576 -0.14068298 -0.084970064
000120 ca 7d e5 3e 23 79 3b 3d 3f fd d4 bd 97 54 c3 3e
       0.44822532 0.04576982 -0.10399865 0.38150474
000130 f5 74 f1 3e 17 64 41 3e bc 5b f7 3d 5f 1a 8d be
       0.47159544 0.18885837 0.12078044 -0.27559182
000140 1d 8d 44 3c 72 5a ff 3d 61 de 0c be de fb 05 3e
       0.011996535 0.12468423 -0.13756706 0.13084361
000150 1b 76 93 be 92 55 70 3d a7 00 27 3e ad 4f 6f 3e
       -0.28801045 0.058675356 0.16308843 0.23370238
000160 a5 26 bc bc 5a fd 06 be 0c a5 b0 be c6 a5 9f bd
       -0.022967646 -0.13182583 -0.3450092 -0.07795291
000170 34 87 36 3d 53 33 7a 3e d6 b3 88 be dc e7 81 3e
       0.044562533 0.24433641 -0.26699704 0.25372207
000180 a2 26 74 be fa 12 94 be 4d cc 62 3e 6b fa 37 3e
       -0.23842862 -0.28920728 0.22148247 0.1796662
000190 03 f8 d7 bd 48 74 35 3e 06 a8 7c 3e de dc 42 3e
       -0.10545351 0.17720139 0.24673471 0.19029567
0001a0 7b be 3b be 51 b8 b8 3e ce 83 ee bd a1 88 56 be
       -0.18334381 0.36078122 -0.116462335 -0.20950557
0001b0 bc 9e 12 3e 77 6d 5f 3e 35 88 5d be e6 9e 89 3d
       0.14318365 0.21819101 -0.2163399 0.067197606
0001c0 3e 75 47 3e d4 bc 44 bd c3 9d 77 be 9f 1d 54 3e
       0.19478318 -0.048031643 -0.24181275 0.20714425
0001d0 0b 41 8e bd 3c d8 12 be 22 22 1c 3e d5 bb 19 be
       -0.06946 -0.143403 0.15247396 -0.15013058
0001e0 87 21 32 3e 60 bf 40 3d f1 c9 fd bd b3 65 04 3e
       0.17395602 0.04705751 -0.12392033 0.1292942
0001f0 39 29 2b 3e 14 0f 7f be ca c4 85 be 29 1b a2 3e
       0.16714944 -0.24908096 -0.261267 0.31661347
000200 d8 9a 85 be a2 43 0e be df 59 9c 3e 75 e0 aa be
       -0.260947 -0.13892987 0.30537316 -0.33374372
000210 02 4c 51 3e 6d 8f 54 be e1 9d 54 3e 81 eb b9 bd
       0.20439151 -0.20757838 0.20763351 -0.09078122
000220 50 8c 98 be 0d fd 83 be 9f 29 58 3d c0 22 96 bd
       -0.2979455 -0.25779 0.052774068 -0.07330847
000230 af 77 b7 3e 7b 10 26 be 5b b8 90 3e 0a a5 1b 3e
       0.358335 -0.16217224 0.28265652 0.15199676
000240 08 d3 36 be d1 77 02 be 04 eb 16 3e 6a 43 33 3e
       -0.1785394 -0.12741019 0.14738089 0.17506185
000250 1c 5b d9 3b 68 93 38 3e 53 ec 62 be 65 31 89 bd
       0.0066331755 0.18024981 -0.22160463 -0.066988744
000260 d9 27 1a be 5d 95 d6 3b cf 1e 3d 3c 71 1c 16 3e
       -0.15054263 0.006548567 0.01154299 0.14659287
000270 88 a9 6c 3d 5f 25 af be ba 45 b5 be 9f d8 a2 be
       0.057778865 -0.342082 -0.3540476 -0.31805894
000280 c9 bc 8e 3e e4 57 ae 3c 47 ca ab bd 96 0e 0d 3e
       0.27878407 0.021282144 -0.08388191 0.13775095
000290 2b c3 b9 3e 8c 1b 69 be 6c 3d b8 3d f6 5e 8e be
       0.36281714 -0.22764415 0.0899609 -0.27806824
0002a0 4c 87 0e 3e 35 92 05 3d 92 ea a1 bc 69 ee 94 bd
       0.13918799 0.032610137 -0.019765172 -0.07272036
0002b0 48 f3 7f 3e 2f b3 20 3e 4b 11 ad 3d ec 30 cd 3c
       0.24995148 0.15693353 0.08450564 0.025047742
0002c0 d1 5c 89 3e cd 43 92 3e a9 ee 43 3e 76 17 6c 3e
       0.26828626 0.28567353 0.1913401 0.23055825
0002d0 8b c6 4f 3e bc 9b 4c be 71 76 0c 3e f7 8b a2 3e
       0.20290582 -0.19981283 0.13717057 0.3174741
0002e0 32 20 6b be 1e 5b ef 3c c3 18 d8 bd 9b a0 9b bd
       -0.229615 0.029218253 -0.10551598 -0.075989924
0002f0 df e8 86 bd 26 0e 10 be 48 cb d6 bd e6 32 52 be
       -0.065873854 -0.14067897 -0.104879916 -0.20527229
000300 d5 89 85 be 34 17 5c be 1e d2 45 3e 21 cd 61 be
       -0.2608172 -0.21493226 0.19318435 -0.22050907
000310 97 73 3a 3c aa 31 02 3e 65 dc eb bc e0 7a 57 be
       0.011380098 0.12714258 -0.028791616 -0.21042967
000320 43 3b 35 be f2 82 86 3d 0d 9f 88 be aa 3d 1a 3e
       -0.17698388 0.065679446 -0.26683846 0.15062585
000330 0c 1c d5 bc 17 dd 08 3e 96 92 10 be bc e1 bd be
       -0.02601435 0.13365589 -0.14118418 -0.37086284
000340 75 f4 80 be 72 af 70 be 54 47 43 3e 91 7e 80 be
       -0.25186506 -0.23504427 0.19070178 -0.25096563
000350 62 12 b0 bc 7f f2 80 3e a2 84 10 3e 23 0b 95 be
       -0.02149314 0.2518501 0.14113095 -0.2911006
000360 3a ef 14 3d 82 15 94 be 00 5e 9e 3e c2 56 cf bc
       0.036360957 -0.2892266 0.3093109 -0.025309924
000370 67 93 44 be bb 07 a1 be cd 14 aa 3d 63 6f 09 bd
       -0.19196855 -0.3145121 0.08304749 -0.033553492
000380 68 91 ac 3e 5c b5 0f be d4 a6 73 bc 32 20 84 3e
       0.33704686 -0.14034027 -0.014871318 0.25805813
000390 3f ec cf 3d df 90 34 3e c4 aa b5 be c2 30 41 be
       0.10152482 0.17633389 -0.35481846 -0.18866256
0003a0 da f1 9d 3e 0d 20 55 3e 02 f4 fb bd 60 e4 fd 3d
       0.3084858 0.20813008 -0.123024 0.12397075
0003b0 52 a8 83 3e 9d 0c ef bd 35 c5 25 bd 9c 30 8c bd
       0.25714356 -0.11672328 -0.040471274 -0.06845209
0003c0 30 44 22 3e 35 16 68 bd 56 b3 66 3d a8 73 4b 3e
       0.15846324 -0.056661803 0.05632337 0.19868338
0003d0 34 1d 74 be 29 c8 40 be e1 76 23 be 4a 31 5f 3e
       -0.23839265 -0.18826355 -0.15963317 0.21796146
0003e0 8c 5f 40 3d a1 c9 51 bd 32 ab c7 bd dc 46 61 be
       0.04696612 -0.05121768 -0.0974945 -0.21999687
0003f0 26 71 30 3e 8a ba f0 bd fb a5 ca bd 68 84 5d 3e
       0.17230663 -0.117543295 -0.098949395 0.2163254

bias f4 [13]
000000 a2 c7 37 be 82 91 7b 3c ea 1e 1a 3c 52 26 f8 bc
       -0.17947248 0.015354516 0.009406785 -0.03029171
000010 47 6f c3 3d 73 8c c4 bb 54 44 ac bd 3f d6 5b be
       0.09542709 -0.005998188 -0.0841147 -0.21468447
000020 69 80 0a be a8 ab 67 3d 5f 24 92 3d 8d 9e 6e be
       -0.13525547 0.05656019 0.071358435 -0.2330267
000030 3d c1 4e be
       -0.20190902
