trainingOnSyntheticData/results/20230802_174223_debug/model_training_set_size_100_hidden_neurons_50_n_batches_5.pt (torch, 56551 bytes, 6 tensors)

weight f4 [50, 200]
0.06565792 -0.012090025 0.045590002 0.096200414 0.048640132 0.02675132 0.12777331 -0.022866838
-0.004844166 0.13078935 -0.0010655696 0.05561988 0.21960679 -0.08082207 0.015932286 0.12515508
-0.066190824 0.17107743 -0.06599869 0.0017391052 0.16188583 0.071621925 -0.13415736 0.02429808
-0.025454136 0.00047824698 0.11113893 0.16432346 -0.06283137 -0.038913734 0.1585995 0.12321768
-0.0642414 0.08419523 0.21662366 0.13751523 0.017467722 0.06374655 0.02767722 0.03431191
0.07414281 0.02188816 0.05355989 0.008340326 0.11570962 0.048351686 0.13631146 -0.011782656
0.09100558 0.11431529 0.21709006 0.115334354 0.013905756 -0.009322991 0.1029715 0.024465943
0.1610747 0.13079773 -0.029540455 0.01220217 -0.014657625 0.08648678 0.1341342 0.09501147
0.08450473 0.024590645 -0.08472481 -0.1002211 0.023234436 0.0036155682 0.044538468 0.015824672
-0.10573999 -0.011625389 0.09549893 0.036094915 0.090854324 0.064485766 0.08120202 0.060102604
0.05361189 0.022134548 0.14449973 0.074350215 0.007224037 -0.008576734 -0.023777205 -0.02068298
0.07177278 0.03263754 0.051556494 0.0056612706 0.010180268 0.028417714 0.11423032 0.02250014
0.0019128888 0.046526935 -0.02608965 -0.0045818505 -0.09174638 0.010458101 -0.006446489 0.042162932
-0.0049652252 0.09238458 -0.007074794 0.06915008 0.13171057 0.12910412 0.2270385 0.1844998
0.17417602 0.11697738 0.12531166 0.11449627 0.119119465 0.08306923 0.059661288 0.029253805
-0.052809693 -0.005602064 0.02138165 0.073045924 0.1810196 0.15615125 0.067852594 -0.07021007
-0.08674445 -0.03338716 0.18522641 0.11679308 -0.12768468 -0.12750304 -0.08210801 0.090572245
0.104648754 -0.029647522 -0.057992343 -0.010241571 0.038998473 -0.028842062 -0.08687707 0.0103287585
0.028841164 0.0061337696 0.019252138 -0.04975995 0.076900065 -0.026746992 -0.0937218 -0.077180244
0.026301717 -0.111420065 -0.21767314 -0.12275072 -0.015542158 -0.11190674 -0.110370904 -0.051055964
-0.10464026 0.07056775 0.007275808 -0.1423302 -0.023800325 0.07491215 0.05050015 -0.0030331302
-0.084335215 0.049798638 0.14174014 -0.04032654 0.075283274 0.16623461 0.10670081 0.059714954
0.0055436026 0.14257284 0.10126196 0.083175234 0.03334483 0.13383514 0.18298738 0.15325509
-0.028765833 0.19607626 0.12736541 0.06563374 0.180836 0.26617408 0.09253583 0.1779875
0.10445801 0.13702197 0.23087877 0.14983062 0.05975853 0.10041291 0.21198002 0.16385391
0.042654183 -0.026713056 -0.11934689 -0.109662965 -0.1370694 -0.019317167 -0.12078736 -0.04526076
-0.061368473 -0.12017334 -0.08577578 0.013044385 0.069038734 -0.15358731 -0.018340502 0.038531806
0.17903127 0.014323144 0.07827055 -0.0175616 0.035951927 -0.10391066 -0.046638764 0.07728188
0.09362259 -0.11650672 0.11346705 0.11507707 -0.09813677 -0.07860585 0.0039804755 -0.010924047
-0.0037045635 -0.04285735 0.015540812 -0.021108698 -0.06379187 -0.018638313 -0.012770165 -0.04887987
0.06414068 0.24063367 0.0038926771 -0.090555966 0.07742326 0.042895015 0.035030797 0.06078536
-0.1977341 -0.13148196 0.19197233 0.100820936 -0.038970537 -0.17938851 -0.1434769 -0.14958772
00000000: a977 863d 3d15 46bc 95bc 3a3d b904 c53d
00000010: e03a 473d 9625 db3c 02d7 023e 3c53 bbbc
00000020: cfbb 9ebb a5ed 053e 95aa 8bba acd1 633d
00000030: 9ae0 603e 0b86 a5bd 6d84 823c a728 003e
00000040: 0e8f 87bd ec2e 2f3e 522a 87bd b0f2 e33a
00000050: 66c5 253e 84ae 923d 8c60 09be c40c c73c
00000060: 3185 d0bc 39bd fa39 cf9c e33d 6944 283e
00000070: bcad 80bd 0264 1fbd e867 223e 8d59 fc3d
00000080: ff90 83bd 8c6e ac3d 98d2 5d3e cbd0 0c3e
00000090: 7818 8f3c 8d8d 823d 56bb e23c a58a 0c3d
000000a0: 30d8 973d cc4e b33c 9d61 5b3d dda5 083c
000000b0: 2af9 ec3d 6b0c 463d 3b95 0b3e 0b0c 41bc
000000c0: 2261 ba3d 221e ea3d db4c 5e3e 6b34 ec3d
000000d0: f8d4 633c 75bf 18bc b9e2 d23d cd6c c83c
000000e0: c4f0 243e d7ef 053e d3fe f1bc 9ceb 473c
000000f0: 8926 70bc fb1f b13d 7a5a 093e 6095 c23d
00000100: d110 ad3d 5272 c93c 3484 adbd b840 cdbd
00000110: 2556 be3c 2bf3 6c3b f86d 363d bea2 813c
00000120: 358e d8bd 6a78 3ebc f194 c33d 43d8 133d
00000130: d511 ba3d 1d11 843d 3f4d a63d 262e 763d
00000140: 2498 5b3d 8353 b53c bdf7 133e ed44 983d
00000150: 9db7 ec3b 6e85 0cbc 6ac8 c2bc 5a6f a9bc
00000160: 9bfd 923d f1ae 053d e72c 533d 2e82 b93b
00000170: 24cb 263c 44cc e83c 96f1 e93d 3752 b83c
00000180: e6b9 fa3a 0793 3e3d f6b9 d5bc 5923 96bb
00000190: 87e5 bbbd 7458 2b3c 123d d3bb 0ab3 2c3d
000001a0: 54b3 a2bb 2034 bd3d acd3 e7bb 8f9e 8d3d
000001b0: 23df 063e df33 043e c87c 683e 84ed 3c3e
000001c0: 335b 323e d691 ef3d b351 003e 057d ea3d
000001d0: e8f4 f33d 3320 aa3d 655f 743d ada5 ef3c
000001e0: fa4e 58bd 8591 b7bb 9228 af3c 1a99 953d
000001f0: 345d 393e 1de6 1f3e 4df6 8a3d 4cca 8fbd
00000200: 13a7 b1bd fac0 08bd feab 3d3e 3631 ef3d
00000210: c6bf 02be 2890 02be 3f28 a8bd f17d b93d
00000220: 1652 d63d 5cdf f2bc 6189 6dbd 43cc 27bc
00000230: ddbc 1f3d 3046 ecbc 9bec b1bd f439 293c
00000240: 4e44 ec3c cafd c83b a9b6 9d3c 17d1 4bbd
00000250: c87d 9d3d 821c dbbc 37f1 bfbd ad10 9ebd
00000260: b376 d73c 3430 e4bd b5e5 5ebe bb64 fbbd
00000270: 89a4 7ebc 5c2f e5bd 240a e2bd 0f20 51bd
00000280: a24d d6bd d385 903d e769 ee3b 02bf 11be
00000290: e6f8 c2bc 8b6b 993d 3fd9 4e3d 7bc7 46bb
000002a0: f1b7 acbd a8f9 4b3d 5424 113e 712d 25bd
000002b0: 1e2e 9a3d 6839 2a3e f485 da3d ab97 743d
000002c0: 1ca7 b53b 9dfe 113e 6e62 cf3d c757 aa3d
000002d0: 9794 083d 140c 093e 0b61 3b3e e7ee 1c3e
000002e0: 53a6 ebbc 37c8 483e 146c 023e fb6a 863d
000002f0: 132d 393e f847 883e 6d83 bd3d 5b42 363e
00000300: 15ee d53d 7d4f 0c3e 7c6b 6c3e 336d 193e
00000310: 5cc5 743d 49a5 cd3d 4a11 593e 52c9 273e
00000320: 27b6 2e3d 57d5 dabc 246c f4bd fa96 e0bd
00000330: ec5b 0cbe 093f 9ebc 5d5f f7bd 5963 39bd
00000340: 825d 7bbd 711d f6bd 36ab afbd 1eb8 553c
00000350: 2e64 8d3d fe45 1dbe d23e 96bc 87d3 1d3d
00000360: f953 373e 9fab 6a3c 4f4c a03d 58dd 8fbc
00000370: 5442 133d 1dcf d4bd 4a08 3fbd f645 9e3d
00000380: 33bd bf3d 139b eebd 6a61 e83d 87ad eb3d
00000390: eefb c8bd 1bfc a0bd a66e 823b c6fa 32bc
000003a0: 43c8 72bb 308b 2fbd e49e 7e3c 26ec acbc
000003b0: 50a5 82bd 60af 98bc f439 51bc 4236 48bd
000003c0: 305c 833d ac68 763e 491c 7f3b 6875 b9bd
000003d0: 1690 9e3d afb2 2f3d 747c 0f3d 12fa 783d
000003e0: cf7a 4abe 35a3 06be 6594 443e 357b ce3d
000003f0: 929f 1fbd 9fb1 37be 9ceb 12be 862d 19be

bias f4 [50]
0.1968668 0.11014655 0.26760623 0.23937161 0.036454465 0.0980168 0.24828476 0.090510294
0.17619118 0.3059991 0.029070506 0.26646745 0.21068862 0.22697623 0.32731557 0.15909246
0.26972818 0.21404216 0.252709 0.09699008 0.06923615 0.2698692 0.20140128 0.29024225
0.2307124 0.011880662 0.0557533 0.1571795 0.10673082 0.27570638 0.11614079 0.14922431
0.24364676 0.08991721 0.12594266 -0.0195586 0.20709886 0.18887646 0.32285118 0.100715004
0.3163056 0.3247024 0.3054926 -0.124349065 0.031570725 -0.16624181 0.003201902 0.29593143
0.07661442 0.040366832
00000000: 7397 493e 8494 e13d af03 893e d51d 753e
00000010: 4751 153d 08bd c83d 5c3e 7e3e 765d b93d
00000020: 766b 343e eaab 9c3e 4525 ee3c 6c6e 883e
00000030: c2be 573e 756c 683e e895 a73e 22e9 223e
00000040: d019 8a3e de2d 5b3e 1363 813e bca2 c63d
00000050: afcb 8d3d 4c2c 8a3e 233c 4e3e a29a 943e
00000060: df3f 6c3e 1ca7 423c 935d 643d aaf3 203e
00000070: b095 da3d 6329 8d3e 39db ed3d 42ce 183e
00000080: 897e 793e 8426 b83d 1df7 003e 5b39 a0bc
00000090: b911 543e d568 413e c04c a53e ab43 ce3d
000000a0: cff2 a13e 653f a63e 8769 9c3e b9aa febd
000000b0: 4e50 013d 4b3b 2abe 00d7 513b 5384 973e
000000c0: 05e8 9c3d b157 253d

weight f4 [50, 50]
-0.02506095 0.30980992 -0.038042862 -0.04475262 0.19927831 -0.2714715 0.12871668 0.09966336
0.17823671 0.15604052 0.34048817 -0.06843436 0.0057695075 -0.09870683 -0.24181953 -0.0731707
0.16905569 -0.049065895 -0.0075759054 0.22190975 0.17587529 0.1666849 0.2276564 0.1277893
-0.06802472 0.3316813 0.21101072 0.045056213 0.026562445 0.05700655 0.2828969 -0.15038651
-0.114496715 0.18670161 -0.03828135 0.23094226 0.26606035 -0.13069573 0.020317735 0.2264351
-0.121403985 -0.11048778 -0.04842348 0.15705904 0.25016025 0.049921222 0.046477772 -0.27227956
0.029691547 -0.011710156 -0.20136137 0.30581447 0.14686888 0.27964342 0.039158102 -0.07813589
-0.14648451 0.12124537 -0.0065391106 0.32054442 -0.059244156 -0.04779864 -0.14192322 -0.13150075
0.108161874 0.10019308 0.15072602 0.08084157 0.087215096 0.045030266 -0.044134807 0.033276852
-0.054740768 0.24388994 -0.099481046 -0.10815558 -0.16794367 -0.16680114 -0.20762569 0.02077085
0.35002458 -0.012144459 0.07261627 0.27402544 -0.038859002 0.32035002 -0.12287626 -0.110438064
0.07234992 0.21727091 0.101783745 0.047376614 0.18582451 -0.04892741 0.2578896 0.24865763
0.16986924 0.13183622 -0.17906386 -0.06121115 -0.06379 0.056569595 0.016321747 0.17268339
-0.062665686 0.007950822 -0.092540056 0.26021832 0.08958869 -0.1075815 -0.050591912 -0.21423309
-0.15940703 0.12052863 0.13619374 0.22548036 -0.10780807 -0.077809714 0.15326627 -0.015895113
0.027730929 -0.04879723 -0.09117953 0.19395432 0.06424933 0.05127362 -0.031084495 -0.22895439
0.11681351 0.044006757 -0.16100463 -0.16932988 0.23022991 -0.13099672 0.29469067 0.1895672
-0.03461886 0.008024796 -0.14125575 0.09050143 -0.081547506 0.11077499 0.22706237 -0.03206674
-0.013786248 0.26883465 0.23324881 0.10222561 0.13714641 0.22691604 0.077500544 0.26011196
0.18756008 -0.18467855 0.15156226 -0.13936749 0.16766496 0.15449326 0.15732999 0.054699183
-0.27856585 -0.07207005 0.058497928 0.14153494 0.17766923 -0.05324309 -0.13677697 -0.15821572
-0.12769698 -0.0015071386 0.021794576 0.04323502 -0.08938209 0.36710897 0.00859984 -0.11480206
-0.063998796 0.24984804 0.014906329 0.28441396 0.023350338 0.29376054 0.06749942 0.1793962
-0.12064031 0.061389998 -0.09932574 0.10511348 0.11882 -0.09532826 0.050268743 0.26679024
0.2573698 0.04122146 0.0076230997 0.24262963 0.15611865 0.00088462286 -0.06654252 -0.33660918
0.043488253 0.35554025 0.04435664 0.17805496 0.30754074 -0.16538605 -0.17086393 0.032001633
0.10491526 0.09867901 0.092764035 -0.19791181 0.05940528 -0.06167241 -0.15396771 0.06921175
0.13086675 0.23818997 0.13095225 -0.07247834 0.03591568 -0.34544787 -0.017916884 -0.09064828
0.15093617 0.13021588 -0.13661069 0.03307387 0.21037002 -0.15664968 0.22552718 0.025472376
-0.14925672 0.006530841 0.117961325 0.31677213 0.048968215 0.074095145 -0.020747386 0.27623066
-0.0046290117 -0.004493462 -0.12037694 0.052788753 0.08313409 0.23928207 0.11941685 -0.024853589
0.17807738 -0.15836276 -0.17316806 -0.058970705 0.086378925 0.043349735 0.19083287 0.32239556
00000000: 9f4c cdbc 689f 9e3e d5d2 1bbd 864e 37bd
00000010: 9d0f 4c3e 50fe 8abe 4ece 033e 4e1c cc3d
00000020: af83 363e 16c9 1f3e 7754 ae3e 5027 8cbd
00000030: 230e bd3b ce26 cabd 8a9f 77be 85da 95bd
00000040: ef1c 2d3e 52f9 48bd 4d3f f8bb 4f3c 633e
00000050: a718 343e 72af 2a3e c21e 693e 33db 023e
00000060: 8b50 8bbd 22d2 a93e 3213 583e dd8c 383d
00000070: 7c99 d93c b37f 693d ddd7 903e ecfe 19be
00000080: 417d eabd b52e 3f3e e8cc 1cbd 217c 6c3e
00000090: 1039 883e 1ad5 05be 6171 a63c 9ade 673e
000000a0: a7a2 f8bd 6b47 e2bd b357 46bd 16d4 203e
000000b0: 0115 803e 327a 4c3d 7a5f 3e3d 3a68 8bbe
000000c0: b03b f33c f4db 3fbc ad31 4ebe b793 9c3e
000000d0: cc64 163e 6c2d 8f3e 3f64 203d b605 a0bd
000000e0: 0900 16be 7e4f f83d 0946 d6bb 661e a43e
000000f0: 00aa 72bd 82c8 43bd 5254 11be 22a8 06be
00000100: f983 dd3d 0832 cd3d ec57 1a3e 4490 a53d
00000110: d49d b23d a871 383d b3c6 34bd 4f4d 083d
00000120: db37 60bd 49be 793e b8bc cbbd ac80 ddbd
00000130: 6df9 2bbe ebcd 2abe d49b 54be a127 aa3c
00000140: 6c36 b33e 8ef9 46bc d7b7 943d 104d 8c3e
00000150: 9e2a 1fbd eb04 a43e 8ca6 fbbd 5a2d e2bd
00000160: 322c 943d 447c 5e3e ff73 d03d fb0d 423d
00000170: c848 3e3e 1c68 48bd 1b0a 843e 1ba0 7e3e
00000180: 34f2 2d3e 1300 073e 845c 37be 8bb8 7abd
00000190: 55a4 82bd 85b5 673d 2fb5 853c ead3 303e
000001a0: de56 80bd 2a44 023c a485 bdbd 563b 853e
000001b0: 467a b73d b153 dcbd 7739 4fbd eb5f 5bbe
000001c0: 993b 23be b7d7 f63d 5f76 0b3e 53e4 663e
000001d0: 7aca dcbd b35a 9fbd d5f1 1c3e 7836 82bc
000001e0: f92b e33c 9bdf 47bd 55bc babd f69b 463e
000001f0: 2795 833d 4a04 523d e9a4 febc 0573 6abe
00000200: ec3b ef3d 6e40 343d 66de 24be d064 2dbe
00000210: 64c1 6b3e 0124 06be b2e1 963e e71d 423e
00000220: 81cc 0dbd 6f7a 033c 59a5 10be d058 b93d
00000230: 6102 a7bd ffdd e23d 0a83 683e 6a58 03bd
00000240: b7df 61bc b2a4 893e c7d8 6e3e a95b d13d
00000250: 1c70 0c3e ae5c 683e 9bb8 9e3d 652d 853e
00000260: c00f 403e 601c 3dbe 2333 1b3e 5ab6 0ebe
00000270: 5db0 2b3e 7b33 1e3e 1d1b 213e 400c 603d
00000280: 2fa0 8ebe 7699 93bd 869b 6f3d 89ee 103e
00000290: ecee 353e 6d15 5abd 430f 0cbe 4d03 22be
000002a0: ffc2 02be 2e8b c5ba 8a8a b23c 3417 313d
000002b0: f50d b7bd b5f5 bb3e 58e6 0c3c 581d ebbd
000002c0: cd11 83bd 2ad8 7f3e ad39 743c b59e 913e
000002d0: 3549 bf3c c867 963e 233d 8a3d a3b3 373e
000002e0: 4412 f7bd 1474 7b3d 4b6b cbbd bc45 d73d
000002f0: e657 f33d 763b c3bd 99e6 4d3d bb98 883e
00000300: f9c5 833e d5d7 283d 32cb f93b e773 783e
00000310: 91dd 1f3e 09e6 673a 7247 88bd 0a58 acbe
00000320: bd20 323d 5f09 b63e 4faf 353d 0a54 363e
00000330: fb75 9d3e f65a 29be f4f6 2ebe 2514 033d
00000340: d0dd d63d 3918 ca3d 12fb bd3d 65a9 4abe
00000350: f352 733d 369c 7cbd b6a9 1dbe e4be 8d3d
00000360: ef01 063e 12e8 733e 5918 063e 866f 94bd
00000370: 521c 133d 8bde b0be 6ec6 92bc cea5 b9bd
00000380: 038f 1a3e 5057 053e ace3 0bbe 7778 073d
00000390: 3d6b 573e c668 20be 99f0 663e 72ab d03c
000003a0: c1d6 18be aa00 d63b b595 f13d f52f a23e
000003b0: e592 483d 32bf 973d 6cf6 a9bc 1b6e 8d3e
000003c0: f7ae 97bb e43d 93bb 2f88 f6bd 0539 583d
000003d0: 3542 aa3d 5c06 753e d290 f43d c199 cbbc
000003e0: eb59 363e d929 22be f852 31be 448b 71bd
000003f0: 6fe7 b03d 7e8f 313d b169 433e 0811 a53e

bias f4 [50]
-0.08792315 0.16947214 0.098166026 0.27945197 0.0183987 -0.18147565 0.28832486 0.14896218
0.105687074 0.23039518 0.022482183 0.013228826 0.20542581 0.36533576 -0.14866272 0.3466506
-0.068862185 0.21051201 0.24229585 0.19556604 0.15704048 0.011559088 -0.26299357 0.26075098
0.07491912 0.15985355 -0.07220209 0.23514357 0.14465117 -0.12511197 0.051448155 0.2944617
0.074796885 0.16913934 -0.14269416 -0.08624986 0.23780513 0.10862499 -0.04080185 0.10478609
0.17243892 -0.026903817 0.158988 0.34864247 0.05680881 -0.014738479 0.17400867 0.13234098
-0.15990765 0.21115391
00000000: 0d11 b4bd 1b8a 2d3e 450b c93d 5414 8f3e
00000010: dfb8 963c c1d4 39be 519f 933e 8b89 183e
00000020: 7772 d83d b7ec 6b3e 8e2c b83c b8bd 583c
00000030: 255b 523e 4a0d bb3e 0a3b 18be 307c b13e
00000040: 9e07 8dbd 7690 573e 671c 783e 7742 483e
00000050: 38cf 203e 5462 3d3c 18a7 86be 2781 853e
00000060: 326f 993d a6b0 233e b0de 93bd 7ac9 703e
00000070: 701f 143e 5a1d 00be 4dbb 523d afc3 963e
00000080: 1c2f 993d dd32 2d3e 6b1e 12be c4a3 b0bd
00000090: 3083 733e c776 de3d d71f 27bd 179a d63d
000000a0: d493 303e 6565 dcbc c0cd 223e 4481 b23e
000000b0: 5bb0 683d a979 71bc 542f 323e 6584 073e
000000c0: d5be 23be bb38 583e

weight f4 [13, 50]
-0.0127987135 0.32826406 0.079437606 0.08322362 0.13720936 0.37536448 -0.23727424 0.36327103
-0.042570807 -0.08919852 -0.17519426 -0.3066428 0.10073644 0.03970314 0.1346922 0.009076564
0.032641295 -0.4415894 0.18742059 -0.003072456 -0.21409042 0.2351935 -0.027417574 -0.22847763
0.20774044 0.0007551474 -0.046911266 0.2691454 0.21535942 0.24859495 -0.29295412 -0.18329947
-0.25645742 0.1458443 -0.035753425 -0.15835921 0.25516382 -0.14934464 0.22936688 0.17585078
-0.11981907 0.39494273 -0.033025112 -0.09381288 -0.13106993 -0.08834592 0.040158175 0.089491464
-0.06235036 -0.37374914 -0.3026183 0.08352001 0.30747706 0.15790547 -0.22310895 -0.21522124
0.069942564 0.21286084 -0.25074518 -0.15988004 -0.37535927 -0.38869253 0.4539474 0.2219991
-0.16194952 -0.070819825 -0.30011642 -0.37982798 0.21569514 0.10953942 0.22647505 -0.0061846524
0.07974917 -0.029575488 0.06117251 0.2370214 0.33313274 -0.1511303 0.024537774 0.022315374
0.06359797 0.12749648 0.13685897 -0.16586383 0.3350601 -0.064015225 -0.102760725 0.046586536
-0.059137117 0.31741706 0.17583925 0.10168211 -0.052188613 0.3098592 0.11870941 0.47574252
-0.0766884 0.09068214 0.2965406 -0.1956632 0.13181525 0.27805683 -0.22001417 0.059314128
0.12435176 0.034886762 -0.26757652 -0.174774 -0.0069325827 0.36853123 0.4345747 0.37038198
-0.19807251 -0.07890968 0.08483327 -0.21680006 0.36117196 0.1390389 -0.019363377 -0.03985075
0.22293204 -0.0113337105 0.14325188 -0.321606 0.19096959 -0.18823026 -0.33045328 -0.081855655
0.09756201 0.118231826 0.030109033 0.16276035 -0.0063141934 0.20547959 -0.2962093 0.17279057
0.1891047 -0.26880053 0.103100754 -0.2989634 -0.17114288 0.36342925 0.28493488 -0.17463426
0.0752575 -0.4309713 -0.061431132 0.24173726 -0.05810779 -0.16817756 0.2311506 0.15873052
0.019550074 0.25814816 -0.024274006 -0.042440575 -0.06397674 -0.0032005296 -0.2991836 0.10872162
-0.23308872 -0.14285125 0.18646447 -0.06888617 -0.017435411 -0.18173029 -0.03146608 0.102901794
-0.032830358 0.15468651 -0.1381211 0.35619822 -0.009090941 -0.07343478 -0.210313 0.0411586
-0.21033995 -0.17968008 -0.3222412 0.22724466 0.20376071 -0.27209744 0.04562566 -0.3708596
0.21704222 0.22603971 -0.09974202 -0.008997139 0.15692684 -0.13057153 -0.20040968 0.15691839
-0.11246992 0.050762948 -0.17661011 0.06756087 -0.15028664 -0.3023529 -0.14719974 -0.110054776
-0.0858326 0.10108068 0.11603112 -0.19013488 0.27110428 0.21012317 -0.025169577 -0.263039
-0.36182147 -0.24848424 0.09363103 -0.017041296 0.13417761 -0.15638769 0.19539092 -0.20427327
0.14574121 0.21198055 -0.03882401 0.08667153 0.20065553 0.18855362 0.025372515 -0.25023243
-0.13349098 0.26380107 0.010969629 -0.34254128 0.05163545 -0.06782896 0.20211594 -0.21484643
0.091125764 -0.14072865 0.1041647 -0.19644111 0.18883823 -0.11017003 0.09199158 0.10778642
-0.30615157 -0.099718444 -0.36704415 0.17342384 -0.032448187 0.0628834 0.14721067 -0.2900792
-0.20914495 0.25945565 0.2221162 0.034065567 0.14997528 0.12990801 0.24444017 -0.29809478
00000000: b2b1 51bc 3a12 a83e 2fb0 a23d 2571 aa3d
00000010: 9c80 0c3e c62f c03e 05f8 72be a9fe b93e
00000020: ba5e 2ebd b7ad b6bd 2066 33be 4900 9dbe
00000030: e84e ce3d c29f 223d c1ec 093e deb5 143c
00000040: e1b2 053d 0118 e2be 2feb 3f3e 425b 49bb
00000050: 853a 5bbe 91d6 703e d29a e0bc 0af6 69be
00000060: e9b9 543e 16f5 453a 0726 40bd 6dcd 893e
00000070: 2e87 5c3e ad8f 7e3e 15fe 95be dbb2 3bbe
00000080: 634e 83be 3558 153e 2f72 12bd eb28 22be
00000090: d5a4 823e cded 18be 27df 6a3e 3a12 343e
000000a0: b363 f5bd ef35 ca3e 5745 07bd f820 c0bd
000000b0: 3237 06be b5ee b4bd e67c 243d 4d47 b73d
000000c0: 1763 7fbd 0c5c bfbe c9f0 9abe 8a0c ab3d
000000d0: a26d 9d3e f9b1 213e ac76 64be f562 5cbe
000000e0: 0c3e 8f3d 31f8 593e ac61 80be 98b7 23be
000000f0: 172f c0be b502 c7be cb6b e83e bb53 633e
00000100: 18d6 25be fc09 91bd dca8 99be d078 c2be
00000110: 30df 5c3e 3456 e03d 13e9 673e a0a8 cabb
00000120: 8853 a33d 4b48 f2bc 0790 7a3d bdb5 723e
00000130: 6090 aa3e e7c1 1abe 7103 c93c bbce b63c
00000140: a73f 823d 708e 023e c224 0c3e 35d8 29be
00000150: ff8c ab3e 6a1a 83bd 3774 d2bd 86d1 3e3d
00000160: c339 72bd 7d84 a23e 340f 343e b63e d03d
00000170: bac3 55bd dda5 9e3e eb1d f33d 8694 f33e
00000180: cf0e 9dbd 8fb7 b93d 2bd4 973e ef5b 48be
00000190: 94fa 063e 775d 8e3e 654b 61be 5ff3 723d
000001a0: 23ac fe3d 6ce5 0e3d caff 88be f5f7 32be
000001b0: b82a e3bb 20b0 bc3e 9380 de3e b5a2 bd3e
000001c0: 85d3 4abe 669b a1bd 11bd ad3d d600 5ebe
000001d0: 88eb b83e 3760 0e3e f29f 9ebc 8a3a 23bd
000001e0: 4c48 643e 07b1 39bc 9fb0 123e 8ba9 a4be
000001f0: 888d 433e 6fbf 40be 2c31 a9be f0a3 a7bd
00000200: 97ce c73d 8723 f23d 38a7 f63c a6aa 263e
00000210: 4be7 cebb 3e69 523e bfa8 97be 03f0 303e
00000220: aaa4 413e 39a0 89be 7d26 d33d bb11 99be
00000230: 1440 2fbe 6613 ba3e fce2 913e 53d3 32be
00000240: 9b20 9a3d 45a8 dcbe 369f 7bbd f989 773e
00000250: 6f02 6ebd bd36 2cbe beb2 6c3e 418a 223e
00000260: 7a27 a03c ff2b 843e 48da c6bc 2bd6 2dbd
00000270: 3d06 83bd fabf 51bb 982e 99be 71a9 de3d
00000280: cfae 6ebe 9947 12be 8bf0 3e3e 3114 8dbd
00000290: b5d4 8ebc 8117 3abe 94e2 00bd 2dbe d23d
000002a0: 2079 06bd 2466 1e3e 9e6f 0dbe 9d5f b63e
000002b0: 2cf2 14bc f964 96bd 4b5c 57be ec95 283d
000002c0: 5b63 57be 0efe 37be ccfc a4be d3b2 683e
000002d0: a6a6 503e 5b50 8bbe f9e1 3a3d 4fe1 bdbe
000002e0: 5140 5e3e f476 673e 8b45 ccbd bc68 13bc
000002f0: 6eb1 203e 8bb4 05be 3238 4dbe 37af 203e
00000300: a156 e6bd cfec 4f3d 48d9 34be 5a5d 8a3d
00000310: bee4 19be 00ce 9abe 87bb 16be 6664 e1bd
00000320: 01c9 afbd 6303 cf3d b9a1 ed3d b8b2 42be
00000330: 2ece 8a3e 872a 573e 6e30 cebc 0cad 86be
00000340: aa40 b9be a772 7ebe a0c1 bf3d 309a 8bbc
00000350: db65 093e 1824 20be 8f14 483e 032d 51be
00000360: 2f3d 153e 6e11 593e ed05 1fbd d880 b13d
00000370: a578 4d3e 3314 413e 05da cf3c 771e 80be
00000380: dcb1 08be ef10 873e f5b9 333c 9261 afbe
00000390: b27f 533d e9e9 8abd 7bf7 4e3e b400 5cbe
000003a0: 25a0 ba3d 2c1b 10be 4d54 d53d dc27 49be
000003b0: cf5e 413e d3a0 e1bd 1566 bc3d 20bf dc3d
000003c0: e6bf 9cbe 2f39 ccbd 36ed bbbe 0596 313e
000003d0: 64e8 04bd 03c9 803d 65be 163e 4385 94be
000003e0: 182a 56be 5fd7 843e 6e72 633e 5688 0b3d
000003f0: 1f93 193e 9b06 053e 864e 7a3e e19f 98be

bias f4 [13]
0.024318418 0.113644056 0.008532828 0.051048756 0.005044679 -0.10947503 -0.18380891 -0.1846554
-0.10962025 0.018114712 0.099230416 -0.10957223 -0.11127487
00000000: 6b37 c73c 37be e83d 46cd 0b3c 8018 513d
00000010: d64d a53b 7234 e0bd 6738 3cbe 4e16 3dbe
00000020: 9580 e0bd 4e65 943c 5139 cb3d 6867 e0bd
00000030: 14e4 e3bd
