trainingOnSyntheticData/results/20230804_110046_train_local/model_training_set_size_100000_hidden_neurons_100_n_batches_100.pt (torch, 130071 bytes, 6 tensors)

weight f4 [100, 200]
00000000: 30d2 363d 39de 353c 5dab c23d 9c3d 22bc
00000010: 737f 0f3d dcfc 11bd 77f7 98bd aa16 98bc
00000020: b76f 13bd 095c 923d 458a 47bd f6a4 73bb
00000030: 3407 3ebc 4af5 4abd 1d63 6abc c6dc a3bc
00000040: 0a6d 9a39 8123 0ebd e2a9 223d 4d3b 753b
00000050: 0486 51bd 7d22 753c cd32 593d 0f05 86bd
00000060: 9dfe 3fbd 4dba a4bc d7f6 413d 78a3 443d
00000070: 12d0 973c 1a7b 5ebc 2602 63bd e781 a53c
00000080: 96df 68bd 5ce0 17bd 1213 67bc b7ce 40bb
00000090: 27f5 aaba da13 f2bc 0402 92bd e9de 12bd
000000a0: b7b6 90bd 3deb bcbd c25e b5bd 56b8 a4bc
000000b0: 0f5a d8bc 94a5 eb3c 2ee4 a5bb 4c4d 6d3d
000000c0: 0680 d83c e2cb 9abd 4c70 013d d5c1 263d
000000d0: d485 a8bd e175 273e 7f63 133d 59c0 0b3c
000000e0: 4549 45bc 9488 caba e28f 183d 5225 0d3d
000000f0: b85d d8bc bc75 9e3d 6980 b93c 7de2 c93d
00000100: 55c2 c63c 3c50 b63c e6f0 ecbc cdf4 bd3d
00000110: df46 be3d 6405 9f3c 09a2 ca3d 43d8 dcb9
00000120: 843a 0cba e5cb bb3b a685 a83c 3016 c3bc
00000130: 79d3 1dbc 1245 c73c 1854 96bc aab8 993d
00000140: 17fc 3dbd 9d05 b5bd 75db d3bc a622 e93d
00000150: c089 313e 40fd 1d3d 55c9 8bbd 2f79 363e
00000160: 1287 943d fc63 41bd a661 6c3d dd59 003e
00000170: 2ea3 eb3d b4ba b7bd 3d0b 13be 759a 7ebe
00000180: f104 ff3a d2b9 0e3e 9e61 3f3e 7cde a23c
00000190: e5d4 5fbf c953 95be 19c7 56be d821 283d
000001a0: ad40 c83e 2e31 a63e e340 513e 8719 193d
000001b0: 34c4 99bd 393d d1bd ed92 27bc 495e 383b
000001c0: c22b b53d a905 99bd 5aa5 ed3d c91b f53d
000001d0: 41b7 5ebe 0689 ff3c 1c2b 1c3e 4d9e df3d
000001e0: f7fa 353e d71a 813d 21d2 3d3d cf76 6c3d
000001f0: 6e5f 84bd 494d 913d 2dda e53a f4e5 103e
00000200: fc0f 1f3e 86cd 6e3d 869d 5bbd 2580 0fbd
00000210: 4cfc 63bd 2337 07be fcd5 643c 007f aabd
00000220: de53 59bd ba03 60bd 983b 8e3d 379e c03c
00000230: 5661 913d 4a29 823c c67c a5bd 5044 aabd
00000240: 5373 ecbb 5934 163d b7b9 463d e9bc 05be
00000250: 2f31 d83d 206e 93bd d9df 67bd 597e b13c
00000260: 904b 66bd acda 7dbd 0f4b 1bbc 0585 fe3b
00000270: d901 81bd 76db 52bd 5b10 a2bd 22bd 82bc
00000280: 240b 53bd 8449 03be dd47 55bd 6da8 57bd
00000290: 65d8 39bd b8e9 16bd 4488 62bd 2ea4 3d3a
000002a0: d037 903c 782b 32bd 274b bfbc 02f3 83bd
000002b0: 98a4 3abd be98 94bd 00db 67bd d11e 973c
000002c0: 0a7a f83d 842d 943d 5475 873b ea1d 903c
000002d0: 698f 6b3d 8179 0cbd 8aba 92bc c2b3 453a
000002e0: 7def c13c 259d a03d ddcb bbbc affc bc3c
000002f0: 5d6f d03c da0c 763d 81da 5b3d d7f3 45bd
00000300: a8b3 bf3d b1ad 1c3d 7c18 873d fea4 583d
00000310: e6bf d5bb 2ccf 103d 6f92 47bd 201d ac3d
00000320: 3fd0 5cbd c366 363d 47aa debc 9ed5 193d
00000330: 6626 7fbd 1653 803d 4515 b93d fe3b a7bb
00000340: d12d 443c 9a04 25bd 1bc2 87bc 15c7 d93c
00000350: 0acd 523d 1b7f 913c d129 cc3c d0ad a93d
00000360: d4cd 25bc 215e 26bd f144 c7b9 ab9d efbc
00000370: cb56 a7bc 8b32 13bd d184 b13a 80ec e03c
00000380: 1716 10b9 5a86 a93d 42d5 37bd 03c3 653c
00000390: cc58 19bd d050 86bd f134 24bd bdad ed3b
000003a0: f020 b1bc 02ef f53b f619 93bd 5c32 1b3c
000003b0: 4232 a9bc a706 21bd 9856 a63c 19b9 0abc
000003c0: 6b97 b4bc f34d a9ba cea7 5bbd 47cf b4bc
000003d0: 3c40 0b3d b2be 79bd 4d35 a03b bb68 97bd
000003e0: 4c82 a83c eec2 f4bc 5db9 2e3d 2e3f 02bd
000003f0: 019a 173d 8bf5 e53c eeea 85b9 fce7 72bd
0.044634044 0.011100345 0.09505341 -0.009902384 0.035033654 -0.035641536 -0.07469075 -0.018565495
-0.03599521 0.071464606 -0.04871585 -0.0037177182 -0.011598397 -0.049550332 -0.014305857 -0.020002734
0.0002945441 -0.034701828 0.039712794 0.003741938 -0.051153198 0.014961836 0.053026963 -0.065439336
-0.046873678 -0.020108366 0.047354545 0.04800746 0.018531833 -0.013579154 -0.05542197 0.020203544
-0.056853853 -0.0370792 -0.014103668 -0.0029420087 -0.0013043032 -0.029550482 -0.07129291 -0.035857115
-0.070661 -0.09224556 -0.08855964 -0.02010743 -0.02641013 0.028765477 -0.0050626015 0.057935044
0.026428234 -0.07558419 0.031601235 0.040712196 -0.08228651 0.16353561 0.03598356 0.008529746
-0.012041395 -0.001545208 0.037246592 0.03445942 -0.026411876 0.077373 0.022644239 0.09857652
0.024262587 0.022255056 -0.028923463 0.09275208 0.09290861 0.01941175 0.09894187 -0.00042122797
-0.00053492957 0.005731093 0.020571541 -0.02381429 -0.009632939 0.024324927 -0.018350646 0.07505925
-0.04638299 -0.08838961 -0.025861481 0.11383562 0.17337704 0.038571596 -0.068255104 0.17819665
0.07252325 -0.047214493 0.057710312 0.1253428 0.115057334 -0.08971158 -0.14359756 -0.24863608
0.0019456429 0.13938072 0.18689582 0.01988148 -0.87434226 -0.29165486 -0.20974387 0.0410479
0.39111844 0.32459396 0.20434909 0.03737786 -0.07508126 -0.102167554 -0.010227901 0.002813237
0.08846237 -0.07471783 0.11603804 0.1196819 -0.21749593 0.031193268 0.1525082 0.10918865
0.17771517 0.063039474 0.046342973 0.057730492 -0.06463514 0.07094819 0.0017536335 0.1415022
0.15533441 0.05830147 -0.053617023 -0.035034318 -0.05566053 -0.13204627 0.0139670335 -0.083250046
-0.053058498 -0.054691054 0.0694496 0.023512943 0.070986435 0.015888829 -0.08080439 -0.08313811
-0.007215896 0.036671016 0.048516955 -0.13060345 0.10556256 -0.07198739 -0.056609962 0.021666693
-0.056224406 -0.06197612 -0.009478345 0.007767322 -0.062991805 -0.051478826 -0.07913276 -0.015959326
-0.051524296 -0.12821013 -0.052070487 -0.052650858 -0.045372386 -0.036843985 -0.055305734 0.00072342425
0.017604738 -0.043498486 -0.023351265 -0.064428344 -0.045567125 -0.07255696 -0.05660534 0.018447312
0.12132652 0.07235244 0.0041338596 0.01759239 0.057509813 -0.034295563 -0.017911214 0.00075417396
0.023673767 0.07842473 -0.022924358 0.023069708 0.025443727 0.06007085 0.05367518 -0.048328247
0.093604386 0.038251583 0.06596467 0.052891724 -0.00652312 0.035353824 -0.048723634 0.08403993
-0.053909536 0.044531595 -0.027180804 0.037557237 -0.06229248 0.062658474 0.0903726 -0.005103587
0.011973814 -0.04028759 -0.016572049 0.026584188 0.05146507 0.017760804 0.024922283 0.08285105
-0.010119874 -0.040617112 -0.00038007603 -0.029249987 -0.020427128 -0.035936873 0.0013543611 0.027456522
-0.00013741139 0.08277579 -0.044881113 0.014023545 -0.0374382 -0.065583825 -0.04008955 0.007253377
-0.021622151 0.0075052986 -0.07182686 0.009472456 -0.020653848 -0.039312985 0.020304963 -0.008466982
-0.022044858 -0.0012916907 -0.053626828 -0.022071494 0.033996806 -0.060972877 0.0048891664 -0.073930226
0.020569943 -0.029878106 0.042657245 -0.031798534 0.037012104 0.028071186 -0.00025542773 -0.05930327

bias f4 [100]
00000000: 0194 39be c3e2 3bc0 c5d7 633d 6cb3 cabb
00000010: ed27 48ba c46b dd3f 1bcc 82bf f653 8fbf
00000020: e0e9 3dbf 033f 0dbb f341 5c39 e66c 2ebe
00000030: 55da b5ba 6774 1eba 4c2e 9b38 ce18 72bf
00000040: 0c90 7637 ca90 50ba 9490 de3d 2ca6 24ba
00000050: 6b48 a63e aa94 0bbd 329c 2439 6397 273f
00000060: bce3 dfba 4b4d 65bb fb41 6fbc 02b4 4438
00000070: f05f a7bc 244b 26bc cbfd afbc 577c 833c
00000080: 7fbe 42ba f067 6dbc cd85 4cbf b203 00ba
00000090: ec8a 91bf 1a0f 95bf 5c0f 84ba 1fb3 8e3e
000000a0: bd31 8abd 10d6 54bc e5c3 3b3d 0a86 983d
000000b0: 3df6 9c39 d8f1 a4be df55 713f 0c26 f13e
000000c0: 06a3 febc 4e70 a83e ee7d d4b9 1635 1939
000000d0: 42d0 40be 08e4 243f 3300 82bf 7fe5 c0be
000000e0: 5440 6abf d58e ddbf 6e9c c1bd 3462 ccbd
000000f0: 42bb f6be 62e4 2940 684c 2abb f288 82ba
00000100: dc70 c0bf 87fc cfbc d5eb 1cb9 3e1b 973f
00000110: f6ef e1ba e48b b8bf 2f7e 14b9 e2d4 a93d
00000120: 4f3e 2c3a 1597 813a b241 8d3c be8e 91bb
00000130: 5ff5 e03d cc14 9737 1e5a 80bc 6c31 8eb9
00000140: 8372 40bf 5d29 673f dbfe edb7 457a 1fba
00000150: 2749 c3ba fe2b f2b8 c777 96b8 6c19 5d3d
00000160: e6f5 b1bf 7cd4 2dbc 123f 94be 183d 3d3f
00000170: 9cdc d2bb a83b 0f3f 94d7 b3bc 38f3 1fc0
00000180: 4baa 3ac0 24bd dd3e 8d04 0aba 9d2c 7cbd
-0.18122865 -2.9357154 0.055625696 -0.0061859395 -0.0007635344 1.7298512 -1.0218538 -1.1197498
-0.7418499 -0.002155245 0.00021005403 -0.17033729 -0.0013874272 -0.0006044567 7.3995994e-05 -0.945691
1.4696281e-05 -0.00079561456 0.1086742 -0.0006280865 0.32477126 -0.034077324 0.00015698446 0.6546537
-0.001708142 -0.0034988697 -0.014603133 4.6897687e-05 -0.020431489 -0.010149751 -0.021483323 0.0160505
-0.0007428899 -0.014490113 -0.79891664 -0.0004883363 -1.137052 -1.1645234 -0.0010075378 0.27871034
-0.06747768 -0.01299049 0.045841116 0.07447441 0.000299381 -0.32215762 0.94271654 0.4709934
-0.031083595 0.32898182 -0.00040529616 0.00014610993 -0.18829444 0.6441045 -1.0156311 -0.37675092
-0.91504407 -1.7309214 -0.09453665 -0.09979668 -0.4818974 2.6545644 -0.0025985483 -0.0009959026
-1.5034442 -0.02538897 -0.00014965174 1.1805189 -0.0017237652 -1.4417691 -0.00014161387 0.08292557
0.0006570564 0.0009886945 0.01724324 -0.004442065 0.10984301 1.8010287e-05 -0.015667971 -0.00027121173
-0.7517473 0.9029749 -2.8371278e-05 -0.0006083588 -0.001489912 -0.000115476534 -7.174868e-05 0.053979322
-1.3903167 -0.010609742 -0.2895437 0.73921347 -0.00643499 0.55950403 -0.021953382 -2.49922
-2.9166439 0.43308365 -0.00052649603 -0.061565984

weight f4 [100, 100]
00000000: d30f 25be 7fc2 943d 938d 39be e53f 143e
00000010: ce86 adbc 70e0 96bd 7d06 d3be a815 78be
00000020: 7704 40bd 4e72 16be a0a9 f3bd a6cb c43d
00000030: f702 0ebf f864 74bb dd0f ba3d 054d 86be
00000040: ee5f 39be d910 c8bc d1ef 99bd ba1f 313e
00000050: d695 6bbb 68fa b3be e19a 11bf 57b6 91bd
00000060: 82ec 33bd 058b a0be 58a4 af3d 1ae3 3b3e
00000070: 34d7 fdbc 9f8f 52be fa6d 07bf e855 0a3d
00000080: 761a 86bd 5bf7 ef3d 3754 26be 55ff 513e
00000090: 45ca efbd 3d17 e8bd 11fd 473d 7f20 213e
000000a0: d408 4b3c c550 8fbd 27a7 3b3d 1bbd 9d3c
000000b0: 6071 2f3d 4f2b 123e e845 1c3d 6bc8 d8bd
000000c0: 137d 0d3e 5e47 cc3a 003a 1c3e e1e5 7a3d
000000d0: 8a03 c9be 2811 7bbd eb72 63be 305e fabd
000000e0: bbab 8fbe a644 17be 2282 1e3e 43b7 0c3e
000000f0: 62b1 363e 4717 1d3d 85da 24be ee6b 12bd
00000100: de30 1abe dbef 113d e07e fdbe f35c 943c
00000110: 3d22 733e a568 f2bd 0711 fdbe 1b1b 09be
00000120: b17e cfb9 4073 e33c d4e1 153d 2465 423d
00000130: a6c0 823d 3ec7 73be 14c9 0c3e d366 f1be
00000140: 222f 77be ef11 ba3d 1981 a8bd 5f3f 883e
00000150: ecc4 55be df5a 543e 31dd 823e 11b5 05be
00000160: 5d2e 2dbe 72f0 9ebe d9c9 d9bd 1e57 8a3d
00000170: 5d82 8ebe 57cd acbc a5e7 683c 0fa0 a5be
00000180: 6482 2e3c e752 fa3b 6dc6 783e af60 5f3b
00000190: 671d eabd 2432 b8bd bf68 76ba 00be d23c
000001a0: 0e7b d0bc b283 3a3d dee5 debb 6500 f8bc
000001b0: adcc 5abe f891 52bd 7cba 103d e3b7 47bd
000001c0: 2671 583d 969d e5bc 1126 87be 9e28 b5bd
000001d0: 9b52 9bbd 71ca 953d e61a 153d f2a4 5fbb
000001e0: ce71 e03c 676c bbbd dece edbd e4e7 753e
000001f0: 818b 503e 5e50 8ebd 5b1e 6e3d 3990 f33d
00000200: 11da dd3c 09ab c4bd 2194 b5bd b74a 07be
00000210: ef1b 04bc 3ac3 b6bd e3e4 103d ed05 77bc
00000220: e0c1 6cbe 3038 ff3d 2543 ac3c 8c32 ce3c
00000230: 15e9 b8bd 3668 a6bc 2fdd 89bd fd5a 2ebc
00000240: 3043 8ebd 8e1f b53c 18cc 97bd 0ddc 833b
00000250: 74bc d5bc 5934 b33c 74de 7f3d d531 c8be
00000260: e064 48bd 703f 05be 40af 58bd 4d55 073e
00000270: e9ec 13bd 2829 d7bd 3814 5abc f5fe a43d
00000280: c33d 17be 2f23 413e 6be2 2dbe 00a7 2c3c
00000290: eebe c5bc 9193 943d 12f4 823d d21a d43d
000002a0: f51a 563d 3fe5 9b3d 13d9 083d 8f04 65bd
000002b0: b770 3bbe 3923 92bd ea66 ff3d 714c 563d
000002c0: 2ca0 9f3d 1c10 d2bd 04c0 17bc 5c81 50bd
000002d0: e182 21be b9dd b4bd 9171 a73d 31ab cd3c
000002e0: 142b 483d 38b9 51be 64d5 0e3d 8119 d03d
000002f0: 08a6 c4bd 8ef4 25bc d997 a0be bff6 64bd
00000300: a7c0 31be 5f18 36bb baeb 46bd 0a01 7d3d
00000310: 593c 18bc dcba b5bd 6678 36be 4fee 0cbd
00000320: 9071 ec3b 01eb a9bd c1ec aeba 68aa 56bd
00000330: e8d9 c2bd 4981 763b 8aef b6bd e971 acbd
00000340: 7b73 cebc 3293 103e 1ebe 413d b3e4 043e
00000350: 0ec7 bfbb aeb4 8dba a6c2 663c 9bed 19ba
00000360: 7ee5 d6bc 19f6 dfbc d229 75bf 975a b2bd
00000370: f687 b53d 9273 c13d b720 7f3d c67c 413d
00000380: 92ba 503d 3a94 d23d 17c4 e73c 131d dbbe
00000390: 7682 703d 9d5f 7b3c dcc3 f13c b3a3 7c3d
000003a0: 5e9a fe3d 6e66 acbd 8b62 81bd e867 293e
000003b0: d190 20bc 8a33 94bc 8ae5 dcb7 8c59 23bd
000003c0: 65cd 4fbc 4aa6 163b e914 c33d 0b68 b9bc
000003d0: 873f 833d 7237 a5bc 79da 2d3d acf2 233d
000003e0: a899 debf 14bf c4bb e934 a83c ade3 1b3d
000003f0: 2d45 2d3c 38e5 60bd a247 f53c 7dd6 5ebd
-0.16119318 0.0726366 -0.18120413 0.14477499 -0.021182444 -0.07367027 -0.41215888 -0.24227011
-0.046879258 -0.14692041 -0.11897588 0.09609155 -0.55473274 -0.0037291627 0.09085057 -0.26230636
-0.18103 -0.024422096 -0.075164445 0.17297259 -0.0035947463 -0.35151982 -0.5687695 -0.07114857
-0.043926723 -0.31356063 0.08576268 0.18348351 -0.030986406 -0.205626 -0.52902186 0.033773333
-0.06548016 0.11717101 -0.16243063 0.20507558 -0.11708502 -0.11332557 0.048825327 0.15735053
0.0123922415 -0.069978274 0.045813706 0.019255212 0.042832732 0.14274333 0.038152605 -0.10585102
0.13817243 0.0015585234 0.152565 0.061254386 -0.39260513 -0.06129566 -0.22211806 -0.12224996
-0.28060707 -0.14772281 0.15479329 0.13741784 0.17841104 0.038352277 -0.16098984 -0.03574746
-0.15057704 0.035629135 -0.4951086 0.018110728 0.2374353 -0.118363656 -0.49427053 -0.13389246
-0.0003957651 0.027764916 0.03659232 0.047459736 0.06384401 -0.23806474 0.1374858 -0.4714876
-0.24139073 0.09085452 -0.082277484 0.26610848 -0.20875901 0.2073779 0.2555938 -0.13057353
-0.16912217 -0.3104282 -0.106342025 0.067548975 -0.27833834 -0.021094007 0.014215385 -0.32348678
0.010651205 0.0076392773 0.24294443 0.0034084728 -0.11431389 -0.089939386 -0.00093997637 0.025725365
-0.025449302 0.04553575 -0.0068023046 -0.030273626 -0.2136714 -0.051408738 0.035334095 -0.048759352
0.05284228 -0.028029244 -0.2639623 -0.08845638 -0.07584115 0.07314003 0.036402605 -0.0034125415
0.027398016 -0.091515355 -0.116117224 0.2401424 0.20365717 -0.069489226 0.058134418 0.11892743
0.027081521 -0.09602935 -0.08866144 -0.13212095 -0.0080633005 -0.08923955 0.035374533 -0.015077096
-0.23120832 0.12461889 0.02102811 0.025170587 -0.09028832 -0.020313364 -0.067316405 -0.0106418105
-0.06946409 0.022109773 -0.07411975 0.004024035 -0.026090838 0.021875547 0.062468007 -0.3910052
-0.048924327 -0.1301248 -0.052901506 0.13216133 -0.036114607 -0.10505897 -0.013310485 0.08056442
-0.14769654 0.18861078 -0.16980903 0.010537863 -0.024138894 0.072547086 0.06394209 0.10356678
0.052271802 0.076120846 0.033410143 -0.05591255 -0.18304716 -0.071356244 0.12470801 0.052318994
0.07794222 -0.10256979 -0.009262089 -0.050904617 -0.15772583 -0.08831353 0.08175958 0.025106044
0.048869208 -0.20480812 0.034871474 0.101611145 -0.096019804 -0.010129107 -0.3136585 -0.055899378
-0.17358647 -0.0027785522 -0.04856465 0.06176857 -0.009291732 -0.08873531 -0.17819366 -0.034406956
0.007215686 -0.082967766 -0.0013345705 -0.052408606 -0.095142186 0.003761368 -0.08932407 -0.08420164
-0.02520155 0.1411865 0.04730045 0.12977867 -0.0058525866 -0.0010811293 0.014084494 -0.0005871893
-0.026232477 -0.027339028 -0.9576694 -0.08708685 0.08863823 0.094458714 0.06228706 0.047238134
0.050959177 0.10282178 0.028291745 -0.4279562 0.058718167 0.01534262 0.029512338 0.061679553
0.12431787 -0.084179744 -0.06317624 0.16543543 -0.009800152 -0.018090982 -2.6332931e-05 -0.03988032
-0.012683247 0.00229873 0.09525473 -0.02263262 0.06408601 -0.02016804 0.04244468 0.04002635
-1.7390642 -0.0060042236 0.020533042 0.038058925 0.010575575 -0.0549061 0.029941384 -0.05440377

bias f4 [100]
00000000: 79fd 543e 9ba1 e33f f5f5 d53f d577 b83e
00000010: 461a fe3f 9c1e 863f 916e 1740 0d0d a53f
00000020: f249 c03f 571c 503c 9c6b d9bf 4807 713f
00000030: c3f6 213f 0713 4f3f 8a5c 2a40 8f9b 873f
00000040: db5f 8f3f d3ec ccbf 2a3d a33f 0064 563f
00000050: de0b 033f d2b6 583e 8b53 c13f eb94 783f
00000060: 29ae 0c40 534e ef3f 8290 0ebf e597 be3f
00000070: fe4e 2a3e 0b25 3b40 d126 8f3f 1447 a13e
00000080: 5b43 0a40 a5d7 5bbe e617 ebbf 6410 ad3f
00000090: 1003 3840 3b6b b33f db0b 823d 65e5 e13f
000000a0: 9192 d83e 755f 763f 80d3 8cbf 9ab5 ba3f
000000b0: 8b5c e53f 096d 323f bc83 4b3f 9e7f b03f
000000c0: 44ce 8e3f 7aff f73e 797b af3f d251 e03f
000000d0: ac98 473f 2edf e83f e1cb a43f ac9a 44be
000000e0: 2798 0840 9134 2cbf 7509 e1be 22b9 4e3e
000000f0: c092 fc3e 15ce 213f e630 8c3f edef 3d3f
00000100: 5899 0c3f a3f2 ed3e e4e9 da3f 5f48 8e3f
00000110: 6b48 e43f ac82 f9be 4ab6 85bf bff2 aa3e
00000120: 7e18 b33f 228b 8f3f cbf7 0b40 c922 373e
00000130: bc79 2840 e7fd 7e3f f1c0 66bf ca07 973f
00000140: 0ede 613f 71d6 123f 0861 8abf 1964 333f
00000150: ccea a93f 9f35 a4bd ad1b 633f 08c3 573f
00000160: f636 a83f 6e2d 9d3e 1641 dd3f 73a3 2bbf
00000170: 5b69 a03f e938 15c0 1f06 7a3e ee9c 253f
00000180: 827d ac3f f7a8 7c3f 4e3b 7d3e c027 2a3e
0.20799817 1.7783693 1.6715685 0.36028925 1.9851768 1.0478091 2.3661234 1.2894608
1.5022566 0.012702069 -1.6985965 0.94151735 0.63267154 0.8088841 2.6618981 1.0594348
1.1201128 -1.6009773 1.2753041 0.8374634 0.5118998 0.2116349 1.510362 0.9710223
2.19813 1.8695778 -0.5568925 1.4890105 0.16631696 2.924136 1.1183721 0.3149954
2.160361 -0.2146898 -1.8366668 1.3520627 2.875187 1.4017099 0.063499175 1.7648131
0.4229932 0.96239406 -1.1002045 1.458667 1.7918867 0.69697624 0.79497886 1.3788946
1.1156697 0.484371 1.3709556 1.752497 0.77967334 1.8193109 1.2874719 -0.19199628
2.1342866 -0.6726771 -0.43952528 0.2018781 0.4933071 0.6320508 1.0952423 0.7419422
0.54921484 0.4647418 1.7102628 1.1115836 1.78346 -0.48732507 -1.0446255 0.33388326
1.399185 1.1214335 2.186999 0.17884363 2.63243 0.99606174 -0.90138155 1.1799252
0.88229454 0.5735846 -1.0810862 0.7007461 1.3274779 -0.0801804 0.88714105 0.8428197
1.3141773 0.30698723 1.7285488 -0.6704628 1.2532152 -2.3315985 0.24416398 0.6469258
1.3475802 0.9869532 0.24729654 0.16616726

weight f4 [14, 100]
00000000: 429a debd 6da2 49ba fef0 20be 1189 e83c
00000010: 59d8 f3bd acbc cebb 4d3a 6abe 4d8d 103c
00000020: cfe0 82bd 42c2 1bbc 155b a03d be7f 0bbe
00000030: 6e59 0d3c db47 d43c d497 22bd d8a2 d53d
00000040: 038b 1fbc 690b 843d cba7 a63d f94e 8cbc
00000050: e304 29bd dcc6 bcbd fdf2 b23c 2c04 e7bc
00000060: de29 6abd 4f6d 863c ac84 0b3c ee31 903c
00000070: ce78 303c a6db 183d d285 6fbf 53f3 173e
00000080: 34f5 5ebe 63f8 90bc c9ed 92bd 4c16 b83c
00000090: 41b2 19be 6d0a 993e 81d4 0cbd 59fc aabe
000000a0: 2a6c adbc 7374 873c dc0c 1f3d 83c6 7ebd
000000b0: 3da0 0fbf bb51 96bd 793c c73d 1c88 413d
000000c0: 2145 7e3c 3c13 fe3d e8a2 35bd 4671 1d3e
000000d0: b603 20bd b545 2fbf 0d0a e5bd 3bec 66bd
000000e0: 6497 f63c 1f94 ccbc 4bbe b53c 0e89 b5bc
000000f0: c8ec 9b3d 15a2 2f3c f364 0e3d a8bb d1bc
00000100: cc5d 02c0 f58d 5ebc 4834 bbbd b6d8 01ba
00000110: 57c1 053e c733 f5ba dbda 373c 1ac4 b63d
00000120: 1dcc 7cbe 1c8d ecbc bd99 0c3d b346 4a3d
00000130: 1a3c 89bc 0819 3c3d 6308 3ebd f262 bc3c
00000140: 515e 3a40 0198 92bb 8d91 9f3d 74e5 bebf
00000150: f15c 063f 1e4f 713b d0d0 5b3d 021b 84bd
00000160: 2d0e c8bc bcb2 36bd ebb3 74be 4d4e 4ebd
00000170: 6bcc 36be 2833 81bc 1b1c 633c c52d ccbb
00000180: 06d1 3dbc 0dfb d73c 24c7 11bd cadb 323d
00000190: 3c44 bfbe e9ff 85bd 8e33 97be af71 cd3d
000001a0: 2f03 96bd 58b7 0ebb f19a 1cbe 54b3 81bd
000001b0: 058f 30bd 02b2 8b3c 99a1 e8bc ab72 5e40
000001c0: fea0 383c c2c7 d4bb 79e2 f9bd f956 4b3b
000001d0: 7e72 fdbd 5970 a93d 5590 453d 9741 15bd
000001e0: 4e64 473f 1258 b1bd f5dc d2be 0ff1 63bd
000001f0: 81a5 dbbc 63d7 cb3c e6de d43a 689a 00bd
00000200: deac 863d b28a de3c 30a2 bdbe da6b e53e
00000210: c05e 78be 0b90 40bd 43fc adbd db3c 503d
00000220: 4ffe 44bb 2ab4 503e 3cf2 b6bd 6c60 b6be
00000230: c855 68bb 2226 a0bd 4cdb ea3d cc36 1dbd
00000240: a22d 17bf cf86 9fbd 19c7 483d 2280 e33d
00000250: 4a2a 89bd 2c1c 053e 6b5f 2ebe 4292 2d3e
00000260: 9776 6b3c 93ef 30bf 908c 6dbe 5c51 223c
00000270: ca90 813d 76b9 28bc e49d 443d d311 2fbd
00000280: d591 0b3c 6afa 753c c012 9c3c fd21 d2bd
00000290: 6ff4 48c0 349f 08bd bb55 4b3f a19d 833d
000002a0: b0a3 143f f995 673d 1a01 e93c 5bf9 123a
000002b0: b7e5 4abe b549 a7bd 1bed 323d 5d43 0f3d
000002c0: 84d8 da3b 49d0 c23c cade 22bd 10b7 9a3c
000002d0: 84f5 ce3d 8b40 b03c eb68 c23d 720c a1bf
000002e0: e674 7e3d fbe1 7f3c 15dc 4e3d 3d66 3cbd
000002f0: 2a15 a13d 7e1e 71bd e2bb 4ebf 5aa7 833d
00000300: dc9e 9fbd 2b19 c9bc 873a a8bb c0ec 003c
00000310: cf2e 64bd adce 913c b087 22bd 810f 913c
00000320: bb5a 0c3e ebe4 fa3d c24b 94be 1b0f a7bd
00000330: faeb 7e3c f4c7 433c 579a d9be ed5d 933d
00000340: cd6c 20bd 94b5 41bd 349f 193e 1e62 1ac0
00000350: 92a2 483e 53ad a83d b7f2 0cbd b0e2 0c3d
00000360: a7ae c83e a784 e4bc 89b8 523d 8563 af3d
00000370: 4572 87bc 169b bebc 83db 29bf ac61 b83d
00000380: 5155 73bd f5f9 d73b 6774 ba3d d8b3 e93c
00000390: 1554 983d 8910 8a3d 51b4 86be 99db 603e
000003a0: 9cc2 9abe 17fe 25bc 3706 7abc f4c3 04bc
000003b0: e527 3f3d afa7 c83d f9cd 79bd b7ea d0be
000003c0: e8e9 20bd 489e 173d fdca 7dbd 1bf2 4bbd
000003d0: 7585 0bbf 5a2e d5bb 0daa 803c c4e6 403e
000003e0: 96d6 d2bb 60fa a23d 224f a8bd 766c 503d
000003f0: 6818 133d 592d 35bf cf96 353e 2e72 5040
-0.10869266 -0.0007691745 -0.15716931 0.02838567 -0.119064994 -0.0063091125 -0.22873802 0.008822751
-0.06390535 -0.009506764 0.078298725 -0.13622949 0.008627279 0.02591317 -0.039695576 0.104314506
-0.009737733 0.06447489 0.08137473 -0.0171275 -0.041264426 -0.09217617 0.021844381 -0.028200231
-0.057168834 0.016409544 0.008515518 0.017601933 0.01077099 0.037318848 -0.9356357 0.14838915
-0.21773225 -0.017696565 -0.0717426 0.02247157 -0.15009405 0.29890767 -0.034382347 -0.3339565
-0.02116974 0.01653502 0.038830623 -0.062201034 -0.5610388 -0.073398076 0.09728331 0.047248945
0.015519411 0.124060124 -0.044344813 0.15375242 -0.03906604 -0.6846574 -0.11183558 -0.05637763
0.030101486 -0.024972973 0.022185465 -0.02216008 0.07613522 0.010719796 0.03476424 -0.025602177
-2.036975 -0.01358365 -0.09140831 -0.0004953252 0.13062035 -0.0018707447 0.011221613 0.08924122
-0.24687238 -0.02887588 0.034326304 0.04938383 -0.016752291 0.04592231 -0.046394717 0.0229964
2.9120066 -0.0044736867 0.077914335 -1.4913774 0.5248557 0.003682084 0.053665936 -0.06450464
-0.024420822 -0.044604048 -0.23896758 -0.050367642 -0.17851417 -0.015771464 0.013861681 -0.006231042
-0.01158548 0.026364828 -0.035590306 0.04366664 -0.37356746 -0.065429516 -0.2953152 0.10031449
-0.07324826 -0.0021776762 -0.1529348 -0.06333032 -0.043105144 0.017052654 -0.028397368 3.4757488
0.011268852 -0.0064935395 -0.12201399 0.0031027182 -0.12375353 0.08273382 0.04823335 -0.036439504
0.7788743 -0.08659376 -0.41184202 -0.055649813 -0.026812317 0.024882978 0.0016240745 -0.031397253
0.065759405 0.027165744 -0.37037802 0.44808847 -0.24254894 -0.04701237 -0.08495381 0.050839286
-0.0030058806 0.20381227 -0.08932921 -0.3562044 -0.003545152 -0.07819773 0.11467609 -0.038382336
-0.59054005 -0.077893846 0.049018 0.11108424 -0.06697519 0.12999028 -0.17028587 0.16950324
0.014371536 -0.6911556 -0.23198152 0.009907093 0.063264444 -0.010298124 0.04800214 -0.042741608
0.008518656 0.015013317 0.01905191 -0.10260389 -3.139919 -0.033354953 0.7942769 0.0642655
0.5806227 0.05653951 0.028442908 0.0005606615 -0.19814192 -0.081683554 0.043683153 0.034976352
0.0066786427 0.023780959 -0.03976325 0.01888612 0.10105422 0.021515151 0.09492668 -1.2581923
0.0621232 0.015617843 0.050502855 -0.04599594 0.07865365 -0.05886697 -0.80755436 0.06428404
-0.07793972 -0.024548134 -0.00513393 0.007868946 -0.055708703 0.017798746 -0.039680183 0.017707588
0.13706486 0.12250694 -0.2896405 -0.08157178 0.015559191 0.011949528 -0.42500564 0.07195649
-0.03916626 -0.047292307 0.15002137 -2.4122386 0.19593266 0.08236184 -0.03441116 0.034395874
0.3919575 -0.027895285 0.051445518 0.08563904 -0.01653398 -0.02326731 -0.66350573 0.090030044
-0.059407536 0.0065910765 0.09104233 0.028528139 0.074379124 0.06741435 -0.26309446 0.2195877
-0.302266 -0.0101313805 -0.015260271 -0.0081033595 0.046668906 0.09797608 -0.060987446 -0.40804073
-0.03928557 0.037016183 -0.061961163 -0.049791437 -0.54500514 -0.0065057697 0.015706087 0.1883803
-0.006434272 0.079579115 -0.082182184 0.050884686 0.035911947 -0.7077232 0.1773331 3.256969

bias f4 [14]
00000000: ef20 a83e a204 203f c08a 0d3e dd92 10be
00000010: 46e3 213d f021 023c 11b4 35bf 1c61 78bf
00000020: ec42 7cbf ad82 70be c2ce 8bbf 77bf cbbf
00000030: 569a a4be 1def 05c0
0.32837626 0.6250707 0.1382246 -0.14118524 0.039523385 0.007942662 -0.70977885 -0.9702318
-0.98539615 -0.23487349 -1.0922472 -1.5917805 -0.32149 -2.0927193
